BCI/output/openBMI/LightConvNet/sub40/2023-10-05--17-38/model.pth (torch, 51356 bytes, 9 tensors)

spacial_block.0.weight f4 [64, 9, 20, 1]
-0.014583712 0.042670812 -0.044520237 -0.025194615 -0.0122765 0.03910779 -0.02812265 0.074023336
-0.021921301 -0.011205816 -0.0033155782 0.00866106 -0.08436343 -0.030947786 -0.036701795 0.0039587687
0.04943412 0.07635163 -0.006228922 -0.0074377568 0.0037578405 0.07292495 0.023443775 0.06066839
-0.03492965 0.011049518 0.06417871 -0.054691322 0.012651031 -0.007684005 0.010843776 0.0600538
-0.06647516 -0.051086105 -0.0769273 -0.037873056 -0.06345719 0.061608993 0.016050706 0.039161302
-0.019440368 -0.13915497 0.01602777 -0.01888379 -0.055952966 -0.018296415 0.00453766 0.05221957
-0.018857514 0.04297222 0.07886421 0.05574957 0.016123738 0.0011848963 0.038754024 -0.023132559
0.016053816 -0.058649886 -0.07488609 -0.086590886 0.012658648 -0.009523589 -0.04289114 0.0211059
0.032276373 -0.027249286 -0.036987755 -0.0064417366 0.050216958 0.054306567 -0.047517233 -0.03341147
0.034462504 0.026450317 0.022070508 0.029271647 0.009611186 -0.05773823 -0.001873954 -0.041565172
-0.10134337 0.026493302 0.08616157 -0.032505654 0.028843813 0.08787965 -0.09716784 -0.034492403
0.100800544 -0.07122717 0.11411769 0.055264633 0.056411657 -0.00026886875 -0.11162537 -0.0784356
0.031955037 0.0233131 -0.07476972 -0.055193048 0.03964843 0.011623937 -0.024361974 -0.023466239
-0.07942972 0.006220343 -0.08239623 -0.069754876 0.011157371 -0.020113586 0.04419533 0.06657173
-0.029242724 0.049003907 0.016035158 -0.08311295 -0.008457723 0.02329312 0.0024440808 0.02640947
0.023247 -0.044649176 -0.025034003 0.05290946 -0.07365003 0.016716609 -0.06314851 -0.034453385
0.0019691559 -0.057385813 0.075388975 0.056038957 -0.021386951 -0.021040605 0.020820359 -0.026131772
-0.00022501235 0.01749693 0.0032182818 0.054811947 0.030712932 -0.004020537 0.08389345 0.036309604
-0.06247422 0.025243167 0.0034791615 -0.011831517 0.008876464 -0.02226125 0.033637803 -0.021048304
0.0025099935 0.014008937 -0.001994091 -0.079618685 0.044264164 -0.03924409 -0.029825114 -0.015181621
-0.057715815 -0.066715814 -0.04256623 -0.041740257 -0.026736237 0.019021994 -0.08351527 0.03374881
0.00896737 0.013322055 0.1583678 -0.01135488 0.059913747 0.014822042 -0.09606419 0.045251586
-0.000645293 -0.009326429 0.051491685 -0.047335517 0.07437521 -0.04200886 0.0094332285 0.013130128
0.0149319405 -0.019892873 0.018814474 0.006934251 -0.0514297 0.026886366 0.004307994 0.042672753
-0.075786434 0.041985538 -0.05081327 0.023362441 -0.015079713 -0.027385924 0.014266415 -0.015887747
0.051969025 0.01726335 -0.032965112 -0.029695882 -0.082794994 0.046027057 -0.058987636 0.06973333
0.07867938 -0.014010009 -0.01150476 -0.03556544 0.03397421 -0.021892257 -0.030593647 -0.003755501
-0.02038072 0.02242001 0.052501958 -0.02438257 0.037475627 0.002299261 0.0042989133 -0.007717092
-0.13503498 0.019907728 0.010749697 0.008155427 -0.02699652 -0.032869726 -0.013214358 0.028391128
0.02993019 0.034657884 0.063230455 0.04127303 0.05445176 -0.07202119 -0.06793329 0.062676854
-0.021919465 0.03334346 -0.0064698714 0.015371791 -0.0047290726 -0.048822038 0.055650204 -0.043271083
0.10028541 0.01169145 -0.08187326 0.016057897 0.050709102 0.029631738 -0.07634641 -0.008618918
00000000: 86f0 6ebc 97c7 2e3d da5a 36bd f064 cebc
00000010: 6023 49bc 7d2f 203d 7961 e6bc 8c99 973d
00000020: 4d94 b3bc 9998 37bc 2c4a 59bb 1ee7 0d3c
00000030: bcc6 acbd 3686 fdbc 9f54 16bd 8fb8 813b
00000040: 6f7b 4a3d 3e5e 9c3d fc1b ccbb 6db8 f3bb
00000050: 1a46 763b ad59 953d 290d c03c 6b7f 783d
00000060: 6512 0fbd 0a09 353c 2170 833d 0204 60bd
00000070: 4546 4f3c 1bca fbbb 18aa 313c f9fa 753d
00000080: 2124 88bd aa3f 51bd 0f8c 9dbd c720 1bbd
00000090: d8f5 81bd b659 7c3d c57c 833c 9a67 203d
000000a0: 6841 9fbc a47e 0ebe ab4c 833c 2eb2 9abc
000000b0: f02e 65bd 5de2 95bc a7b0 943b 30e4 553d
000000c0: 137b 9abc a303 303d 8f83 a13d a959 643d
000000d0: ee15 843c 864e 9b3a 8abc 1e3d 7e80 bdbc
000000e0: 4b83 833c dd3a 70bd e15d 99bd 9056 b1bd
000000f0: 3866 4f3c d408 1cbc 9fae 2fbd 48e6 ac3c
00000100: 3b34 043d e539 dfbc 7980 17bd 3415 d3bb
00000110: 4cb0 4d3d 9070 5e3d 6ea1 42bd 77da 08bd
00000120: 8e28 0d3d 56ae d83c 36cd b43c 18cb ef3c
00000130: 3c78 1d3c ec7e 6cbd 769f f5ba 3e40 2abd
00000140: 1d8d cfbd 7b08 d93c 7a75 b03d a624 05bd
00000150: dc49 ec3c 3ffa b33d efff c6bd e847 0dbd
00000160: 8470 ce3d 8ddf 91bd 89b6 e93d 2b5d 623d
00000170: e90f 673d f4f6 8cb9 d89b e4bd d8a2 a0bd
00000180: 49e3 023d 1dfb be3c de20 99bd 1b12 62bd
00000190: 6466 223d 5372 3e3c c392 c7bc 453c c0bc
000001a0: 0dac a2bd 05d4 cb3b 5bbf a8bd a5db 8ebd
000001b0: 68cd 363c 3fc5 a4bc 2a06 353d c256 883d
000001c0: 708e efbc 52b8 483d 2a5c 833c 1f37 aabd
000001d0: 4392 0abc 37d1 be3c df2c 203b ac58 d83c
000001e0: 7e70 be3c 0ee2 36bd 1c14 cdbc 97b7 583d
000001f0: d4d5 96bd 45f1 883c 0254 81bd fe1e 0dbd
00000200: f40c 013b 630d 6bbd 8965 9a3d 1b89 653d
00000210: b033 afbc 595d acbc 758f aa3c 4c12 d6bc
00000220: 4bf1 6bb9 b955 8f3c cfe9 523b 7e82 603d
00000230: b099 fb3c b5be 83bb 54d0 ab3d 61b9 143d
00000240: f8e4 7fbd c2ca ce3c a502 643b fbd8 41bc
00000250: 976e 113c 3a5d b6bc cbc7 093d 7e6d acbc
00000260: b47e 243b be85 653c 4caf 02bb 1f0f a3bd
00000270: 574e 353d 69be 20bd cc53 f4bc 55bc 78bc
00000280: 6b67 6cbd 4da2 88bd ed59 2ebd d5f7 2abd
00000290: f405 dbbc 03d4 9b3c 0e0a abbd 313c 0a3d
000002a0: e0eb 123c c044 5a3c 2b2b 223e d209 3abc
000002b0: 1e68 753d 26d8 723c 4dbd c4bd ba59 393d
000002c0: e128 29ba e1cd 18bc f2e8 523d e3e2 41bd
000002d0: 0852 983d 7b11 2cbd d48d 1a3c c01f 573c
000002e0: 19a5 743c 61f6 a2bc d020 9a3c b738 e33b
000002f0: f3a7 52bd cc40 dc3c 132a 8d3b a0c9 2e3d
00000300: eb35 9bbd 07f9 2b3d 9321 50bd 9762 bf3c
00000310: e710 77bc 7258 e0bc aebd 693c 0527 82bc
00000320: 79dd 543d de6b 8d3c 6d06 07bd c744 f3bc
00000330: 6c90 a9bd de86 3c3d 059d 71bd 59d0 8e3d
00000340: a822 a13d 3d8a 65bc 767e 3cbc 11ad 11bd
00000350: 8b28 0b3d 6457 b3bc 879f fabc da1e 76bb
00000360: 78f5 a6bc 2baa b73c 4b0c 573d f5bd c7bc
00000370: 0b80 193d 33af 163b e6dd 8c3b a9df fcbb
00000380: 9c46 0abe 8815 a33c 7f1f 303c 579e 053c
00000390: ce27 ddbc 68a2 06bd 0981 58bc 8394 e83c
000003a0: 2830 f53c 6df5 0d3d f87e 813d e90d 293d
000003b0: cf08 5f3d d87f 93bd 9c20 8bbd b95c 803d
000003c0: 7390 b3bc 2793 083d 3701 d4bb f7d9 7b3c
000003d0: 56f6 9abb 9ef9 47bd 78f1 633d 053d 31bd
000003e0: 7062 cd3d 7f8d 3f3c 2bad a7bd da8b 833c
000003f0: 59b4 4f3d 42be f23c 825b 9cbd 5d36 0dbc

spacial_block.0.bias f4 [64]
-0.024865862 -0.061799172 0.021525232 -0.032105256 0.0076884683 -0.045955528 0.03780864 -0.05445219
-0.061378498 -0.070335336 0.06571344 0.038119275 -0.05163575 -0.018734302 0.056756187 0.022252057
0.06753245 -0.009836059 -0.006860231 0.05559197 -0.0027900215 -0.06421101 -0.018816467 0.05552506
0.031087225 -0.014919831 -0.07201354 0.054439526 -0.016174125 -0.015566523 0.06674099 0.041184306
0.023394039 0.024555277 0.0013454014 0.005091812 -0.03870645 0.02495046 0.0370786 0.039070398
-0.03810818 0.0041904086 -0.0047133365 -0.04440875 0.016543113 0.041606285 0.004561908 -0.034529682
0.060137175 -0.039387465 0.027765542 0.0007180876 0.025582027 0.028133722 -0.0697297 0.018132525
-0.00063840766 -0.05848593 0.046678938 0.0066167624 -0.02086859 -0.004135919 0.05273761 -0.027829701
00000000: 7eb3 cbbc 2121 7dbd af55 b03c cd80 03bd
00000010: 8cef fb3b dd3b 3cbd 3cdd 1a3d 4209 5fbd
00000020: 0568 7bbd f90b 90bd c594 863d f522 1c3d
00000030: 0280 53bd ae78 99bc 2d79 683d f249 b63c
00000040: 744e 8a3d 6c27 21bc cacb e0bb 68b4 633d
00000050: cbd8 36bb 1081 83bd fe24 9abc 3f6e 633d
00000060: a3aa fe3c 4f72 74bc d67b 93bd fbfb 5e3d
00000070: 997f 84bc bb0a 7fbc 80af 883d e0b0 283d
00000080: dba4 bf3c 2628 c93c 2e58 b03a 37d9 a63b
00000090: a88a 1ebd e864 cc3c bbdf 173d 4808 203d
000000a0: 5317 1cbd b24f 893b 5572 9abb f3e5 35bd
000000b0: 6c85 873c 5a6b 2a3d 0f7c 953b ff6e 0dbd
000000c0: 6652 763d c054 21bd 9074 e33c 0b3e 3c3a
000000d0: 6691 d13c b178 e63c 72ce 8ebd a98a 943c
000000e0: d05a 27ba f18e 6fbd 6a32 3f3d 6dd1 d83b
000000f0: 9bf4 aabc 9a86 87bb 6403 583d 1dfb e3bc

spacial_block.1.weight f4 [64]
1.0125483 1.1699919 1.0566764 1.0998845 1.0641881 1.0829701 1.071213 1.1068833
1.0672057 1.1302952 1.135668 1.0804121 1.2479852 1.2412661 1.0870136 1.0122495
1.1747087 1.0593778 1.0285387 1.0813495 1.0051413 1.0690941 1.0724659 1.0556712
1.0472606 1.065897 1.1718498 1.0363206 1.0463017 1.0483528 1.055786 1.0528479
1.0481459 1.0730548 1.1062263 1.112827 1.0554674 1.1202133 1.1650747 1.0526403
1.1734762 1.1348531 1.054304 1.0623766 1.2397119 1.0423892 1.0622554 1.2109904
1.0274687 1.0509613 1.112693 1.0280639 1.2052587 1.0909868 1.0763249 1.1185048
1.0375999 1.1290778 1.0556138 1.032258 1.0506715 1.0331957 1.0310451 1.01495
00000000: 2f9b 813f 4bc2 953f 2c41 873f 04c9 8c3f
00000010: 5137 883f c49e 8a3f 821d 893f 5aae 8d3f
00000020: 329a 883f 83ad 903f 925d 913f f24a 8a3f
00000030: fbbd 9f3f cfe1 9e3f 4323 8b3f 6491 813f
00000040: db5c 963f b199 873f 28a7 833f a969 8a3f
00000050: 78a8 803f 13d8 883f 9046 893f 3c20 873f
00000060: a30c 863f 506f 883f 2dff 953f 27a6 843f
00000070: 37ed 853f 6d30 863f ff23 873f b8c3 863f
00000080: a529 863f dc59 893f d398 8d3f 1d71 8e3f
00000090: 8e19 873f 2663 8f3f 2b21 953f ebbc 863f
000000a0: 7834 963f de42 913f 6ff3 863f f5fb 873f
000000b0: e1ae 9e3f 026d 853f fcf7 873f bc01 9b3f
000000c0: 1884 833f e685 863f b96c 8e3f 9997 833f
000000d0: eb45 9a3f 75a5 8b3f 04c5 893f 2a2b 8f3f
000000e0: 13d0 843f 9f85 903f 5a1e 873f 0821 843f
000000f0: 677c 863f c23f 843f 49f9 833f e2e9 813f

spacial_block.1.bias f4 [64]
-0.018103953 -0.14839634 -0.10085733 -0.0897212 -0.08569845 -0.13648191 -0.07683369 -0.014984048
-0.03894333 -0.005081839 -0.10447421 -0.07478379 -0.24420533 -0.23804733 -0.1433369 -0.03642405
-0.14538047 -0.08047152 -0.072077155 -0.086758114 -0.047403082 -0.13425401 -0.093391955 -0.01053206
-0.025499899 -0.05476983 -0.15287508 -0.058141895 -0.08511021 -0.045145422 -0.0584908 -0.034805506
0.03192116 -0.09776514 -0.10932207 -0.13129744 -0.14228949 -0.12133027 -0.14478317 -0.072771974
-0.1378164 -0.15447232 -0.083651744 -0.04671037 -0.21274526 -0.108516775 -0.082969226 -0.1349277
-0.061030228 -0.07599075 -0.023146683 -0.0085119195 -0.2213276 -0.15106314 -0.0937471 0.015349503
-0.027325794 -0.15916547 -0.08348211 -0.061556295 -0.10982775 -0.070092596 -0.07946107 -0.03997657
00000000: be4e 94bc 36f5 17be 4a8e cebd c0bf b7bd
00000010: ab82 afbd eac1 0bbe fb5a 9dbd a77f 75bc
00000020: 0b83 1fbd 8e85 a6bb 93f6 d5bd 3e28 99bd
00000030: f610 7abe aec2 73be e9c6 12be 6231 15bd
00000040: 9ede 14be 41ce a4bd 309d 93bd 3dae b1bd
00000050: bc29 42bd e279 09be 4844 bfbd a98e 2cbc
00000060: 2ae5 d0bc 5456 60bd 498b 1cbe 3226 6ebd
00000070: 434e aebd 68ea 38bd 0d94 6fbd 3890 0ebd
00000080: c3bf 023d 1739 c8bd 40e4 dfbd d672 06be
00000090: 56b4 11be 017c f8bd 0a42 14be 7909 95bd
000000a0: be1f 0dbe fe2d 1ebe 9b51 abbd 5f53 3fbd
000000b0: e5d9 59be 0b3e debd c5eb a9bd 7d2a 0abe
000000c0: d5fa 79bd 0aa1 9bbd 1d9e bdbc 9475 0bbc
000000d0: b4a3 62be 4cb0 1abe 7bfe bfbd 7b7c 7b3c
000000e0: 58da dfbc 46fc 22be abf8 aabd 7422 7cbd
000000f0: 5fed e0bd b58c 8fbd 7cbc a2bd 79be 23bd

spacial_block.1.running_mean f4 [64]
-0.9133441 -0.2921927 0.5516144 -0.91330934 -0.15746732 -0.011685072 0.03417966 -0.14511786
0.22442427 -0.08309358 -0.13488737 -0.29793078 0.03513722 0.7099568 -0.75707793 -1.094402
0.54157203 -0.53775245 0.10263785 0.23085497 -0.071724534 0.4207487 -1.503289 0.3528895
0.7300662 1.2739756 0.26913315 -0.038480565 1.3036069 -0.0794941 0.05210845 -0.20071724
-0.80800146 0.47495276 0.26792815 0.7013764 -0.03702291 0.49814028 0.59273624 0.3388948
-0.20278616 0.5117978 -0.06517223 -0.68843144 0.44897205 0.36075985 -0.16059023 0.72491926
-0.1555466 0.6312408 0.3802183 -0.44420445 0.3534186 0.6209658 -0.28229693 0.294381
-0.10877871 -1.3714992 0.48195708 -0.73443055 0.11291429 0.031885386 -0.60134864 0.3483163
00000000: ebd0 69bf 489a 95be 9a36 0d3f a4ce 69bf
00000010: 1d3f 21be bf72 3fbc f9ff 0b3d c799 14be
00000020: 7acf 653e f82c aabd ea1f 0abe 628a 98be
00000030: 0cec 0f3d bbbf 353f dccf 41bf 5d15 8cbf
00000040: 77a4 0a3f 25aa 09bf cb33 d23d 3f65 6c3e
00000050: 50e4 92bd 606c d73e c66b c0bf efad b43e
00000060: 9ee5 3a3f a211 a33f d2cb 893e cc9d 1dbd
00000070: 97dc a63f cdcd a2bd ac6f 553d d288 4dbe
00000080: 2fd9 4ebf 022d f33e e12d 893e 678d 333f
00000090: 56a5 17bd 3e0c ff3e 90bd 173f 9f83 ad3e
000000a0: 2da7 4fbe 2e05 033f 0579 85bd 0b3d 30bf
000000b0: aadf e53e 84b5 b83e c471 24be 4f94 393f
000000c0: 9c47 1fbe ff98 213f f9ab c23e c46e e3be
000000d0: 48f3 b43e 9df7 1e3f 3989 90be 1bb9 963e
000000e0: 5fc7 debd 498d afbf 14c3 f63e a403 3cbf
000000f0: 9b3f e73d 409a 023d fcf1 19bf 8456 b23e

spacial_block.1.running_var f4 [64]
5.3309827 0.93655187 2.3298101 1.5858428 0.89227986 1.7819705 1.3646402 1.3863682
1.260889 1.184506 1.0328314 1.0452539 1.0799105 1.391666 1.3887533 1.2990746
0.9399445 1.51881 4.554602 1.4410548 1.4338324 1.9091212 1.0769502 1.0774606
1.193617 2.2964678 0.9073617 2.8729515 6.0925403 0.8664933 1.3152627 0.7817788
1.9024414 1.4035994 1.342039 2.0935345 1.9803174 1.2756138 1.3972566 1.2176893
1.5229081 5.2428417 1.5650069 1.2605611 1.314246 3.4384394 1.6258696 1.0960119
1.3361342 1.8904647 1.25528 1.4360743 1.1107498 2.9397485 1.2879847 1.0922872
1.5629505 1.337605 1.908642 1.6510673 1.7390488 2.0066047 1.6352735 1.8625895
00000000: 6997 aa40 ddc1 6f3f 9c1b 1540 e6fc ca3f
00000010: 746c 643f 9c17 e43f 88ac ae3f 8374 b13f
00000020: d064 a13f e59d 973f d233 843f e1ca 853f
00000030: 823a 8a3f 1d22 b23f abc2 b13f 1448 a63f
00000040: 34a0 703f 5e68 c23f 4dbf 9140 7c74 b83f
00000050: d287 b73f 155e f43f 81d9 893f 3bea 893f
00000060: 71c8 983f 54f9 1240 db48 683f 70de 3740
00000070: 17f6 c240 81d2 5d3f 875a a83f a822 483f
00000080: 3383 f33f 25a9 b33f efc7 ab3f 78fc 0540
00000090: 0a7b fd3f 5047 a33f 4ed9 b23f 3edd 9b3f
000000a0: a7ee c23f 5cc5 a740 2552 c83f 115a a13f
000000b0: 3739 a83f 640f 5c40 7f1c d03f 1e4a 8c3f
000000c0: 7206 ab3f bffa f13f 04ad a03f 48d1 b73f
000000d0: 0d2d 8e3f d724 3c40 afdc a43f 11d0 8b3f
000000e0: c30e c83f a436 ab3f 624e f43f 2c56 d33f
000000f0: 2799 de3f 366c 0040 a450 d13f 5569 ee3f

conv.weight f4 [8, 1, 4]
-0.3263153 -0.31631312 -0.100243196 0.38322502 -0.16943523 0.25630787 -0.4321158 0.21844026
0.51742834 -0.32304874 0.3012539 0.023169653 -0.59616023 -0.18625963 0.47461382 -0.15044482
0.67553276 -0.7091672 -0.50812054 0.11418517 0.6582033 -0.6365961 -0.02898683 -0.65999335
-0.48528498 0.4465011 -0.4586004 -0.22016616 -0.15973212 -0.5625129 -0.5346882 0.37134543
00000000: cd12 a7be cbf3 a1be 4e4c cdbd 1236 c43e
00000010: 6e80 2dbe c93a 833e 483e ddbe ceae 5f3e
00000020: 2f76 043f a566 a5be f43d 9a3e 49ce bd3c
00000030: f59d 18bf d8ba 3ebe 9500 f33e 350e 1abe
00000040: b7ef 2c3f fb8b 35bf 3014 02bf ead9 e93d
00000050: 0380 283f f6f7 22bf ca75 edbc 53f5 28bf
00000060: 4677 f8be cb9b e43e accd eabe 3d73 61be
00000070: d190 23be d800 10bf 53e1 08bf fd20 be3e

classify.weight f4 [2, 64]
0.117986485 -0.13975558 0.19749221 -0.17648456 -0.15248077 -0.22285503 0.21200143 -0.08132593
-0.08865581 -0.11811668 -0.24516936 0.22289564 -0.08281462 0.14188433 0.13869683 0.08784437
-0.15257522 0.25224024 0.102246836 -0.0428989 0.17282806 -0.21507455 0.17580314 -0.13487685
-0.16624656 -0.12505524 -0.18591888 0.16910882 0.06466071 -0.16616142 -0.1579605 -0.15181941
-0.18778211 -0.059156407 -0.117693774 -0.23153298 0.16248727 -0.14325456 0.1179846 -0.19121279
0.16778475 0.058306396 0.07436382 -0.06358318 -0.120052546 0.18179318 0.11597595 -0.096359886
0.05096412 -0.16410959 -0.048606597 -0.09051673 -0.04629891 0.23279965 -0.038884275 -0.13433036
-0.10221252 0.24809834 -0.11104887 0.12905174 -0.20099078 0.044552173 0.14208962 0.16982679
-0.04874551 0.13182652 -0.13125125 0.024933893 0.23938926 0.0608465 -0.14099124 0.19628541
0.1952043 0.012115776 0.08668705 -0.20398574 0.19988225 -0.18884346 -0.18314674 -0.15758318
0.056071915 -0.090015225 -0.18896455 0.10855926 -0.18932186 0.25078443 -0.18874913 0.19593565
0.047465693 0.16097835 0.12703593 -0.1169399 -0.07023913 0.131799 0.13147895 0.20071182
0.06793301 0.100563236 0.20217836 0.06354311 -0.17919578 0.1739954 -0.16926926 0.12113896
-0.04464511 -0.09571241 -0.08753825 0.18627785 0.20038559 -0.24146318 -0.25145477 0.04215214
-0.13249655 0.15989849 0.16829103 0.12162248 0.24480678 -0.01935458 0.17295924 0.09689086
0.17636146 -0.11198197 0.15028213 -0.1306898 0.16669151 -0.17194596 -0.08253675 -0.15121867
00000000: e6a2 f13d 161c 0fbe 663b 4a3e 5eb8 34be
00000010: eb23 1cbe 1c34 64be e716 593e 368e a6bd
00000020: 2d91 b5bd 28e7 f1bd ad0d 7bbe c13e 643e
00000030: b69a a9bd 204a 113e 8b06 0e3e c0e7 b33d
00000040: ae3c 1cbe a225 813e ca66 d13d c2b6 2fbd
00000050: d7f9 303e 813c 5cbe bd05 343e 281d 0abe
00000060: 8a3c 2abe 7b0e 00be 8561 3ebe dd2a 2d3e
00000070: d66c 843d 3826 2abe 66c0 21be 8c76 1bbe
00000080: f449 40be fd4d 72bd 6f09 f1bd fb16 6dbe
00000090: 1063 263e 53b1 12be e9a1 f13d 49cd 43be
000000a0: c4cf 2b3e b0d2 6e3d 0f4c 983d e637 82bd
000000b0: 1cde f5bd fe27 3a3e cd84 ed3d 5558 c5bd
000000c0: c1bf 503d 580c 28be b617 47bd d660 b9bd
000000d0: eda3 3dbd 0863 6e3e 1e45 1fbd e68d 09be
000000e0: cc54 d1bd 7e0d 7e3e 976d e3bd 2426 043e
000000f0: 87d0 4dbe 577c 363d f17f 113e 13e7 2d3e
00000100: 5fa9 47bd 88fd 063e ba66 06be 2a42 cc3c
00000110: 7522 753e 2e3a 793d 0260 10be 0bff 483e
00000120: a3e3 473e 3f81 463c fb88 b13d a3e1 50be
00000130: efad 4c3e 2e60 41be d28a 3bbe 7c5d 21be
00000140: aaab 653d e759 b8bd ec7f 41be 5154 de3d
00000150: 97dd 41be d166 803e 7447 41be 5ba3 483e
00000160: 636b 423d 82d7 243e b515 023e 307e efbd
00000170: 88d9 8fbd 51f6 063e 6ba2 063e 6687 4d3e
00000180: 7620 8b3d 19f4 cd3d d807 4f3e e422 823d
00000190: 197f 37be da2b 323e ec54 2dbe b417 f83d
000001a0: cadd 36bd de04 c4bd 4147 b3bd 9fbf 3e3e
000001b0: e131 4d3e 2042 77be aebe 80be b9a7 2c3d
000001c0: 2dad 07be 6ebc 233e 7c54 2c3e 3515 f93d
000001d0: a1ae 7a3e 7f8d 9ebc 3a1c 313e b76e c63d
000001e0: 1998 343e ce56 e5bd 8fe3 193e 8cd3 05be
000001f0: 2eb1 2a3e 9a12 30be 0709 a9bd 11d9 1abe

classify.bias f4 [2]
0.002856473 0.021600597
00000000: aa33 3b3b bcf3 b03c
