BCI/output/openBMI/LightConvNet/sub49/2023-10-05--17-38/model.pth (torch, 51356 bytes, 9 tensors)

spacial_block.0.weight f4 [64, 9, 20, 1]
000000 d8 45 68 bb 50 82 cc 3c 1a e8 3c bd 49 66 b1 bd
       -0.003544202 0.024964482 -0.046119787 -0.086620875
000010 9f 87 23 3c 70 a4 36 3d a3 bf ba 3c c9 0e 82 3c
       0.009981065 0.044590414 0.022796458 0.01587619
000020 b3 97 ba bc dd 9b c7 3c dc 4f 1e bc 4f 42 f6 3c
       -0.022777414 0.024366314 -0.009662595 0.030060915
000030 e6 96 3b 3c 1a 66 90 bd c1 ad 22 bd 70 01 28 3d
       0.011449551 -0.07050724 -0.039716486 0.041016996
000040 f5 5f df 3c 0f 9c 31 3d 03 b8 20 bc 9d a9 07 3c
       0.027267436 0.04336172 -0.009809497 0.008280185
000050 9b 40 1a 3c 69 d9 76 3d 71 43 46 bd 12 6d aa 3c
       0.009414817 0.060265932 -0.04840416 0.020803962
000060 c6 d7 fc bc dd 6b 05 3d 8b 81 30 3d 4f f2 aa bd
       -0.030864608 0.03257357 0.04309229 -0.08346998
000070 f4 ed ff bc 4a 93 38 3a 09 57 2e bd cf 98 80 3d
       -0.031241395 0.0007040991 -0.042563472 0.06279146
000080 32 a5 9a bb e9 8b d4 3c 56 1a b9 bc e6 b6 16 3b
       -0.0047194 0.02594562 -0.022595566 0.00229972
000090 42 9b e2 bd 63 4d cb 3c b6 60 cc 3d 70 73 fc 3d
       -0.11064769 0.024817174 0.09979384 0.123267055
0000a0 97 2f 2b bd f8 53 05 3b da a6 32 3d 9e 06 ad bd
       -0.041793432 0.0020344239 0.043616153 -0.08448528
0000b0 47 f8 a6 bd 94 70 8c 3c 71 46 ae ba fc 3f 0c 3d
       -0.08152824 0.017143525 -0.001329614 0.034240708
0000c0 f7 91 8f bd 43 84 01 3e 0b ca e5 3c bd 29 1f 3c
       -0.070102625 0.1264811 0.028050443 0.009714541
0000d0 a1 88 ef 3c 8d 4b cb bb f5 9a b1 bb dc 10 9c 3b
       0.029239954 -0.0062040747 -0.0054200836 0.004762752
0000e0 ce 08 50 3d 3a b0 81 bd 71 e4 11 bd ea 70 eb bc
       0.050789647 -0.06332441 -0.03561825 -0.028740365
0000f0 ed 30 76 bc 54 b7 96 3b 3f cf 22 bd ad 0d 0b bd
       -0.015026313 0.004599491 -0.039748427 -0.03394859
000100 88 43 71 3d 0a 53 57 38 61 e9 40 bd a3 6c 13 bd
       0.058902293 5.133733e-05 -0.047097567 -0.035992276
000110 9a f0 b5 bb f2 d9 5c 3d be 13 8f bd 13 12 ca bc
       -0.0055523636 0.053918786 -0.069861874 -0.024666822
000120 26 ad c1 3c 67 46 c1 3c 1c 3a 53 3c c0 c6 64 3d
       0.023642134 0.02359314 0.012892272 0.055853605
000130 ee 99 a4 bb db d2 cc bc a2 b9 06 3d 9f 01 82 bd
       -0.0050232327 -0.025002887 0.032891877 -0.063479654
000140 57 05 73 bd e6 97 74 bc 22 53 3e 3c f2 0f 19 be
       -0.059331264 -0.014928794 0.0116165 -0.14947489
000150 22 59 dc 3b 78 38 75 bb db 58 3d bc 5c 7e a1 bd
       0.0067244926 -0.0037417691 -0.011556829 -0.07885429
000160 cc 87 84 3c 59 ad 52 bc 7c c1 b7 bc 28 2f 32 3d
       0.016178034 -0.012858712 -0.022431128 0.043502003
000170 50 96 ed 3d 27 ed 74 3d b9 41 28 bd 9d d6 f8 3c
       0.116009355 0.05979648 -0.041078303 0.030375773
000180 ee 47 1f 3d 40 b7 5d bc a5 f9 fe ba 4a e4 24 3d
       0.038886957 -0.01353246 -0.0019453062 0.040256776
000190 ab 1b d3 3b 63 06 31 bc d6 1c 0a bd 4c 97 9e bd
       0.0064425073 -0.010804745 -0.033718906 -0.07743701
0001a0 ad f2 6e bd f5 d5 27 3b 5b 3a 9b bd 42 85 8b bd
       -0.058336902 0.0025609706 -0.0757949 -0.06812526
0001b0 66 bb 08 bd 17 a7 3d 3d c7 a2 7c bd cc b1 96 3d
       -0.033381842 0.046301927 -0.061678674 0.07358131
0001c0 a0 77 b8 3c 4f 7a 92 3d 32 13 27 3d 30 08 c5 bc
       0.02251798 0.07152235 0.04078979 -0.024051756
0001d0 46 bd cc bb 9f 6a 1e 3c ab 3e af 3d f0 b3 95 3d
       -0.006248149 0.009668975 0.08556875 0.07309711
0001e0 60 1d 18 3c 76 1b b2 bc 73 9d 14 bd 3f 6f 00 bc
       0.009284347 -0.02174161 -0.036282968 -0.007839023
0001f0 5b 23 45 bd 58 54 cf ba cc b0 fe bc d8 6d 82 bd
       -0.04812942 -0.0015817983 -0.031090163 -0.06368607
000200 b4 03 00 bd 9f ad aa bc 54 7a 30 bd f0 ef 2d 3d
       -0.03125353 -0.020834742 -0.04308541 0.04246515
000210 13 9f c2 3c ce f0 d5 3a 58 3e 57 3d 4a 8d f9 3c
       0.023757493 0.0016322376 0.05254969 0.03046288
000220 4c 56 1c 3c 28 4c 75 3b e5 51 50 3d 77 9c 54 3d
       0.009542059 0.0037429426 0.05085935 0.05190703
000230 40 9d 2b 3d 20 e3 0a bd a4 4b 4e 3d ba 88 49 bd
       0.041898012 -0.03390801 0.050365105 -0.04920266
000240 f6 66 0c bd 94 53 45 bc 91 5d 29 bc 7f 2b 4f bd
       -0.03427788 -0.012043852 -0.010337249 -0.05057859
000250 68 4b 9a bd c6 24 50 bb da 03 97 bd 37 0b e9 bc
       -0.07533914 -0.00317602 -0.073737815 -0.02844773
000260 41 f5 f4 3c 3e f0 9a 3c a5 6c 8c 3c 6d c7 07 bc
       0.029902102 0.018913385 0.01714165 -0.008287293
000270 55 85 c7 3c b1 3a 21 bc 4e be 8b 3d 09 d3 b9 3d
       0.02435557 -0.009840653 0.06823407 0.09073455
000280 23 4c 4b bd cd 9e 87 bc b6 d9 8b bd c9 41 ec bd
       -0.049633157 -0.016555214 -0.068286344 -0.11535985
000290 fe b7 15 3c 3b 88 0e 3d 54 6c dc bc 90 23 08 3c
       0.009138105 0.03479789 -0.026907124 0.00830926
0002a0 d0 d0 90 bd f7 b8 3c 3d 59 6a 0e 3d 81 4f 96 bc
       -0.07071078 0.046074834 0.03476939 -0.018348457
0002b0 99 79 d7 3d b7 79 17 3d f7 5e 8c bd 58 db b5 3d
       0.1052124 0.03698131 -0.068540506 0.08879727
0002c0 39 7a 3f bc 51 fc 44 bd 9d e0 dc 3d 3a ae 47 bd
       -0.011686855 -0.04809219 0.10785029 -0.04875014
0002d0 3a fb 7e bb 70 b1 e4 bd 26 83 b8 3d 10 03 45 3b
       -0.0038907067 -0.11166656 0.090093896 0.003006164
0002e0 91 99 9b bd 47 38 dc 3d 38 74 d3 3b 2f c0 80 3d
       -0.0759765 0.107529216 0.0064530633 0.06286656
0002f0 c1 d9 21 bd f7 69 1a 3d 3f e2 aa 3c 47 34 b6 bc
       -0.039514307 0.037698712 0.020859836 -0.022241725
000300 f0 6d c1 bd 3c e6 a9 3c 1a 88 fc 3c e2 be 29 bd
       -0.09444797 0.020739667 0.030826617 -0.041441806
000310 1b e8 1d bd 3c 44 03 3d 50 19 4e bc 04 65 ba 3c
       -0.03855143 0.032047495 -0.012579277 0.022753246
000320 39 27 45 3c 2d fc 2c bd 16 34 85 bc 94 df de bb
       0.012033277 -0.04223268 -0.016260188 -0.006801555
000330 92 ca 68 3d dc 3e c2 3d 0d df 9f bd 61 ef 84 3d
       0.05683381 0.09484646 -0.078062154 0.064909704
000340 e4 e2 2d 3d 33 67 7f bb 11 1a 31 bd d6 69 1a 3c
       0.042452708 -0.0038971424 -0.04323775 0.009424647
000350 8b 04 94 bd c7 1a b1 3d e4 d7 5d 3d 0a 61 3e bd
       -0.07227429 0.086476855 0.054160967 -0.046479262
000360 98 e1 fe bd 1f c4 c5 ba c6 32 25 3d 21 32 77 bc
       -0.12445372 -0.0015088356 0.040331624 -0.015087635
000370 59 3a 01 3b 14 62 b1 3b 80 97 35 bd ff 36 14 3d
       0.0019718616 0.005413303 -0.044333935 0.03618526
000380 b0 09 c1 bc 0c a5 6b 3d 56 60 0b 3d 32 9b a2 bb
       -0.02356419 0.057530448 0.03402742 -0.0049623484
000390 f3 0a 90 3c 2e ba a2 bd 8d c8 5f 3b 76 61 81 3d
       0.017583346 -0.07945667 0.0034146637 0.06317417
0003a0 6a 9c 94 bd 19 9e 12 3d 80 64 0e bd e1 6b f7 bc
       -0.07256396 0.035795305 -0.034763813 -0.030202808
0003b0 4d 23 25 3d f2 1d ad bb 94 0f 1b 3c fc b3 17 bc
       0.04031687 -0.005283111 0.009464163 -0.00925922
0003c0 ce db e4 bc c0 97 13 3d 27 ac 7d bd 4b 7a 57 3d
       -0.027936842 0.036033392 -0.061931755 0.052606862
0003d0 e0 c0 3d 3d 99 45 95 3c 00 2d 09 bc 4d b7 52 3c
       0.046326518 0.018221663 -0.008372545 0.012861085
0003e0 69 b6 0d 3d 6b 92 b1 bd c7 b2 af bc 9e a7 ec 3a
       0.034597788 -0.08670505 -0.021447552 0.0018055325
0003f0 42 83 9a bc d0 f9 a0 3c 0b d5 b2 3c f3 5f 74 bd
       -0.018861417 0.01965037 0.021830102 -0.059661817

spacial_block.0.bias f4 [64]
000000 f9 dc d0 bc 5a 25 7e bd de 50 a7 3c 9f 87 01 bd
       -0.025495993 -0.06204734 0.020424303 -0.03162348
000010 a2 52 d5 3b 72 1a 3b bd c6 a6 1d 3d d6 54 5b bd
       0.0065100947 -0.045679517 0.038489126 -0.053547703
000020 c1 a3 79 bd 0d 25 8f bd f1 f6 83 3d 4b 50 18 3d
       -0.060947184 -0.06989489 0.06443585 0.03718595
000030 8c b0 5b bd d1 cc 97 bc 8a f6 62 3d 6a 32 b8 3c
       -0.053635165 -0.018530281 0.0554109 0.022484977
000040 6d e7 88 3d 29 95 1e bc 28 50 ed bb 93 76 62 3d
       0.06684766 -0.009679117 -0.0072422214 0.055288862
000050 ea 41 1a bb c5 7a 80 bd 98 39 98 bc c8 18 61 3d
       -0.0023537823 -0.062734164 -0.01858215 0.054955274
000060 86 63 f8 3c 11 0c 6e bc 65 b5 94 bd f8 b3 5b 3d
       0.030320894 -0.014529244 -0.07261161 0.05363843
000070 f2 1f 84 bc cc 4e 5a bc 5b e0 88 3d b3 84 27 3d
       -0.016128514 -0.013324451 0.066834174 0.040898036
000080 37 bf b8 3c 49 46 d3 3c fd b2 ab 38 c1 17 ab 3b
       0.022552116 0.02579035 8.1872546e-05 0.0052213375
000090 2d c2 1f bd 52 12 d6 3c 9f b1 15 3d 6b d6 2b 3d
       -0.03900354 0.026131783 0.036546346 0.04195253
0000a0 04 94 1b bd df 5a 82 3b 4a e4 83 bb 82 02 39 bd
       -0.037982956 0.003978118 -0.004025017 -0.045168407
0000b0 0a da 84 3c 89 01 26 3d 80 6a df 3b 8a 60 0c bd
       0.01621725 0.040528808 0.0068181157 -0.034271754
0000c0 9c d7 76 3d 85 64 1e bd 1a 8c ee 3c 90 32 01 bb
       0.060264215 -0.03867008 0.02911954 -0.0019713975
0000d0 8c d0 d7 3c e7 01 de 3c 6b 77 90 bd cb 56 97 3c
       0.02634456 0.027100516 -0.07054027 0.018474003
0000e0 f6 7c cc 39 86 c8 78 bd f5 9e 40 3d 63 38 d1 3b
       0.00039003015 -0.06073811 0.047026593 0.0063848956
0000f0 24 74 a6 bc a8 3e 5b bb 3e eb 55 3d 77 a6 de bc
       -0.020319052 -0.0033454094 0.052226298 -0.027178986

spacial_block.1.weight f4 [64]
000000 2c 5f 83 3f d2 c9 8b 3f a0 a3 89 3f ae 65 89 3f
       1.0263419 1.0920966 1.0753059 1.0734155
000010 1b db 85 3f 86 2e 8b 3f 7d 45 85 3f cc ee 85 3f
       1.0457491 1.0873573 1.0411831 1.04635
000020 a7 33 88 3f 02 a3 8e 3f 76 b8 88 3f af 6e 88 3f
       1.0640763 1.1143496 1.0681293 1.0658778
000030 58 17 9c 3f 3f a1 96 3f c0 29 8f 3f 71 b1 83 3f
       1.2194624 1.1767958 1.1184616 1.0288526
000040 0e 00 8b 3f b8 0d 87 3f ae e3 86 3f 70 6d 83 3f
       1.0859392 1.0551062 1.0538232 1.0267773
000050 16 88 89 3f c5 c7 84 3f a7 56 86 3f 07 23 82 3f
       1.0744655 1.0373465 1.0495194 1.016694
000060 14 ed 87 3f ab e5 86 3f e5 ca 8c 3f ac 92 85 3f
       1.0619226 1.0538839 1.0999418 1.0435386
000070 eb a4 88 3f 2f 7a 85 3f 39 9b 85 3f 81 21 86 3f
       1.0675329 1.0427912 1.0437995 1.0478975
000080 8b f4 82 3f 71 fe 85 3f b2 44 86 3f 01 c9 85 3f
       1.0230879 1.0468274 1.0489714 1.0451967
000090 73 cb 87 3f f3 40 86 3f 72 35 8c 3f 6b 02 83 3f
       1.0608963 1.0488571 1.095381 1.0235113
0000a0 cc 2c 91 3f 76 13 9a 3f 88 20 8b 3f a6 69 86 3f
       1.1341796 1.2037189 1.0869303 1.0500991
0000b0 ed 4d 94 3f b0 7f 83 3f 8c 04 88 3f d8 42 8a 3f
       1.1586281 1.0273342 1.0626388 1.0801649
0000c0 29 e6 87 3f 81 6a 83 3f a9 67 80 3f c6 e5 8c 3f
       1.0617114 1.0266877 1.0031635 1.1007621
0000d0 ab 58 98 3f 44 47 8b 3f 97 e3 87 3f a4 6d 89 3f
       1.1902059 1.0881124 1.061633 1.0736585
0000e0 27 b3 82 3f b5 9f 87 3f a0 46 83 3f 6c 72 87 3f
       1.0210923 1.0595614 1.0255928 1.0581794
0000f0 42 c1 88 3f e2 0a 84 3f 65 e4 8b 3f de 10 86 3f
       1.0683978 1.0315821 1.0929075 1.0473897

spacial_block.1.bias f4 [64]
000000 ce 0b a5 bd 02 74 cd bd db 83 b9 bd 61 81 20 be
       -0.08058892 -0.10031892 -0.090583526 -0.15674354
000010 93 c9 e4 bd 29 8b 27 be 1a 00 c3 bd c1 fc 00 be
       -0.1117126 -0.16361679 -0.09521504 -0.12596418
000020 3a 72 fd bd 22 ad 09 be 0d 1a 17 be d3 05 f9 bd
       -0.123753026 -0.13444951 -0.14756031 -0.12159314
000030 b5 22 5d be b2 9a 7b be a1 83 2d be 7d b8 c6 bd
       -0.21595271 -0.2457073 -0.16944744 -0.09703157
000040 17 35 49 be 45 71 fc bd da 4c ba bd bb d3 a5 bd
       -0.19649158 -0.12326292 -0.090966895 -0.08097025
000050 00 b0 f1 bd 61 57 c1 bd 61 f5 e1 bd 53 e2 62 bd
       -0.118011475 -0.09440494 -0.110331304 -0.05539162
000060 fb 8b f7 bd 19 22 0a be cc c0 2d be 1d f9 c0 bd
       -0.12087246 -0.1348957 -0.16968077 -0.094225146
000070 9d 8e 2e be 60 38 c9 bd 7c 67 d1 bd 19 bc bf bd
       -0.1704659 -0.09825206 -0.10224816 -0.09362049
000080 70 66 cf bd 69 fc 1e be 82 e2 04 be 09 15 01 be
       -0.1012696 -0.15525974 -0.12977031 -0.1260568
000090 c4 96 20 be 89 59 ca bd 14 aa 20 be 22 04 a4 bd
       -0.15682513 -0.09880359 -0.1568988 -0.08008601
0000a0 6b 4f 4b be ee 4d 5a be bd d9 13 be 4d ac c7 bd
       -0.19854514 -0.2131879 -0.1443853 -0.09749661
0000b0 3d eb 3f be ab 77 b9 bd 98 f2 1c be 33 b8 de bd
       -0.1874208 -0.09056028 -0.15326917 -0.10874977
0000c0 62 1e 1a be 8b 97 ba bd 98 d4 a0 bc c2 81 d9 bd
       -0.15050653 -0.09110936 -0.019632623 -0.106204525
0000d0 36 02 83 be 19 be 55 be c9 ec 15 be d0 cf 05 be
       -0.25587624 -0.20873298 -0.14641108 -0.13067555
0000e0 61 7b ce bd 3f 0d 38 be 85 fd dc bd 3b a3 f6 bd
       -0.100821264 -0.17973803 -0.107905425 -0.120428525
0000f0 d6 58 ed bd b6 84 f9 bd 50 b2 c0 bd ff 05 f5 bd
       -0.1158921 -0.12183516 -0.094090104 -0.11964034

spacial_block.1.running_mean f4 [64]
000000 6d 87 87 be 2b 44 8b 3c 41 b0 87 3e 06 80 4b 3f
       -0.2647051 0.017000278 0.2650166 0.79492223
000010 41 76 b6 3e 37 7a e3 3e 45 5c 83 be a1 8a 2f 3f
       0.35637096 0.4442918 -0.25656334 0.68570906
000020 42 0c 36 3e 0a f9 bf 3e 30 0f 6e 3e 13 cc 35 3e
       0.17778113 0.3749469 0.23247981 0.1775363
000030 3d 3a 0d 3e 7c 14 78 be 0a d9 37 3e 4e a6 ab be
       0.13791747 -0.24226564 0.17953888 -0.33525318
000040 12 2e 2c 3e ee c7 b9 be cd c7 bd 3e fb 47 c6 3e
       0.1681445 -0.36285347 0.37066498 0.38726792
000050 6a 41 b6 3e 60 82 ac 3e 49 d4 cd 3d ec 80 a6 3e
       0.35596782 0.33693218 0.10050256 0.32520235
000060 2c 09 25 3f e1 e0 74 3e 83 af 5e 3d fa c5 53 3e
       0.6446712 0.2391391 0.0543666 0.20680991
000070 3b 72 59 be 74 6b 9a bc 42 ae 7d 3f 16 c5 c1 3e
       -0.21234982 -0.018850066 0.9909402 0.37845677
000080 18 24 20 3f d6 22 13 3f 81 f0 45 3f fe f3 49 3e
       0.62555075 0.5747503 0.77320105 0.19721982
000090 a6 83 10 3e f0 7c 35 3e 6f f7 6d be e3 3a 42 3f
       0.1411272 0.17723441 -0.2323892 0.75871104
0000a0 a4 4c 10 be 8a 62 25 bf e2 47 9c 3e 0e 37 98 bd
       -0.14091736 -0.64603484 0.30523592 -0.07432376
0000b0 e4 6d d5 3e c1 5f 9a be 78 95 0f be 4b 09 8d bd
       0.41685402 -0.3015118 -0.14021862 -0.06886538
0000c0 9f 77 8b 3e 0c 20 e4 3d e1 2f 5b 3f 56 b8 80 3f
       0.272397 0.11138925 0.8561993 1.0056255
0000d0 62 d9 66 3f 08 24 94 3e 28 8f d4 3e 76 33 c7 3e
       0.9017545 0.2893374 0.4151547 0.3890645
0000e0 2d 4c 87 3f 97 18 0b 3f 18 a9 43 bd 65 f2 4d ba
       1.0570122 0.54334396 -0.047768682 -0.0007856249
0000f0 56 72 de 3e 0b 20 82 be 49 49 01 bf 94 d5 4e be
       0.43446606 -0.25415072 -0.5050245 -0.20198661

spacial_block.1.running_var f4 [64]
000000 3f d0 7d 3f d7 37 9a 3e 03 b0 0e 3f 44 16 f6 3e
       0.99145883 0.30120727 0.5573732 0.48063862
000010 ee 8b 1b 3f a0 89 4f 3f 92 a8 12 3f 60 e3 f1 3e
       0.6076039 0.81069374 0.5728847 0.47243786
000020 a7 1d ab 3e ec 92 e3 3e e9 87 f5 3e f1 b8 02 3f
       0.3342106 0.4444803 0.47955254 0.5106345
000030 e4 85 a4 3e 03 ad 02 3f af 15 15 3f e9 1b 19 3f
       0.321334 0.51045245 0.5823621 0.5980821
000040 01 32 ae 3e d5 78 ad 3e 21 fd 21 3f f8 1b 1f 3f
       0.34022525 0.3388125 0.6327687 0.6215205
000050 e6 d8 ec 3e 4d d3 1b 3f 4f fa 0b 3f 77 3b 03 3f
       0.4625923 0.60869294 0.54678816 0.5126261
000060 96 9d 00 3f 7c d0 1b 3f ab 02 c3 3e ae a1 50 3f
       0.5024046 0.60864997 0.38087973 0.81496704
000070 5d e5 34 3f 92 94 fe 3e ce db da 3e ba d2 f3 3e
       0.7066248 0.49722725 0.42745823 0.4762171
000080 3b 69 19 3f 1c 5d e5 3e 10 8c f3 3e 36 50 03 3f
       0.59926194 0.447976 0.47567797 0.5129427
000090 bc 50 40 3f 4f b3 83 3e 7a 5a 22 3f fe 4e 03 3f
       0.7512319 0.2572274 0.63419306 0.5129241
0000a0 5c 19 c8 3e 68 8f dc 3e ee 92 21 3f 05 b2 cb 3e
       0.39081848 0.4307816 0.6311482 0.39784256
0000b0 ee 97 23 3f 2d 57 2e 3f dd a8 17 3f c5 c4 b9 3e
       0.639037 0.6810177 0.5924204 0.36282936
0000c0 cd fe 1b 3f 21 04 36 3f 33 20 4f 3f 5f 5e be 3e
       0.6093567 0.7110005 0.8090851 0.37181374
0000d0 a3 69 05 3f 84 f9 37 3f 6d 28 bb 3e 45 90 93 3e
       0.52114314 0.71865106 0.3655428 0.28821006
0000e0 db 53 fd 3e c4 10 57 3f 69 6d 08 3f 29 41 21 3f
       0.4947804 0.8400996 0.53291947 0.6299005
0000f0 9a 0b c0 3e 28 05 0e 3f 23 54 cf 3e 02 b4 da 3e
       0.3750885 0.5547662 0.4049388 0.4271546

conv.weight f4 [8, 1, 4]
000000 57 4a ce be 8f 3e 00 bc 8e 38 81 be 21 fb b9 3e
       -0.40291092 -0.007827415 -0.2523846 0.3632441
000010 a2 d6 6c be e9 5e d2 3e ed 61 0b bf f3 d7 e5 bc
       -0.23128751 0.41088036 -0.544463 -0.028057074
000020 22 12 09 3f 39 22 41 3d 5b 88 1c 3e 39 46 7c bd
       0.53543293 0.047151778 0.1528639 -0.061590407
000030 ad 08 23 bf bc 26 c4 bd fa 86 0d 3f 31 79 19 be
       -0.63685113 -0.095777005 0.5528408 -0.14987637
000040 c3 f2 2d 3f b0 3b 08 bf 55 a1 e9 be de 4b c3 3d
       0.6794855 -0.53216076 -0.456309 0.09535955
000050 b6 20 24 3f 32 2e d3 be 17 bc f1 bd 42 12 26 bf
       0.6411241 -0.41246182 -0.118034534 -0.6487161
000060 bc 74 09 bf 78 fc d3 3e 3d af c6 be 6c 8b 81 be
       -0.5369375 0.41403556 -0.3880557 -0.25301683
000070 a4 5e 92 be 80 35 07 bf 99 e3 0e bf a7 09 d1 3e
       -0.2858783 -0.5281601 -0.55816036 0.40827677

classify.weight f4 [2, 64]
000000 9b 1c 33 3e 1d dc 20 be 30 6d 76 3e 97 77 4f be
       0.17491381 -0.15708967 0.24065089 -0.20260464
000010 11 e7 22 be e4 dc 70 be 88 85 7b 3e 44 13 ca bd
       -0.15908457 -0.23521763 0.24562657 -0.09866956
000020 5f a2 ee bd 62 11 3b be 67 d3 6f be 66 1f 77 3e
       -0.116520636 -0.1826835 -0.23420487 0.24133071
000030 cd 44 65 3e 3e c1 00 3e 7b 1a 1e 3e 85 42 1f 3e
       0.22389527 0.12573716 0.15439789 0.15552719
000040 dc 43 30 be 85 be 88 3e d7 04 25 3e 09 fb 49 bd
       -0.17213386 0.26707855 0.16115128 -0.04931167
000050 7c 09 71 3e dd b1 5e be fc 60 4a 3e e1 06 16 be
       0.23538774 -0.21747537 0.19763559 -0.14651062
000060 46 6e 53 be b0 3c 22 be 44 32 2e be 14 aa 73 3e
       -0.20647535 -0.15843463 -0.17011362 0.23795348
000070 e8 ae 0a 3e b8 3e 50 be f6 6c 4f be f6 37 41 be
       0.13543284 -0.20336425 -0.20256409 -0.18869004
000080 ea 7f 63 be 7f 89 d9 bd 56 94 dc bd 93 a5 65 be
       -0.22216764 -0.106219284 -0.1077048 -0.22426443
000090 de f5 26 3e bc f5 1b be 43 65 f4 3d dd 67 52 be
       0.16304728 -0.15230459 0.11933377 -0.20547433
0000a0 e8 12 52 3e 69 a1 01 3e 52 0d 0e 3e f1 5c d1 bd
       0.20515025 0.1265923 0.13872269 -0.10222805
0000b0 45 09 d6 bd 4c d1 3e 3e 99 41 08 3e d1 3e e2 bd
       -0.10450987 0.18634528 0.13306274 -0.110471375
0000c0 b6 01 fa 3d 42 b7 5b be 2c fa 8f 3c 38 2d 3b be
       0.122073576 -0.21456626 0.017575346 -0.18278968
0000d0 03 c8 42 bd a6 7e 85 3e 7b c3 a3 bd 66 bd 19 be
       -0.047554027 0.26073188 -0.07996269 -0.15013656
0000e0 4d 76 05 be f9 ab 70 3e 56 ac 06 be 42 04 4a 3e
       -0.1303341 0.23503102 -0.13151678 0.19728187
0000f0 2a 4c 6a be 4a ed ad 3d 00 5d 47 3e 9b 05 7a 3e
       -0.22880617 0.08492525 0.1946907 0.24416201
000100 fd 6a d8 bd 93 bd 18 3e 88 98 32 be fe 1d 51 3d
       -0.105672814 0.14916067 -0.17440999 0.051053993
000110 99 e5 7b 3e 9a ee 95 3d a3 ce 32 be 94 c1 5a 3e
       0.24599303 0.073209 -0.17461638 0.21362907
000120 45 6c 64 3e bb 0b 9d 3d 6f 14 9b 3d 46 c2 63 be
       0.22306927 0.07668253 0.07572257 -0.22242078
000130 6f c8 da bd 51 d7 30 be cb 9e 4b be 1f ac 66 be
       -0.10682761 -0.17269637 -0.19884793 -0.22526596
000140 30 e4 9a 3d 6a bd d6 bd 5b d1 7d be 75 76 eb 3d
       0.075630546 -0.104853466 -0.24786894 0.11497203
000150 9d f6 80 be 80 a1 81 3e b5 a2 57 be 0f 8d 54 3e
       -0.2518815 0.25318527 -0.21058162 0.20756935
000160 1b 99 b3 3d bc 05 47 3e d8 cc e3 3d 4e 3e 3e be
       0.08769437 0.19435781 0.11123055 -0.18578455
000170 3e 65 10 be cc 0e 2d 3e ef 4e 34 3e cb 48 73 3e
       -0.14101121 0.16900176 0.17608236 0.23758237
000180 6b 8c d1 3d 50 2b 17 3e 50 cd 44 3e 39 80 66 3d
       0.10231861 0.14762616 0.19218946 0.056274626
000190 e4 11 38 be 40 70 3b 3e 9e b6 2e be 74 a6 0a 3e
       -0.17975575 0.18304539 -0.1706185 0.1354006
0001a0 2f f5 a7 bd 2c ef 27 be f5 8a 1b be 2a 52 66 3e
       -0.08201062 -0.1639983 -0.15189727 0.2249228
0001b0 74 47 3d 3e 73 eb 7b be 45 7e 89 be a9 74 66 3d
       0.18484288 -0.24601535 -0.26854149 0.0562636
0001c0 26 7e 50 be 5a 67 57 3e 98 1e d1 3d 5e 07 5b 3e
       -0.20360622 0.21035519 0.102109134 0.21389529
0001d0 a3 f7 7b 3e b5 af 41 bd b9 2c 5b 3e ba cd e6 3d
       0.24606185 -0.047286708 0.21403779 0.11269708
0001e0 fd 63 51 3e c5 93 ca bd 16 d9 2e 3e a9 b1 4b be
       0.20448299 -0.09891466 0.17074999 -0.1989199
0001f0 d6 2c 47 3e 25 6a 59 be 85 61 0a be 94 f7 66 be
       0.19450697 -0.21231897 -0.13513763 -0.22555381

classify.bias f4 [2]
000000 9c 01 87 3c 12 b1 02 3c
       0.01648026 0.007976787
