BCI/output/bci_iv_2a/LightConvNet/sub6/2023-10-02--20-12/model.pth (torch, 56047 bytes, 9 tensors)

spacial_block.0.weight f4 [64, 9, 22, 1]
000000 1c db 8d bc 5f 26 45 3c 2c 45 29 bd c5 4b 3e bb
       -0.017316394 0.012033074 -0.041325733 -0.0029036861
000010 64 9b 03 3d 72 7a 33 3d d7 b7 45 3c bd 5e d2 bc
       0.032130614 0.043817945 0.012067757 -0.02567994
000020 00 95 3e bc db 65 5a 3d dd 22 45 bd 39 99 b0 3b
       -0.011632204 0.053319793 -0.04812895 0.0053893593
000030 54 1f 02 bd 4b f3 19 3c 06 a8 b1 bb 46 23 d7 bc
       -0.031768158 0.0093963845 -0.0054216413 -0.026261937
000040 8e 6b 48 bd d3 56 6f 3d 8a a9 a5 bb 7e 85 fb 3b
       -0.048930697 0.05843241 -0.005055611 0.0076758256
000050 5e 78 ae 3c ba 69 bd bb 17 d2 8f bd a9 16 0f 3d
       0.02129763 -0.005780426 -0.07022493 0.03493372
000060 e6 25 c5 3a fd 76 81 3d 6f 9d a6 3d a8 70 d9 3b
       0.0015041202 0.06321523 0.08135497 0.006635744
000070 eb ba b6 3d ec 4c a5 bd 04 8b 95 bd 39 43 57 3d
       0.089223705 -0.08071312 -0.07301906 0.052554343
000080 b4 bb 3f bd a6 e8 6c bd c4 02 bc 3b f2 04 3f bd
       -0.046809867 -0.05783906 0.0057376344 -0.046635576
000090 a1 e9 72 bd 28 43 c4 bb b9 f2 87 bc 2b 1b 91 3d
       -0.059304837 -0.005989451 -0.016595231 0.0708526
0000a0 76 2c e0 3d 30 c3 df 3c 29 b5 c1 bc 8f d1 0c bd
       0.1094598 0.027314752 -0.023645954 -0.03437954
0000b0 8a 4c 76 3c 89 da 67 bd 6c ee 92 bd dd 03 a5 bd
       0.015032897 -0.056604896 -0.071743816 -0.080573775
0000c0 fe 56 48 bc 9d c9 a1 3d ff 75 0a 3c a4 fa 29 3b
       -0.012227772 0.07899783 0.008450984 0.0025936747
0000d0 9d 80 87 3d a4 f6 25 3c 77 42 4c 3c cd bd be bc
       0.06616328 0.0101296045 0.012467018 -0.023283863
0000e0 7d 78 1b bc d0 f4 17 bd 10 aa ec 3d 28 8e 2d 3d
       -0.009489176 -0.037098706 0.11555874 0.0423719
0000f0 b2 c8 2b 3d 64 be 43 bd 5f 90 c3 bd 0d 43 63 bd
       0.041939445 -0.047788993 -0.09549021 -0.055483866
000100 2d 7f be 3a c3 36 9a 3d bc 36 c4 bc a1 23 cc bc
       0.0014533751 0.07529976 -0.02395188 -0.024919333
000110 64 ee 96 3d b6 f0 0e bc ab cc ae 3b 49 a8 65 bc
       0.07369688 -0.008724382 0.005334457 -0.014017173
000120 d5 9c 13 bd d6 d6 e1 3d 17 f7 4a 3d e2 67 9f bd
       -0.03603824 0.11027305 0.04955205 -0.07783486
000130 3e 91 9f 3d 97 02 21 bd a4 47 7f bd 94 27 32 bd
       0.077913746 -0.03930911 -0.06232418 -0.043494776
000140 4f 25 88 bd 52 fa b8 3b b6 a5 18 3e 23 f2 1f bb
       -0.06647741 0.005645075 0.14906964 -0.00244058
000150 8b 5b 1a bd 6e b8 cb 3c 1e f5 63 bd 63 19 70 3b
       -0.03768496 0.024868216 -0.055653684 0.0036636225
000160 63 58 1b 3d f5 69 00 3d d5 b4 e1 bc c2 4c 00 bc
       0.03792609 0.03135105 -0.027552048 -0.0078308005
000170 f6 0c 8c 3d b6 01 6c 3d 33 08 a9 bc 75 55 0d bd
       0.068384096 0.05761882 -0.020633793 -0.034505326
000180 65 30 9e bc c9 91 58 bc ac ba 51 bd 1c 84 51 bd
       -0.019310186 -0.013218352 -0.051203415 -0.05115138
000190 f0 a8 45 bd e2 18 67 3d 70 61 a0 bc 66 01 7e bb
       -0.048256814 0.056420214 -0.019577712 -0.0038758158
0001a0 0a ba 38 3c 1d dc af 3d cd d9 91 bd 9d 4e b4 bd
       0.011274824 0.08586905 -0.0712162 -0.08804057
0001b0 2e 8e 3e bc 3b bf 98 3d 05 8b 62 3c 2d 31 99 3d
       -0.011630578 0.07458349 0.01382709 0.07480083
0001c0 29 7f b7 bd 43 4e 07 3c a3 20 96 bc ab cc a6 bc
       -0.08959801 0.008258405 -0.01832611 -0.020361265
0001d0 9c 70 94 3d 91 bc a4 bd 73 da 43 bd 19 fb 81 3d
       0.07248041 -0.08043779 -0.04781575 0.06346721
0001e0 8d 53 89 3d c4 4c b6 3c 9e fd 4e bc 44 a6 8c 3d
       0.06705389 0.022253402 -0.012633709 0.0686765
0001f0 9a 7e a6 bd d4 fb 89 bd de 5b d8 bb de 4c 32 bc
       -0.08129616 -0.067374855 -0.0066027483 -0.010882584
000200 2d 97 e7 3c 38 cb 15 bd 22 3b 5f 3c 36 c2 2e 3d
       0.028270328 -0.036570758 0.013624938 0.042665683
000210 a1 0c 36 bd 9c c2 2f bd 1a c1 2a 3d 61 a3 72 bd
       -0.044445638 -0.042910203 0.041688062 -0.05923784
000220 bf de 74 bc ae 75 b7 3c e6 bd 21 bb c7 df 3d 3d
       -0.014945685 0.022394981 -0.0024679839 0.04635599
000230 d8 2b bd bc 95 e0 41 3d 99 67 3f 3d 90 90 97 3d
       -0.023092195 0.04733332 0.046729658 0.0740062
000240 08 4e cb bc c2 65 7e 3d 15 73 fa bc 72 14 c2 bd
       -0.024817482 0.062108763 -0.030572454 -0.09476556
000250 2a 16 a6 bd 76 98 47 bc 64 f3 2f bc 15 4c 88 3b
       -0.08109696 -0.012182346 -0.010739181 0.0041594603
000260 0a 7e ca 3c 4e f1 7e 3d 51 e0 a8 3c c8 22 14 be
       0.024718303 0.062241845 0.020614775 -0.14466393
000270 c7 f6 65 3d 19 03 1a bc a1 9c b4 bc b4 84 9c 3c
       0.05614355 -0.009400153 -0.022047343 0.019106247
000280 53 6e 50 3c 1a f3 59 3d 9c 55 e7 bc ad d3 ad 3c
       0.012721616 0.053210355 -0.028239064 0.021219099
000290 7f e6 58 bd ce 31 e5 bb 75 23 eb 3c 24 54 ca 3d
       -0.052954193 -0.0069944626 0.02870343 0.0987933
0002a0 a5 05 82 bd 56 fd e0 bd 52 6a 72 3d 0b c8 93 3d
       -0.06348733 -0.1098582 0.059183426 0.072158895
0002b0 f7 cc b1 3d a2 fe d5 3c 0a e7 b6 bd c0 b5 4e bd
       0.08681672 0.026122395 -0.08930786 -0.0504663
0002c0 6a 67 25 3c af ea be 3c 13 33 42 3c c5 39 61 bd
       0.010095457 0.023305265 0.011852997 -0.054986734
0002d0 dc fb 38 3d 1e e1 bf bc e5 42 71 3b 91 42 c4 3c
       0.045162067 -0.023422774 0.0036813554 0.023957523
0002e0 97 ac 52 bd 6e 07 ea bb 19 6b 30 bc ea 64 81 3d
       -0.051434126 -0.007141999 -0.010767722 0.06318076
0002f0 8b b1 11 3d b0 cc a9 3d c7 5e 1d 3c 3d 19 1c be
       0.03556971 0.08290994 0.009605116 -0.15244003
000300 1e d0 a2 bd a9 90 db 3c 68 84 75 bd 6b 73 e8 3c
       -0.079498515 0.026802378 -0.059940726 0.028375348
000310 79 f6 9d bc 34 3b a8 3d f7 6b 8c 3c 80 35 aa 3c
       -0.019282566 0.08214417 0.017141325 0.020777464
000320 00 4f 69 bc 0d c5 25 bd 86 f0 0b bd 54 ee 9c 3a
       -0.0142400265 -0.040471125 -0.034164928 0.0011972883
000330 2f d9 67 bd 69 01 9d 3d 0b da 57 3c 5e ba 94 3d
       -0.056603607 0.076662846 0.013174544 0.07262109
000340 a3 15 a8 3c ee 25 61 3d 5f 86 11 bd ce 30 26 3c
       0.02051813 0.054967813 -0.035528537 0.010143472
000350 34 3d 0e bd e2 62 30 bd 30 ed 85 bc 18 09 cc 3b
       -0.034726337 -0.043063052 -0.016348451 0.00622667
000360 dd 19 7a bd b1 ca ec bd ff b9 fe 3c 61 93 0d 3e
       -0.06105982 -0.11562098 0.03109455 0.13825752
000370 a4 09 fa 3b ab 3e 89 3c 90 7a 10 3d 74 63 6a bd
       0.007630544 0.016753515 0.035273135 -0.057223752
000380 59 26 a7 bc e6 a1 17 3d bf aa 2c bd fc d4 8a bc
       -0.020404028 0.037019633 -0.042155024 -0.016947262
000390 1d 50 f3 3c 9b db 11 3d e0 f2 f9 3c 97 c1 d2 3c
       0.029701287 0.035609823 0.03051132 0.025727076
0003a0 59 0f b5 bc ce b8 9a 3d 90 52 ff bb d0 4b 05 be
       -0.022102045 0.0755478 -0.0077918246 -0.13017201
0003b0 f6 66 33 3c b5 10 8c bd 87 7a 9c bc 42 00 15 bd
       0.010949841 -0.06839124 -0.019101394 -0.0363772
0003c0 8f c4 d1 3d 0c 7d 80 3c 7c cc f5 bc a5 bc 5c 3d
       0.10242569 0.015684627 -0.030004732 0.053890843
0003d0 5c a7 26 3d 09 3a a8 bd f2 d4 88 3d 0c 59 d6 3c
       0.04068695 -0.08214194 0.06681241 0.026165508
0003e0 79 29 8c bc 81 0e 13 3d aa 19 1c bc ab 18 f1 bd
       -0.01710962 0.035902504 -0.009527603 -0.11772283
0003f0 40 f9 6c 3d b8 8b 63 bd fd 48 13 3b cb e4 2a bd
       0.05785489 -0.055553168 0.0022473924 -0.0417221

spacial_block.0.bias f4 [64]
000000 b9 d1 2f 3d bd 77 3c bd ca 05 75 3d db 17 53 3d
       0.042924616 -0.04601263 0.059819974 0.051536422
000010 a9 7d 8e 3d 89 78 32 3d 83 2a fb 3c 51 47 5d bd
       0.069575615 0.043571983 0.03065992 -0.05402309
000020 c1 b4 6d 3d e7 b9 97 bd 4d ef 43 3c 8e 76 8e 3d
       0.05803371 -0.07408505 0.011958909 0.06956206
000030 7c 09 35 3c 98 d8 99 3b fb 39 49 bd 64 54 5e bd
       0.0110496245 0.0046950094 -0.04912756 -0.0542797
000040 fb 22 3a 3c ac 2f ed 3c 7d 7f 24 bd 66 6a b7 3b
       0.011360879 0.028953396 -0.040160645 0.0055974005
000050 d8 5d 94 3b d8 2d 37 bd 0c 26 35 3c 47 7d 83 bd
       0.0045277886 -0.044721454 0.011056434 -0.06420379
000060 34 1e 36 3d 42 73 20 bd f4 6b 67 3d d1 2e 62 3d
       0.044462398 -0.03917242 0.056499436 0.05522043
000070 42 3c 20 3d 04 2f 41 bd 7b b9 4b 3d f2 38 1d 3b
       0.039119966 -0.04716398 0.049737435 0.002399024
000080 56 8f 8d bd 32 34 5e 3d b0 26 8f 3d a3 af 0d 3d
       -0.06912105 0.054248996 0.06989801 0.03459133
000090 a3 67 5e bd 72 10 a0 bc 78 5b 06 bc 12 ce 82 3d
       -0.054298054 -0.019539092 -0.008200519 0.06386961
0000a0 a3 a8 77 bd 28 c3 4e bd b7 17 01 3d 98 1d c3 3c
       -0.06046356 -0.050479084 0.031516757 0.023817822
0000b0 80 af b8 bc fb 26 70 bd d3 e5 24 bc 22 34 35 3d
       -0.022544622 -0.058630925 -0.01006456 0.04423917
0000c0 20 5a 70 3d bd c1 1e bb 66 f5 32 bd f1 e0 d8 3c
       0.0586797 -0.0024224364 -0.04369106 0.026474448
0000d0 40 9a 5c 3d 79 4b 2f bd 61 da 87 3c e3 27 15 3d
       0.05385804 -0.042796586 0.016583623 0.036414992
0000e0 e6 bc 4d bc f1 fe 69 bd 1d f2 2d bd 31 bd 92 bd
       -0.012557244 -0.057127897 -0.042467225 -0.07164992
0000f0 15 fe bf ba 8f c5 61 3d 14 24 b1 bb 13 06 5b 3d
       -0.0014647866 0.055120047 -0.005405912 0.05347259

spacial_block.1.weight f4 [64]
000000 8a cc 86 3f c5 d7 88 3f d1 17 6b 3f d3 8d 72 3f
       1.053117 1.0690848 0.91833216 0.94747657
000010 07 a3 78 3f 96 f7 80 3f ea 53 7a 3f 27 fb 8c 3f
       0.9712376 1.0075557 0.9778429 1.1014146
000020 d5 38 82 3f 9c 0e 8f 3f f8 1c 82 3f 0a cf 8b 3f
       1.0173594 1.1176333 1.016509 1.0922558
000030 4e 02 8c 3f 65 73 8e 3f 07 72 7d 3f 30 c8 8d 3f
       1.0938203 1.1128966 0.99002117 1.1076717
000040 23 44 84 3f b5 b2 82 3f 82 d4 86 3f 03 22 8f 3f
       1.0333294 1.0210787 1.0533602 1.1182255
000050 9f 66 6f 3f 84 5c 8c 3f 6d 5c 8e 3f ff 14 88 3f
       0.9351596 1.0965734 1.1121956 1.0631407
000060 d1 ac 8a 3f 38 78 81 3f 96 64 89 3f 2a 59 8a 3f
       1.0833989 1.0114813 1.0733821 1.0808461
000070 7e 73 72 3f 29 f8 88 3f 61 57 90 3f 12 a2 81 3f
       0.9470748 1.0700732 1.1276666 1.0127585
000080 30 0a 8c 3f 53 77 8d 3f 45 0a 6f 3f ab be 8c 3f
       1.0940609 1.105204 0.93375045 1.0995687
000090 49 6e 6a 3f 1d 52 87 3f ad b8 87 3f 77 5b 8d 3f
       0.9157453 1.0571934 1.0603234 1.1043538
0000a0 23 28 74 3f 34 40 72 3f 2c a8 6d 3f 3e 20 6e 3f
       0.95373744 0.94629216 0.92834735 0.9301795
0000b0 8b af 6c 3f 51 c9 72 3f 00 d8 7f 3f e3 ea 6c 3f
       0.9245536 0.94838434 0.99938965 0.9254591
0000c0 f7 a0 87 3f 6b 2c 85 3f 29 92 85 3f 56 f1 73 3f
       1.0595998 1.040418 1.043523 0.95290124
0000d0 db 1c 8a 3f 2f 83 6b 3f 19 6d 86 3f c5 60 93 3f
       1.0790056 0.91997045 1.0502044 1.1513907
0000e0 d3 ff 87 3f e0 19 6e 3f 4e 61 6f 3f 36 df 81 3f
       1.0624946 0.9300823 0.9350785 1.0146244
0000f0 05 3f 70 3f bf 7b 75 3f 37 c4 8c 3f c0 63 86 3f
       0.9384616 0.95891947 1.099738 1.0499191

spacial_block.1.bias f4 [64]
000000 8e 0f 5b be 7b fb 57 be 2c 97 8d be 75 d6 7f be
       -0.21392652 -0.21092026 -0.27654397 -0.24984153
000010 1c d5 8f be a8 e6 9f be 30 e8 90 be 06 d9 02 be
       -0.28092277 -0.31230664 -0.28302145 -0.127781
000020 73 c5 8e be 51 48 fe bd 3d e6 60 be a3 31 de bd
       -0.27885017 -0.12416137 -0.21962829 -0.10849311
000030 3a f5 0a be 2f 1a 80 be 12 bb 79 be 08 23 48 be
       -0.13570109 -0.25019976 -0.24387768 -0.19544613
000040 f3 7f 95 be f6 a8 8d be 0f f4 22 be be 83 13 be
       -0.2919918 -0.2766797 -0.15913413 -0.14405724
000050 30 5c 9c be 11 17 a2 be 51 93 24 be 85 bd 0f be
       -0.30539083 -0.31658223 -0.16071822 -0.1403714
000060 16 9b 34 be 47 2c 7e be 5b 52 10 be 63 f8 45 be
       -0.17637286 -0.24821578 -0.14093916 -0.19333033
000070 1f e3 a8 be 0b 2d 7b be da 76 18 be 18 4c 54 be
       -0.3298578 -0.24528901 -0.14889088 -0.20732152
000080 89 f0 a3 be c6 42 f4 bd 50 c1 8d be c0 74 07 be
       -0.3201945 -0.119267985 -0.27686548 -0.1322813
000090 e3 c8 a2 be d4 af 98 be b7 37 4b be 8d 63 26 be
       -0.3179389 -0.29821646 -0.19845472 -0.16248913
0000a0 b7 92 92 be 94 1b 93 be 95 fc 9d be ca f8 98 be
       -0.2862756 -0.28731978 -0.30856767 -0.2987731
0000b0 19 77 9d be d0 a1 9c be 26 24 75 be 20 7a 8d be
       -0.30754927 -0.30592203 -0.23939571 -0.27632236
0000c0 1d 11 9c be b2 a5 42 be 82 2c 40 be db 09 a0 be
       -0.30481806 -0.1900852 -0.18766978 -0.3125752
0000d0 d9 29 60 be 9f 21 b4 be 5c 14 4d be 80 a9 36 be
       -0.21890964 -0.351819 -0.20027298 -0.17838097
0000e0 48 31 8a be 72 d8 96 be 66 1d 94 be 11 bb 99 be
       -0.26990724 -0.2946201 -0.2892868 -0.30025533
0000f0 45 48 95 be 1c 15 da be 6a ce 08 be 32 04 73 be
       -0.291567 -0.4259423 -0.1335999 -0.23732069

spacial_block.1.running_mean f4 [64]
000000 38 66 29 3d 37 30 39 bd 0f ba 75 3d b1 37 5a 3d
       0.04135725 -0.045211997 0.059991892 0.053275768
000010 a0 bb 8a 3d 6e e0 32 3d 30 63 01 3d ec 92 5f bd
       0.06774068 0.043671064 0.031588733 -0.054583475
000020 ae d3 6a 3d 78 e0 94 bd 71 d7 49 3c 9e 42 8c 3d
       0.05733078 -0.072693765 0.012319432 0.06848644
000030 19 47 ef 3b f3 fb 95 3b 75 fe 48 bd 15 f0 60 bd
       0.0073021767 0.004577154 -0.049070794 -0.05491646
000040 f5 dd 07 3c d9 4f e5 3c bd 6c 27 bd d7 89 78 3b
       0.008292665 0.027992176 -0.040875185 0.0037923956
000050 97 f2 c9 3b dc 36 38 bd 3e db 43 3c 6e a1 85 bd
       0.006162952 -0.044974193 0.011954127 -0.06524931
000060 25 37 30 3d 2c 33 20 bd 8a 62 68 3d d9 e7 61 3d
       0.04302134 -0.0391113 0.0567346 0.055152748
000070 48 0f 1c 3d f4 db 42 bd a6 39 45 3d b9 e8 45 3a
       0.03810051 -0.047573045 0.04815068 0.0007549632
000080 27 4c 92 bd ab 43 5d 3d 43 b6 92 3d 60 00 01 3d
       -0.07143431 0.05401961 0.0716367 0.0314945
000090 9f 1a 59 bd 3e 37 b2 bc e1 de 00 bc d3 52 80 3d
       -0.053003903 -0.021754857 -0.0078656385 0.062657975
0000a0 b5 9a 7c bd 14 95 52 bd a8 60 f8 3c 84 af d6 3c
       -0.061670978 -0.051411703 0.030319527 0.02620674
0000b0 f4 98 b0 bc 48 dc 6e bd 02 b7 28 bc b3 32 36 3d
       -0.021557309 -0.058315545 -0.010297539 0.044481944
0000c0 3d 03 6b 3d ca a9 14 bb 14 d5 3a bd d4 5e d8 3c
       0.057376135 -0.002268421 -0.045613363 0.026412405
0000d0 18 94 5a 3d ed 8c 2c bd cf 3a 77 3c 7a a5 12 3d
       0.05336389 -0.042126585 0.015089705 0.035802342
0000e0 42 6d 7f bc e7 3e 6d bd 1d c1 2e bd af 03 90 bd
       -0.015590014 -0.057921316 -0.042664636 -0.070319526
0000f0 db 22 a6 ba b0 a0 60 3d 8d 79 8e bb 52 a4 59 3d
       -0.0012675183 0.054840744 -0.004347986 0.053135224

spacial_block.1.running_var f4 [64]
000000 92 1b 87 3e 49 71 27 3e b0 47 ea 3e 88 d1 fe 3e
       0.26388222 0.16351809 0.45757818 0.49769235
000010 c0 a6 94 3e c6 08 7c 3e 89 c1 c7 3e a0 4e ac 3e
       0.2903347 0.24612722 0.39014843 0.33653736
000020 6b 0b 7c 3e 2c 33 59 3e 93 33 56 3e e3 fd 92 3e
       0.2461373 0.21210927 0.20918112 0.28709325
000030 4d f1 8d 3e 64 05 a9 3e 3a c6 93 3e 01 a7 06 3e
       0.2772316 0.33011925 0.28862172 0.13149644
000040 1f 1a af 3e 36 e7 87 3e 2c b8 63 3e be d5 5d 3e
       0.34199616 0.26543587 0.22238225 0.21663567
000050 a5 b0 d5 3e ab e4 72 3e d0 17 6b 3e e2 b4 a2 3e
       0.41736332 0.23720042 0.22958302 0.31778628
000060 7f 9e 4a 3e 52 81 cf 3e c1 94 5b 3e ac 43 69 3e
       0.19787024 0.4052835 0.21443464 0.22779721
000070 6f ff 92 3e 5a ad a8 3e 60 a1 a3 3e 78 c3 b2 3e
       0.28710505 0.32944757 0.31959057 0.34914756
000080 32 9d 8b 3e ab 94 98 3e 82 d6 d2 3e 71 be 96 3e
       0.27268368 0.29800925 0.4117928 0.2944217
000090 b9 80 6f 3e a5 e7 62 3e c2 33 6d 3e 56 6d 3b 3e
       0.23388948 0.22158678 0.23164275 0.18303427
0000a0 e9 74 b8 3e 52 2d e8 3e f0 ef bd 3e 9b 93 bf 3e
       0.36026695 0.45347077 0.3709712 0.37417302
0000b0 96 f2 9b 3e 82 67 d7 3e 4f d9 8d 3e 75 7a ea 3e
       0.30458516 0.42071158 0.27704856 0.45796552
0000c0 da ff 28 3e 75 5a fe 3e b5 00 87 3e f2 92 ac 3e
       0.1650385 0.49678388 0.26367727 0.3370586
0000d0 7e d8 2a 3e c5 3a fe 3e ee fd 9a 3e 87 bc c1 3e
       0.16684148 0.49654213 0.30271858 0.37839147
0000e0 c9 a0 b7 3e 93 85 43 3e 1d 6d 89 3e 65 6c 5f 3e
       0.35864857 0.19093923 0.2684106 0.21818693
0000f0 84 ee b6 3e 63 21 f1 3e f9 28 75 3e 70 0c 1f 3e
       0.35728848 0.47095785 0.23941411 0.15532088

conv.weight f4 [8, 1, 4]
000000 dc ca 95 bf 5d ff a7 3f a6 3d 79 bf 6f a6 8e bf
       -1.1702533 1.3124806 -0.97359693 -1.1144542
000010 42 24 85 3f fb df 83 3e d3 75 4e bf 6c c1 ee be
       1.040169 0.2575682 -0.80648535 -0.46631944
000020 95 57 29 bf bb 07 36 bf a2 8e 60 3f 0a 2e 54 3f
       -0.66149265 -0.71105546 0.8771764 0.8288275
000030 df 20 84 bf 4b b7 8a 3f 0e dc 41 bf 42 6f 47 bf
       -1.0322531 1.0837187 -0.757264 -0.7790414
000040 21 bb 1c be f4 38 a7 3f 14 a1 64 bf 0f 4e 82 bf
       -0.15305759 1.3064256 -0.89308286 -1.0180072
000050 e5 77 9e 3f a5 6d a3 bf 77 7e a6 bf 23 40 92 bf
       1.2380339 -1.2767836 -1.3007344 -1.1425823
000060 dd b4 7f bf 3d b8 d0 be 27 c9 90 3f db 00 c6 3c
       -0.9988535 -0.40765563 1.1311387 0.02417033
000070 92 a7 15 bf 35 92 36 3f 99 19 2d bf ca ec 95 3f
       -0.58458817 0.71316844 -0.67617184 1.1712887

classify.weight f4 [4, 64]
000000 88 bd 65 3e de 3c 19 be be fd 75 3e 39 a0 28 3e
       0.22435582 -0.14964625 0.24022576 0.1646737
000010 09 6d a2 3e 73 81 00 3f 09 3f 3e be b4 f7 ab be
       0.31723812 0.50197524 -0.18578734 -0.3358742
000020 2d da 27 3e b4 30 fa be 7c 67 e6 be d0 71 17 bf
       0.16391821 -0.48865283 -0.45000827 -0.5915804
000030 36 fc 3f bd 33 97 cb be 56 0b b3 3e 9f d2 16 bf
       -0.046871386 -0.39763793 0.34969586 -0.5891513
000040 14 5b a7 3e d7 1b c8 3e 0f c0 fb 3d 2a e2 19 bf
       0.32686675 0.3908374 0.12292492 -0.60110724
000050 c8 4a 39 be da 7d e3 be b8 65 bd be 75 d3 c2 be
       -0.18094933 -0.44431955 -0.36991668 -0.38051954
000060 18 b7 e2 bd 16 fa be be ab 4c cb 3d 34 3f ca be
       -0.110700786 -0.37300175 0.09926733 -0.39501345
000070 06 b8 95 3e 12 ad 7b 3e af 87 b2 be c6 47 b4 3e
       0.2924196 0.2457774 -0.34869143 0.3521101
000080 d3 b3 5b be 95 2c 09 bf 30 26 aa 3e 67 0a d5 be
       -0.21455316 -0.5358365 0.3323226 -0.416095
000090 af 12 3f 3e 2a 17 b8 3e 0c a4 09 bf 7e df 0d bf
       0.18659471 0.35955173 -0.5376594 -0.55419147
0000a0 be af 92 be 3a 4c ed 3e 4a 2b 08 3f 49 1a ca 3e
       -0.28649706 0.4634722 0.53191054 0.3947318
0000b0 7c 17 c6 3e 1b c1 95 3d c9 a9 8d bc 0d 45 a6 3e
       0.38689792 0.073122226 -0.017292874 0.32474557
0000c0 2c 99 68 3e c5 2a 8e be 31 f2 ac 3e bf c5 b7 3e
       0.2271468 -0.27767006 0.33778527 0.35893056
0000d0 89 20 04 bf e0 d7 9f 3d 05 5b 02 3e 60 79 94 be
       -0.51612145 0.07804847 0.12730034 -0.28998852
0000e0 90 a5 b2 be 32 3b e1 3e 5e 9c c4 3c 26 dd 24 be
       -0.3489194 0.43990475 0.024000343 -0.16099986
0000f0 cb f4 86 3e ca f4 a5 3d 53 57 09 bf e0 0a 01 bf
       0.26358637 0.081033304 -0.5364887 -0.5040722
000100 14 f6 f1 be fb e7 78 be aa 70 e8 3e 23 65 9b 3e
       -0.47258055 -0.24307244 0.45398456 0.303506
000110 64 f8 9f be 5a e4 03 bf ee 91 ca 3e 51 b3 36 be
       -0.31244195 -0.5152031 0.3956446 -0.17841841
000120 93 d7 d5 bd 94 76 93 be 3a 10 12 3f e5 45 83 3e
       -0.10441508 -0.28801405 0.5705601 0.25639263
000130 6b 58 05 bf c5 5f a7 3e d9 85 98 be ef 18 7b bd
       -0.5208804 0.32690254 -0.29789618 -0.061303075
000140 7c 8d 13 bf ce 55 d6 be d9 b9 a2 be 8b c1 d1 3d
       -0.57637763 -0.4186234 -0.31782416 0.102419935
000150 d4 7e fe 3e 0c 4a 30 3e 04 bd df be 2c 4e 97 3d
       0.49706137 0.17215747 -0.43698895 0.07387957
000160 1e d3 0d bf 15 e6 10 3f eb 0c eb be 1e f0 53 be
       -0.55400264 0.5660108 -0.45908293 -0.20697066
000170 f3 24 f0 bd 08 15 09 bf 0e 6c fa be af 71 dc be
       -0.117257975 -0.53547716 -0.48910564 -0.43055484
000180 a0 6c ee be ba 88 c5 3d 9a 1e 41 3e f8 b0 9a be
       -0.4656725 0.09645219 0.1885933 -0.3021314
000190 a0 9e f3 3e 12 da 15 bf d9 80 04 3f fe 70 76 3e
       0.4758196 -0.58535874 0.51759106 0.2406654
0001a0 38 43 06 3f 11 2b 32 be d7 ae 57 be fa 03 5e 3b
       0.5244632 -0.17399241 -0.2106279 0.0033876882
0001b0 a6 c9 84 3e ca a0 b5 3e bf 42 15 3d b7 f8 6a 3e
       0.25935096 0.35474235 0.036440607 0.2294644
0001c0 4a b2 b3 be 8a c6 df 3e 7f 46 da be 39 19 e9 bd
       -0.3509696 0.4370616 -0.4263191 -0.11381764
0001d0 a9 39 c2 3e bc 17 01 3f 60 a4 09 bf fa 22 8e be
       0.37934616 0.5042684 -0.5376644 -0.2776106
0001e0 20 3e a7 3e 51 27 05 bb cd 9d 03 3f 80 53 85 3e
       0.32664585 -0.0020317624 0.5141266 0.26040268
0001f0 f4 61 01 3c 45 2a 06 3f 2e 41 9d bd 33 7d 75 3e
       0.007896889 0.5240825 -0.07678448 0.23973541
000200 41 ec 8b be 1d 5e 1d 3f ff 83 21 be b5 ff 02 bf
       -0.27328685 0.6147173 -0.15773009 -0.5117143
000210 20 5c 07 3f 9f ec cf 3e b9 0c a7 3e 48 2e 1d 3f
       0.52874947 0.40610215 0.32626894 0.61398745
000220 5b df 12 bf c0 19 a3 3e 84 48 cc 3d a9 31 83 3e
       -0.57372063 0.31855583 0.09974769 0.25623825
000230 ab 21 00 3f 40 3f e9 bd 18 fc 06 3f 66 fa b1 3c
       0.50051373 -0.11389017 0.52728415 0.021725845
000240 7e 9b 98 3e 96 f7 91 3e 55 44 d0 be f5 0b 83 3e
       0.2980613 0.28509206 -0.40677133 0.2559506
000250 b2 ea bf be a1 e2 a8 be a2 60 82 3e 1b e8 14 3f
       -0.37483746 -0.32985404 0.2546435 0.58166665
000260 98 09 1e bd 38 70 6a bd 86 35 ad be 8e 1d 1e 3f
       -0.038583368 -0.057235926 -0.33829898 0.61763847
000270 35 ab 96 3e 65 62 b6 be 7b c9 d7 3e e4 76 ca be
       0.29427496 -0.35621944 0.42145905 -0.3954383
000280 d1 71 15 3f e9 36 ce 3e 7b d0 56 3e f4 d5 0e 3f
       0.58376795 0.40276268 0.20977966 0.55795217
000290 e6 d8 ab be b0 81 40 3e d2 20 83 3e 0d 4a 82 3e
       -0.33563918 0.18799472 0.25610977 0.2544712
0002a0 02 4a 9a be 58 eb ec be 32 21 d9 be 84 d8 12 3d
       -0.30134588 -0.46273303 -0.4240814 0.035851017
0002b0 e6 cd f0 bd a5 8c 9c 3e 88 5c 0c 3f bf 2a f7 be
       -0.11758022 0.30576053 0.5482869 -0.482748
0002c0 4d fc 5b be 08 11 cc 3e a4 30 be be 74 40 09 bf
       -0.21482964 0.39856744 -0.37146485 -0.5361397
0002d0 c7 5c 0e be 0b 71 c9 be cb e2 01 3f 38 42 03 3f
       -0.13902579 -0.39344057 0.50736684 0.51272917
0002e0 3c f8 23 3f 2e e6 6f 3e 2e 02 2d bd 32 f0 e9 be
       0.6405065 0.2342765 -0.042238407 -0.45691067
0002f0 f4 09 77 3e 67 b5 f1 be 29 97 09 3e a3 bb 83 be
       0.2412489 -0.47208712 0.1343657 -0.25729093
000300 70 74 16 3f 40 da e8 be 88 5d 98 be 9c fc 1f 3e
       0.5877142 -0.45479012 -0.2975886 0.15623707
000310 48 cd af be 84 d3 55 be b3 51 00 bf cf a7 00 3e
       -0.34336305 -0.20881468 -0.50124663 0.12564014
000320 a2 21 12 3f 74 f8 e8 3e 35 7b 82 bd 81 67 e5 3e
       0.5708257 0.45502055 -0.06371156 0.4480553
000330 72 46 c2 3e b4 ff 05 3f f2 8c be be 0a 10 11 3f
       0.3794437 0.52343297 -0.37216908 0.566651
000340 d6 88 a2 3e 55 77 76 3d 2e 48 03 3f f9 f2 b2 3e
       0.31745023 0.060172398 0.5128201 0.34950998
000350 8d cf 2f be 98 a3 0d 3f 40 de f7 3e f9 2f 7e be
       -0.17169018 0.5532775 0.4841175 -0.24822988
000360 b8 5b 1b 3f e0 97 fb bd 24 16 17 3f 9f 1d 82 be
       0.60686827 -0.12284827 0.5901816 -0.25413224
000370 d4 7f d1 be 4a 53 fe 3e 21 5a 77 3e f8 5c a6 3e
       -0.40917838 0.4967292 0.24155475 0.32492805
000380 25 46 05 be 6e 95 e0 3e 83 51 ff be c2 0e 87 bd
       -0.1301504 0.43864006 -0.49866876 -0.06594612
000390 b2 c1 c2 be ce 87 a2 3e c7 f5 85 bc 6f eb 95 3e
       -0.38038403 0.31744236 -0.016352547 0.29281184
0003a0 bf e8 44 be ff c5 b3 3e 5c d5 dc bd 02 e9 cd be
       -0.1922941 0.35111997 -0.107828826 -0.40216833
0003b0 85 5d a2 be ed a7 04 bf 62 d2 d8 be c5 f3 a3 3d
       -0.31711975 -0.51818734 -0.4234801 0.0800548
0003c0 af 70 0f 3f 6f df 6d be c2 1a 08 3f 3e 4e 07 3e
       0.56031317 -0.23229764 0.5316583 0.13213441
0003d0 08 67 de 3e ee 9d 43 be 60 6b a6 3d 35 0f 05 3f
       0.43437982 -0.19103214 0.08125949 0.5197633
0003e0 93 69 f4 bd 8f 37 b1 be e6 b6 ce be 4b 1d 69 3e
       -0.11934199 -0.346127 -0.40373915 0.2276508
0003f0 70 e8 e9 be 95 8d 33 3e b0 56 13 3f 1c 48 d8 3e
       -0.45685148 0.17534478 0.5755415 0.42242515

classify.bias f4 [4]
000000 12 9b 09 be db b4 b5 3d 86 4a 38 3c 61 87 fc 3c
       -0.13438061 0.08872386 0.0112482365 0.030826272
