BCI/output/openBMI/LightConvNet/sub2/2023-10-05--17-38/model.pth (torch, 51356 bytes, 9 tensors)

spacial_block.0.weight f4 [64, 9, 20, 1]
000000 3c 09 53 bb 25 f3 24 3d 0e 32 39 bd 61 14 25 bd
       -0.003220155 0.040270943 -0.04521375 -0.040302638
000010 2b 05 e3 bc 3e 40 dd 3c c1 a3 41 bc 6d fc 65 3d
       -0.027712425 0.027008172 -0.011818827 0.056148935
000020 d2 1f 42 3c ef 64 53 3d f0 3a ae 3c c2 50 8b 3b
       0.011848407 0.05160993 0.021268338 0.0042515704
000030 59 1e ba bd 2b 04 6a bd 83 58 e3 bc 92 65 2a 3c
       -0.090878196 -0.05713288 -0.027752167 0.010400193
000040 ff 4b 0f 3d de 9c 49 3d 83 e4 39 bd 22 a5 c0 bc
       0.034984585 0.049221866 -0.04538394 -0.023516241
000050 3d b7 a3 ba d6 ba 3c 3b 04 76 32 bc 93 32 81 3c
       -0.0012490522 0.0028797886 -0.010892395 0.015771186
000060 05 88 e5 3b 22 f7 73 3a 56 cb 99 3d c5 e2 c3 bd
       0.00700474 0.000930654 0.075094864 -0.09564737
000070 d8 2a 08 bd c4 35 90 bb fe b0 89 bc 6c ec 96 3d
       -0.033243984 -0.0044009406 -0.01680803 0.07369313
000080 88 90 50 bd 7c 53 c9 3b 57 a2 67 bc e6 77 6c bd
       -0.050919086 0.0061439853 -0.014137826 -0.05773153
000090 fb 3e f4 bc 52 42 9f 3d 26 fb 6a 3c f2 fc c5 3b
       -0.029815188 0.077763215 0.014342105 0.0060421163
0000a0 0d 12 5d bd 24 7f a3 bd 8e 28 b9 bc 97 96 f8 bd
       -0.053972293 -0.079832345 -0.022602346 -0.12138098
0000b0 0c 30 a7 bd 22 db d5 bd 64 69 1e bc b6 e0 42 bb
       -0.08163461 -0.10442187 -0.009668682 -0.002973599
0000c0 b2 e3 f9 bc f5 9e 37 3d e8 a5 22 3d 44 b0 8a 3d
       -0.030504081 0.044829328 0.039709 0.06771901
0000d0 df c7 83 3d 6f cf ba 38 55 42 c6 3c 74 e6 a8 bd
       0.06434607 8.907809e-05 0.024201551 -0.082470804
0000e0 13 35 6f 3c 74 da b4 bc 83 7b 1c 3c b2 d1 45 3a
       0.014600056 -0.022076823 0.009550932 0.00075462006
0000f0 7f df df 3c fe 91 44 3d 72 3f f2 bc 8e ff 73 3a
       0.02732825 0.04799079 -0.029571269 0.0009307795
000100 ec f3 6e 3d 47 7c ae bc f4 65 fd bc 0b f1 cf 3a
       0.05833809 -0.021299494 -0.030932404 0.0015864683
000110 70 2b ad 3d 1d 05 aa 3d dd 16 2b bd ca f1 ef bb
       0.08455551 0.083017565 -0.04176985 -0.0073225247
000120 bf 2a a8 3d d7 9e 08 3b ee 63 7f 3d 65 05 80 3d
       0.08211278 0.002084663 0.06235116 0.06251029
000130 f5 f8 bb 3c 6c 25 68 bd 0e 8d 86 3b f3 3d 67 bd
       0.02294586 -0.056676313 0.0041061705 -0.056455564
000140 ed df cc bd 33 7e d5 3c 9f 78 1b 3d 13 45 01 be
       -0.10003648 0.026061153 0.03795683 -0.12624006
000150 b0 cd d4 3c 12 1a ab 3c 5a 9b 40 bd 62 b0 7c bd
       0.025976986 0.020886455 -0.047023155 -0.06169165
000160 f9 0a 1e 3d 0c ea 0d be 83 9f 02 3b 28 34 60 3d
       0.038584683 -0.13858813 0.0019931502 0.05473724
000170 12 e3 07 3d 89 90 94 bc fa 0a 81 bd df b6 61 bc
       0.033175536 -0.018135326 -0.06300922 -0.01377651
000180 dd 8a 43 3d f4 3d d3 3c 37 3e ac bd 34 61 ba bc
       0.047739852 0.025786377 -0.08410304 -0.022751428
000190 34 a5 02 3c 4a 6e c7 bb 58 cd 49 bd 7a fb 96 bd
       0.007973958 -0.0060861455 -0.049268097 -0.07372184
0001a0 29 a2 8a bd d8 52 b9 bc f8 1b c0 bd dd 6e c1 bd
       -0.06769211 -0.02262251 -0.093803346 -0.094449736
0001b0 17 6d ef 3c a0 95 b1 3d e4 4e 61 3b 48 32 6b 3d
       0.029226823 0.08671117 0.0034379298 0.057421
0001c0 41 da 9a b9 0b 3b 0b 3d 33 54 6b 3d ab 2f 73 bd
       -0.0002953578 0.033991855 0.057453346 -0.05937163
0001d0 6d d3 95 39 49 17 44 3d bb d6 29 3d 8f b1 71 3d
       0.0002857702 0.04787377 0.04146455 0.059007224
0001e0 40 e1 82 bb a9 8f 90 bc ad d4 15 bd 80 54 3d bc
       -0.003994137 -0.017646628 -0.036579777 -0.011555791
0001f0 9d 64 75 bd c9 90 9b bd b2 18 21 bd 36 4b 5f bd
       -0.059910405 -0.07595975 -0.039330192 -0.054515086
000200 ac c8 59 3d fd 8a 54 bd 14 84 79 bc 6c 3c 10 3d
       0.05316989 -0.051890362 -0.015229244 0.035213873
000210 19 53 3c bd 17 59 d0 bb 75 d6 e7 3d 00 83 4e 3c
       -0.045977686 -0.0063582766 0.11320201 0.012604475
000220 6c 21 33 3b db 98 1b bc 6e a5 76 bc b0 5b b5 3c
       0.0027333153 -0.009496893 -0.01505409 0.022138447
000230 2a c0 a9 3c 6d eb 3c bb 2b 98 23 3d a1 0f 51 bd
       0.020721514 -0.0028826848 0.03994004 -0.051040296
000240 6f 9e 05 bd 87 34 68 bd fb 23 d0 bb d6 1c 62 bd
       -0.032621797 -0.05669072 -0.0063519455 -0.05520328
000250 d5 7d 3b bb e2 af b9 3c fd 3b eb bc 10 0c 6c bd
       -0.0028608937 0.022666875 -0.028715128 -0.05762869
000260 17 9d d2 3a 15 31 a9 39 6a 06 42 3c 2d f4 a6 bd
       0.0016068545 0.0003227076 0.01184235 -0.081520416
000270 96 0b 8b 3d 8a 45 88 bc c6 1e 28 3c a6 a3 df 3d
       0.06789319 -0.016634721 0.010261243 0.10919885
000280 d1 ce 2e bd 7b d9 09 bd cf 5b 81 bd 93 16 cf bd
       -0.042677704 -0.03365467 -0.06316339 -0.101117276
000290 b9 7f e1 3c 7b aa 58 3a 32 75 6b bd 06 13 e4 ba
       0.027526723 0.00082651497 -0.057484813 -0.0017400689
0002a0 de 09 29 bb 43 12 73 3d 9c 3e d5 3d 96 f8 65 bb
       -0.0025793235 0.059343588 0.104123324 -0.0035090796
0002b0 22 c3 75 3d 09 22 71 3b ed e6 80 bd 90 b4 60 3d
       0.060000546 0.0036793968 -0.062940456 0.054859698
0002c0 f6 60 b5 ba ea a9 2f 3c e1 18 5e 3d ae c9 a1 bd
       -0.0013838101 0.010721663 0.054222945 -0.078997955
0002d0 de 56 bf 3a c1 70 2a bb 70 ce f7 3a 7f 41 cc bb
       0.0014598032 -0.0026007148 0.0018906128 -0.0062333937
0002e0 e3 82 a0 ba 87 b9 35 3b 03 cd 32 3b 0f 88 fd bb
       -0.0012246039 0.002772899 0.002728284 -0.0077371667
0002f0 43 be de 3b ea 78 9f bb 4d 24 12 3c d3 0d b9 bb
       0.0067975833 -0.004866709 0.008919788 -0.0056474
000300 40 ef f2 3b 8e c8 07 bb f5 f5 bd 3b c0 9b 3a 3a
       0.0074137747 -0.0020718905 0.0057971426 0.00071185455
000310 e0 af bb ba 13 e7 ce ba 0a d2 6d 3a 91 bf 99 bb
       -0.0014319383 -0.0015785418 0.0009072131 -0.004692026
000320 9e d9 52 bb 37 b8 f5 3b 75 5b 09 bc 55 c5 28 3b
       -0.0032173167 0.0074987668 -0.008383621 0.0025752385
000330 27 0f 60 3a 10 60 0c bb a8 b1 63 3b 13 99 10 3c
       0.000854718 -0.0021419562 0.0034743343 0.008825558
000340 c4 7e b2 b6 7e d2 14 bc cb 7f 18 3b 0e 0c 74 bb
       -5.319571e-06 -0.009083388 0.002326953 -0.003723863
000350 1d ec f6 3b f5 ad 0a 3a 69 ff 74 bb b1 9b 73 bc
       0.007535471 0.0005290204 -0.0037383682 -0.014868663
000360 70 13 71 3c ca 28 ff ba fc 81 86 3b 7a c1 81 bb
       0.014714107 -0.0019467112 0.004104851 -0.003959832
000370 4b 42 17 bc 63 7b 50 3c 77 18 8e bb ad f2 9e 3a
       -0.009232114 0.01272473 -0.0043364125 0.0012126766
000380 b8 3e 52 bb 18 f5 ef 3a b8 1a cd 3b 4d 8e ab 3b
       -0.003208084 0.0018307297 0.0062592886 0.0052354694
000390 f7 c3 cb bb ef e2 d0 3b a8 8f 3f bc 65 c0 f7 3a
       -0.006218429 0.006374709 -0.011691965 0.0018901943
0003a0 be 9e 8d 3b ed 27 86 3a d6 d6 80 3b b2 65 08 bd
       0.004321902 0.0010235287 0.0039318604 -0.03330011
0003b0 35 ce 0e 3d bf 9e b7 bb a6 6d 40 bb 02 09 b6 ba
       0.034864623 -0.005603641 -0.002936223 -0.0013888183
0003c0 81 7a 85 bb 6a e6 80 3c 6b c5 9f bc e9 b5 6f 3c
       -0.0040734415 0.01573487 -0.019503316 0.014630773
0003d0 99 06 86 3a ee 39 85 bb 3a 0b eb 3b 66 e7 6f bc
       0.0010225355 -0.0040657436 0.007172969 -0.014642572
0003e0 03 ad e8 3b 9c d4 02 bc 70 89 d4 bb cc 92 a2 bb
       0.0071007027 -0.00798526 -0.0064861104 -0.004961347
0003f0 e6 c2 21 3c 16 ce 72 3b d6 b2 24 3c 37 d2 a4 bc
       0.009873128 0.0037049106 0.010052403 -0.02011977

spacial_block.0.bias f4 [64]
000000 f5 5b c8 bc 63 ec 7b bd a5 73 bc 3c f9 15 04 bd
       -0.024457911 -0.061504733 0.023004362 -0.032247517
000010 ad 9f 68 3b 8b ba 3a bd 8d 47 20 3d 77 35 5b bd
       0.0035495565 -0.045588057 0.039130736 -0.053517785
000020 c6 a1 79 bd 85 3e 90 bd 18 4b 86 3d 69 3f 17 3d
       -0.060945295 -0.07043175 0.06557292 0.036925707
000030 80 e6 55 bd 2b 21 96 bc 71 3e 6a 3d 35 84 c1 3c
       -0.052221775 -0.018326363 0.057188455 0.023622612
000040 07 5b 8b 3d 17 98 3d bc 49 b6 cd bb f7 51 66 3d
       0.068044715 -0.011571906 -0.0062778336 0.05623051
000050 35 ad 2e bb 0c dc 82 bd e2 3d 8f bc 4f 25 6a 3d
       -0.0026653532 -0.06389627 -0.017485563 0.057164486
000060 ee 44 fb 3c 48 1a 7c bc 4f ed 95 bd fb 1e 5c 3d
       0.030672517 -0.015387125 -0.07320654 0.053740483
000070 bf 9e 83 bc ef 7e 7a bc 24 c9 8c 3d 46 2b 2a 3d
       -0.016066907 -0.015289052 0.06874302 0.041545175
000080 c1 83 c1 3c 24 79 ca 3c 19 77 c4 3a 46 70 b3 3b
       0.023622395 0.024715967 0.0014989107 0.0054760305
000090 06 cc 1f bd ce 6e d4 3c b1 22 15 3d 0e 59 27 3d
       -0.03901293 0.025931742 0.036410037 0.040856414
0000a0 9d 4a 19 bd 14 c0 92 3b c9 0c 5d bb d3 95 30 bd
       -0.037424672 0.004478464 -0.0033729544 -0.043111634
0000b0 db df 81 3c 20 51 24 3d 0f e8 ce 3b 87 f7 0a bd
       0.015853813 0.04011643 0.0063142846 -0.033927467
0000c0 68 3d 72 3d 80 4d 1d bd 93 cb e8 3c 3a e5 58 36
       0.059140593 -0.038403988 0.028417384 3.2319936e-06
0000d0 c8 e1 d1 3c b5 a1 e8 3c 03 9b 8f bd 7c 4e 97 3c
       0.025620356 0.02839742 -0.07011988 0.018470041
0000e0 30 15 48 b9 e3 2b 70 bd 54 b2 3e 3d 1c d8 e5 3b
       -0.0001908138 -0.058635604 0.046556786 0.0070142876
0000f0 a3 e4 af bc fc ab 65 bb dc b2 54 3d ee 85 d7 bc
       -0.021471327 -0.0035045138 0.051928386 -0.02630898

spacial_block.1.weight f4 [64]
000000 d5 22 7a 3f 6b 1d 8d 3f 2a 9b 80 3f 43 87 90 3f
       0.977094 1.1024603 1.0047352 1.1291279
000010 85 c2 84 3f d2 4e 8a 3f 19 73 7e 3f 17 b4 88 3f
       1.0371863 1.0805304 0.99394375 1.0679959
000020 89 96 87 3f 39 15 95 3f 43 04 89 3f 68 0f 80 3f
       1.0592815 1.1647102 1.0704426 1.0004702
000030 ab 8a 9a 3f 5c 3c 78 3f 78 68 7e 3f 68 0e 7c 3f
       1.2073568 0.969671 0.99378157 0.9845948
000040 b4 f3 92 3f 4d 24 7b 3f 2f 63 7c 3f 22 67 8a 3f
       1.1480622 0.98102266 0.9858884 1.0812724
000050 4c 6a 7b 3f 4a 37 86 3f d5 cb 7e 3f 29 ce 85 3f
       0.9820907 1.0485623 0.99529773 1.045354
000060 94 bd 87 3f 61 e4 84 3f 82 b8 8d 3f b5 55 7e 3f
       1.060473 1.0382196 1.1071932 0.9934953
000070 d3 bf 7c 3f 57 fe 85 3f e3 47 86 3f 6b 4c 86 3f
       0.987302 1.0468243 1.0490688 1.0492071
000080 02 c4 86 3f d7 18 8d 3f 55 e5 84 3f d1 22 89 3f
       1.0528567 1.1023206 1.0382487 1.071375
000090 fc 63 7b 3f 20 42 8a 3f ac e1 78 3f 6b b5 87 3f
       0.9819944 1.080143 0.9721935 1.0602239
0000a0 73 65 80 3f cb b9 94 3f 2f cb 7b 3f 0e 66 89 3f
       1.003096 1.16192 0.9835691 1.073427
0000b0 d1 df 97 3f b4 c2 7c 3f be 6a 7e 3f dc 39 7a 3f
       1.1865178 0.98734593 0.99381626 0.97744536
0000c0 e1 ba 7f 3f ec 5e 86 3f 5b 05 8a 3f 17 c2 86 3f
       0.9989453 1.0497718 1.0782884 1.0527982
0000d0 9f 85 9a 3f df ef 7c 3f a8 23 88 3f 9b 9b 8b 3f
       1.2072028 0.98803514 1.0635881 1.0906862
0000e0 6f 71 86 3f ca 7f 7b 3f cb a3 84 3f ae e0 7b 3f
       1.0503367 0.98241866 1.0362486 0.9838971
0000f0 4b 85 83 3f 3b 5c 7b 3f 3b 42 7f 3f 73 2f 7d 3f
       1.0275053 0.9818761 0.99710435 0.98900527

spacial_block.1.bias f4 [64]
000000 4b e5 7f bd dd 59 85 3a 3e 4b cc bd ce 2a e5 bd
       -0.06247453 0.0010173876 -0.09975289 -0.11189805
000010 bc f6 b9 bc 0e f6 8c bd d9 6b c8 bd 39 71 5e bd
       -0.02270066 -0.06882869 -0.09786195 -0.054307196
000020 0a 65 43 bd 05 4f 1e be 78 8b 56 bd 73 7e 8e bd
       -0.04770378 -0.15459831 -0.0523791 -0.06957712
000030 e9 2d 70 be d3 8b 4b be bc ec f1 bd c6 2e b9 bd
       -0.23455013 -0.19877557 -0.118127316 -0.090421245
000040 66 11 05 be f0 7a f5 bd 4b 7b cd bd b0 33 9b bd
       -0.12994918 -0.11986339 -0.10033282 -0.07578218
000050 e8 60 ab bd 0a 51 37 bd 36 76 b1 bd cc 25 23 bd
       -0.08368093 -0.04475502 -0.08665125 -0.039830968
000060 fe 99 70 bd 5c dd f7 bc 85 7a a7 bd e9 7e b1 bd
       -0.05874061 -0.03025692 -0.081776656 -0.08666784
000070 02 fb fe bd 59 3c 98 bc c9 14 84 bd d7 2f 41 bd
       -0.1245022 -0.018583464 -0.06449277 -0.047164764
000080 7d dd 3f bd 8a 60 f1 bd d2 65 30 bd 0f 55 34 bd
       -0.046842087 -0.117859915 -0.043065853 -0.04402643
000090 2d 17 00 be 9e df 98 bd 5c 58 33 be 7c cf 61 bc
       -0.12508841 -0.074645266 -0.17514175 -0.013782378
0000a0 30 cc 3c be 11 93 56 be 88 a4 dd bd 50 b0 b4 bd
       -0.18437266 -0.20954539 -0.108223975 -0.088226914
0000b0 5c 4f 3f be 95 06 ad bd 38 05 f1 bd cf d8 54 bd
       -0.18682617 -0.08448521 -0.117685735 -0.051964577
0000c0 b4 21 ae bd 22 f2 46 bd 61 6f ea bc f9 6f 88 bd
       -0.08502522 -0.04857076 -0.028617563 -0.06661982
0000d0 2c b0 81 be 17 90 25 be 94 7f b2 bd e6 87 d7 bd
       -0.2532972 -0.16168247 -0.0871574 -0.105239674
0000e0 98 bc 38 bd b3 10 e0 bd 8e 53 0e bc bc b8 c2 bd
       -0.045101732 -0.10940685 -0.008686913 -0.095078915
0000f0 d6 55 05 bc fd d5 97 bd ce ce f2 bd 32 b9 d7 bd
       -0.008138141 -0.07413862 -0.11855851 -0.1053337

spacial_block.1.running_mean f4 [64]
000000 d2 1a 2b bf 30 f5 0a be 51 2e 0d 3f 79 fb 8b 3e
       -0.668378 -0.13570094 0.551488 0.27340296
000010 38 2a 3b be 45 d0 3d 3e 39 79 d8 be cf 03 05 3e
       -0.18277824 0.1853648 -0.42279986 0.12989734
000020 d6 ee 85 bc bb 01 09 3b 4a fc 1b 3e f7 6c 0e 3f
       -0.016349237 0.0020905572 0.1523296 0.5563502
000030 58 bd 95 bc 5e 8d a5 bc cb f9 2a 3e ba 56 9b be
       -0.018278763 -0.02020901 0.16696851 -0.30339605
000040 b9 2d c8 bd 0a 66 d4 3d 3a 1a 00 bf 24 d3 7b 3e
       -0.09774346 0.10371025 -0.5004002 0.24592263
000050 4e 88 a3 be 36 f7 9c be a0 d4 86 bd 7f c7 32 3d
       -0.3193993 -0.30657357 -0.06583524 0.043647286
000060 c9 94 a2 be 9c 6e a6 3e 99 f2 12 3d 50 96 96 3c
       -0.3175414 0.32506263 0.03587589 0.018382221
000070 85 b3 82 bd 62 24 b0 be 14 1e 20 3e 27 50 5e 3e
       -0.06381897 -0.34402758 0.15636474 0.21710263
000080 83 ef 23 bd fe a6 0c 3d 12 0a 03 be 3a 2c 5f be
       -0.040023338 0.034338944 -0.1279681 -0.21794215
000090 1e 49 e1 3d f0 c9 7d 3e df ae 6f be 76 5d cb 3e
       0.11000274 0.24784064 -0.23406552 0.39719743
0000a0 b9 25 05 3f 68 10 1f 3e 12 37 c4 3e b0 c0 f8 3c
       0.52010685 0.15533602 0.38323265 0.030365318
0000b0 74 d4 fb 3d 18 4e 94 be a6 e7 80 be 02 1f 93 bf
       0.122963816 -0.2896583 -0.25176734 -1.1493838
0000c0 25 88 0b 3f b4 03 13 3e 55 21 b6 3c b3 b3 84 bc
       0.54504615 0.14356881 0.02223269 -0.016198969
0000d0 52 4e 39 3e 7c a7 7b 3e f2 4d 4a 3e ba ec eb 3e
       0.18096283 0.24575609 0.19756296 0.46079046
0000e0 4c b9 5f 3e 0e df 5c 3d 59 ad 43 3d b7 21 e1 bd
       0.21848029 0.05392366 0.04777274 -0.10992759
0000f0 02 52 ab bd f5 0b 09 3f e6 db 12 be c1 af 09 3b
       -0.08365251 0.5353387 -0.14341697 0.0021009299

spacial_block.1.running_var f4 [64]
000000 53 d7 db 3f a7 bf fe 3d f9 6e b0 3e 10 e2 69 3e
       1.7175087 0.124388985 0.34459665 0.22840142
000010 42 f6 73 3e b3 6c 30 3e 9a 6e ac 3e d6 62 6e 3e
       0.23824409 0.17228965 0.33678132 0.2327989
000020 61 b0 a4 3e 8a 74 13 3e 25 4e 85 3e 89 74 8e 3e
       0.32165816 0.14399925 0.26036182 0.27823284
000030 b0 aa 96 3d 07 1c c4 3e bd 58 d3 3e e5 4b f0 3e
       0.07356775 0.38302633 0.4127864 0.46932903
000040 55 47 0b 3e 46 0f 99 3e 61 c4 0d 3f 8c 70 01 3e
       0.1360143 0.29894465 0.55377775 0.1264059
000050 99 f9 7e 3e 99 3e 8f 3e 48 57 ac 3f 04 4a 86 3e
       0.24899901 0.27977446 1.3464136 0.26228344
000060 64 be b9 3e 4a b0 22 3e 18 8c 07 3e 9e f9 80 3e
       0.3627807 0.15887561 0.13237035 0.25190443
000070 ce df b2 3e d6 bd 95 3e 70 a8 4b 3e 04 b3 d1 3e
       0.34936374 0.29246396 0.19888473 0.4095689
000080 27 84 47 3e c8 df 19 3e 87 2c ac 3e 3d 12 92 3e
       0.19484006 0.15026772 0.33627722 0.2852954
000090 e9 ef a1 3e 9e ae 32 3e bf 7f 9e 3e 5b fc a6 3e
       0.3162835 0.17449424 0.30956838 0.32614407
0000a0 9d a8 cd 3e 5c 04 93 3e af 7b 4c 3e 3e 1a 76 3e
       0.40167704 0.28714263 0.19969057 0.24033448
0000b0 e1 f5 cd 3d 73 d5 da 3e b0 ad a3 3e 1d 1d 5d 3f
       0.10056663 0.42740974 0.3196845 0.8637255
0000c0 ce de 7b 3e 85 00 83 3e ad c7 12 3e ac 13 65 3e
       0.24596712 0.25586334 0.14333983 0.22370785
0000d0 da 4b b2 3d b5 a6 af 3e b9 47 c7 3e 06 2a 0c 3e
       0.08705874 0.34306875 0.38921908 0.13687906
0000e0 82 f9 61 3e 87 4f c7 3e 2a f0 34 3e 27 58 30 3e
       0.22067836 0.38927862 0.1766974 0.17221127
0000f0 d8 22 54 3e 34 5f 37 3f a1 43 be 3e f6 51 a0 3e
       0.20716417 0.71629643 0.37160972 0.3131253

conv.weight f4 [8, 1, 4]
000000 bb b3 c6 be 05 c6 d4 3d f8 fc 8b bc 9a 09 8b 3e
       -0.38808998 0.10389332 -0.017088398 0.27155763
000010 49 d5 83 be 64 60 dd 3e b5 5d c7 be 96 c4 32 3d
       -0.2574866 0.43237603 -0.3893868 0.04364451
000020 05 ca cb 3d ba 4f 84 3d 3c f4 f3 3e 6b 67 4b 3e
       0.099506415 0.06460519 0.47647274 0.1986367
000030 58 3d 12 bf c9 bc fb bd 4f f7 f5 3e e3 36 11 3d
       -0.57124853 -0.12291867 0.48040244 0.035452735
000040 fb 65 0c 3e 3e 4e 52 be 65 ba 36 be ec 95 0a 3f
       0.13710777 -0.2053766 -0.17844541 0.5413501
000050 4c 62 2f 3e 92 54 92 be 10 3f 94 3e 6c b4 03 bf
       0.17127341 -0.28580147 0.28954363 -0.51447177
000060 6b dc ed be 88 28 ac 3e b5 b6 57 be a1 8c ad 3d
       -0.46457228 0.33624673 -0.21065791 0.084740885
000070 20 51 a8 be f9 ef ba be 1d 63 94 be 74 02 a3 3e
       -0.32874393 -0.3651121 -0.28981867 0.3183781

classify.weight f4 [2, 64]
000000 4a 82 0e 3e 8e 38 1f be 7f fc 5e 3e 51 d8 59 be
       0.13916889 -0.15548918 0.21776007 -0.21273924
000010 d6 13 11 be e0 5d 5b be 25 b5 73 3e 9a 07 92 bd
       -0.14167723 -0.21422529 0.2379957 -0.07130356
000020 bb b3 b1 bd e1 e4 3f be ea 1d 5e be 49 a8 62 3e
       -0.08676859 -0.18739654 -0.21691099 0.22134508
000030 11 1f a1 bd e2 f1 cb 3d d0 08 0a 3e 65 d9 fe 3d
       -0.078672536 0.09958245 0.13479924 0.124438085
000040 78 5d 32 be 5b e2 7c 3e f3 75 f7 3d 0d 27 cd bd
       -0.17418468 0.24695723 0.12083044 -0.10017214
000050 6f 34 54 3e bc 8a 4d be 66 de 26 3e 89 3f 1f be
       0.20723127 -0.20072454 0.16295776 -0.1555158
000060 72 26 36 be 7f 8c 0a be 3a 07 28 be 92 61 72 3e
       -0.17788103 -0.13530158 -0.16409007 0.23670033
000070 86 9e 0c 3e 73 6a 3f be 07 14 49 be 80 aa 14 be
       0.13732347 -0.18692951 -0.19636546 -0.14518166
000080 6b 55 6f be ec 46 03 be 4d 34 93 bd 54 b4 6f be
       -0.23372428 -0.12820023 -0.0718771 -0.23408633
000090 f5 5e 1f 3e 7a 2b 13 be 0d 5a dd 3d 54 f4 4b be
       0.15563567 -0.14372054 0.108081914 -0.19917423
0000a0 c5 6a 53 3e b8 d1 f0 3d bb 18 12 3e d2 ac d0 bd
       0.20646198 0.11758751 0.14267246 -0.10189213
0000b0 d4 46 cb bd 99 eb 26 3e d9 bc e4 3d 75 57 4a 3c
       -0.09925619 0.16300811 0.11168832 0.012349953
0000c0 ca 16 df 3d fe fb 50 be a0 8c 97 bd 12 e5 24 be
       0.108930185 -0.20408627 -0.07399869 -0.16103008
0000d0 ff 91 13 bd 9e 85 80 3e ce f1 48 bd b8 ce 18 be
       -0.036027905 0.25101942 -0.049058728 -0.14922607
0000e0 fc 12 09 be 4f 71 6a 3e 46 a1 f2 bd b7 93 2e 3e
       -0.13386148 0.22894786 -0.11847167 0.17048536
0000f0 de 2e 15 be 78 6e 73 3d 50 60 45 3e c4 08 66 3e
       -0.1456866 0.059431523 0.19275022 0.22464281
000100 5f 36 8f bd f6 19 17 3e db 27 1b be ad a0 7a 3d
       -0.06992792 0.14755997 -0.15151922 0.06118839
000110 5b 12 6a 3e 2d e1 55 3d 46 fe 2a be c4 bb 3e 3e
       0.22858565 0.052216697 -0.1669856 0.18626314
000120 f4 f4 45 3e b7 b2 a6 3d 03 53 6f 3d 32 4b 4f be
       0.19331723 0.08139556 0.058428776 -0.20243528
000130 16 70 48 3e 12 0f 16 be 29 8d 37 be 63 d6 46 be
       0.19574007 -0.14654186 -0.17924942 -0.1941772
000140 58 17 9f 3d 08 88 ad bd 87 87 54 be ed cf 29 3e
       0.07768124 -0.084732115 -0.20754825 0.16583224
000150 2f 18 65 be d0 1b 72 3e 27 20 34 be bd c5 5d 3e
       -0.22372507 0.23643422 -0.1759039 0.21657462
000160 f8 12 72 3d 79 55 2f 3e a7 76 d7 3d cf f5 3c be
       0.05910012 0.17122449 0.10520678 -0.18453144
000170 e4 54 12 be 89 3a 1c 3e f6 f5 2d 3e 49 bb 46 3e
       -0.14290196 0.15256704 0.16988358 0.19407381
000180 63 37 e9 3d 79 ad 2d 3e 49 1d 20 3e 9a 5d 87 3d
       0.11387517 0.16960706 0.15636171 0.0660965
000190 05 7b 30 be fa a5 32 3e 07 31 23 be dc 32 04 3e
       -0.17234428 0.17446128 -0.15936671 0.12910026
0001a0 fa a4 aa bd a1 b6 1e be 59 96 1f be 23 fa 65 3e
       -0.08332248 -0.15499355 -0.15584697 0.22458701
0001b0 3f e6 37 3e c1 05 64 be 5f 19 7d be 74 4f 88 bd
       0.17958926 -0.2226782 -0.2471671 -0.066557795
0001c0 a3 08 43 be 0e ac 4c 3e e2 54 46 3e 3e bf 44 3e
       -0.19046263 0.19987509 0.19368318 0.19213578
0001d0 1f 2a 70 3e 8c e7 19 bd 65 87 3b 3e 67 f0 e4 3d
       0.23453568 -0.037574336 0.18313368 0.111786656
0001e0 c1 00 55 3e 9b 1e be bd 57 7d 21 3e 25 41 30 be
       0.20801069 -0.09283181 0.1577047 -0.1721235
0001f0 f3 1e e4 3d 2d 4f 3f be ed 64 08 be c4 fa 52 be
       0.111387156 -0.18682547 -0.1331975 -0.20603472

classify.bias f4 [2]
000000 60 49 e9 bb 5a 56 01 3d
       -0.0071193427 0.031576492
