BCI/output/openBMI/LightConvNet/sub53/2023-10-05--17-38/model.pth (torch, 51356 bytes, 9 tensors)

spacial_block.0.weight f4 [64, 9, 20, 1]
000000 0e 0d 0b bd 1f d1 89 3c a3 11 8d 3c 53 1b 08 bd
       -0.033947997 0.01682335 0.017220324 -0.033229183
000010 a9 d5 77 bd 4a 2a 56 3d c7 3c 67 3d 8e e0 56 3d
       -0.060506497 0.052286424 0.056454446 0.052460246
000020 39 af 34 3c 56 de ab bc 6f a3 ac bc 51 fa 04 3c
       0.011028104 -0.020980041 -0.021074025 0.008116321
000030 7c e0 34 bc 3a 12 cd 3c 7d 22 be bd ba 4f 24 bd
       -0.011039849 0.025033105 -0.09283922 -0.040115096
000040 bd 30 3c 3d 11 65 99 3d 5c 75 ae 3b 24 94 35 bd
       0.045944918 0.0748998 0.005324049 -0.04433073
000050 ce a0 5c bd 5f 8b 06 3c e9 af 9f 3c e4 2b f0 ba
       -0.053864293 0.00821194 0.01949306 -0.0018323627
000060 75 b4 b2 bc 64 64 84 3c ed 4f 84 3d a9 66 33 bd
       -0.021814564 0.016161151 0.06460557 -0.043799076
000070 9d 17 a9 3c 99 96 ec bc a8 9c 2a 3d 58 1c 3c 3c
       0.020641143 -0.028880404 0.041653305 0.011481367
000080 f9 09 ff bc 73 4e e3 3c 1a b2 43 bd bb d3 bb bc
       -0.031132685 0.027747368 -0.047777273 -0.02292811
000090 86 58 76 3c f1 e4 70 3d 5d 4d 19 bc c6 05 a9 bc
       0.015035754 0.058812086 -0.009356824 -0.020632636
0000a0 9e 3f a6 bd 94 74 56 bc 48 19 c5 3c 22 f8 89 bd
       -0.08117603 -0.013089318 0.024059907 -0.06736781
0000b0 11 19 13 3d 47 77 98 bc 7f 3f 9d 3d df 65 99 3d
       0.035912577 -0.018611563 0.076781265 0.074901335
0000c0 b6 2b 53 bb ec 50 aa bb e4 ce 62 3d 09 41 81 3d
       -0.0032222099 -0.005197635 0.055373088 0.063112326
0000d0 d2 09 27 bc 03 bb ea bc f8 89 7c 3d bd 52 9b bd
       -0.010195212 -0.028653627 0.061655015 -0.075841404
0000e0 01 a8 11 bc 60 70 35 bd e2 e1 84 bd e3 d6 bf bc
       -0.008890153 -0.044296622 -0.06488396 -0.023417896
0000f0 9a c9 f9 bc 3e 67 b8 b9 34 09 39 bc 4b 41 09 bb
       -0.030491639 -0.00035172136 -0.011293698 -0.0020943459
000100 42 bb 90 3d 21 74 a8 bc 91 42 71 bd 3e e8 55 bd
       0.070669666 -0.020563187 -0.058901373 -0.052223437
000110 61 13 31 3d bb 90 95 3d 5a b0 31 bd 1f c1 14 bd
       0.04323137 0.07302996 -0.043381073 -0.036316987
000120 5e a2 9a bc 73 51 dc 3b 8b 35 64 3d d0 b5 82 3d
       -0.01887625 0.0067235767 0.055715125 0.06382334
000130 ad 98 18 3d 21 a7 af bd eb 06 7e bc e0 c4 13 bb
       0.037254978 -0.08576799 -0.015504579 -0.0022547767
000140 90 a1 92 bd ac 86 23 3e b8 43 8f 3d 59 cf ac bd
       -0.07159722 0.15969342 0.06995338 -0.08437986
000150 90 b2 c9 3b 68 8d 60 3d 30 10 27 3d 45 a3 d7 bd
       0.0061553195 0.054822356 0.040786922 -0.10529188
000160 8f 96 a8 3c 1d b5 a4 bd 7b 48 c1 bc 56 bb b8 3d
       0.020579604 -0.08042357 -0.023594132 0.090201065
000170 05 d6 5a 3e 3f b1 61 3d ad 8f c6 bd 8d c0 6b bd
       0.21370704 0.055100676 -0.09695373 -0.057556678
000180 61 5d 70 3d f2 9e 67 3c 5a 11 8a bd 1c 06 76 bd
       0.058682803 0.014137017 -0.06741591 -0.06006442
000190 d2 38 2c bd 01 b9 8b 3d ab 76 05 bc 95 5f a0 bc
       -0.042046376 0.06822396 -0.008145968 -0.019576827
0001a0 3b ff 44 bc f1 c8 be bb aa cc c4 bd 26 3a e5 bc
       -0.012023742 -0.005822294 -0.09609349 -0.027981829
0001b0 ae ff 8f 3d e7 6d e2 bb cb 53 43 bb e6 3f 85 3d
       0.07031189 -0.006910074 -0.0029804583 0.06506328
0001c0 c4 df ed 3a 4b 19 d2 3c 38 01 68 3d 30 af 87 bd
       0.0018148352 0.025646826 0.056641787 -0.06625211
0001d0 be fb ab 3c d6 ae 8d bc a5 17 59 bc e4 98 fa 3c
       0.020994063 -0.017295282 -0.013250266 0.030590482
0001e0 56 1b e3 bc dc c5 15 3d bf 7e 2d 3c bc 4b f6 37
       -0.027722996 0.036565647 0.010589301 2.9360752e-05
0001f0 75 db f5 bc c3 cc 44 3c 6d 79 61 bc 7a f6 32 bd
       -0.030011872 0.01201171 -0.01376186 -0.04369209
000200 91 06 eb 3c 16 aa 9b bd bd 9e 1e 3a 3e 14 1e 3d
       0.028689655 -0.07600801 0.00060508755 0.038593523
000210 76 4c 50 3c c9 5e c1 3c 7a f1 88 3d e9 58 24 bd
       0.012713542 0.023604767 0.06686683 -0.040123854
000220 f7 5a 58 3d 20 1b 05 bd 67 61 b1 bc 4d c3 a3 3c
       0.052821126 -0.03249657 -0.02165289 0.019990588
000230 9d 65 a7 bc db ad bc bb df 3f 82 3d 19 ad 0f 3b
       -0.020434195 -0.00575803 0.06359839 0.0021923243
000240 78 be cf bc 2f 96 b7 3c e0 1c 66 3c d3 13 5c bd
       -0.025359377 0.02241048 0.01404497 -0.053729843
000250 00 a7 0e bc bb 4c 8d bd 69 d5 0b bd be 22 4f 3c
       -0.008706808 -0.06899401 -0.03413907 0.0126425605
000260 ef 8b ab 3c 02 70 97 3c 85 b2 2b 3d 91 bd 8e bd
       0.020940749 0.018486027 0.041918296 -0.06969751
000270 ef 41 d7 3d f9 ce a1 bc 35 7c 1c bd bb 96 b2 3c
       0.10510623 -0.019752013 -0.03820439 0.02180039
000280 42 e4 3b bd 29 72 40 3d 74 be 84 bc f5 19 aa bd
       -0.04587198 0.04698387 -0.016204096 -0.08305732
000290 81 9b 20 3b 8a bb 61 3d f5 9b b2 bc 6c 20 6d 3d
       0.002450675 0.05511049 -0.021802882 0.057892248
0002a0 50 1f bc bb 88 60 00 bd d3 51 69 3d a7 b6 01 bd
       -0.0057410374 -0.03134206 0.0569628 -0.03166833
0002b0 0e a6 9a 3d 05 59 b8 3d 08 8d 3b bd 56 82 76 3c
       0.07551204 0.09001354 -0.045788795 0.015045723
0002c0 f6 d4 3e 3c e8 d7 49 bd 3f ab a4 3c c1 d6 b8 bd
       0.0116474535 -0.04927817 0.020101188 -0.09025336
0002d0 da 04 3d 3d 0f f2 0b bc fb b8 21 3c 90 40 ad bd
       0.046147205 -0.008541598 0.009870763 -0.0845958
0002e0 8e 63 86 bd d4 75 00 3e f0 56 b6 bc c9 b9 48 bd
       -0.06561957 0.12544948 -0.022258252 -0.049005304
0002f0 80 b1 4d bd 43 a7 4a 3d 25 ec a2 3d 64 5f 1f 3d
       -0.050218105 0.04947592 0.07955197 0.03890933
000300 b4 eb 9a bd dc da 94 3b f4 5b cf 3c a5 c0 b9 bb
       -0.07564488 0.0045426916 0.025312401 -0.005668717
000310 09 a7 12 3c 60 da 1e 3d 3c b1 91 bc 16 3f 46 bc
       0.008950957 0.038782477 -0.017784707 -0.012100002
000320 e6 7e bd 3d 66 30 6f 3d 7b 75 bc bd a3 b3 6d bb
       0.092527196 0.058395766 -0.09202095 -0.0036270402
000330 44 74 9e bc 0d 5d 86 3d c5 b6 8e bc 11 ad 5d 3c
       -0.01934255 0.06560717 -0.017421136 0.013530032
000340 74 5b 4a 3c 5e d1 cb 3c b7 23 14 3c 7c 93 4c bc
       0.012350906 0.024880107 0.009041718 -0.012486335
000350 20 12 23 bd 39 5e 2f bd dc 74 93 bc b3 ef 0d 3c
       -0.039812207 -0.042814467 -0.018000059 0.008663106
000360 9f aa f8 bc 63 27 34 3c a8 b1 2f 3d f9 70 b8 3b
       -0.030354796 0.010995719 0.042894036 0.0056287018
000370 33 b6 ae 3d 2b 2d 95 bc 5c 29 94 3c ff f7 64 bd
       0.085308455 -0.018210014 0.018086128 -0.05590057
000380 e1 54 aa bb 76 a5 e1 3b 42 9e 98 bd fc 4a 19 bd
       -0.0051981066 0.0068861796 -0.0745206 -0.037425026
000390 98 23 0e bd c0 0d f6 bd 17 52 97 bb 72 c8 95 3d
       -0.034701914 -0.12014341 -0.00461794 0.073136225
0003a0 08 3d 60 3d 54 0a 30 3d b7 7e be 3d fd 4f 07 bd
       0.054745704 0.0429786 0.09301513 -0.033035267
0003b0 44 29 00 3e 0a 9d 63 bd 0f c3 d7 3c 92 ea 17 bd
       0.12515742 -0.055569686 0.026338128 -0.037088938
0003c0 1b 4d 1f 3e 9d f8 c8 3c f4 5c 91 bd a5 8c f1 bb
       0.15556757 0.02453261 -0.070978075 -0.0073715025
0003d0 69 10 7a 3d f9 d4 26 bd 6e e1 23 bb 58 cd ef bd
       0.061050806 -0.04073045 -0.0025006193 -0.11709088
0003e0 bf 38 85 3c b6 bd 2c 3b 58 ff 32 3d d2 70 25 b9
       0.01626241 0.0026358194 0.043700546 -0.00015777655
0003f0 7c 50 4b bc d0 69 3f 3d 6d 80 bf bc 86 6b 85 3d
       -0.012409326 0.04673177 -0.023376668 0.06514649

spacial_block.0.bias f4 [64]
000000 cf 34 d1 bc 44 9b 7c bd d0 f6 b9 3c d2 1b 05 bd
       -0.025537876 -0.06167151 0.022700697 -0.032497235
000010 ae 2b b2 3b 36 bd 38 bd 3c 87 15 3d bd 7d 5c bd
       0.005437336 -0.04510232 0.036505923 -0.05383085
000020 f8 d0 7d bd 51 1f 8f bd 71 1c 84 3d cb a2 12 3d
       -0.061966866 -0.06988395 0.06450737 0.035799783
000030 01 36 52 bd 39 6d 8c bc 46 ba 69 3d 5a a7 bb 3c
       -0.051321033 -0.017141925 0.05706241 0.022906948
000040 2b f8 89 3d 02 4d 34 bc d0 ac 05 bc f4 b9 63 3d
       0.067367874 -0.011004688 -0.0081588775 0.05559726
000050 64 2f 1e bb 63 de 80 bd 67 65 8b bc b2 78 65 3d
       -0.0024137134 -0.06292417 -0.017016126 0.056023307
000060 d6 f7 fb 3c 59 a0 6f bc 67 b0 96 bd 29 d6 5f 3d
       0.030757826 -0.014625632 -0.07357865 0.0546476
000070 d5 94 82 bc 77 b2 7b bc bf 0b 8c 3d 66 00 2a 3d
       -0.01594011 -0.015362374 0.06838178 0.041504286
000080 d0 bd cd 3c 1a 4a cb 3c 1a 76 f5 3a 10 99 c7 3b
       0.025114924 0.024815608 0.0018727214 0.0060912445
000090 85 69 20 bd 93 4e d6 3c d8 f1 15 3d 89 ac 21 3d
       -0.03916313 0.026160514 0.036607593 0.039471183
0000a0 96 25 18 bd 13 8d 8f 3b 33 10 6e bb f4 9b 34 bd
       -0.03714522 0.004380831 -0.0036325573 -0.04409404
0000b0 9d 44 84 3c 39 1e 30 3d de fe bb 3b ac ad 0a bd
       0.016145999 0.042997573 0.0057371696 -0.033857033
0000c0 39 a2 76 3d ad 36 21 bd 20 d0 ea 3c b9 d5 87 3a
       0.0602133 -0.039358784 0.028663695 0.0010363377
0000d0 3f 97 d5 3c a1 34 fb 3c e8 a4 8d bd 0b 68 94 3c
       0.026073096 0.030664744 -0.06916219 0.018116018
0000e0 6c 7e b0 ba 7d 1f 79 bd 11 c1 3e 3d 93 22 da 3b
       -0.0013465411 -0.060821045 0.04657084 0.0066569536
0000f0 5e ee b1 bc b2 cb 45 bb 11 21 53 3d 93 ce e6 bc
       -0.021720108 -0.0030181226 0.051545206 -0.028174674

spacial_block.1.weight f4 [64]
000000 13 00 87 3f 3a 68 8d 3f ea 8b 86 3f f7 1e 85 3f
       1.0546898 1.1047432 1.0511448 1.0400075
000010 32 04 86 3f 2e 9c 83 3f ac 11 86 3f 76 31 86 3f
       1.047003 1.0282037 1.0474143 1.0483844
000020 cf 01 86 3f a7 80 93 3f 2e c8 85 3f dc 1e 85 3f
       1.0469302 1.1523637 1.0451715 1.0400043
000030 68 43 98 3f c0 da 97 3f 82 47 88 3f 93 f3 80 3f
       1.1895571 1.1863632 1.0646822 1.0074333
000040 3e 27 8d 3f e8 fc 85 3f 25 66 86 3f 5a ba 89 3f
       1.1027601 1.0467806 1.0499922 1.0759995
000050 0c b3 83 3f 18 48 84 3f 51 00 88 3f 6e 50 86 3f
       1.0289016 1.0334501 1.0625097 1.0493295
000060 10 10 84 3f e7 a8 86 3f e5 7e 8e 3f 7b 07 83 3f
       1.0317402 1.0520295 1.1132475 1.0236658
000070 b8 22 87 3f 42 5a 84 3f 0d c5 83 3f 76 92 86 3f
       1.055747 1.0340044 1.029451 1.0513446
000080 44 1a 88 3f b1 fa 8c 3f 92 b6 86 3f 41 8d 89 3f
       1.0633016 1.1014005 1.0524466 1.0746232
000090 fa c1 86 3f 5e dc 8a 3f cf ad 8f 3f 57 35 88 3f
       1.0527947 1.0848501 1.1224917 1.0641278
0000a0 f3 3d 91 3f b0 48 98 3f 87 40 8a 3f 11 ec 89 3f
       1.134703 1.1897182 1.0800942 1.0775167
0000b0 be 51 91 3f 71 fd 84 3f 42 5a 8b 3f a9 6c 89 3f
       1.1353071 1.0389844 1.088692 1.0736285
0000c0 7f 6f 87 3f a5 9c 86 3f e3 36 8b 3f e7 98 85 3f
       1.0580901 1.0516554 1.0876125 1.0437287
0000d0 eb 23 9a 3f 16 50 96 3f aa da 88 3f 88 28 8a 3f
       1.2042211 1.174319 1.0691731 1.0793619
0000e0 a1 dd 86 3f cd 61 8b 3f db 16 86 3f a7 74 89 3f
       1.0536386 1.0889221 1.0475725 1.0738724
0000f0 3e 3b 83 3f ab b2 85 3f 9b ec 8d 3f f8 80 86 3f
       1.0252454 1.044515 1.1087831 1.0508108

spacial_block.1.bias f4 [64]
000000 d1 15 df bd cc a4 13 be f7 09 15 be 7f 67 a4 bd
       -0.10892833 -0.14418334 -0.14554583 -0.08027553
000010 4e 6a 07 be 1b 5a 89 bd d4 02 b0 bd ae 31 c3 bd
       -0.13224146 -0.067066394 -0.085942894 -0.0953096
000020 c0 76 e6 bd 2e 79 09 be 30 d2 c3 bd df 00 d1 bd
       -0.112531185 -0.13425133 -0.095615745 -0.10205244
000030 7c e4 6d be 45 e4 75 be 3b 69 f0 bd 53 8e b4 bd
       -0.23231691 -0.24012859 -0.11738821 -0.08816209
000040 a5 63 b9 bd a9 2a 00 be 35 1a 05 be 79 b7 f3 bd
       -0.09052209 -0.12516274 -0.12998278 -0.11900229
000050 8a 6b d8 bd d0 04 a6 bd 5d ef 89 bd b8 fd e9 bd
       -0.105673864 -0.08106387 -0.06735108 -0.11425346
000060 d1 1e ba bd b8 6f e3 bd 49 35 39 be 77 55 a7 bd
       -0.09087909 -0.11105293 -0.18086733 -0.08170598
000070 54 57 4b be 04 d1 99 bd 2a ec 7c bd 9f c6 f2 bd
       -0.19857532 -0.0751057 -0.06174866 -0.1185429
000080 89 ad 1f be bc 87 05 be c8 bd 17 be 97 69 1a be
       -0.15593542 -0.1304006 -0.1481849 -0.15079342
000090 f5 74 05 be 03 fa 36 be 52 d7 4d be f7 bd 0b be
       -0.13032897 -0.1786881 -0.2010167 -0.13646685
0000a0 cd a7 41 be bd 92 38 be 0b 3a 0d be 56 8c fe bd
       -0.18911667 -0.18024726 -0.13791673 -0.12429111
0000b0 6b ef 3b be e1 38 ff bd d7 52 0a be fa 2e f5 bd
       -0.1835305 -0.12462021 -0.13508163 -0.11971851
0000c0 a4 03 27 be 56 8b a9 bd 89 14 b4 bd 04 38 89 bd
       -0.16309983 -0.08278529 -0.08792979 -0.06700137
0000d0 dd f8 68 be 3c 75 5c be a6 07 02 be fe 3b 23 be
       -0.22751184 -0.21529096 -0.1269823 -0.15940854
0000e0 c7 3e b8 bd c7 5b bf bd 26 55 d7 bd b6 33 11 be
       -0.08996349 -0.09343677 -0.10514288 -0.14179882
0000f0 b6 2f 9b bd 0f 91 00 be bd 31 19 be dd cd d9 bd
       -0.075774595 -0.12555335 -0.1496038 -0.106349684

spacial_block.1.running_mean f4 [64]
000000 3d 7e 50 bf 75 eb 5a 3f 93 79 c5 3e 9d 90 af 3e
       -0.81442624 0.8551553 0.38569316 0.3429002
000010 48 74 05 3f 98 c4 59 3f e3 8c 68 be 9d 6e 03 3f
       0.52130556 0.85065603 -0.22709994 0.5134066
000020 f5 54 be 3f 1c c2 a4 3e ec 43 6e bd f4 d0 92 be
       1.4869677 0.32179344 -0.058170244 -0.28675044
000030 74 74 50 be 4f b3 3a bd a6 86 21 3f 70 68 a2 be
       -0.20356923 -0.04558116 0.6309608 -0.31720304
000040 45 76 1b 3f fe 37 31 3e 82 43 c5 bd 66 02 bc 3f
       0.6072734 0.17306516 -0.09632017 1.4688232
000050 9a fa 97 be e5 06 e5 3e bc d2 81 3e 79 a4 92 3f
       -0.2968338 0.44731823 0.2535609 1.1456443
000060 95 e7 3b 3f 5c d2 92 3f 76 ba 1a 3e 17 b9 f2 3e
       0.7340024 1.1470447 0.15110192 0.47406837
000070 4e 43 7f bd ab 83 28 bf 23 e9 cc 3f 9e 55 b9 3f
       -0.062320046 -0.6582591 1.6008648 1.4479253
000080 e4 fb 73 3f bf bf 50 3f b6 3d 5d 3e 4f 22 91 3f
       0.9530623 0.8154258 0.21605572 1.1338595
000090 c2 41 45 3c 9f 50 b1 3d 83 8b a3 3d bd d6 f9 3e
       0.012039604 0.086579554 0.07985594 0.48796645
0000a0 ea 54 88 3e 56 8c 90 be 26 3f f9 3d d9 c1 a4 3f
       0.26627284 -0.28232068 0.12170248 1.2871658
0000b0 b8 97 f7 3e 82 d9 44 3e 74 bd 42 be 6e 88 bb 3f
       0.4835794 0.19223598 -0.19017583 1.465101
0000c0 18 ad b3 3d 01 97 51 3f 70 9b 89 3e b6 c2 ac bf
       0.087732494 0.8187104 0.26876402 -1.3496921
0000d0 f4 f8 0e bf 65 49 a2 3e 6f a8 d9 3f 6f 15 55 3f
       -0.5584862 0.3169662 1.7004527 0.8323583
0000e0 e1 cf 80 3f c4 57 0e 3f 3d 46 fc bd 5b b3 68 3e
       1.006344 0.5560267 -0.123180844 0.22724669
0000f0 d1 93 d2 3e 9e 39 dd 3e 9d ce e5 be 9b 09 64 3e
       0.411284 0.4320802 -0.44884196 0.22269289

spacial_block.1.running_var f4 [64]
000000 cd d9 83 3f ee ad 5a 3f d7 33 de 3f 97 f0 80 3f
       1.0300843 0.85421646 1.735957 1.0073422
000010 52 43 1f 3f d5 c3 c1 3f f6 85 62 3f b3 9f b3 3f
       0.622121 1.5137888 0.8848566 1.4033111
000020 f0 dd 89 3f 6a 3a 66 3f 12 c8 6e 3f 7f a1 4a 3f
       1.0770855 0.8993288 0.93274033 0.79152673
000030 76 d6 78 3f 91 1d 53 3f 88 23 88 3f f0 de 7c 3f
       0.9720224 0.8246699 1.0635843 0.98777676
000040 67 83 80 3f a5 75 48 3f 04 2d 85 3f 81 db 6f 3f
       1.0040101 0.7830451 1.0404363 0.9369431
000050 a4 79 87 3f cd 66 93 3f 37 2e 55 3f f7 0c 67 3f
       1.0583997 1.1515747 0.83273643 0.9025416
000060 df 68 66 3f ba c0 9c 3f ad 8a 5d 3f 33 49 56 3f
       0.9000377 1.2246315 0.8653973 0.83705443
000070 47 99 46 3f 16 f4 c1 3f b4 d0 a9 3f c2 0d 91 3f
       0.7757763 1.5152614 1.3266816 1.1332324
000080 a3 b5 e1 3e a0 39 43 3f ec 4c f6 3e 8c 38 5c 3f
       0.4408389 0.76259804 0.48105562 0.86023784
000090 eb fa 82 3f 48 10 22 3f 5d 90 2f 3f 13 8c 4d 3f
       1.0232824 0.63306093 0.68579656 0.8029186
0000a0 ab 02 36 3f 2e 55 85 3f c2 7c 65 3f 4d dd 41 3f
       0.7109782 1.041662 0.8964349 0.75728303
0000b0 07 f4 f9 3e 68 b2 30 3f ee 89 49 3f f0 e3 1e 3f
       0.4881899 0.69022226 0.7872609 0.62066555
0000c0 38 24 2d 3f ca 8a a0 3f 53 1e 2f 3f 71 f9 3f 3f
       0.6763339 1.2542355 0.68405646 0.7498999
0000d0 fa fa 6f 3f af 7a 1c 3f 29 68 76 3f 9c 52 24 3f
       0.93742335 0.611247 0.96252686 0.6418855
0000e0 5c e3 76 3f fe 50 73 3f b8 bd 5b 3f 93 29 09 3f
       0.9644067 0.9504546 0.8583636 0.5357906
0000f0 79 d3 a3 3f cf f0 71 3f 55 cf 84 3f b8 c7 53 3f
       1.2798911 0.9450807 1.0375773 0.8272662

conv.weight f4 [8, 1, 4]
000000 db 33 e8 be 8a bb b5 3d ff a4 a3 be ac 44 03 3f
       -0.45352063 0.08873661 -0.3196182 0.5127666
000010 3c 39 78 be 2d 7c e1 3e eb f3 10 bf 8a ef 3b be
       -0.24240583 0.4404005 -0.5662219 -0.18353096
000020 76 83 29 3f 75 ac c0 be b1 2f 23 3d 3b 69 32 be
       0.6621622 -0.37631574 0.039840404 -0.17422955
000030 6a 86 1b bf f3 58 ee be 4d 7b 13 3f 79 fb 6e bd
       -0.60751975 -0.46552238 0.5761002 -0.05834529
000040 3d 0e 30 3f 3b ce 2f bf 9c e5 fe be 90 1e ff 3e
       0.68771726 -0.6867406 -0.49784553 0.49828005
000050 fa 80 2d 3f 49 25 2d bf fc c2 0d be 91 39 31 bf
       0.6777493 -0.6763502 -0.13843912 -0.69228464
000060 46 33 00 bf 71 6a 8f 3e b6 60 48 be 45 fa 01 3e
       -0.5007824 0.28010896 -0.19568142 0.12693126
000070 a6 0c 59 be 95 63 59 be fa cc 1d bf 54 d5 c2 3e
       -0.21196231 -0.21229394 -0.61640894 0.3805338

classify.weight f4 [2, 64]
000000 27 dd 4b 3e 00 3c 1f be 07 9e 7e 3e 84 87 2a be
       0.19908582 -0.15550232 0.2486497 -0.16653258
000010 72 b8 28 be e6 4c 47 be 22 12 7a 3e c2 9d c4 bd
       -0.1647661 -0.19462928 0.2442098 -0.096004024
000020 5a fb e2 bd a7 fe 46 be bf 99 6b be 77 5f 87 3e
       -0.11083098 -0.1943308 -0.23007868 0.2644002
000030 65 f2 5d 3e df 9d 12 3e 32 78 1a 3e 3d 1f 2c 3e
       0.21674497 0.14318036 0.15084913 0.16808791
000040 e4 18 3a be 89 7b 89 3e e8 4e 34 3e f3 d5 b1 bd
       -0.18173558 0.26852062 0.17608225 -0.08683386
000050 70 a8 70 3e 1a 2c 59 be ef 99 63 3e 4f 2c 32 be
       0.23501754 -0.2120823 0.2222669 -0.17399715
000060 9f 62 50 be 88 35 1f be 0d 9f 4e be cd 25 89 3e
       -0.20350121 -0.15547764 -0.2017786 0.26786652
000070 f8 98 27 3e 9c 3d 4d be c7 11 35 be cf df 41 be
       0.16366947 -0.20043033 -0.17682563 -0.18933032
000080 6d 7a 89 be 8c 07 16 be e4 c4 10 be b6 ed 78 be
       -0.26851216 -0.14651316 -0.14137608 -0.2430943
000090 38 9e 39 3e 30 13 3a be f5 2e 0b 3e 6a da 80 be
       0.18126762 -0.18171382 0.13592131 -0.25166637
0000a0 3a 34 6e 3e c3 fe 0c 3e 98 6c 2d 3e 0e ad 06 be
       0.2326211 0.13769059 0.16935956 -0.13151953
0000b0 35 00 ec bd 43 f6 57 3e ef 9a 0b 3e c3 47 c2 bd
       -0.11523477 0.21090035 0.13633321 -0.09486344
0000c0 23 09 0c 3e c7 e5 67 be 3a be c7 bd 68 d9 36 be
       0.1367536 -0.22646247 -0.0975308 -0.17856371
0000d0 fc 54 8a 3e 5c be 9b 3e 8b 45 c9 bd 2d f9 24 be
       0.27017963 0.3041867 -0.098277174 -0.16110678
0000e0 68 6c 31 be ae a6 7f 3e 76 cb 16 be 80 56 61 3e
       -0.1732651 0.24965927 -0.14726052 0.22005653
0000f0 e2 94 64 be 8c ba d7 3d a9 d8 56 3e 9f 85 77 3e
       -0.2232242 0.10533628 0.20981087 0.24172066
000100 05 f6 04 be 72 1d 17 3e 63 c9 3a be 8a 76 75 3c
       -0.12984474 0.14757326 -0.18240885 0.014981875
000110 81 db 80 3e 2d 9d 05 3d 3c 5b 31 be d9 06 58 3e
       0.25167468 0.032620598 -0.1731996 0.21096362
000120 b9 98 5e 3e 56 e6 b4 3d 1b a1 92 3d d1 61 7b be
       0.21737947 0.088329956 0.07159635 -0.24549033
000130 a2 23 cc bd ee b3 42 be 7e fc 47 be da 88 73 be
       -0.09967734 -0.1901395 -0.19529912 -0.23782673
000140 2c 8e ae 3d 6d b1 d9 bd ba 8d 86 be 6f 27 1c 3e
       0.08523211 -0.106295444 -0.26280004 0.15249418
000150 13 c6 80 be 3d bd 7d 3e a8 db 70 be 86 b2 70 3e
       -0.2515112 0.2477922 -0.23521292 0.23505601
000160 c8 81 ad 3d 92 fe 43 3e 31 53 12 3e dc df 5c be
       0.084720194 0.1914008 0.14289548 -0.2156977
000170 52 4f 2d be b2 0d 2a 3e c3 f3 19 3e a1 f0 73 3e
       -0.1692479 0.16606787 0.15034394 0.23822261
000180 26 3b 18 3e 12 6e 40 3e 08 48 67 3e 5e d0 99 3d
       0.14866313 0.18791988 0.22586071 0.07510446
000190 40 ba 4a be b5 8d 59 3e ed b2 3f be 6b f3 39 3e
       -0.19797611 0.21245463 -0.18720599 0.18159263
0001a0 e8 37 e0 bd 88 4c 33 be 35 ea 3a be 5c 28 82 3e
       -0.10948163 -0.17509663 -0.18253405 0.25421417
0001b0 f2 42 48 3e 31 88 8a be ee 2a 8b be 8f 86 26 3d
       0.19556788 -0.2705703 -0.2718119 0.04065567
0001c0 62 86 5f be e0 95 63 3e b2 6d 5e 3e 99 b3 56 3e
       -0.21828607 0.22225142 0.21721533 0.20966949
0001d0 9e c8 92 bd 92 d6 b9 bd c0 ed 6d 3e 49 45 fd 3d
       -0.07167171 -0.09074129 0.23235226 0.12366731
0001e0 28 5a 7d 3e 38 89 e8 bd 38 f8 3e 3e e8 03 63 be
       0.24741423 -0.113542974 0.18649375 -0.22169459
0001f0 8f 75 41 3e c7 50 6e be 36 dd 19 be 9d 77 64 be
       0.18892501 -0.23273002 -0.15025792 -0.22311254

classify.bias f4 [2]
000000 e5 1f 1b 3c 6d 94 75 3c
       0.0094680535 0.014989001
