BCI/output/openBMI/LightConvNet/sub41/2023-10-05--17-38/model.pth (torch, 51356 bytes, 9 tensors)

spacial_block.0.weight f4 [64, 9, 20, 1]
0	0xbcf329cf	-0.029683022
1	0x3cb68295	0.022279063
2	0xbd42c0d9	-0.047547195
3	0xbd2068e2	-0.039162524
4	0x3d09438b	0.03351168
5	0x3c079961	0.0082763145
6	0x3d7953bc	0.06087087
7	0x3dba67ea	0.09101851
8	0x3cac1df0	0.021010369
9	0x3ceec94d	0.029148722
10	0xbcb35dfb	-0.0218954
11	0x3d2fccc9	0.042919908
12	0xbd5d5141	-0.054032568
13	0xbd8e8034	-0.069580466
14	0xbd737122	-0.059434064
15	0xbcfe751b	-0.0310617
16	0x3cc454c7	0.023966206
17	0xbc29e5e8	-0.010369755
18	0x3d00cf6e	0.03144782
19	0xbb8e4382	-0.0043415437
20	0xbd03b601	-0.032155994
21	0x3d82b38d	0.06381903
22	0xbd1cb499	-0.03825817
23	0x3d75ce81	0.06001139
24	0xbd90ed8c	-0.070765585
25	0x3ca58779	0.0202062
26	0x3dc3f954	0.0956904
27	0xbc6e27eb	-0.014535884
28	0x3bbaed56	0.005704562
29	0x3d965259	0.07339925
30	0xbd8fb02f	-0.07016026
31	0x3d6fb1b1	0.05851907
32	0xbd61f39c	-0.055163965
33	0xbd90c96d	-0.07069669
34	0xbcdebd97	-0.027190013
35	0xbcfbb9a1	-0.030728163
36	0xbccbff56	-0.024902027
37	0x3d848d72	0.06472291
38	0x3d3a395f	0.04546487
39	0x3a1ada31	0.0005907147
40	0xbd0487cd	-0.032356072
41	0x3c95f6db	0.018306186
42	0x3d3f9a8d	0.04677825
43	0xbe06da42	-0.13169196
44	0xbe185c91	-0.14879061
45	0x3cde22c3	0.027116185
46	0xbc36817d	-0.011139271
47	0x3cc6a636	0.024249177
48	0x3d3cfec1	0.04614139
49	0x3d8b8fd3	0.06814542
50	0xbd2970af	-0.04136723
51	0xbe392227	-0.18079434
52	0x3d7c24f0	0.061558664
53	0xbd82a973	-0.06379976
54	0x3d6eeb15	0.05832966
55	0x3ceaa061	0.028640928
56	0x3dabd859	0.083908744
57	0xbc353615	-0.011060257
58	0x3d2b14fd	0.041768063
59	0x3c9363d9	0.017991947
60	0x3c84be5b	0.01620405
61	0xbd475013	-0.04866035
62	0xbda1aa53	-0.07893815
63	0x3c35250d	0.011056197
64	0x3d93398c	0.071887106
65	0x3c754342	0.014969649
66	0xba97c815	-0.0011580015
67	0xbb3957f8	-0.0028281193
68	0x3d091069	0.033462916
69	0x3de51ca1	0.11187101
70	0xbd94b92a	-0.0726188
71	0x3cb1cb8c	0.021703504
72	0x3d069010	0.032852232
73	0xbcba604a	-0.022750992
74	0x3d717088	0.05894521
75	0x3d3a8b33	0.045542907
76	0x3c9db511	0.019251378
77	0xbdaad837	-0.08342021
78	0xbc968688	-0.018374696
79	0xbde3e8a5	-0.11128358
80	0xbe0aeb8b	-0.13566415
81	0x3c391a61	0.011297793
82	0x3d8c2f98	0.06845015
83	0xbd5988bf	-0.053108927
84	0x3d2b8150	0.04187137
85	0x3c4cc993	0.012499231
86	0x3d381018	0.044937223
87	0xbccf89a0	-0.02533418
88	0x3d43170c	0.0476294
89	0xbc1a9820	-0.0094356835
90	0xbc52a451	-0.012856559
91	0x3c6c468f	0.014421119
92	0xbafbb44c	-0.0019203513
93	0x3b671972	0.003526297
94	0x3c5062ed	0.012718898
95	0xbc5169e7	-0.012781597
96	0x3a0669ae	0.0005127442
97	0x3c85a498	0.016313836
98	0xbd9d871f	-0.07691788
99	0xbc76ebd1	-0.015070871
100	0x3b80c2fa	0.003929493
101	0x3c724b85	0.014788513
102	0xbc9cd2b0	-0.019143432
103	0x3d122a24	0.03568472
104	0xbd550c84	-0.05201389
105	0xbc92fbfb	-0.01794242
106	0xbdbf8f97	-0.093535595
107	0xbd060fe7	-0.03273001
108	0x3cddba13	0.027066266
109	0x3d177697	0.03697833
110	0xbd8a3ae4	-0.06749514
111	0x3ddf025e	0.108891234
112	0xbd922990	-0.07136834
113	0x3c670d6a	0.014102319
114	0x3d979569	0.074015446
115	0xbcbdc1fd	-0.02316379
116	0xbceaaeca	-0.028647799
117	0x3c7639af	0.015028401
118	0x3cde6fd9	0.027152942
119	0xbd16e450	-0.03683883
120	0xbcac7acb	-0.021054646
121	0x3c6ca714	0.014444131
122	0xbb72825e	-0.0037003974
123	0x3c58ace4	0.013224814
124	0xbc3ba2fa	-0.011452431
125	0xbccd0d3c	-0.025030725
126	0x3c207a63	0.009794804
127	0x3c48a8ee	0.012247307
128	0xbc9bd676	-0.019023161
129	0xbbd23e60	-0.006416127
130	0xbd87243b	-0.06598707
131	0x3d702761	0.058631305
132	0xbd03841c	-0.03210841
133	0xbd50ed44	-0.051007524
134	0x3dca7b18	0.098867595
135	0xbc9c52ef	-0.019082515
136	0xbc03a9c2	-0.008036079
137	0xbce1d1b9	-0.027565824
138	0x3cadee85	0.021231899
139	0x3d10e4f3	0.035374593
140	0xbb2ac3c1	-0.002605662
141	0x3b2e6181	0.002660841
142	0x3d469348	0.048480302
143	0x3c7be899	0.01537528
144	0xbcefd14d	-0.029274607
145	0x3c2cb496	0.010541102
146	0xbbddf29b	-0.0067733056
147	0x3c066c73	0.008204567
148	0xbcb24000	-0.021759033
149	0xbc05c16a	-0.008163789
150	0xbddf85ea	-0.10914214
151	0x3c7b137b	0.015324469
152	0x3c36459e	0.0111249965
153	0xbc910441	-0.017702224
154	0x3d8ee4fa	0.069772676
155	0xbd531f22	-0.051543362
156	0x3d06c390	0.032901347
157	0xbd4ff531	-0.050770942
158	0x3d33ebeb	0.04392616
159	0x3d061f7b	0.032744866
160	0xbba9dc44	-0.0051837284
161	0xbbf5de20	-0.007503286
162	0xbd55e98b	-0.052224677
163	0xbd69d394	-0.057086542
164	0x3c70844b	0.014679979
165	0x3c5d76a6	0.0135170575
166	0xba5d8b7b	-0.0008451265
167	0x3d8957fc	0.06706235
168	0xbd180d35	-0.03712197
169	0x3d1434ac	0.036183044
170	0x3c8ef222	0.017449442
171	0xbaaea741	-0.0013324992
172	0x3ce2b6a6	0.027674984
173	0xbc11a84c	-0.008890223
174	0xbcdfd090	-0.02732113
175	0x3d86a636	0.06574671
176	0xb93c474a	-0.00017955634
177	0xbd55f2a5	-0.052233357
178	0x3d435d87	0.047696617
179	0xbd5a69d4	-0.05332358
180	0x3c087219	0.008327984
181	0x3d18cba3	0.037303578
182	0xbca12df0	-0.019675225
183	0xbcb5c235	-0.022187332
184	0x3d11118d	0.03541713
185	0xbc4879c8	-0.012236066
186	0xbd3be2a0	-0.045870423
187	0x3da1aef2	0.07894696
188	0xbdbc8bf0	-0.092063785
189	0x3c63474e	0.013871981
190	0x3c325408	0.010884292
191	0x3d2fc277	0.042910066
192	0xbc898e86	-0.016791593
193	0x3d819255	0.06326739
194	0xbd3ff8b0	-0.046868026
195	0xbd3516dd	-0.044211257
196	0x3ca67c3a	0.020322908
197	0x3d593043	0.05302454
198	0xbd21227d	-0.03933953
199	0xbc5020d5	-0.01270314
200	0x3d59add4	0.05314429
201	0x3caf3a97	0.021390243
202	0xbc3ee369	-0.0116508985
203	0xbc478052	-0.01217659
204	0xbd08b1ba	-0.03337262
205	0x3ce6452f	0.028109161
206	0xbdb79bba	-0.08965249
207	0x3d8f4751	0.069960244
208	0x3c879202	0.016549114
209	0xbcb4e3a6	-0.022081207
210	0xbcb04370	-0.021516532
211	0xbd2db81f	-0.04241192
212	0x3d6a3ef3	0.05718894
213	0x3cba21fa	0.02272128
214	0xbd25b176	-0.040452443
215	0xbcaa1827	-0.02076347
216	0x3c2ee858	0.010675512
217	0x3cb57504	0.022150524
218	0x3ca000cb	0.019531628
219	0xbc311866	-0.01080904
220	0x3b32357d	0.0027192526
221	0x3da59fa0	0.08087087
222	0x3d144a6b	0.036203783
223	0xbbd8da95	-0.006617854
224	0xbd7f411d	-0.062317956
225	0xbc3f6a57	-0.011683068
226	0x3c2b41b9	0.010452681
227	0x3d7c06b0	0.061529815
228	0x3b726481	0.0036986175
229	0xbd4cddd8	-0.050016254
230	0xbcac54be	-0.021036502
231	0x3d38e60e	0.045141272
232	0x3cc0a3e4	0.02351565
233	0xbd251a88	-0.040308505
234	0xbd9463a4	-0.072455674
235	0xbdc16667	-0.0944336
236	0x3dad2ffe	0.084564194
237	0x3d2693f6	0.04066845
238	0xbd28664e	-0.04111319
239	0x3c992566	0.01869459
240	0x3d3a30e4	0.045456782
241	0x3dd67669	0.10471804
242	0xbca5184f	-0.020153193
243	0x3b9a54f1	0.004709833
244	0x3dd53109	0.10409743
245	0xbe423c50	-0.1896832
246	0x3d26508b	0.040604156
247	0xbd769a1a	-0.060205556
248	0x3e2d609c	0.16931385
249	0x3d32a223	0.043611657
250	0xbd9ec6ad	-0.07752738
251	0x3bbc2bcd	0.005742526
252	0x3dcc2835	0.099686064
253	0xbd904497	-0.070443325
254	0xbdb4b3d1	-0.0882336
255	0xbdd77965	-0.10521201

spacial_block.0.bias f4 [64]
0	0xbcbee1f7	-0.023301108
1	0xbd7d8247	-0.06189182
2	0x3ca39a15	0.019970933
3	0xbd01fb09	-0.031733546
4	0x3bd6f221	0.0065596257
5	0xbd3708a2	-0.044685967
6	0x3d140eca	0.036146916
7	0xbd636466	-0.05551567
8	0xbd69bf00	-0.057066917
9	0xbd8e97e8	-0.069625676
10	0x3d8a575e	0.06754945
11	0x3cfb7f53	0.030700361
12	0xbd50f2e7	-0.0510129
13	0xbc9a1a8e	-0.01881149
14	0x3d630051	0.055420224
15	0x3cb4bef4	0.02206371
16	0x3d8bdbbf	0.068290226
17	0xbc427783	-0.011869314
18	0xbc09a9b9	-0.008402281
19	0x3d60ef7d	0.054915894
20	0xbbd47597	-0.0064837444
21	0xbd7b17fd	-0.061302174
22	0xbc9cf0f5	-0.019157866
23	0x3d6a0172	0.057130285
24	0x3d02eccc	0.03196411
25	0xbc5e5e2a	-0.013572255
26	0xbd935f18	-0.07195872
27	0x3d6522d0	0.055941403
28	0xbc7a3fe9	-0.015274026
29	0xbcbd63c4	-0.023118861
30	0x3d8ec922	0.06971957
31	0x3d224cf5	0.039624173
32	0x3cdf306c	0.027244769
33	0x3cd6f3c5	0.026239285
34	0x3ab590a1	0.0013852307
35	0x3ba9d141	0.0051824157
36	0xbd1f786d	-0.038933206
37	0x3cd3c39a	0.025850106
38	0x3d0eb5c5	0.034841318
39	0x3d218e90	0.0394426
40	0xbd19c868	-0.037544638
41	0x3b6459b2	0.0034843502
42	0xbb8a4755	-0.004219929
43	0xbd2e6ed5	-0.042586166
44	0x3c85187a	0.016247023
45	0x3d24413e	0.040101282
46	0x3bf889a8	0.0075847693
47	0xbd072072	-0.032989927
48	0x3d7023fc	0.058628067
49	0xbd20fbd3	-0.03930266
50	0x3cfb3ac2	0.030667666
51	0x3b2fb00c	0.0026807813
52	0x3cdf19c8	0.027233973
53	0x3cdebb1d	0.027188832
54	0xbd8ed6c3	-0.06974556
55	0x3ca48742	0.020084027
56	0x3af14b7f	0.001840934
57	0xbd6ef8ce	-0.058342747
58	0x3d425f6c	0.047454283
59	0x3b915ef0	0.0044363663
60	0xbc9c31dc	-0.019066744
61	0xbac3256f	-0.0014888475
62	0x3d5790dd	0.052628387
63	0xbcf403a2	-0.029786889

spacial_block.1.weight f4 [64]
0	0x3f803c64	1.001843
1	0x3f96dadd	1.1785542
2	0x3f8794da	1.0592301
3	0x3f8aef90	1.0854359
4	0x3f881358	1.0630903
5	0x3f8b1b71	1.086775
6	0x3f7eb003	0.9948732
7	0x3f87e8b9	1.0617896
8	0x3f8b2387	1.0870217
9	0x3f8eb18a	1.1147931
10	0x3f8f4e4c	1.1195769
11	0x3f861d54	1.04777
12	0x3f95479c	1.1662478
13	0x3f8dcffb	1.1079096
14	0x3f832d70	1.0248241
15	0x3f7f22f1	0.9966269
16	0x3f873d83	1.0565647
17	0x3f82c479	1.0216209
18	0x3f8166bb	1.0109476
19	0x3f8d66cd	1.1046997
20	0x3f83dca1	1.0301706
21	0x3f8596da	1.0436661
22	0x3f84731d	1.034763
23	0x3f89c344	1.0762715
24	0x3f8b291b	1.0871919
25	0x3f879c82	1.0594637
26	0x3f8a9ac0	1.0828476
27	0x3f81d64f	1.0143527
28	0x3f83858f	1.0275134
29	0x3f8bdf9f	1.0927619
30	0x3f8807b1	1.0627347
31	0x3f878d51	1.0590001
32	0x3f88f9a9	1.070119
33	0x3f8b0168	1.0859804
34	0x3f86c736	1.0529544
35	0x3f85c034	1.0449281
36	0x3f85b19c	1.0444827
37	0x3f8a365a	1.0797837
38	0x3f8c10b2	1.0942595
39	0x3f87c996	1.0608394
40	0x3f8472c8	1.0347528
41	0x3f82d6dd	1.0221821
42	0x3f813962	1.0095637
43	0x3f89b4a5	1.0758253
44	0x3f7f0da4	0.9963019
45	0x3f8296e7	1.0202302
46	0x3f851193	1.0395988
47	0x3f8fcefd	1.1235043
48	0x3f84219e	1.0322759
49	0x3f82d52b	1.0221304
50	0x3f8a5fff	1.0810546
51	0x3f8c43fd	1.0958248
52	0x3f8fdf9e	1.1240118
53	0x3f881c33	1.0633606
54	0x3f8d9405	1.1060797
55	0x3f907372	1.1285231
56	0x3f842f18	1.0326872
57	0x3f856f25	1.0424544
58	0x3f8cc5a6	1.0997818
59	0x3f832691	1.0246145
60	0x3f852169	1.0400821
61	0x3f8752dd	1.0572163
62	0x3f81dd0e	1.0145586
63	0x3f811940	1.0085831

spacial_block.1.bias f4 [64]
0	0xbe00cb53	-0.12577562
1	0xbdee0bf0	-0.11623371
2	0xbe35b51c	-0.17744869
3	0xbe0e9448	-0.13923752
4	0xbddaf076	-0.106903955
5	0xbe168c76	-0.14702019
6	0xbda948a2	-0.08265807
7	0xbdda96a6	-0.10673265
8	0xbe11bfe9	-0.14233364
9	0xbe2ce13c	-0.16882795
10	0xbdf2feec	-0.11865029
11	0xbe03c2e4	-0.12867314
12	0xbe3c840a	-0.18409744
13	0xbe75de80	-0.24010658
14	0xbddf8010	-0.10913098
15	0xbdd49562	-0.10380055
16	0xbde1006b	-0.10986408
17	0xbe1a2eea	-0.15056959
18	0xbe1a80ec	-0.15088242
19	0xbdde13b8	-0.10843605
20	0xbe1c3fe0	-0.15258741
21	0xbdf3472f	-0.118788116
22	0xbe058563	-0.13039164
23	0xbde7a66d	-0.1131104
24	0xbe174b90	-0.14774919
25	0xbdeb003b	-0.11474653
26	0xbdd0ea7d	-0.10200975
27	0xbe033392	-0.12812641
28	0xbe132e54	-0.14373142
29	0xbe05e2ef	-0.1307485
30	0xbd97ad12	-0.074060574
31	0xbdb38f18	-0.08767527
32	0xbdde9cb8	-0.108697355
33	0xbdf8213e	-0.121157154
34	0xbdc91877	-0.098191194
35	0xbdbbe93f	-0.091753475
36	0xbe243b26	-0.16038188
37	0xbe177fca	-0.14794841
38	0xbdb27f8e	-0.087157354
39	0xbde50b09	-0.111837454
40	0xbddcc883	-0.10780432
41	0xbe4552fc	-0.19269937
42	0xbe02d7f2	-0.12777689
43	0xbdbdbafd	-0.09264181
44	0xbe08641b	-0.13319437
45	0xbe20bb77	-0.15696512
46	0xbdeedcf9	-0.11663241
47	0xbdce19ac	-0.1006349
48	0xbda689a0	-0.08131719
49	0xbce2c4e4	-0.027681775
50	0xbe29c213	-0.1657794
51	0xbde2b2b1	-0.11069239
52	0xbe184ab6	-0.1487225
53	0xbe3adfc0	-0.18249416
54	0xbe307092	-0.17230442
55	0xbe236976	-0.15958199
56	0xbd5e960f	-0.054342326
57	0xbe2a3d7c	-0.16625017
58	0xbe2181a5	-0.15772112
59	0xbde63cbe	-0.112420544
60	0xbda2ff28	-0.079588234
61	0xbde799e1	-0.11308647
62	0xbdf5399a	-0.11973877
63	0xbdad90b8	-0.084748685

spacial_block.1.running_mean f4 [64]
0	0xbec7631b	-0.389428
1	0x3e078fcd	0.1323845
2	0x3eb7b895	0.35883012
3	0xbf7702d2	-0.9648868
4	0xbcd0eb8d	-0.025502944
5	0x3d0b6d40	0.034039736
6	0x3e230d97	0.15923153
7	0xbf35246a	-0.7075869
8	0xbd8e9c76	-0.06963436
9	0xbf09c4bd	-0.53815824
10	0x3cd2f750	0.025752693
11	0x3e96a668	0.29423833
12	0x3da88e84	0.08230308
13	0x3ebac2f5	0.36476865
14	0x3edc534c	0.430323
15	0xbe12de7b	-0.14342682
16	0x3e0add38	0.13560951
17	0xbe8a880d	-0.27056924
18	0x3edb0a51	0.42781308
19	0x3e1fc861	0.15603782
20	0x3f02f686	0.51157415
21	0xbd8640a1	-0.06555296
22	0xbe90c9d7	-0.28278992
23	0xbe9847be	-0.29742235
24	0x3e428c94	0.18998939
25	0xbe1f0601	-0.15529634
26	0x3e9ac069	0.30224922
27	0x3eaaf7ef	0.33392283
28	0x3ea59dae	0.32346863
29	0x3ea96e52	0.3309198
30	0x3ee144e4	0.43997872
31	0xbda2a695	-0.07941929
32	0x3e402500	0.18764114
33	0x3e3a6722	0.18203405
34	0x3d9400f1	0.07226742
35	0xbe1baf96	-0.152037
36	0x3b3cb52a	0.0028794506
37	0x3e3cb438	0.18428123
38	0x3f0f522e	0.5598477
39	0xbe2c12ae	-0.16804
40	0x3eb4972c	0.35271585
41	0x3edd9ced	0.43283787
42	0x3e625b96	0.2210525
43	0xbf9eac02	-1.2396243
44	0xbd4e62d4	-0.05038722
45	0x3ea851bb	0.32874855
46	0x3f15f0fa	0.58570826
47	0xbeeaedd1	-0.45884565
48	0x3ecb762d	0.39738598
49	0x3f89c898	1.0764341
50	0x3f08e4dc	0.5347421
51	0xbe970ca6	-0.29501837
52	0xbd2d2f67	-0.042281535
53	0x3dd01aec	0.10161385
54	0xbf19dbb1	-0.6010085
55	0xbd350205	-0.04419138
56	0xbf6e2ba4	-0.9303534
57	0x3e8ed6bd	0.27898207
58	0x3e922cae	0.28549713
59	0x3d719358	0.05897841
60	0xbd859ed6	-0.06524436
61	0x3e648b52	0.22318771
62	0x3e9c3f4a	0.30517036
63	0x3ed3a8d8	0.41339755

spacial_block.1.running_var f4 [64]
0	0x3ed3189b	0.4122971
1	0x3e652031	0.22375561
2	0x3e729d94	0.23692924
3	0x3eb3e5e3	0.35136327
4	0x3e5a4729	0.21316208
5	0x3e9f344f	0.31094596
6	0x3f34bbe8	0.7059922
7	0x3eb03422	0.34414774
8	0x3e726efb	0.23675148
9	0x3e58de13	0.21178465
10	0x3e9302d7	0.28713104
11	0x3e9013ce	0.2814011
12	0x3e4daf15	0.2008632
13	0x3e3629f8	0.17789447
14	0x3ec2ca3d	0.3804492
15	0x4091b262	4.5530252
16	0x3e4c5373	0.19953708
17	0x3e59ec7f	0.21281622
18	0x3ec36872	0.38165623
19	0x3e841624	0.25798142
20	0x3eaf8013	0.342774
21	0x3e7372e0	0.2377429
22	0x3e8cd253	0.27504215
23	0x3e184072	0.14868334
24	0x3e967df6	0.29392976
25	0x3e924aa7	0.2857258
26	0x3e68780b	0.22702043
27	0x3e55eb72	0.20890597
28	0x3f12b098	0.5730071
29	0x3e7dc0d3	0.24780588
30	0x3e93a37d	0.2883567
31	0x3eaba410	0.33523607
32	0x3e2a9fbe	0.166625
33	0x3e7d84d4	0.24757701
34	0x3e8a6ea4	0.27037537
35	0x3e6454b3	0.22297935
36	0x3f08228c	0.53177714
37	0x3e83c346	0.2573492
38	0x3eac1240	0.33607674
39	0x3e8dfc7b	0.2773169
40	0x3ec72d06	0.38901538
41	0x3e6e34a5	0.2326227
42	0x3ed0f6a3	0.4081317
43	0x3edfe718	0.43730998
44	0x3f76aaad	0.9635418
45	0x3e4ed0d2	0.20196846
46	0x3e93e91b	0.28888783
47	0x3e71acda	0.23601094
48	0x3ec5e96c	0.3865465
49	0x3ea9941a	0.33120805
50	0x3e618580	0.22023582
51	0x3e1fbbd2	0.15598992
52	0x3e8a5eb3	0.27025375
53	0x3e8a6114	0.2702719
54	0x3ed5bda0	0.41746235
55	0x3e8657e1	0.2623892
56	0x3f5f38ac	0.8719585
57	0x3e6f967d	0.2339725
58	0x3ebf17ef	0.37322947
59	0x3e65b3d7	0.22431885
60	0x3ea70ba7	0.32626078
61	0x3e7616b9	0.24032106
62	0x3e6aad51	0.22917677
63	0x3ec695f0	0.38786268

conv.weight f4 [8, 1, 4]
0	0xbea19aa8	-0.31563306
1	0xbede9439	-0.4347246
2	0xbe98cd17	-0.2984397
3	0x3ee73aa7	0.45161936
4	0xbdd7344b	-0.10508021
5	0x3f04de4f	0.51901716
6	0xbf197c4c	-0.59955287
7	0xbd457162	-0.048203833
8	0x3f200e6b	0.62522
9	0xbe9d915b	-0.3077496
10	0x3cea4721	0.02859837
11	0x3ddb1b3c	0.10698554
12	0xbf00fe4d	-0.5038803
13	0xbeffc3a7	-0.49953958
14	0x3f11082c	0.56653094
15	0xbde658bb	-0.11247393
16	0x3f2f3ed1	0.68455225
17	0xbf2d5d33	-0.67720336
18	0xbf04624a	-0.5171248
19	0x3ef98f0c	0.4874195
20	0x3f354c0f	0.7081918
21	0xbf2bcbe3	-0.6710798
22	0xbe4c535a	-0.19953671
23	0xbf2bd914	-0.6712811
24	0xbe10cb41	-0.14140035
25	0x3e02eeb7	0.12786375
26	0xbedbc31c	-0.42922294
27	0x3dded139	0.1087975
28	0xbe9b27eb	-0.30303892
29	0xbf1bd853	-0.6087696
30	0xbf16eea0	-0.5895786
31	0x3edc6163	0.4304305

classify.weight f4 [2, 64]
0	0x3e751b84	0.23936278
1	0xbe4c23ef	-0.19935583
2	0x3e965c53	0.29367313
3	0xbe808d77	-0.2510793
4	0xbe4a2220	-0.1973958
5	0xbe944813	-0.28961238
6	0x3e75e2cc	0.24012297
7	0xbde562a1	-0.112004526
8	0xbe1a5826	-0.15072688
9	0xbe66787f	-0.22506903
10	0xbe8f9dcf	-0.28050086
11	0x3e92433d	0.28566924
12	0xbdf4a092	-0.11944689
13	0x3e376a83	0.17911725
14	0x3e3b5f3e	0.18298051
15	0x3e3a4687	0.18190967
16	0xbe5663cc	-0.20936507
17	0x3e9b3c4d	0.30319443
18	0x3e46713c	0.19379133
19	0xbde3b375	-0.11118213
20	0x3e8032d2	0.25038773
21	0xbe8c09f5	-0.27351347
22	0x3e6c2677	0.23061548
23	0xbe63e63c	-0.22255796
24	0xbe7c16ec	-0.24618119
25	0xbe4d01ca	-0.20020214
26	0xbe43843d	-0.19093414
27	0x3e93961c	0.28825462
28	0x3e31438a	0.1731092
29	0xbe7a707b	-0.2445697
30	0xbe6b86d5	-0.23000653
31	0xbe3c0785	-0.18362243
32	0xbe9b9554	-0.30387366
33	0xbe092893	-0.13394384
34	0xbe0daae8	-0.13834727
35	0xbe86413a	-0.2622164
36	0x3e54f14e	0.20795175
37	0xbe33fb13	-0.17576246
38	0x3e21d4e9	0.15803875
39	0xbe814101	-0.25244907
40	0x3e6eeafa	0.23331824
41	0x3e2af0e2	0.16693452
42	0x3e197dd7	0.1498941
43	0xbe1a213c	-0.1505174
44	0x3e45d673	0.19320087
45	0x3e82f8cb	0.2558044
46	0x3e232e08	0.15935528
47	0xbe288e42	-0.16460517
48	0x3e1db024	0.15399224
49	0xbe444d56	-0.19170126
50	0xbe249426	-0.16072139
51	0xbe542447	-0.20716964
52	0xbd9c6a19	-0.07637424
53	0x3e9e389a	0.3090256
54	0xbde15a4d	-0.11003552
55	0xbe46e3f5	-0.19422896
56	0xbdf61ee8	-0.12017614
57	0x3e8bb580	0.2728691
58	0xbe3d7cd9	-0.18504657
59	0x3e7e1d70	0.24815917
60	0xbe6de04c	-0.23230094
61	0x3e14bd6a	0.1452538
62	0x3e564e23	0.20928244
63	0x3e89179e	0.2677583
64	0xbe2e3462	-0.1701217
65	0x3e440567	0.19142686
66	0xbe68e3fa	-0.22743216
67	0x3dcbd5b2	0.099528685
68	0x3e91904f	0.2843041
69	0x3e02aa8e	0.12760374
70	0xbe2d2bf2	-0.16911295
71	0x3e686954	0.2269643
72	0x3e83b99b	0.25727543
73	0x3df3da02	0.11906816
74	0x3df9e4ee	0.12201868
75	0xbe8894b0	-0.2667594
76	0x3e7230dc	0.23651451
77	0xbe678099	-0.2260765
78	0xbe68e391	-0.2274306
79	0xbe80d813	-0.25164852
80	0x3de72401	0.11286164
81	0xbe105a3c	-0.14096922
82	0xbe8f9ee7	-0.2805092
83	0x3e35162f	0.17684244
84	0xbe88a4ac	-0.26688135
85	0x3e9e527f	0.30922315
86	0xbe79682f	-0.24356149
87	0x3e913639	0.2836168
88	0x3e02752e	0.12740013
89	0x3e71cad5	0.2361253
90	0x3e07386b	0.13205115
91	0xbe71c076	-0.23608574
92	0xbe36f9e0	-0.17868757
93	0x3e574090	0.21020722
94	0x3e5068d2	0.20352486
95	0x3e6e185b	0.23251478
96	0x3e3c70fe	0.18402478
97	0x3e338f1c	0.1753506
98	0x3e642e04	0.22283179
99	0x3dc0f9e7	0.09422665
100	0xbe660d53	-0.2246602
101	0x3e537599	0.20650329
102	0xbe5658df	-0.20932339
103	0x3e3ac099	0.18237533
104	0xbde1a55d	-0.11017869
105	0xbe513eaa	-0.2043406
106	0xbe26fb78	-0.16306865
107	0x3e8be275	0.2732121
108	0xbde72748	-0.11286789
109	0xbea185db	-0.31547436
110	0xbe96f478	-0.2948339
111	0x3de21804	0.11039737
112	0xbe712d62	-0.23552468
113	0x3e3ffd6d	0.18749018
114	0x3e8f9160	0.280406
115	0x3e73fe73	0.23827533
116	0x3e8cbd51	0.27488187
117	0xbdc3bf9f	-0.09558033
118	0x3e79f819	0.24411048
119	0x3e208d6f	0.15678953
120	0x3e46fd28	0.19432509
121	0xbe0c08f0	-0.13675284
122	0x3e65a99b	0.2242798
123	0xbe7fcad8	-0.24979722
124	0x3e4ac0fa	0.19800177
125	0xbe8b987b	-0.2726477
126	0xbe1952b6	-0.14972958
127	0xbe7f2139	-0.24915017

classify.bias f4 [2]
0	0xbae9af8f	-0.001782881
1	0x3cd6f51b	0.026239922
