BCI/output/openBMI/LightConvNet/sub37/2023-10-05--17-38/model.pth (torch, 51356 bytes, 9 tensors)

spacial_block.0.weight f4 [64, 9, 20, 1]
00000000: b0b1 9b3b 468a 053d f680 23bd 24d6 1cbd
00000010: 5bfa 86bc 1223 de3c 428d 143b cb39 3d3d
00000020: f999 32bc 73f3 e43c 653f 25bb 687f 6d3b
00000030: ca13 b0bc d384 60bc f438 19bd bdd1 b5bc
00000040: 64cf 143d 8247 763d cfe2 18bd 9b9a b23c
00000050: 0ec6 b8bb 9990 413d d7ef a9bc 1c62 1e3d
00000060: 04dd fabc 4f0b a8bc ef4d c1bc a8b9 0a3d
00000070: 02ba 58bc e923 033c 05f0 f0ba c375 a93d
00000080: 2170 36bd bded 073c 9fbe 3dbb 8a0f b6bd
00000090: cec1 6bbd 11d4 843d a590 a23c f49b 6e3c
000000a0: 882d 523d baa6 cebc 5b59 713d bb83 17bd
000000b0: 6385 f3bd 1fc9 37bd 4f45 05bd 35df 37bc
000000c0: 55dd 67bc c9c0 bc3d 8db7 a1bc 556d 0cbd
000000d0: 414e e6bc 832f 4ebd 6527 6a3d b1f6 0f3d
000000e0: 7953 d73d 4223 9bbd 10c2 dfbd db49 85bd
000000f0: 75cb e53c 82da 293c df44 5bbd a639 5a3c
00000100: a4e9 e33c 314d 91bc 3789 06bd fccd 8ebc
00000110: 0a13 b03c cde0 9b3d a35e 6abd 46db 13bd
00000120: e38b 9d3c 1424 4d3d 0e4b 063d cce7 fc3c
00000130: 1d5a 233c 304b 69bd a556 f53b b2d7 89bd
00000140: 2f28 093d 3699 233d 8196 263d ee78 9bbd
00000150: 6f3c 5bb9 2abd 1fbd 7e7e 37bc 282f cfbc
00000160: 444d 89ba 271d b13c 5c88 193d 682e 8f3c
00000170: d36f d73c fcb1 133d 685a 03bd 4724 93bd
00000180: da03 0d3d 6f95 473d 326b 74bd fdb6 9ebd
00000190: 3342 933d b7d8 343d ae61 eebc aefe 14bc
000001a0: 59ef 71bd 5256 29bc ec68 64bd 7679 84bd
000001b0: cc3f 90bb c7df c23d 3c02 8d3b 2267 903c
000001c0: 0d5a 7bbd b464 813d ed70 2f3d 01b3 afbd
000001d0: cd1b f0bb 3bbd e13c 9526 d33b 2b12 17bc
000001e0: 3342 803d 14ec 333c 4122 09bd 82e3 383d
000001f0: 0d5f 63bd c7d2 7bbd 0b52 1dbd 0512 9fbc
00000200: b18f c2bc 2081 103d 26de b53c e639 323b
00000210: 5632 87bd 0bbb 663b c09d 643d 5fea c6bc
00000220: b577 573c 7203 143d 6c84 183c dfc4 2c3c
00000230: a744 5a3d 55a3 0c3c 8af2 8d3d c112 8e3b
00000240: 3b0e 71bd cd2d 2dbd 3dad c63b 2b2f 3cbb
00000250: 4dc8 19bd f611 8f3d d81a bebb a4a2 4fbd
00000260: a08c b1bc ade2 273d 1f92 5c3d 4d20 a0bd
00000270: 3a58 823d 4b48 0f3c a372 013c 7a8a 51bd
00000280: e94d 6f3d 9f98 9e3c 647a 7cbd ff4a 6bbd
00000290: f4d1 93bc 6d97 10bd d609 2dbd 8f16 433d
000002a0: e2ca 77bd f746 df3d c251 b33d fe2b 85bd
000002b0: 7001 1c3d c65f 333d ccc6 f6bc beb5 143d
000002c0: 8493 cf3b 0b16 883b 65d0 503d 6b09 b9bd
000002d0: 9804 b83c 2bdb bbbc be44 d73c 0cb2 d6bc
000002e0: 106d ba3b 2d0f a93c f89a 09bc e652 efbc
000002f0: 251c e0bb 974c c83b cecf cc3c de5f 693b
00000300: 04d0 54bd 62e9 1dbc 02f7 253d 2d66 4b3c
00000310: 882a a3bc eea8 bebc 48d0 26bc b2af 2e3d
00000320: 4296 793b f9c0 6a3c 1bf2 c5ba d575 e3bc
00000330: cb07 53bd fd5b 153d 96b6 6cbc e88d f93c
00000340: 8f40 d13c eaa1 a13b 3cf8 d13c f6ff 85bc
00000350: 77d3 243c 25c4 8dbc f895 97bc 72ed 533c
00000360: c00c efbc 6f34 9ebc eec6 b03d 0181 81bd
00000370: d11e f1bd bc65 863d 1b75 c43d 4d91 86bd
00000380: d7a7 adbd bab4 a63c ae6a 4fbd 2387 243e
00000390: f3ef 243e 4a75 6fbd 7e71 1bbc 580c 053e
000003a0: 8949 46bb 74fe b6bd 37ae 243c f8d7 ffbc
000003b0: c92f 89bb f8e0 e2bd 0027 33bb d4bc eb3c
000003c0: abb4 18bd faf6 863d 5e8f 4bbc fecc 863b
000003d0: 3547 d1ba ce65 20bd b4c5 093b d6f4 48bd
000003e0: 5002 5e3d 0e74 60bc 5ddc bcbc 2c27 fa3c
000003f0: aafb 833d a623 0abc 1d3f 91bc c0d8 893c
0.0047514066 0.03260257 -0.03991791 -0.038290158 -0.0164768 0.027116332 0.0022667204 0.046197694
-0.010900968 0.027948117 -0.0025214788 0.003623927 -0.021493811 -0.013703543 -0.03740783 -0.022194738
0.036330596 0.06012679 -0.037325677 0.021802237 -0.0056388443 0.04725704 -0.020744247 0.038667783
-0.030622967 -0.020513205 -0.023596732 0.03386846 -0.0132279415 0.008004167 -0.0018382078 0.082744144
-0.04454053 0.008296427 -0.002895273 -0.088896826 -0.057557873 0.06485761 0.019844363 0.014563549
0.051312953 -0.025225986 0.058923107 -0.036990862 -0.11890676 -0.04486954 -0.0325368 -0.01122265
-0.014151891 0.09216458 -0.019740844 -0.034283955 -0.028113486 -0.05033828 0.057166476 0.035147373
0.10513968 -0.07575084 -0.10925686 -0.065082274 0.028051117 0.010367038 -0.053532477 0.0133194085
0.02782137 -0.017737003 -0.032845702 -0.017432205 0.021493454 0.07611237 -0.05721916 -0.036097787
0.019231742 0.050083235 0.03278642 0.030872248 0.009970215 -0.05695647 0.0074871355 -0.06730594
0.033485588 0.039941035 0.040670875 -0.07591425 -0.00020907981 -0.03899876 -0.011199592 -0.02529104
-0.0010475297 0.021620346 0.037483558 0.017478183 0.02629844 0.03605841 -0.03206864 -0.07184654
0.0344275 0.048726495 -0.059672542 -0.07749746 0.07190361 0.044151988 -0.029099312 -0.0090939235
-0.05906615 -0.010335522 -0.055764124 -0.06468479 -0.0044021364 0.095153384 0.004303245 0.017627303
-0.061365176 0.06318036 0.042832304 -0.08579064 -0.007327533 0.027556052 0.0064438083 -0.00922064
0.062626265 0.010981578 -0.033479933 0.045138843 -0.05551057 -0.06148031 -0.03840832 -0.019417772
-0.023750158 0.035279393 0.022200655 0.0027195155 -0.06601398 0.00352067 0.055814505 -0.024281679
0.013151099 0.0361361 0.009308916 0.010544985 0.05328813 0.008583863 0.06931026 0.0043357317
-0.05885146 -0.042280007 0.006063132 -0.0028714638 -0.037544537 0.06985848 -0.00580154 -0.050692216
-0.0216735 0.04098766 0.05385029 -0.07818661 0.06364484 0.008745263 0.007900867 -0.051157452
0.05842391 0.019359885 -0.06164016 -0.05744457 -0.01804445 -0.03530066 -0.04224571 0.047628935
-0.06049622 0.10902207 0.087558284 -0.065025315 0.03808731 0.04379251 -0.03012409 0.036306135
0.006334724 0.0041530184 0.05097999 -0.090349995 0.022463128 -0.022931656 0.026277896 -0.026207946
0.005689271 0.02063712 -0.008398764 -0.029214334 -0.0068392926 0.006112646 0.025001433 0.003561012
-0.05195619 -0.009638162 0.040518768 0.012414497 -0.019917741 -0.023273911 -0.010181494 0.042648025
0.0038083945 0.014328235 -0.001510206 -0.027766148 -0.051521104 0.03646468 -0.014447829 0.030463174
0.02554348 0.0049326317 0.025631063 -0.016357403 0.010060183 -0.017305443 -0.018504128 0.012935029
-0.029180884 -0.019312112 0.08631693 -0.06323434 -0.11773456 0.06562373 0.095926486 -0.06570683
-0.084792785 0.020349849 -0.050638847 0.16067176 0.16107158 -0.058461465 -0.009487508 0.1299299
-0.0030256233 -0.08935252 0.010051302 -0.031230912 -0.0041866046 -0.11078066 -0.0027336478 0.028776564
-0.037281673 0.06590076 -0.012424318 0.0041137924 -0.0015966656 -0.03915959 0.0021022381 -0.04906162
0.054201424 -0.013699545 -0.023054296 0.030536257 0.064444855 -0.008431351 -0.01773029 0.016826987

spacial_block.0.bias f4 [64]
00000000: 20e4 cebc 4618 7dbd e0e6 b03c abf1 03bd
00000010: 048d b83b 4380 39bd 2010 1c3d 3851 5dbd
00000020: 9dec 7bbd 923e 8fbd 8726 853d 5952 0e3d
00000030: d1ca 54bd 84e5 9cbc fe23 6a3d f37b bb3c
00000040: 0b71 893d 2b7d 2ebc 0784 efbb 7af4 623d
00000050: 768b 39bb c2f4 83bd 72cf 82bc 72ec 603d
00000060: 54bd fa3c b1d9 75bc 53f3 94bd 1ebb 5f3d
00000070: 7836 84bc 4312 81bc 6904 8b3d e78e 283d
00000080: 1776 c03c 3d0c ce3c 814d f63a 83a1 b93b
00000090: fdeb 1ebd 90c6 d83c dd81 163d e013 283d
000000a0: 39ac 1abd ade2 843b ae2f 9dbb ea1e 32bd
000000b0: a30f 823c 2366 2d3d 1b84 f53b 7054 0bbd
000000c0: cde8 733d df8f 24bd 3487 f13c 4233 433a
000000d0: 9a5d d93c cd43 eb3c f33a 8ebd eeca 953c
000000e0: 8c09 e5b9 b1e8 74bd 90db 413d dd21 d73b
000000f0: caba adbc 57ec 53bb 0c06 573d 5884 e8bc
-0.025255263 -0.061790727 0.021594465 -0.032212894 0.0056320447 -0.045288336 0.038101315 -0.054032534
-0.06150495 -0.06994356 0.06501489 0.0347465 -0.051951233 -0.01915241 0.05716323 0.022886252
0.06711014 -0.01064996 -0.00730944 0.055408932 -0.0028311885 -0.06443168 -0.015968058 0.05491299
0.030607857 -0.015005515 -0.07272973 0.05462181 -0.016139254 -0.015755778 0.067879505 0.041151907
0.02349381 0.02515232 0.0018791409 0.0056650057 -0.038799275 0.02646187 0.03674494 0.04103458
-0.0377619 0.004055342 -0.0047969436 -0.043486513 0.015876597 0.042333733 0.007492555 -0.034016073
0.059548188 -0.04017627 0.029483415 0.00074462977 0.02653389 0.028718853 -0.069448374 0.018285241
-0.00043685397 -0.059792224 0.04732853 0.006565316 -0.021207232 -0.0032336914 0.052496 -0.028383419

spacial_block.1.weight f4 [64]
00000000: 834c 813f 56bd 863f f816 813f e4bb 8c3f
00000010: 692a 843f 60ed 883f 9fb4 7f3f ec1f 843f
00000020: 0888 853f 9ca1 973f fc6c 873f 307f 813f
00000030: baba a73f 533f 9a3f 08b5 833f 7207 803f
00000040: b0d9 963f a237 823f 4674 7e3f e29d 853f
00000050: 405e 803f dd3e 833f ad47 813f 52be 833f
00000060: e6ea 843f aeef 853f 6534 8e3f a15c 813f
00000070: a28f 823f 09e2 853f ae39 833f 4066 833f
00000080: 7abc 813f 2956 853f 9968 863f ecba 873f
00000090: 1681 813f f4fd 823f 08fc 8f3f abc3 833f
000000a0: 94d2 853f bf60 a23f 1134 843f 6e83 873f
000000b0: c44e 913f a2d7 803f e55e 813f 96b0 943f
000000c0: a877 813f 3e88 833f 9df8 8a3f cbbd 843f
000000d0: bd49 9f3f 821e 843f 31e1 843f e990 863f
000000e0: 1b9e 843f 8e87 833f c405 843f bda9 803f
000000f0: bf01 833f 6c5e 813f 2375 7f3f 2a8f 823f
1.0101475 1.0526531 1.0085135 1.099484 1.0325443 1.0697441 0.9988498 1.0322242
1.0432138 1.1846194 1.0580134 1.011694 1.310386 1.2050575 1.0289621 1.0002272
1.1785183 1.0173228 0.9939617 1.0438807 1.0028763 1.0253559 1.0099999 1.0292456
1.0384185 1.046377 1.110974 1.0106393 1.0200083 1.0459605 1.0251977 1.0265579
1.0135643 1.0416919 1.0500671 1.0603919 1.0117519 1.023375 1.1248789 1.0294088
1.0454888 1.2685775 1.032839 1.0586984 1.1352162 1.0065806 1.0107085 1.161639
1.0114641 1.0275953 1.0857121 1.037042 1.2444378 1.032181 1.0381223 1.0512973
1.036075 1.0275743 1.031426 1.00518 1.0234908 1.010694 0.9978811 1.019994

spacial_block.1.bias f4 [64]
00000000: 1488 53bd 520c 86bd 2ff5 23bd aec0 0fbe
00000010: c8cc 02bd 7649 a5bd 40e7 b5bc a7af fbbc
00000020: e5a7 47bd 1c8f 46be 92b6 83bd b813 2cbd
00000030: 6cbf b5be 2dff d7bc 1f32 c6bd c6ef 5abd
00000040: 364e 58be 50aa a8bd dd44 a6bc c190 c0bc
00000050: 4f3c 8abd f201 f4bc f2f8 97bd d990 a9bc
00000060: d18d 94bc 489a 96bc baed aebd 85ca 61bd
00000070: 4222 4c3c 527b 85bc 2d1d eebc 8095 b9bc
00000080: 268e 1c3b 93ad 1fbd 358d 4bbd ac03 a9bd
00000090: 57ac d0bd c001 b1bc 083f 44be 50a6 69bc
000000a0: 5827 e0bd bfa4 cabe 93ad eabd 5a2b 57bd
000000b0: 480d 06be a9d9 9bbd 8c2a 26bd fb38 0dbe
000000c0: 7ffd 6abd 9c49 9bbc 698c 6ebd 246c 7bbc
000000d0: 8a0e 8cbe 5af6 b9bd 6bf6 20bd c890 5138
000000e0: b3c6 e5bc 1df4 23be 594a dfbb 7c96 43bd
000000f0: de73 66bc 5b65 21bd 6ede a5bc deb1 babd
-0.051643446 -0.06545319 -0.040028747 -0.14038345 -0.031933576 -0.08070652 -0.022204995 -0.030723406
-0.0487441 -0.1939053 -0.06431307 -0.042010993 -0.35497606 -0.026366794 -0.096775286 -0.053451322
-0.21123585 -0.082356095 -0.020296508 -0.023506524 -0.06749784 -0.029786084 -0.074205294 -0.020698952
-0.01813403 -0.018384114 -0.085414365 -0.05512478 0.01245934 -0.016294155 -0.029066646 -0.022654295
0.0023888438 -0.038983893 -0.049695212 -0.082526535 -0.10189121 -0.02160728 -0.1916467 -0.014260843
-0.10945004 -0.39578816 -0.11458888 -0.052531578 -0.13091004 -0.07609875 -0.04056792 -0.13791268
-0.05737066 -0.018955998 -0.058239374 -0.015345607 -0.27354842 -0.09080191 -0.039297502 4.996432e-05
-0.028048849 -0.1601109 -0.006814283 -0.047750935 -0.014065711 -0.0394033 -0.020247664 -0.09115957

spacial_block.1.running_mean f4 [64]
00000000: 89a8 e1be 3f62 1fbf 0aa9 0d3f 1002 303f
00000010: 8d55 273f 6edc 01bf 1ae1 d7be 0bd1 0d3d
00000020: d1bc cd3e 1f96 ff3e fa07 0b3f 6f99 b6be
00000030: 5f8b 18be 75d3 3b3d ebbd 00be cdcd 70be
00000040: f87b 1f3f 85c3 7d3c dcf3 44be 197b 993d
00000050: 5eb4 f43e 6cf2 eebe e9ba 60bf 4e89 bdbe
00000060: b54b 44bf f431 1e3f 89b7 37bc 71fc 35bd
00000070: 4458 703e 2ece b6bd 3902 753f 0003 a6be
00000080: 8162 2bbe 84b1 fb3c 41d8 c53e bbd5 d33e
00000090: 5516 28be ef40 5ebb 55ee 3fbe 53a2 18bf
000000a0: 2469 c6be 4170 b53c 1871 eebe 4697 9f3d
000000b0: a30f 9dbe 495a f63e 57d6 503e 206a bc3d
000000c0: 3753 5d3e 7512 9a3f 5b1d d8be f6c5 0cbf
000000d0: 9e06 f43d ec9c e13e dace 65bd 844d d3be
000000e0: 1b00 13bf e2ec 13bf 5650 06bf d27b e6ba
000000f0: 338e 60bf 066d bb3e faf2 2abf f9c8 a83e
-0.44073895 -0.62259287 0.5533606 0.6875315 0.65364915 -0.50726974 -0.42163926 0.034623187
0.40183118 0.4991922 0.54309046 -0.35663936 -0.14896916 0.045855958 -0.12572448 -0.23516007
0.62298536 0.01548851 -0.1923365 0.07494182 0.4779386 -0.46669328 -0.877852 -0.37018818
-0.7667802 0.6179497 -0.011213192 -0.0444302 0.2347117 -0.089260444 0.95706517 -0.32424164
-0.16736795 0.030724294 0.3864155 0.41374 -0.16414769 -0.0033913215 -0.1874326 -0.5962269
-0.3875209 0.022148253 -0.4657066 0.07792525 -0.30675992 0.48115757 0.20394264 0.09199929
0.21613775 1.2036883 -0.42209896 -0.54989564 0.11915325 0.44065034 -0.056105472 -0.41270077
-0.57422036 -0.5778333 -0.5246633 -0.0017584509 -0.8771698 0.36606616 -0.66777 0.3296583

spacial_block.1.running_var f4 [64]
00000000: 1012 8c40 c415 9f3f 2a79 a240 1d6f 603f
00000010: 77dd e03f ec4c 9a3f a3d6 c140 7fda 943f
00000020: 3849 233f ed93 153f 46ba 933f d28c fc3f
00000030: 29cb 073f ffae 103f b05d bf3f 2127 4840
00000040: 973c 173f 2509 ee3f 233d 9140 5b94 4b3f
00000050: 4640 8f40 0084 8a3f e65a 4a40 5406 a33f
00000060: 7402 3040 49a0 af3f feef 1d3f 26e9 2240
00000070: ecae 3a40 425d b63f 54ed 3040 fa83 943f
00000080: 115d e73f c86b d63f 22fc 633f 6ba3 743f
00000090: 4358 e63f 244a c73f 835c c33e 2941 963f
000000a0: ae1a ad3f 3241 d03e 7c87 aa3f 0776 7a3f
000000b0: 862b 513f 0f1e 2d40 f153 c43f 71d6 6d3f
000000c0: 22c5 0740 e7f9 3b40 89e4 7a3f 1953 973f
000000d0: f658 143f f7e1 1940 5068 923f 6188 b23f
000000e0: 93c3 863f a063 7f3f 0b5f c33f f25b 9a3f
000000f0: 6ff0 cb3f 4db5 b93f 18ff 8540 a385 ad3f
4.377205 1.2428517 5.0772905 0.87669545 1.7567586 1.2054725 6.057451 1.162918
0.637836 0.5842884 1.1541221 1.9730475 0.5304437 0.5651702 1.4950466 3.1273882
0.5907683 1.8596541 4.538713 0.7952325 4.476596 1.0821533 3.161798 1.2736306
2.7501497 1.372079 0.61694324 2.5454803 2.9169264 1.424721 2.7644854 1.1602776
1.8075277 1.6751642 0.890566 0.95561856 1.7995685 1.5569501 0.38156518 1.1738635
1.3523767 0.4067474 1.3322597 0.97836345 0.81707036 2.7049596 1.5338117 0.92905337
2.121407 2.9371278 0.98004967 1.1822234 0.57948244 2.4044168 1.1438084 1.394787
1.0528435 0.9976139 1.526338 1.205931 1.593275 1.4508454 4.1873894 1.3556408

conv.weight f4 [8, 1, 4]
00000000: eaa7 ccbe 03fb e13d 9087 0cbe 3b32 bf3d
00000010: 416f 98be 154d fb3e 967c dbbe 464b 3cbe
00000020: 3cc5 e43d 592b 433e 445a db3e 6d36 23be
00000030: 5d3b 15bf a883 86bd 624e 0e3f be17 85be
00000040: 2e83 7b3e d4e1 31be 0cb6 8fbe 77e7 833e
00000050: 0270 a93e ac98 72be 6add 1a3e 79f6 12bf
00000060: 16af f8be 7c9a cc3e ea09 5cbe 4e20 19be
00000070: 2314 6abe 0e8c 3ebe f98a e5be 6ad8 a03d
-0.39971858 0.11034205 -0.13723588 0.093357526 -0.2977238 0.49082246 -0.4286849 -0.1838809
0.11170432 0.19059505 0.42842305 -0.1593873 -0.58293706 -0.0656808 0.5558835 -0.25994676
0.2456176 -0.17371303 -0.28068578 0.2576253 0.33093268 -0.23691052 0.15123525 -0.5740734
-0.4857108 0.39961612 -0.21488157 -0.1495373 -0.22859244 -0.18608114 -0.4483259 0.07853778

classify.weight f4 [2, 64]
00000000: d736 1e3e f067 d5bd 7212 423e da9d 49be
00000010: 699f b9bd 4ded 68be 6666 2e3e 31e5 57bd
00000020: e5bf c9bd 04ad 5ebe 96a7 56be 36e7 593e
00000030: e454 83bd 751e 0e3e 6860 0e3e 6e5d 023e
00000040: ea72 3ebe b180 683e 3200 663d f2e6 2dbd
00000050: 745d 3e3e 8c4f 4fbe 367d 303e e27e 0ebe
00000060: 65e4 2fbe 709a 1fbe c5cf 3dbe 4aa3 593e
00000070: 7a02 a63d df03 49be f3f7 27be cdad 0bbe
00000080: 232e 23be 51a6 87bd d67b f8bd 80ce 68be
00000090: f6b8 073e 6d4d 6fbd 93d1 0f3e 9935 4dbe
000000a0: 6db5 323e 92bc 8f3d 8d82 da3d 3fe3 c7bd
000000b0: 6a1c d6bd 180f 263e 29ad db3d 4eb5 cebd
000000c0: 2229 a63d 12c7 1cbe f069 bbbd 2662 edbd
000000d0: 969b 25bd 341f 4d3e 21d8 28bd e272 c7bd
000000e0: b4e2 05be ea1f 773e cb45 cdbd 0dac 2c3e
000000f0: d950 24be 3fc3 773d ea8e e33d bae3 623e
00000100: 7b9f aebd d52a c53d 7b7b fcbd 03b7 393d
00000110: 40ce 353e 5a0f 863d 035f cbbd 46b1 2b3e
00000120: 0afb 513e 0143 e43d ab79 513d 178a 46be
00000130: fe8a 393e 8834 3ebe bce4 3bbe 15c7 49be
00000140: 3e42 b73d afc4 84bd 8d4c 12be 626c dd3d
00000150: 3241 4fbe abe0 733e f8be 3dbe 1305 4d3e
00000160: 910a 593d 7263 443e e283 013e 8537 24be
00000170: 2d6f b1bd ecd3 253e e8d9 0c3e 97be 3d3e
00000180: 8ad1 213d 6b73 dc3d 12c1 523e be23 733d
00000190: 00d5 18be b19b b63d 9855 44be 2d74 053e
000001a0: 6a74 52bd 2258 dcbd cc7d f5bd 3f95 613e
000001b0: f650 3d3e 3c29 63be 8291 78be a361 3f3d
000001c0: d691 26be 2477 183e 8743 583e 368b 163e
000001d0: 94ac 743e 3223 573c e780 333e 8c8b 753d
000001e0: 69d0 513e 947b d7bd a4cf 0e3e 7959 2ebe
000001f0: 7d31 013e 4e64 40be 0830 53bd b5d5 4fbe
0.15450607 -0.10420215 0.18952349 -0.19689122 -0.09063608 -0.22746773 0.1703125 -0.05270881
-0.09851054 -0.21745688 -0.20962366 0.21279606 -0.06412676 0.13878806 0.13903964 0.12730953
-0.18598524 0.22705342 0.05615253 -0.042456575 0.18590337 -0.20245188 0.17235264 -0.1391559
-0.1717697 -0.15586257 -0.18536289 0.21253696 0.08105941 -0.19630383 -0.16403179 -0.13640518
-0.15935569 -0.06623519 -0.12132995 -0.22735023 0.13254151 -0.05842345 0.1404479 -0.20039977
0.17452021 0.07018389 0.10669432 -0.09760141 -0.10454638 0.16216695 0.10726387 -0.10093175
0.08113314 -0.15310314 -0.09151065 -0.11590986 -0.04043158 0.20031434 -0.04122174 -0.09738709
-0.13074762 0.24133268 -0.100230776 0.16862507 -0.16046466 0.060488936 0.11111243 0.22157183
-0.08526512 0.0962731 -0.123282395 0.04534055 0.1775446 0.06545897 -0.099302314 0.16766843
0.2050592 0.111455925 0.051141422 -0.19388615 0.18119428 -0.18574727 -0.18348974 -0.1970485
0.089481816 -0.06482827 -0.14287014 0.10811688 -0.20239714 0.23816173 -0.1852988 0.20021467
0.052988593 0.1917856 0.12647966 -0.16036804 -0.08663783 0.16194123 0.13755 0.18529736
0.039506473 0.10764202 0.20581463 0.05936026 -0.14925003 0.089164145 -0.19173276 0.13032599
-0.051380552 -0.107589975 -0.119868845 0.22029589 0.18487915 -0.22183698 -0.24274257 0.046723973
-0.1626657 0.14889199 0.2111951 0.14701542 0.23893958 0.01313095 0.17529641 0.059947535
0.20489658 -0.105216175 0.13946396 -0.17026319 0.12616535 -0.18788263 -0.051559478 -0.20296367

classify.bias f4 [2]
00000000: 78cb 403b db40 b03c
0.0029418152 0.0215153
