BCI/output/openBMI/LightConvNet/sub13/2023-10-05--17-38/model.pth (torch, 51356 bytes, 9 tensors)

spacial_block.0.weight f4 [64, 9, 20, 1]
00000000: 042f f6bc f64f 773d 017e 8dbd 29fe 05bd
00000010: 74d5 dbbb 287c a73d 5207 50bc 9f9a 693d
00000020: dd4c 493c 4c04 873c 34a8 0ebd b24f 25bd
00000030: 4530 d93a f087 debc 2994 43bc ba84 db3c
00000040: 1af6 b83c c5c2 023d 7bf9 33bd 07a0 0d3c
00000050: 60ec ffbc cd6f dd3d 14b6 90bc daa8 aa3b
00000060: 4471 1b39 fa41 dd3c 4fb5 183d bb0b 8bbc
00000070: 8e89 713c 7a0b e3bd e50c 0cbd c5f5 c03d
00000080: 62bb 5ebd 81af 50bd b9e5 e83c d23f d4bc
00000090: 14b9 d3bd 6563 ca3d a6ee 7f3d 5589 a53b
000000a0: 7d77 e2bc 5688 5e3d 1f9b 05bd 2bdc ab3b
000000b0: 891a e5bc 9233 2fbc 9138 133d b0f9 f9bc
000000c0: 996b b4bd 03d8 93bd db41 e03c 90ac 233d
000000d0: 3763 de3c b32c 9abd ae70 743d 0ea5 433d
000000e0: f5d9 ec3c 91a8 df3b 54e8 a83c b194 b7bc
000000f0: a20f 22bd 980e 1f3d 8be0 97bd 0dcd 1b3d
00000100: 3336 3e3d 1684 06bd da67 8ebc 9926 59bd
00000110: 62e6 a93b b6c9 0e3d c7e9 f0bb 36c3 5ebd
00000120: 6b68 b83d 0038 7a3c 6a1c 543d 23be e23c
00000130: 7cae 21bb e7fd 55bd d1cd 443d b9fd 9fbd
00000140: a826 763b dca4 1c3e 4cb4 d8bb 859d a6bd
00000150: 8f8e bf3d ce27 16bd 8de8 56bd 59fa 90bd
00000160: 0b1c 36ba 643b 65bd 06e1 e5bc 29e4 de3b
00000170: be24 cb3d df1d 053d 96f8 1e3d a57d ca3d
00000180: d888 63bd 96f3 e9bc 01f1 a9bc 7096 12bd
00000190: b731 5a3c c8b4 043e b933 bebd 5247 613d
000001a0: 0ef7 83bb 5d33 5a3c eeb8 99bd 4079 fdbd
000001b0: 5d5d abbc 5ccb f7b8 f234 3ebd f7b3 ee3c
000001c0: 38d7 093c 5ee6 193d 3755 0f3e 71ce dcbb
000001d0: 2fb6 98bd 1ad4 f93c 6b44 923d 143f d0bd
000001e0: 9084 32bc 6a22 d73d 9aa0 10bd 66a0 f73d
000001f0: a6e2 ac3d 3afb 8fbd 9d6c 103d 3a9a 67be
00000200: 9b17 a0bd 9e53 8d3b 0a8e 57ba f2ba 38bb
00000210: 5df7 00bc 308a 863d efdc a23d ace2 82bc
00000220: 9f67 c3bd ac5c 443d 1589 083d 6ba6 44bd
00000230: a687 a5bc 9834 0c3e e2e1 8fbc dd01 933d
00000240: b4a6 39bb b111 94bc 49c4 083c d077 9cbd
00000250: ec44 bdbd a30c 7cbc c2b3 1bbd 21b7 35bd
00000260: 3bfa d73d 31fb e43c 86f7 a93d dbfe f6bc
00000270: 9bb7 54bd e4e0 80bc ecd6 a73d 3892 4bbd
00000280: 0bfa 2ebd 8710 be3d bba1 b5bd 9f29 3e3d
00000290: 8c88 4e3d 4c6d 6c3c 273b ebbc f02b 98bd
000002a0: bb9e c7bd 1549 353c 9cf7 8a3d 7632 d1bc
000002b0: 8a37 e73d 3d0a dc3c f4f0 813c 452e 5e3d
000002c0: 86d0 edbd 2ce9 64bd 1894 b33d ce1c b7bc
000002d0: b8a3 1cbd 589a 98bb 4b8c 283d fe0a 79bc
000002e0: b433 d0bc 59a4 1a3c 87f7 b4bb ce4f 203c
000002f0: fa4d febc 1699 b3ba f443 423c bef2 d13c
00000300: 66b3 d03a 4036 353d 1835 97bc 61ea 41bc
00000310: a7ee 133c 0672 9d3c 23ad eabc f656 c43b
00000320: 84cf 5cbd fafb 9abc 43ba a8bc e9a5 31bd
00000330: 1b55 db3c bbe9 ae3c e761 913c 2abc b63d
00000340: 1b90 0b3e 5d63 f2bc d631 abbc 8403 20ba
00000350: eb9e 2dbd 0901 c0bc b0f7 80bd 0a34 f03c
00000360: d1fb 62bd 0246 07bc 2e21 323d a12f 81bb
00000370: f095 403c 073d 0a3d 2baa ccbc 2b85 bdbc
00000380: 8a5d 7b3c 9ac1 ff3c ab4b 113c 2363 8d3d
00000390: f924 093e 370d 9ebd 9d1c f1bd 0731 2f3d
000003a0: 659b 9abd 22e5 f0ba a72d 87bc cb7a 61bd
000003b0: abc2 bc3c 8587 8e3c 1171 143d da79 2e3b
000003c0: a6c1 a1bd 6e0e 8c3d f273 843c e0e4 f7bc
000003d0: cc92 2c3d fd8b 06be 1f6c babb 6c71 533d
000003e0: 7a3b 853d 300c 44bb a5cf bfbd 8c1f b2bd
000003f0: 893e 9a3d 55dd c83c 4b2b 73bc 9366 84bd
-0.030051716 0.06037899 -0.06908799 -0.03271309 -0.006708795 0.08177978 -0.012697058 0.057032224
0.012286392 0.016481541 -0.03482838 -0.040359206 0.0016570172 -0.02716443 -0.01193718 0.026796687
0.022578288 0.031924028 -0.043939095 0.0086441105 -0.031240642 0.1081234 -0.017664947 0.005208117
0.00014824147 0.027009 0.037282284 -0.016973367 0.014742268 -0.11086173 -0.034191985 0.09421877
-0.05437792 -0.050948624 0.028429853 -0.025909338 -0.10338035 0.09882239 0.062483452 0.0050517716
-0.027644867 0.05432924 -0.032618638 0.005244752 -0.027966755 -0.010693448 0.035942618 -0.030514568
-0.08809585 -0.07218935 0.027375152 0.03995949 0.027146919 -0.07528057 0.059677772 0.04776483
0.028912524 0.0068255146 0.020618595 -0.022409769 -0.03956569 0.038832277 -0.07415875 0.03803735
0.046438407 -0.03284081 -0.017383505 -0.053015325 0.0051849345 0.034860335 -0.007352087 -0.054385386
0.09004291 0.0152721405 0.05178491 0.027678555 -0.0024670651 -0.052244093 0.048047844 -0.07812066
0.0037559662 0.15297264 -0.00661329 -0.08135513 0.09353363 -0.036659054 -0.05246787 -0.07079
-0.0006946928 -0.055964842 -0.028061401 0.006802101 0.099191174 0.03249919 0.03881129 0.09887246
-0.055550426 -0.028558534 -0.020744802 -0.035788 0.013317517 0.12959588 -0.09287209 0.054999657
-0.004027254 0.01331791 -0.07505976 -0.12376642 -0.020918543 -0.000118157564 -0.04643721 0.029138548
0.008413129 0.03757321 0.1399735 -0.006738477 -0.07456624 0.030496646 0.07141956 -0.10168281
-0.010895863 0.10504611 -0.03530941 0.120911404 0.08441667 -0.070303395 0.03525983 -0.22617427
-0.078170024 0.0043129465 -0.00082227646 -0.00281876 -0.007871476 0.06569326 0.07952296 -0.015977226
-0.095412485 0.04793994 0.033333857 -0.04801027 -0.020206284 0.13691938 -0.017563764 0.0717809
-0.0028328123 -0.018074842 0.008347579 -0.0764004 -0.092416614 -0.015383872 -0.038013227 -0.0443641
0.105457745 0.027951809 0.082991645 -0.030150821 -0.051932912 -0.015732236 0.0819529 -0.049699992
-0.04271893 0.09280496 -0.08868738 0.04642641 0.05042319 0.014430355 -0.02871473 -0.074302554
-0.09747072 0.011064787 0.06785509 -0.025536757 0.1128989 0.02686035 0.015861966 0.054243345
-0.11612038 -0.055886433 0.08768481 -0.022352602 -0.038242072 -0.004657071 0.04114942 -0.015200375
-0.025415279 0.009438598 -0.0055226716 0.009784652 -0.031043041 -0.0013702239 0.011857022 0.025628444
0.0015922606 0.04424119 -0.018457934 -0.011835665 0.009029067 0.01921941 -0.028647011 0.005991812
-0.05390884 -0.01891898 -0.020596629 -0.043371115 0.02677398 0.021351686 0.017746879 0.08922608
0.1362919 -0.029588396 -0.020897787 -0.00061040395 -0.042387884 -0.023437994 -0.06297243 0.02932169
-0.055415932 -0.008256437 0.043488674 -0.0039424454 0.011754498 0.033749606 -0.024983486 -0.023134788
0.015342126 0.031220246 0.008868138 0.069036745 0.1339301 -0.07717364 -0.11773036 0.042771365
-0.075491704 -0.0018378834 -0.01650126 -0.055048745 0.023042044 0.017398605 0.03624064 0.0026622922
-0.07898264 0.0683869 0.016168568 -0.030260503 0.042132184 -0.13139339 -0.0056891586 0.05162184
0.06505485 -0.002991449 -0.09365777 -0.08697423 0.07531459 0.024519602 -0.014841865 -0.06464877

spacial_block.0.bias f4 [64]
00000000: 88c1 cabc 7f5b 7ebd 0ec0 b73c c807 05bd
00000010: 5edd 913b d8f9 39bd c318 1b3d 99b5 5ebd
00000020: 47b5 7dbd d2cf 8fbd cd14 843d 829a 113d
00000030: ff89 56bd 11c7 97bc 8e6d 683d 81c1 bc3c
00000040: 8a6f 893d 1fa9 36bc 3e52 08bc 4f5a 653d
00000050: aac6 28bb f062 84bd a3f2 88bc e59a 663d
00000060: 630c fb3c bf51 7bbc f2ea 94bd 3443 603d
00000070: 694f 89bc 293b 68bc daba 8a3d 6f71 253d
00000080: d7d0 b93c 1844 d13c e0c0 f63a 028e b43b
00000090: 38f2 1ebd 7937 dc3c fd19 153d 8881 293d
000000a0: c126 1bbd c3e7 913b e45d 8cbb 6d11 30bd
000000b0: f42c 813c 2e46 293d b16b db3b 897b 0bbd
000000c0: 8e2a 763d 6ee3 1dbd 7abc f33c 36cd 093a
000000d0: f68e cf3c 0546 ed3c 63a7 8dbd 84d2 923c
000000e0: 2289 f4b9 5521 72bd ae9e 413d f734 d73b
000000f0: b587 aebc 06d7 37bb 0481 563d 906d e8bc
-0.024750486 -0.062098976 0.022430446 -0.032478124 0.004451438 -0.045404285 0.03786541 -0.054372404
-0.061940458 -0.070220605 0.0644928 0.03554774 -0.052377697 -0.01852754 0.056745104 0.023041489
0.067107275 -0.01114872 -0.008320389 0.055994328 -0.0025753179 -0.06464183 -0.01671726 0.056300063
0.030645555 -0.015339314 -0.07271375 0.05475159 -0.016761499 -0.014174261 0.0677392 0.04039138
0.02268259 0.025545165 0.0018825792 0.0055100927 -0.038805217 0.02688192 0.036401737 0.041383296
-0.037878755 0.004452677 -0.0042836536 -0.04298537 0.015768506 0.041326694 0.0066961874 -0.03405336
0.060099177 -0.038546972 0.029752959 0.0005256714 0.025336724 0.028964052 -0.06916692 0.017922647
-0.0004664148 -0.05911382 0.04727047 0.006567593 -0.021304945 -0.0028051748 0.052369133 -0.028372556

spacial_block.1.weight f4 [64]
00000000: 19f4 863f 3d08 8f3f 5bc8 843f 9181 903f
00000010: 44fb 813f 6d31 853f 929a 843f 381b 853f
00000020: 270c 853f be4e 8e3f 4284 893f cc8d 863f
00000030: b114 903f 89ec 963f 4ef1 873f bc69 813f
00000040: 0f00 943f a862 853f 5458 843f 2935 863f
00000050: 05d8 833f 8130 823f 5781 843f 5cc0 833f
00000060: a233 843f e73b 833f 57da 893f 8c34 853f
00000070: 4883 893f e66e 873f efa7 853f fdef 833f
00000080: 419a 843f 71a8 8a3f c727 843f 88f8 853f
00000090: d8e6 843f 60fe 823f 6929 903f 24dd 853f
000000a0: 7fb3 8e3f 1dd6 973f 581b 893f 4b3f 873f
000000b0: 0521 8c3f 2f4b 823f 71ca 863f c267 943f
000000c0: f6b9 863f 7594 843f 4e17 8a3f 964c 873f
000000d0: 59cf 983f 6092 853f ba81 883f b839 903f
000000e0: 2e03 833f bfe3 883f dbee 843f 3f1b 893f
000000f0: ec37 863f 0664 843f a647 833f 625f 853f
1.0543243 1.1174389 1.0373644 1.128954 1.0154805 1.0405709 1.0359671 1.0398932
1.0394334 1.111778 1.0743487 1.0512023 1.1256315 1.1790935 1.0620515 1.0110393
1.1562518 1.0420732 1.0339456 1.0484973 1.0300299 1.0171052 1.0351971 1.0293078
1.0328257 1.0252656 1.0769757 1.0406661 1.0743189 1.0580719 1.0441874 1.0307614
1.0359575 1.0832654 1.0324639 1.0466471 1.0382948 1.0233879 1.1262637 1.0458112
1.1148528 1.1862217 1.071147 1.056619 1.0947577 1.0179194 1.053053 1.1594164
1.0525501 1.0357805 1.0788362 1.0570247 1.1938277 1.0435295 1.066459 1.1267614
1.0235345 1.0694503 1.0385393 1.071144 1.0485816 1.0343025 1.025624 1.0419734

spacial_block.1.bias f4 [64]
00000000: 964f c2bd 5001 5cbe c876 08be 747e 4bbe
00000010: b3b4 86bd 2ddf 0bbe d103 f5bd 1594 eabd
00000020: 653e 0ebe 9762 63be 80c2 27be 803c 14be
00000030: 848a 83be cfd8 67be e91f 39be 6a5e 84bd
00000040: 8b97 5dbe 6e36 14be 8c53 efbd 6bb1 27be
00000050: 17d6 fbbd ad55 97bd 7c4c ebbd 3036 e0bd
00000060: cecc fabd d962 b3bd af2f 11be f48b f0bd
00000070: 0054 37be 1c0a 0ebe bc07 09be 42cf e3bd
00000080: d721 00be beb6 21be 2d57 edbd 3cd5 18be
00000090: 8428 15be 412b c4bd 665d 37be 65b7 15be
000000a0: c457 52be 6917 63be 726a 27be 14b9 1cbe
000000b0: 3c3a 4dbe b89b c6bd 3bf0 0cbe 5e6e 6ebe
000000c0: 2ba7 03be 4e5b 05be bafb 35be f4ff 03be
000000d0: d2c1 88be 1ed6 26be d63f 3fbe 9e1a 39be
000000e0: 11f9 cabd b2c6 25be 41dc fcbd 918c 08be
000000f0: 6b4f f0bd e454 26be 63f0 f7bd a58c cdbd
-0.09487836 -0.21484876 -0.13326561 -0.19872457 -0.065774344 -0.13659354 -0.119636185 -0.11454026
-0.13890989 -0.22205578 -0.1638279 -0.14476204 -0.25691617 -0.226413 -0.18078579 -0.064633206
-0.2163984 -0.14473888 -0.11685857 -0.16376273 -0.12296694 -0.07389388 -0.114891976 -0.109478354
-0.12246095 -0.08759088 -0.14178346 -0.11745444 -0.17903137 -0.13871044 -0.13381857 -0.11123516
-0.12512909 -0.15792367 -0.11588893 -0.14925092 -0.14566237 -0.095785625 -0.17906722 -0.1462074
-0.20541292 -0.22176899 -0.163492 -0.15304977 -0.20041746 -0.0969767 -0.13763516 -0.23284289
-0.12856738 -0.13023111 -0.17771807 -0.12890607 -0.26710373 -0.16292617 -0.18676695 -0.1807656
-0.09910787 -0.16189077 -0.123466976 -0.13334872 -0.11733898 -0.1624332 -0.12106397 -0.100365914

spacial_block.1.running_mean f4 [64]
00000000: 7af4 d8bf 641f 2e3f bc97 e8be 3839 313f
00000010: f4cc 85bd 0756 9a3e d2c2 41bd 78bd be3f
00000020: 259b a93f 1789 b83f f1de 34be 34e5 abbe
00000030: e471 e3bc 45da 2ebe a28a c3be 1e23 b8bf
00000040: d263 aa3f d5ca 9abf b2b5 98be 8b8f 8b3f
00000050: 9421 c3be ddb8 56be 0f20 bdbf 75c1 97bd
00000060: cf88 0c3f 536d 333f bca8 71bd 0301 3a3f
00000070: 3718 66be 9bf9 993e eb0e 783f 70d2 0b3f
00000080: e86b 2a3f b43d 673f 6b36 be3f 0bf2 df3d
00000090: a0ff 55bf a21a 993e 1caf e1be b374 8d3e
000000a0: 8265 cebe c183 b43e 9820 6abf c886 823e
000000b0: 5a41 a93e eee8 f8be 8a01 203e e69c 563f
000000c0: 2f5c e0bd 65c9 ff3e c88c 68be f687 3e3f
000000d0: cea4 013e 41a4 16bf 4a88 1a3f 64fe 163f
000000e0: a6e0 a53f d79c 38be 191d 403f e843 cebf
000000f0: 6b58 a9bd ef9d 11bf c93f a5be 7063 89bf
-1.6949608 0.6801665 -0.45428264 0.69227934 -0.06533232 0.3014376 -0.047304936 1.4901571
1.3250471 1.4416837 -0.1766317 -0.33573306 -0.027764268 -0.1707545 -0.38191706 -1.4385717
1.3311713 -1.209315 -0.29826123 1.0903181 -0.38111556 -0.20968957 -1.4775409 -0.07409946
0.54896253 0.7008869 -0.05899881 0.72657794 -0.22470175 0.30073246 0.96897763 0.5461798
0.665709 0.90328526 1.4860357 0.10934838 -0.8359318 0.29903132 -0.4407891 0.27628097
-0.4031182 0.3525677 -0.91455984 0.25493455 0.33057672 -0.4861521 0.15625587 0.8383316
-0.109550826 0.4995834 -0.22709954 0.7442621 0.12660524 -0.5884438 0.6036421 0.5898192
1.2959182 -0.1802858 0.750444 -1.6114473 -0.082688175 -0.5688161 -0.32275227 -1.0733471

spacial_block.1.running_var f4 [64]
00000000: 0399 0f40 2857 413f 95b1 ed3f ad7c 783f
00000010: 6b17 2940 380c fe3f d987 8f3f 8c2e 3640
00000020: dcf0 963f aab1 6d3f 3814 353f c951 8a3f
00000030: 44e0 ac3f ae0e ea3f 457e a33f dcf1 4140
00000040: 838e 283f 80c4 be3f 356e 9b3f 21f4 b63f
00000050: 5279 b23f 1642 0a40 87d4 ac3f 1ae8 c43f
00000060: 6e6f d83f 30d7 3240 fdf0 233f 63f2 a63f
00000070: 22e4 2840 101c 373f 0dae a23f d9a0 e73f
00000080: 1c93 483f 9360 4f3f 0815 0a40 d0ed 5b3f
00000090: 996a 2f40 35cb 853f 8975 a53f edb1 9c3f
000000a0: caad b53f c127 953f 7fd2 873f a50b b93f
000000b0: 9af8 fd3f f8df 8040 37c8 923f 0e2a 633f
000000c0: 2e08 9b3f 3b24 9f3f ed59 4a3f 59d4 403f
000000d0: 0085 863f 3d51 1740 1844 f93f 7408 073f
000000e0: d860 1440 1f17 423f 1cde ec3f 6ff1 893f
000000f0: b3cc 403f c093 1a40 d57b 5c3f ee12 e73f
2.243714 0.75523615 1.8569819 0.9706524 2.6420543 1.9847479 1.1213332 2.846591
1.1792254 0.9284922 0.70733976 1.0806209 1.350594 1.828573 1.2772909 3.030387
0.65842456 1.4903717 1.2143008 1.4293252 1.3943274 2.1602836 1.3502358 1.5383332
1.6909006 2.794384 0.64039594 1.304272 2.6389241 0.71527195 1.2709366 1.8095962
0.7834947 0.81006736 2.1575336 0.8590975 2.7408812 1.0452639 1.2926494 1.2241799
1.4193661 1.1652757 1.0611113 1.4456679 1.9841492 4.02734 1.1467351 0.88736045
1.2111871 1.2432932 0.79043466 0.75324017 1.0509338 2.3643334 1.9473906 0.52747273
2.3184109 0.7581653 1.8505282 1.0776805 0.75312346 2.415268 0.8612645 1.8052652

conv.weight f4 [8, 1, 4]
00000000: 24e1 d3be 4805 12be 90a9 b0be 17f1 f33e
00000010: 1dd5 97be 4a32 eb3e 26b1 19bf 896c 0f3d
00000020: 3254 683e 9d02 d63d 85db 1c3f 7744 8fbd
00000030: 4869 1ebf d0e8 bebe dedf 173f 49b9 5ebe
00000040: 3d09 263f f247 12bf a374 fcbe 2c0e 843d
00000050: bc79 1e3f a739 11bf 638e e4bd f11a 20bf
00000060: 5005 00bf c67a df3e cc55 d9be fad1 65be
00000070: 5e63 9bbe a2d5 f3be f242 18bf 11df e43e
-0.41382706 -0.14259827 -0.34504366 0.47644874 -0.2965478 0.45936805 -0.6003593 0.035015617
0.22688368 0.10449717 0.6127246 -0.069954805 -0.61879396 -0.37286997 0.5932597 -0.21750368
0.64857846 -0.5714103 -0.49307737 0.064480156 0.619045 -0.56728595 -0.111599706 -0.6254111
-0.50008106 0.43648356 -0.4244827 -0.22443381 -0.3034925 -0.47623926 -0.5947715 0.44701436

classify.weight f4 [2, 64]
00000000: aebc 493e b353 2abe efbc 703e 3e70 7abe
00000010: adbe febd aafa 4cbe bdb5 893e 9b33 93bd
00000020: 8823 ecbd 6b52 33be 447e 7fbe 337d 863e
00000030: 353f 5b3e 2d80 f53d 20f3 1c3e 2acf f03d
00000040: 1a24 41be 605c 793e 656a 1f3e 06d5 ddbd
00000050: a6ca 653e 0454 29be 5279 4b3e 54e3 29be
00000060: f612 50be 6187 d4bd f0a8 29be 3d6d 853e
00000070: 1957 1d3e fce2 65be 9748 6abe 4130 35be
00000080: 49a7 82be bab4 0fbe 7a18 bebd af08 80be
00000090: 4b76 1b3e 3166 fbbd a40d e13d 8e50 76be
000000a0: cffa 633e 1a7d 0b3e f43f 273e 09ee f5bd
000000b0: 36ba 9abd 1ee4 213e a31a 0d3e 399a 37be
000000c0: ca81 f13d ba85 6fbe 8562 d7bd f456 35be
000000d0: 1923 71bd 1933 8c3e 19a9 c0bd ad7f 45be
000000e0: b89f febd 3636 7e3e 15c9 edbd b6c8 533e
000000f0: ab13 5ebe 9d9c e03d f381 3e3e 7ad5 733e
00000100: 8fd5 02be 2835 223e 3fe8 2cbe 5880 be3d
00000110: f05d 583e 5254 1c3d 96b4 4abe c751 3f3e
00000120: d82c 633e ce8d 8d3d 2b6a ba3d 509d 79be
00000130: 43bd c6bd 29d6 2abe 6c77 4abe 35d1 3fbe
00000140: a4a4 bc3d 027c a6bd e936 78be f326 323e
00000150: 62ae 76be 27e5 4d3e 0bbb 58be 8c69 683e
00000160: 79e2 ac3d bc0c 0f3e 36ba da3d c16e 55be
00000170: 700d 23be 0fb3 423e 962a 4f3e 1441 673e
00000180: dc94 0a3e 491b 3a3e 5b8f 353e bb17 a83d
00000190: 4b92 2cbe 9f2d 1d3e c90a 25be 1b8f 2e3e
000001a0: 02c5 cbbd e2ca 31be 92bd 34be b69a 783e
000001b0: e79f 1f3e 46fe 5ebe caea 8bbe 0018 003e
000001c0: 2a3e 4cbe d235 6b3e d33f 663e 2431 553e
000001d0: 35c7 833e 6753 77bd 889f 693e 2629 1f3e
000001e0: 903d 4b3e 51a8 e5bd 4e11 1f3e 2076 55be
000001f0: 56f4 3a3e d4c1 72be 7986 01be 75c7 60be
0.19700882 -0.16633491 0.23509572 -0.2445688 -0.12438712 -0.20017496 0.26896468 -0.07187577
-0.115302145 -0.17511909 -0.2495051 0.26267394 0.2141083 0.11987338 0.1532712 0.117582634
-0.18861428 0.24351645 0.1556793 -0.108316466 0.22440585 -0.16535956 0.19870499 -0.16590625
-0.20319733 -0.10377384 -0.16568351 0.26059905 0.15365256 -0.22449869 -0.22879253 -0.17694189
-0.25518253 -0.14033785 -0.09282012 -0.25006625 0.15181844 -0.12275351 0.1098893 -0.24054167
0.22263645 0.13621941 0.1633299 -0.12008292 -0.07555048 0.15809676 0.13779692 -0.17929925
0.117923334 -0.23390856 -0.10516838 -0.17708951 -0.058871362 0.27382734 -0.09407253 -0.19286986
-0.12432808 0.24825367 -0.11610619 0.20682034 -0.2168719 0.109673716 0.18604259 0.23811904
-0.12776779 0.1584059 -0.1688547 0.093018234 0.21129584 0.03816635 -0.1979545 0.1868354
0.22185075 0.06911813 0.09102281 -0.24376416 -0.097040676 -0.16683258 -0.19772118 -0.1873215
0.0921109 -0.08129121 -0.24239697 0.1739767 -0.2408996 0.20106946 -0.21165101 0.22696513
0.08441634 0.13969702 0.10680048 -0.2084303 -0.15923095 0.19013618 0.20231089 0.22583419
0.13533348 0.18174471 0.17730467 0.08207651 -0.16852681 0.15349434 -0.16117395 0.17046778
-0.09949686 -0.1736255 -0.1765044 0.24277768 0.15588342 -0.21776685 -0.27327567 0.12509155
-0.19945589 0.2296975 0.22485285 0.20819527 0.2573792 -0.060382273 0.22814763 0.1554304
0.19847703 -0.112137444 0.15533945 -0.20845842 0.1825727 -0.23706752 -0.12648953 -0.21951087

classify.bias f4 [2]
00000000: 2a4f 503c 3565 403c
0.012714187 0.01174288
