BCI/output/openBMI/LightConvNet/sub28/2023-10-05--17-38/model.pth (torch, 51356 bytes, 9 tensors)

spacial_block.0.weight f4 [64, 9, 20, 1]
00000000: 65fc bfbc 0c79 bebb feb6 6ebc 8f90 a2bc
00000010: 75f1 ca3c a81c 613d b801 713c 9adb 403d
00000020: 22a7 4fba 1865 353c e44e c3ba bcf6 a73c
00000030: 2375 15bd c55c 4fbc ddde 0cbd 4c90 0ebd
00000040: db6c 233d 93a1 e33c 6f48 55bd ec69 bebc
00000050: a69c a6bc 2358 8a3d 2dc3 793c 200c 753c
00000060: 94c1 35bd aa25 9fbc 65c5 e83d f58f 8cbd
00000070: 66ff 4bbd 3ecc 24b9 20d1 83bd 9105 e23c
00000080: 2c37 09bd 4ecd fabc 65b8 ecbc e8ac d0ba
00000090: 2113 83bc 4330 483d 5421 853d ce36 bf3c
000000a0: 6b35 dcbc eb9c 90bd 580d be3c 4d99 ce3c
000000b0: 874b b13d f273 b13d 878e dd3c c59e 733c
000000c0: 8473 dfbc 674a 8a3d 9945 763d da9a 0bbc
000000d0: 9ee4 41bd e134 b6bc da86 3c3d d955 eabc
000000e0: d5ff 823d f62a bcbd d69e 14be 0e3f ecbd
000000f0: 50f7 49bc 8f83 d0bc 851f 38bd 5517 b53c
00000100: 566a 733d e9df 8c3c c227 c2bc 16cf 21bd
00000110: 7feb 4a3c 3f5b 963d b012 dabc 35de 5fbd
00000120: 1446 823d 6690 5cbc 7133 dfba 8095 573c
00000130: 1dfa e03c 5678 94bd 52fa a1ba 37b4 b0bc
00000140: 378c d9bd 18cd 143d 2f4d 083d 7de5 2fbd
00000150: dacf 473d 1b0f 733c c070 383b 6b00 6bbd
00000160: 5a12 bf3c 3fc0 573b ffe1 6b3d 351f 933c
00000170: 840b b23d 3d04 633c 0b48 6bbd 96e7 06bd
00000180: f240 833d afe7 cdbc 4340 80bd e952 9cbd
00000190: abe1 ac3c f115 543c 7daf ccbc 53bb ec3c
000001a0: f78a 3b3b cf7a 043d 1b9f 65bd 6e3c b0bd
000001b0: 737c 2c3b 3ad7 423d ab36 c03c b5e3 c93c
000001c0: 0889 7e3b d062 a03c 9c70 073d 5b0d 59bd
000001d0: 9910 2e3c bc13 1bbd c80d 76bc 5eb7 d8bb
000001e0: 28de 45bc 930a 56bc cc78 1ebb 7184 a43d
000001f0: 35f8 80bc 71cf 463c ebb6 2dbc 713f 61bd
00000200: cc14 72bb 5a94 72bc d507 b83c a721 6a3c
00000210: a744 983b 5229 3fbd a107 f23c 5537 9bbb
00000220: 9ec4 c63c ebbe 71bd eac5 ff3b 6cf0 f33c
00000230: 3261 da3b 2e2f d6bb 9719 503d 10ef 9c3d
00000240: 49a2 2c3c 4ba3 193d 8dd6 d43c 9f43 55bd
00000250: 7ae4 5abd a76f 92bb 2f80 453c d86b 41bd
00000260: 49bc 8d3d 9b0b d3bc 8049 06bc 780c 94bd
00000270: 9c8f 9c3d 5734 a6bd 79d2 253b 9433 98bc
00000280: 04c7 5ebd 959b 24bd 63a7 46bd 5685 773a
00000290: db69 603d a10c 303d 36ee eebc 68c9 2c38
000002a0: 444c 77bd b54d 0a3d 9bb1 ee3d a6f2 e6bc
000002b0: be21 033e 7c63 95bc bb96 b6bd ab36 173d
000002c0: 499d 703c 6f39 92bd 6458 8d3d 66f6 74bd
000002d0: e72a 4f3d f527 f43b 822f ca3c 1ca7 12bd
000002e0: 579e 78bc 476b fb3d aa57 98ba b048 b23c
000002f0: e328 4abd 9e21 613c 7609 5dbc 2f02 813d
00000300: 1915 24bd a62c a93c cef9 4abc 2d77 aabc
00000310: 48f5 ecbc 94e7 513d dc1e f5bc 8ae5 dbbc
00000320: f472 cfbc 08d5 033d 54f1 23bc 53d0 583d
00000330: a736 5dbd 02e6 22bb 2ee8 7bbd e958 043e
00000340: 774d 393c 8340 f53b cd48 773b adf2 5abd
00000350: 5b7c 0ebd fe07 06bd 3f4f 353d e1a6 9c3c
00000360: ab67 02be a7c7 ad3c 0d4d a63d c145 1e3c
00000370: 9ffa 343c 4e2d 44bd 78b0 86bd 2e64 5b3d
00000380: f649 4cbd e857 89bb c281 4f3c e9bb 883c
00000390: a3a4 d6bd a24b d5bb 99f9 843d 5551 263d
000003a0: 2f22 92bc 7fc8 b63d aa6f bd3d aaa4 e7bc
000003b0: b251 40bd 1e2f e93c 06ea 48bd 10b7 11bb
000003c0: 5aa3 5a3c 774a 9a3d f9f7 8fbb 163f a83c
000003d0: 52c0 fabb f152 64bc db63 bb3b 9cff f5bc
000003e0: 5686 26bd 8ae1 be3a ba25 a3bd 53f2 7abc
000003f0: b018 d43c a747 053d f40b e73c ccea 67bb
-0.02343578 -0.0058127698 -0.014569996 -0.019844322 0.024773339 0.05495897 0.014709882 0.04708443
-0.0007921328 0.011071466 -0.001490083 0.020503394 -0.036488663 -0.012656395 -0.034392226 -0.03480558
0.039898735 0.027787006 -0.05207103 -0.023243867 -0.020338368 0.06755092 0.015244287 0.014956504
-0.044374064 -0.01942714 0.11365775 -0.06863395 -0.049804114 -0.00015716345 -0.06436372 0.027590545
-0.03349988 -0.030615475 -0.02889652 -0.0015920671 -0.016000332 0.04887415 0.065004975 0.023341563
-0.02688094 -0.0706118 0.023199722 0.025219584 0.08656984 0.08664693 0.027045501 0.014869397
-0.027276762 0.06752472 0.060124967 -0.008520806 -0.047337167 -0.022242012 0.046027042 -0.028605388
0.06396452 -0.09187882 -0.14513716 -0.11535464 -0.01232703 -0.025453357 -0.044951934 0.022105852
0.05942758 0.017196612 -0.023700599 -0.039504133 0.012385248 0.073416226 -0.026620239 -0.054655273
0.063610226 -0.013462162 -0.001702888 0.013158202 0.027463013 -0.07249515 -0.0012357926 -0.021570308
-0.10622447 0.036328405 0.033276733 -0.042943466 0.048782207 0.014835144 0.0028143376 -0.057373445
0.02332418 0.0032920984 0.057588574 0.017959217 0.08693603 0.013855991 -0.057441752 -0.0329357
0.06408872 -0.02513489 -0.06262257 -0.07633001 0.0211037 0.012944684 -0.024986023 0.028897917
0.0028616765 0.032343682 -0.056059938 -0.08605276 0.0026319295 0.047568537 0.023463568 0.024644712
0.0038839001 0.019578367 0.033066377 -0.052991252 0.010624074 -0.037860617 -0.015017934 -0.006613656
-0.012076892 -0.0130640445 -0.0024180887 0.08033074 -0.015743354 0.012134419 -0.010602693 -0.054992143
-0.0036938665 -0.014805878 0.022464672 0.01429025 0.004646856 -0.046670265 0.029544653 -0.0047368207
0.024263676 -0.059019964 0.0078055756 0.029777728 0.0066644186 -0.006536386 0.050805654 0.07662785
0.010536739 0.037509244 0.025981212 -0.05206644 -0.05344055 -0.0044688764 0.012054487 -0.04722199
0.06920678 -0.02576237 -0.008196235 -0.07228941 0.07644579 -0.08115452 0.0025302453 -0.018579282
-0.054389015 -0.040187437 -0.048499476 0.0009442171 0.05478845 0.042980794 -0.029166322 4.119557e-05
-0.060375467 0.033765513 0.11654969 -0.028191876 0.1280584 -0.018235914 -0.08915468 0.03691737
0.014685937 -0.07139861 0.06901625 -0.059805296 0.050578024 0.0074510523 0.024680857 -0.0358039
-0.01517447 0.12276321 -0.0011622806 0.021763176 -0.0493554 0.013740925 -0.013491025 0.062992446
-0.040059183 0.020651173 -0.01238866 -0.02080878 -0.028925553 0.05124624 -0.029921941 -0.026842851
-0.025323369 0.032185584 -0.010006268 0.05293305 -0.0540072 -0.0024856334 -0.06150072 0.12924542
0.011309973 0.007484497 0.0037732602 -0.05345409 -0.034786563 -0.032722466 0.044265028 0.019122543
-0.12734859 0.021213366 0.08120165 0.009660185 0.011046081 -0.04789477 -0.065766275 0.053562336
-0.049875222 -0.0041913874 0.012665214 0.016691165 -0.10480621 -0.0065092603 0.064929195 0.040604908
-0.017838566 0.0892496 0.09249814 -0.02827676 -0.04695291 0.02846485 -0.049051307 -0.0022234358
0.01334461 0.07533734 -0.0043935743 0.020537894 -0.007652321 -0.01393579 0.005718691 -0.03002911
-0.040655456 0.0014563065 -0.0796618 -0.015316564 0.025890678 0.032539036 0.028203942 -0.0035387753

spacial_block.0.bias f4 [64]
00000000: 82ef cebc cd23 7dbd a1cf b33c d345 05bd
00000010: a1b1 953b 0637 3abd b9b7 1e3d 62fa 5dbd
00000020: 809d 7cbd 53c5 8fbd 702a 853d 5c0c 113d
00000030: f233 55bd c2a8 93bc b140 6a3d fe3e bb3c
00000040: 7a1b 8a3d ddbf 35bc f76e dfbb 9516 633d
00000050: e711 1ebb 927d 81bd fb11 90bc b5e1 643d
00000060: ef3e fc3c 69e6 79bc 921b 96bd ffc5 643d
00000070: e65d 88bc 2c3b 76bc e018 893d 2c31 273d
00000080: f179 c43c 21f7 d03c cbec 873a d7c8 b43b
00000090: e8b7 1ebd 0209 db3c ae06 173d 9e2a 273d
000000a0: 1150 19bd f5ea 863b 8e3b 9abb 1c41 32bd
000000b0: 3c0d 843c c1f2 263d aa71 cb3b 3f32 0bbd
000000c0: 9900 743d 57d1 22bd 4cd2 ef3c 2775 1b3a
000000d0: d6c2 d43c 74b2 ea3c 932b 8ebd 0f9e 933c
000000e0: 8fa7 b1b9 4ff4 73bd 6a98 413d eeb6 de3b
000000f0: 84e7 b0bc 1b3e 68bb 8c39 583d 89b0 ddbc
-0.02526069 -0.06180172 0.021949591 -0.032537293 0.004568294 -0.04546263 0.03874943 -0.05419386
-0.06167364 -0.070200585 0.06502235 0.035412177 -0.052051492 -0.018024806 0.0571906 0.022857185
0.06743522 -0.011093107 -0.006818648 0.055441458 -0.0024119557 -0.06322779 -0.017586699 0.055879313
0.030791728 -0.015252688 -0.07329477 0.055852886 -0.016646337 -0.015028756 0.06694198 0.04081838
0.023983927 0.025508465 0.0010370252 0.005517106 -0.038749605 0.026737694 0.036871605 0.040812127
-0.037429873 0.0041173645 -0.0047068065 -0.043519124 0.016119592 0.040758852 0.006208618 -0.033983465
0.059570882 -0.039750423 0.029275082 0.0005930238 0.025971811 0.028649546 -0.06941905 0.018019704
-0.00033884912 -0.059559163 0.047264494 0.0067967093 -0.02159477 -0.0035437408 0.052789256 -0.027061718

spacial_block.1.weight f4 [64]
00000000: 514e 833f cb00 8c3f 64c9 853f 2724 8f3f
00000010: c276 833f 4d12 863f e617 863f e44c 863f
00000020: a09a 833f 7d2f 993f d883 873f 1dfc 853f
00000030: 3bbf a83f 38ea 993f 0e81 8a3f cf74 853f
00000040: b569 923f 059a 893f 9567 853f c87c 883f
00000050: ccc1 853f 60f8 823f 8790 873f c01a 863f
00000060: d780 833f bad8 843f 0945 933f e716 853f
00000070: 5095 8b3f c267 853f 3f63 853f d437 863f
00000080: 88a3 853f 6232 883f e865 873f 2e63 873f
00000090: 3515 873f 517c 853f f9fe 963f 89a8 843f
000000a0: a287 913f 49d4 983f 6cc9 883f 034e 863f
000000b0: d868 a13f 28d3 843f 4fdb 863f d961 9e3f
000000c0: 1a83 883f ed94 853f faa6 7f3f 940a 843f
000000d0: bca1 a53f 141d 923f 0bb3 873f 381a 8b3f
000000e0: fd52 853f 2bae 8b3f b1ef 853f 3a29 873f
000000f0: 7bba 813f b961 883f 83a0 8a3f 9e38 863f
1.0258275 1.0937742 1.0452085 1.1182908 1.0270617 1.0474335 1.0476043 1.0492215
1.0281563 1.1967617 1.058711 1.0467564 1.3183359 1.2024603 1.0820634 1.0426272
1.1438509 1.0750128 1.0422236 1.066308 1.0449767 1.0232048 1.0590981 1.0476913
1.0273694 1.037864 1.1505443 1.0397614 1.0904942 1.0422289 1.0420913 1.0485787
1.0440531 1.0640376 1.0577974 1.0577142 1.0553347 1.0428563 1.1796561 1.0363933
1.1369517 1.1939784 1.0686469 1.0492557 1.2610121 1.037694 1.0535678 1.2373611
1.0665009 1.0436074 0.9986416 1.0315728 1.2939982 1.1415124 1.0601515 1.0867376
1.0415951 1.0912527 1.0463773 1.0559456 1.0135034 1.0654823 1.0830234 1.0486028

spacial_block.1.bias f4 [64]
00000000: e3ec c1bd 25b1 12be b3ec bfbd acac f7bd
00000010: 8076 b2bd 181a 09be 0dfc 21be ae80 fdbd
00000020: 7489 d6bd ee0d 7fbe b526 edbd 8051 c4bd
00000030: 571f 65be 0a5b 87be 5a9a 3abe e78d 13be
00000040: 5f5d 2dbe 3695 34be 6906 22be 2580 ffbd
00000050: f6ad 11be c207 cbbd 22fb e3bd e52e c7bd
00000060: 4e9a e3bd 9fec 07be e7ab 14be 2d25 0bbe
00000070: 0d86 6dbe 69e3 c5bd 1103 9fbd 2201 dabd
00000080: f66f d3bd 5abf 07be 34c5 e1bd 57a5 eebd
00000090: c636 1dbe c289 04be 6128 88be a1e0 e7bd
000000a0: 3393 69be e3fa 75be 12a9 4fbe 972f bdbd
000000b0: b3f4 6dbe fb2b 03be eafd 14be 5ef0 81be
000000c0: 48fd 07be fe6e 99bd c670 49bc 170f b3bd
000000d0: 4b97 57be b8f4 5bbe 3c9d dcbd f075 13be
000000e0: abb3 cebd f56a 2abe 5566 03be 1418 1bbe
000000f0: 196d 92bd b560 51be b460 84be afbd 33be
-0.09469011 -0.14325388 -0.09371319 -0.120934814 -0.08714008 -0.1338886 -0.15818806 -0.12378059
-0.10475436 -0.24907658 -0.115796484 -0.095858574 -0.22375236 -0.26436645 -0.18222943 -0.144096
-0.1693015 -0.17635044 -0.15822758 -0.124756135 -0.14226517 -0.09913589 -0.11131884 -0.09725741
-0.11113416 -0.13273858 -0.145187 -0.135884 -0.23195668 -0.09662516 -0.07764257 -0.10644747
-0.10324089 -0.13256589 -0.11023942 -0.1165263 -0.15352926 -0.12943175 -0.26593307 -0.113221414
-0.22810058 -0.24021487 -0.20279339 -0.09237593 -0.23237877 -0.12809746 -0.14549986 -0.25378698
-0.13280213 -0.07491873 -0.012294954 -0.087431125 -0.21053807 -0.21480072 -0.107721776 -0.14400458
-0.10092863 -0.16642363 -0.12832005 -0.15145904 -0.07149715 -0.20447047 -0.2585503 -0.17552827

spacial_block.1.running_mean f4 [64]
00000000: 2278 c7be 3282 22bf 9b95 b83e 1d8e 13bf
00000010: 2108 febe 4bd3 8ebe d569 6d3f 3824 95be
00000020: 5e15 19bd 1025 32be 42fb c7be 0259 5dbc
00000030: f353 453e a58b 96be d17e f93e fb02 d5be
00000040: 0e34 2abd 337a d5be 22dd 253f 2871 8ebe
00000050: 746c 1c3f b249 b0bd 4a90 3bbe eafa 6abe
00000060: c201 943d 5445 403e e7df 07bd f662 833e
00000070: fb9f 803f a8c9 8abe 09c0 94be c482 e9be
00000080: 6f84 583d 70ab 4e3c b925 bbbc 059e 60be
00000090: b8d2 d83e d62d 94bd 8d13 7b3f f03c 5cbe
000000a0: 86c6 933b 002f a03e dd8a cfbe 5943 1fbf
000000b0: 11ff b4be c549 0b3f c086 7c3f cc78 c2be
000000c0: f156 413f 1df0 5f3c 2eeb e3be 3aa6 0dbf
000000d0: 19eb 8a3e 5a99 a63e e6b9 f8be 28df 27bd
000000e0: 5257 09bf c186 1e3f b5e0 dfbe d2ee 653e
000000f0: c06f 92bf 7f1a 883e 1417 b33f 7e40 ea3d
-0.38958842 -0.6347991 0.3605164 -0.5763872 -0.49615577 -0.2789558 0.9273961 -0.29129195
-0.037373893 -0.1739695 -0.39058882 -0.013509991 0.19270305 -0.29403415 0.48729566 -0.41603836
-0.04155355 -0.41694793 0.64790547 -0.27820706 0.61102986 -0.08607806 -0.1831676 -0.22947279
0.07226898 0.18776447 -0.033172514 0.2566144 1.0048822 -0.27106977 -0.2905276 -0.4560758
0.052860674 0.012614116 -0.022845136 -0.2193528 0.42348266 -0.07235305 0.9807671 -0.21507621
0.00450975 0.31285858 -0.40535632 -0.6221214 -0.3535085 0.5440944 0.9864311 -0.37982786
0.7552329 0.013668087 -0.44515365 -0.55331767 0.2713249 0.32538873 -0.4857933 -0.040984303
-0.53648865 0.6192437 -0.43726125 0.22454384 -1.1440353 0.26582715 1.3991418 0.11438082

spacial_block.1.running_var f4 [64]
00000000: 1772 453f 98ec 3a3f a7ad 943f 1f17 153f
00000010: e6eb b53f 5e4a 613f 0c31 673f f094 4e3f
00000020: 4f95 283f baaf cc3e e4fe 213f a292 023f
00000030: 97b6 c83e 1dbc 2a3f 46b3 3c3f 0b77 2f3f
00000040: 098c b23e e390 5c3f d664 bf3f 30f8 083f
00000050: 813d 233f 6231 773f 397a 293f 71bd 153f
00000060: 0ecf 9a3f d1b6 4a3f cf12 f93e b76b 313f
00000070: bb4b 403f c47f 2a3f 9fea 9e3f cbce 4b3f
00000080: 9340 2a3f 4616 8b3f afe8 413f 880a 1d3f
00000090: 8596 593f 2675 6a3f 17fa 833f a871 4d3f
000000a0: 415c 243f 7d4d 193f e098 453f a80d 4a3f
000000b0: 9530 e43e fc17 e13f aa90 483f 19d9 f63e
000000c0: 6ad8 083f f890 b53f 237f 893f eaf1 273f
000000d0: abac 0b3f 357b 193f 8b6d 9d3f 4a01 163f
000000e0: 6381 553f f62a 323f 4447 563f 2295 233f
000000f0: ba9a b03f 99c5 603f c568 783f 0dbe 5d3f
0.7712721 0.73017263 1.1615494 0.58238405 1.4212615 0.880041 0.90309215 0.8069601
0.65852827 0.3997782 0.6327956 0.51004994 0.39201805 0.6669329 0.7371105 0.6854102
0.34872463 0.8615858 1.4952648 0.53503704 0.6376572 0.9655973 0.6620212 0.5849219
1.2094438 0.79185206 0.48647162 0.69304985 0.75115556 0.66601205 1.2415351 0.79612416
0.6650478 1.0866172 0.7574567 0.61344194 0.849953 0.91585004 1.0310696 0.8025155
0.6420327 0.5988386 0.77186394 0.7892709 0.44568315 1.7585444 0.7834574 0.48212507
0.5345522 1.4184866 1.0741924 0.65603507 0.54560345 0.59953624 1.2299055 0.58595717
0.83400553 0.69596803 0.8370249 0.63899434 1.3797219 0.8780151 0.97034866 0.8661812

conv.weight f4 [8, 1, 4]
00000000: e940 d2be 170a acbb 56e0 5abe 6b70 b23e
00000010: 4c19 81be 44d6 b53e a989 f5be f089 153e
00000020: 8f9c 213e edf7 d73d 7f2d 9d3e b3dc 893e
00000030: 110d 0abf 2700 dfbd df67 ca3e d327 81bd
00000040: 27d9 313e b385 8fbe 5527 c8be 6389 0e3f
00000050: 92a1 6f3e 41fe 54be a5ca 2d3e 4a06 02bf
00000060: 277a ffbe fcf2 c73e 70bb 92be 4601 3dbe
00000070: cbbe acbe d083 81be c8cf 04bf 81e6 d53e
-0.41065148 -0.0052502262 -0.2137464 0.34851393 -0.25214612 0.35515034 -0.4795659 0.146034
0.15782379 0.10545335 0.30698773 0.26926193 -0.5392619 -0.10888701 0.39532372 -0.06306424
0.17367993 -0.28031692 -0.39092508 0.55678385 0.23401478 -0.20800115 0.16971834 -0.50790846
-0.49897882 0.3905257 -0.28658628 -0.18457517 -0.33739313 -0.25295877 -0.5187955 0.41777423

classify.weight f4 [2, 64]
00000000: bf6b 403e 47e0 d7bd 272a 433e 1ae5 3abe
00000010: f21b e9bd bc9a 4abe cb24 743e f65d 9bbd
00000020: 70b4 a0bd 641b 3dbe 1f04 4dbe 31e4 4c3e
00000030: 8373 93bd fb4a df3d f1ed 0e3e 1c5b 323e
00000040: b5bb 28be 6b14 853e c6fc 193e 58eb 84bd
00000050: a9c0 4e3e 7d57 33be fd81 373e a1c2 12be
00000060: 09a2 35be fad2 14be 61fd 2ebe 3201 803e
00000070: ef1a 203e 9f25 31be f78f 24be 747c 2fbe
00000080: 5726 5abe 9f87 afbd 96f1 9dbd efb4 56be
00000090: e46c 023e b861 e6bd 5f12 083e 3190 55be
000000a0: 82b1 493e e7fa f93d 1c02 143e 16a2 89bd
000000b0: 2798 ffbd 8b23 3c3e f2f1 bf3d e2d0 0bbe
000000c0: 6d82 cc3d 69cc 30be 2398 8f3c abca fabd
000000d0: 4d3f c8bc fe9d 7f3e 2203 37bd 50c6 02be
000000e0: 6b5d ffbd 6bd7 5a3e 8247 f0bd 989d 443e
000000f0: 3b93 1dbe a267 e03d 0156 613e 1909 763e
00000100: 4909 f3bd 25a3 c73d d5aa febd a0a7 fd3c
00000110: 8e8c 4d3e 98d4 123d fc6d 2bbe de66 433e
00000120: 4375 3d3e a61f a13d edeb 2a3d 1087 39be
00000130: 429a 413e 96bb 1fbe 4972 3cbe c1c4 79be
00000140: d8d3 8b3d 0e15 c8bd 45c9 72be 16b2 053e
00000150: 67a4 5fbe 9be8 573e b6c3 44be d148 513e
00000160: 6f01 703d 079c 393e ef62 e53d a396 4abe
00000170: 46d1 25be aaf5 0d3e ef71 093e 498d 613e
00000180: 19d9 be3d 532a 023e e67b 253e 92bd 2a3d
00000190: f188 13be 5dab 123e 5296 3cbe b9ce 0d3e
000001a0: 5232 97bd 324b 23be bd7f 21be c374 423e
000001b0: dd0e 523e b63d 79be f1b3 6abe 429d a83d
000001c0: 66be 39be 7e7c 2c3e 1837 d13d 863f 1d3e
000001d0: 784d 643e 9332 14bd c00b 373e 94df b83d
000001e0: 619c 4b3e b0ea 9ebd 7850 203e 084b 46be
000001f0: d8e7 f43d 57a7 72be 905a 24be 1bfb 62be
0.18791102 -0.105408244 0.19059049 -0.18251458 -0.11382283 -0.19785589 0.2384216 -0.07586281
-0.07846916 -0.1846748 -0.20021103 0.20008923 -0.071997665 0.10902973 0.13957955 0.17417568
-0.16477855 0.2599214 0.15037832 -0.06490201 0.20190682 -0.17513843 0.1792068 -0.14332058
-0.17737593 -0.14533606 -0.17088844 0.25000912 0.15635274 -0.17299508 -0.16070543 -0.17137319
-0.21303688 -0.085707895 -0.077120945 -0.20967458 0.12736851 -0.11249107 0.13288258 -0.20855786
0.1969662 0.12206059 0.1445393 -0.067203686 -0.12480193 0.18372934 0.09372319 -0.13653901
0.09985814 -0.17265476 0.0175286 -0.12245687 -0.024444247 0.24962613 -0.044680722 -0.12770963
-0.1246899 0.21371238 -0.11732389 0.19200742 -0.15388195 0.109572664 0.22005464 0.24026908
-0.118670054 0.09747914 -0.124349274 0.030963719 0.20073149 0.035847276 -0.16741174 0.1908221
0.18501763 0.078673646 0.041728903 -0.18117929 0.18906501 -0.15598902 -0.18402971 -0.24391462
0.06827515 -0.09769641 -0.2370959 0.13056216 -0.21840058 0.21084826 -0.19215283 0.20437934
0.058595117 0.18125926 0.11200511 -0.19784026 -0.16193113 0.13863245 0.13422368 0.22026552
0.09318752 0.12711458 0.16160545 0.041684695 -0.14407708 0.14323182 -0.18416718 0.1384839
-0.07382645 -0.15946653 -0.15771385 0.18989854 0.20513482 -0.24339947 -0.22920205 0.082331195
-0.18139037 0.16844365 0.102155864 0.15356264 0.22295177 -0.036181044 0.17875576 0.09027019
0.19883873 -0.07759607 0.15655696 -0.1936456 0.11958283 -0.23696648 -0.16050172 -0.22166102

classify.bias f4 [2]
00000000: 2d2c a93c c571 793b
0.020650947 0.0038062197
