BCI/output/openBMI/LightConvNet/sub8/2023-10-05--17-38/model.pth (torch, 51356 bytes, 9 tensors)

spacial_block.0.weight f4 [64, 9, 20, 1]
-0.009205598 0.017270146 -0.04002834 -0.03359531 -0.028324408 0.07383741 -0.03243874 0.06854379
0.01327332 0.003950038 -0.02453049 0.025458906 -0.015367926 -0.0018904321 -0.012308879 -0.021073291
0.019057855 0.05436538 -0.032326877 -0.017833201 -0.023035036 0.047942493 -0.02087512 0.039892964
-0.04203796 -0.02710171 0.06727608 -0.08017002 0.014950635 -0.005558007 -0.016638698 0.06833705
-0.0352395 0.0021953473 0.009793804 -0.055591855 -0.030584676 0.06704206 0.028387828 -0.0068946583
-0.027221886 -0.010795478 0.03968868 -0.03696459 -0.05797672 0.03154589 0.019254187 0.004155422
-0.053710595 -0.036715582 -0.0011206783 0.09142525 0.11548104 0.03825714 0.067532144 -0.06287937
0.012077039 -0.051035628 -0.03792889 -0.0646229 -0.06946847 0.046629798 -0.087002665 -0.010558347
0.027446257 0.07729401 0.042267002 0.025678143 0.06985606 -0.016235692 -0.14021933 -0.05881952
0.08967798 -0.0469252 0.063206166 0.066084504 -0.025999948 -0.03496901 0.061633497 -0.0662508
-0.022696275 0.024754772 0.02321211 -0.049427796 0.05628669 0.020980837 0.04988206 0.009840727
0.06453903 -0.086812206 0.034720194 0.08208764 0.17301625 -0.016633755 -0.046437908 -0.103483945
0.030333843 0.008266282 -0.10145611 -0.07354376 0.02754591 0.06626546 -0.03936881 0.02361065
-0.023537166 0.037867397 -0.03522975 -0.03445984 0.063553974 -0.02138692 -0.023870617 0.026458172
0.04962411 0.003711653 0.06087403 -0.14881517 -0.038180146 0.027973786 -0.0017462077 -0.0331006
0.045110315 0.03619973 -0.06594758 0.09662905 0.0008363914 0.042753953 -0.021761034 -0.06743969
0.014815966 -0.122645244 -0.028658563 0.012796584 0.04698648 -0.046224974 0.08398233 -0.06894997
0.03203451 0.023358094 -0.020935284 -0.012923697 0.014540787 0.042644866 0.025583375 0.032148104
-0.066672966 0.03361834 -0.011256335 -0.0399755 0.033243705 -0.13042332 -0.085957795 0.023883855
0.09665767 -0.019238675 0.047984406 -0.107304804 0.075455844 0.008519521 0.0828983 -0.06509139
-0.029465618 0.044903018 -0.06559851 -0.011990713 -0.0017693477 0.028974015 -0.003191304 0.049709264
-0.0097610885 -0.08296669 0.035309937 -0.046907715 0.13495038 0.0075297365 -0.018125266 0.008581495
-0.009574809 -0.001805606 0.06302092 -0.10035699 0.0054624192 0.0047684074 0.03364507 -0.041070543
-0.015301596 0.013508646 -0.0070802835 0.010597579 -0.048636872 0.027589943 0.021676617 0.057735827
-0.044562813 0.0132226385 -0.029800111 0.043230813 -0.028860737 -0.005023105 -0.019442236 0.010473658
0.023063865 -0.00024985254 -0.05841761 -0.01682517 -0.055719737 0.060812134 -0.015924329 0.06661076
0.04391615 0.032649413 0.011191762 -0.021802137 -0.02941809 -0.0125631485 -0.02794297 -0.0027442004
-0.039687864 -0.005613548 0.049921516 -0.005102451 -0.022873808 0.19067813 0.2218116 -0.03414783
-0.14483137 -0.020940388 -0.10680898 -0.018940262 -0.11780846 -0.023625748 0.085520044 0.04785922
-0.038837813 0.094055146 -0.0266559 -0.057431057 -0.06400223 -0.019626314 0.087596975 -0.03191801
0.0097987205 0.02471618 -0.01716638 0.0078968415 -0.0024345554 -0.039598946 -0.015094744 0.01915884
0.024849687 -0.010334102 -0.034987547 0.05764058 0.045977462 -0.028929325 -0.0057131657 0.054058123
00000000: 14d3 16bc 1f7a 8d3c c2f4 23bd 3c9b 09bd
00000010: 9708 e8bc 1138 973d 7cde 04bd b060 8c3d
00000020: 5778 593c 526f 813b 2bf4 c8bc 328f d03c
00000030: c1c9 7bbc 60c8 f7ba 2eab 49bc e5a1 acbc
00000040: 381f 9c3c 3cae 5e3d 3069 04bd ef16 92bc
00000050: f9b3 bcbc 595f 443d 4d02 abbc ce66 233d
00000060: ff2f 2cbd 6804 debc 0bc8 893d 2e30 a4bd
00000070: 82f3 743c f11f b6bb e14d 88bc 4cf4 8b3d
00000080: 4b57 10bd d1df 0f3b 3176 203c 49b4 63bd
00000090: b78c fabc 594d 893d 978d e83c 96ec e1bb
000000a0: 6f00 dfbc 84df 30bc 9990 223d 2f68 17bd
000000b0: ff78 6dbd 4336 013d f5ba 9d3c 352a 883b
000000c0: a4ff 5bbd 1463 16bd b9e3 92ba 293d bb3d
000000d0: 5381 ec3d 85b3 1c3d 4b4e 8a3d e6c6 80bd
000000e0: c6de 453c bc0a 51bd 535b 1bbd 0359 84bd
000000f0: 7c45 8ebd e3fe 3e3d 742e b2bd ebfc 2cbc
00000100: f9d6 e03c 524c 9e3d 2a20 2d3d f85a d23c
00000110: b210 8f3d b700 85bc a895 0fbe bdec 70bd
00000120: 17a9 b73d a334 40bd 3c72 813d 5057 873d
00000130: d8fd d4bc aa3b 0fbd 6873 7c3d 80ae 87bd
00000140: 8aed b9bc 85ca ca3c 5327 be3c cd74 4abd
00000150: df8c 663d 01e0 ab3c 2251 4c3d 003b 213c
00000160: 0a2d 843d 99ca b1bd c336 0e3d 911d a83d
00000170: 2c2b 313e 8343 88bc ad35 3ebd 64ef d3bd
00000180: ae7e f83c 4d6f 073c 39c8 cfbd 1c9e 96bd
00000190: f6a7 e13c 2fb6 873d 3041 21bd 1f6b c13c
000001a0: 04d1 c0bc d81a 1b3d 124d 10bd c325 0dbd
000001b0: 9628 823d 9f33 afbc 508c c3bc cfbe d83c
000001c0: a742 4b3d 343f 733b 0c57 793d 0163 18be
000001d0: c962 1cbd 4829 e53c 02e1 e4ba 7f94 07bd
000001e0: 98c5 383d 2b46 143d 860f 87bd 74e5 c53d
000001f0: 4741 5b3a c51e 2f3d 3244 b2bc d21d 8abd
00000200: aabe 723c 6e2d fbbd 5dc5 eabc c3a8 513c
00000210: e574 403d 6656 3dbd eefe ab3d a435 8dbd
00000220: 9e36 033d 7959 bf3c 7980 abbc eabd 53bc
00000230: 7b3c 6e3c 62ac 2e3d 3a94 d13c bbad 033d
00000240: d68b 88bd 62b3 093d 7e6c 38bc 5abd 23bd
00000250: 8d2a 083d b18d 05be a40a b0bd 13a8 c33c
00000260: 75f4 c53d 6d9a 9dbc 4c8b 443d 9fc2 dbbd
00000270: 9888 9a3d 7695 0b3c 95c6 a93d a24e 85bd
00000280: e161 f1bc 3aec 373d 8358 86bd b274 44bc
00000290: 75e9 e7ba ea5a ed3c 3225 51bb f19b 4b3d
000002a0: f9ec 1fbc 71ea a9bd 27a1 103d 4e22 40bd
000002b0: 6f30 0a3e 02bc f63b 707b 94bc 6699 0c3c
000002c0: a9df 1cbc 15aa ecba 1d11 813d f787 cdbd
000002d0: 18fe b23b 4d40 9c3b 6acf 093d 9639 28bd
000002e0: 8cb3 7abc 5e53 5d3c b901 e8bb 78a1 2d3c
000002f0: 7537 47bd 4e04 e23c 2993 b13c 677c 6c3d
00000300: 7f87 36bd c4a3 583c 5d1f f4bc cb12 313d
00000310: 5a6d ecbc dc98 a4bb 5345 9fbc b599 2b3c
00000320: 6ef0 bc3c a4fe 82b9 4e47 6fbd f0d4 89bc
00000330: 613a 64bd 2516 793d bd73 82bc 396b 883d
00000340: 6ce1 333d 64bb 053d a75d 373c 659a b2bc
00000350: 35fe f0bc aad5 4dbc a8e8 e4bc 0bd8 33bb
00000360: be8f 22bd dbf1 b7bb 817a 4c3d 7632 a7bb
00000370: da61 bbbc 2141 433e 9422 633e 98de 0bbd
00000380: ad4e 14be 2d8b abbc abbe dabd 9c28 9bbc
00000390: 9045 f1bd c98a c1bc 2225 af3d 0808 443d
000003a0: 6614 1fbd fc9f c03d 795d dabc d43c 6bbd
000003b0: 9a13 83bd 5dc7 a0bc 0b66 b33d 76bc 02bd
000003c0: d08a 203c 9679 ca3c 82a0 8cbc c161 013c
000003d0: 108d 1fbb 8132 22bd f24f 77bc 00f3 9c3c
000003e0: 9291 cb3c 5e50 29bc 1a4f 0fbd 8718 6c3d
000003f0: dd52 3c3d 31fd ecbc 8235 bbbb 0d6c 5d3d

spacial_block.0.bias f4 [64]
-0.025060646 -0.06166002 0.021661133 -0.032336563 0.0054637957 -0.045335572 0.038309883 -0.05432425
-0.06203452 -0.07021871 0.064458944 0.035589952 -0.05209892 -0.01816411 0.057058252 0.023064712
0.06746268 -0.010841281 -0.0081465915 0.05512667 -0.003816854 -0.062686965 -0.017130557 0.054954663
0.031218613 -0.0150100645 -0.07300371 0.054463793 -0.016109914 -0.015750987 0.06673309 0.041171644
0.022920346 0.02535668 0.0015156688 0.0057919407 -0.03864038 0.026151558 0.03635251 0.041054208
-0.037706103 0.0045276824 -0.0047023455 -0.04262675 0.016104652 0.041573428 0.006283626 -0.03392239
0.059904028 -0.040083162 0.029121608 9.9902885e-05 0.026111558 0.028811645 -0.069752656 0.018448079
0.00019547626 -0.060556877 0.046941612 0.0073198294 -0.021574099 -0.0034578554 0.052811924 -0.028036764
00000000: fc4b cdbc 388f 7cbd b072 b13c 5873 04bd
00000010: a409 b33b cbb1 39bd d3ea 1c3d 1b83 5ebd
00000020: e917 7ebd d4ce 8fbd 0d03 843d c5c6 113d
00000030: ad65 55bd e6cc 94bc eab5 693d 35f2 bc3c
00000040: e029 8a3d a19f 31bc 4879 05bc 81cc 613d
00000050: 2f24 7abb 0662 80bd 6255 8cbc 2418 613d
00000060: 2dbe ff3c c6ec 75bc f882 95bd 6d15 5f3d
00000070: f0f8 83bc 3708 81bc 5cab 883d 99a3 283d
00000080: 73c3 bb3c d0b8 cf3c 68a9 c63a 52ca bd3b
00000090: 6045 1ebd cb3b d63c 5fe6 143d 7528 283d
000000a0: b771 1abd f45c 943b 2216 9abb 6399 2ebd
000000b0: e7ed 833c e648 2a3d e0e6 cd3b 34f2 0abd
000000c0: ed5d 753d 3e2e 24bd 7090 ee3c f482 d138
000000d0: e8e7 d53c 6606 ec3c 7bda 8ebd 6d20 973c
000000e0: c2f8 4c39 7d0a 78bd d945 403d 2edb ef3b
000000f0: 2abc b0bc 309d 62bb 5151 583d 5bad e5bc

spacial_block.1.weight f4 [64]
0.9654622 1.1089206 0.96731365 1.1714672 1.058116 1.1310607 0.9627006 1.0634785
1.0860294 1.1880941 1.1038023 1.0123442 1.1935716 0.9295467 1.0084788 0.9604496
1.1400824 0.9746111 0.9700737 1.1338054 0.9557187 1.0590447 1.0202471 1.0636742
1.0943866 1.0710293 1.1191298 0.96006453 0.926819 1.073681 1.0720448 1.0684049
1.0832292 1.0847126 1.0812935 1.0958873 0.9444601 1.0753534 1.0492616 1.0717475
1.0190179 1.0834811 0.9554098 1.0783683 1.2304044 0.9671186 0.980761 1.2438678
0.98824036 1.0757602 1.1121969 1.0877935 1.2663559 1.0021294 1.1064669 1.1705952
1.0425818 1.0161583 1.0852324 0.98281914 1.0417076 0.94643956 0.9845292 0.9559232
00000000: 8828 773f 1cf1 8d3f dea1 773f a3f2 953f
00000010: 5870 873f 99c6 903f 8c73 763f 1020 883f
00000020: 0303 8b3f 7813 983f 6549 8d3f 7f94 813f
00000030: f4c6 983f c6f6 6d3f d515 813f 06e0 753f
00000040: 38ee 913f 1d80 793f c056 783f 8920 913f
00000050: fba9 743f c78e 873f 7597 823f 7a26 883f
00000060: dc14 8c3f 7d17 893f a53f 8f3f cac6 753f
00000070: 0344 6d3f 616e 893f c438 893f 7ec1 883f
00000080: 41a7 8a3f ddd7 8a3f d367 8a3f 0946 8c3f
00000090: 23c8 713f 2ea5 893f 344e 863f 062f 893f
000000a0: 2e6f 823f 82af 8a3f bd95 743f f907 8a3f
000000b0: e47d 9d3f 1695 773f 2713 7b3f 0f37 9f3f
000000c0: 52fd 7c3f 83b2 893f 785c 8e3f d13c 8b3f
000000d0: f317 a23f c745 803f b5a0 8d3f 10d6 953f
000000e0: 5273 853f 7a11 823f e5e8 8a3f 099a 7b3f
000000f0: ad56 853f dd49 723f 1b0a 7c3f 62b7 743f

spacial_block.1.bias f4 [64]
-0.15417245 -0.09638965 -0.078864016 -0.11937008 -0.025247687 -0.114145726 -0.13523693 -0.0125663215
-0.09197295 -0.18779708 -0.12239231 -0.10073949 -0.24753383 -0.21152557 -0.16746001 -0.10102458
-0.15288489 -0.1512121 -0.12919495 -0.088423945 -0.10952673 -0.047082994 -0.103200726 -0.027510386
0.0021152827 -0.0052967705 -0.13088144 -0.076669134 -0.12266557 -0.06582716 -0.08204318 -0.064666994
-0.054086387 -0.071351826 -0.062011946 -0.10282186 -0.14142002 -0.031632837 -0.21794657 -0.09201627
-0.1893712 -0.2398406 -0.13952842 -0.10571148 -0.23121417 -0.08868662 -0.13649406 -0.18506025
-0.14512718 -0.070925765 -0.063873366 -0.028216947 -0.23437603 -0.19679119 -0.1489749 -0.15508607
0.004929524 -0.15936589 -0.057236016 -0.13451996 0.017593103 -0.10287864 -0.14139615 -0.12556636
00000000: 62df 1dbe f067 c5bd 7583 a1bd 4d78 f4bd
00000010: 3dd4 cebc 3cc5 e9bd 8d7b 0abe f9e2 4dbc
00000020: 505c bcbd e14d 40be d2a8 fabd 8150 cebd
00000030: 8279 7dbe 299a 58be a37a 2bbe fae5 cebd
00000040: db8d 1cbe 58d7 1abe ae4b 04be 9d17 b5bd
00000050: 8d4f e0bd 19da 40bd e75a d3bd 765d e1bc
00000060: 8ea0 0a3b 8890 adbb c905 06be b504 9dbd
00000070: 1638 fbbd 64d0 86bd 4106 a8bd 2170 84bd
00000080: b089 5dbd e820 92bd 3d00 7ebd 4494 d2bd
00000090: 69d0 10be 6f91 01bd 632d 5fbe 0773 bcbd
000000a0: 86ea 41be c698 75be 8ae0 0ebe 437f d8bd
000000b0: 68c3 6cbe 55a1 b5bd 19c5 0bbe 6f80 3dbe
000000c0: 389c 14be 8741 91bd 0ad0 82bd 3a27 e7bc
000000d0: 4500 70be a183 49be e08c 18be e2ce 1ebe
000000e0: d887 a13b d030 23be 5070 6abd 9abf 09be
000000f0: 691f 903c 09b2 d2bd 27ca 10be 7894 00be

spacial_block.1.running_mean f4 [64]
-0.99806774 -0.6456043 -0.84414834 1.2144952 0.85966444 0.7417008 -0.9852046 0.7176416
-0.24967755 0.8773128 1.3725525 -0.7341368 0.0934131 -0.48447955 -1.0715241 -0.78074545
1.0632813 -0.92961055 -0.6273109 0.42689878 -0.18152674 0.24530806 -1.0172184 -0.32980242
0.87874144 0.37343252 0.8043831 0.108005635 0.096917875 0.7739762 1.070047 0.84016746
0.7553032 1.1158203 0.51767594 1.1330338 -0.73253256 0.5449983 -0.8920344 0.16489425
-0.751104 -0.4202032 0.15222935 0.36753052 -0.3020373 -0.42349103 -0.68896246 1.334032
-0.2922489 1.6843725 0.6374091 0.4101474 -0.44379967 -0.14156044 0.4049592 -0.67071474
0.7761537 -1.0338355 0.5343318 -0.5108501 0.11811944 -0.18637104 -0.72004896 -0.46622917
00000000: 5e81 7fbf 5346 25bf 1b1a 58bf 9474 9b3f
00000010: f812 5c3f 1be0 3d3f 5e36 7cbf 5cb7 373f
00000020: 79ab 7fbe 9297 603f cdaf af3f 64f0 3bbf
00000030: 5e4f bf3d b40d f8be b427 89bf efde 47bf
00000040: 9a19 883f f5fa 6dbf 7297 20bf 7a92 da3e
00000050: 25e2 39be 0932 7b3e 3634 82bf dddb a8be
00000060: 33f5 603f 8c32 bf3e 0dec 4d3f 0f32 dd3d
00000070: e17c c63d 4e23 463f 4df7 883f 3715 573f
00000080: 8d5b 413f 33d3 8e3f 6986 043f 4007 913f
00000090: 4187 3bbf 0285 0b3f 5e5c 64bf 0ada 283e
000000a0: 5a48 40bf e024 d7be 03e2 1b3e f62c bc3e
000000b0: a2a4 9abe d1d3 d8be d85f 30bf 90c1 aa3f
000000c0: a6a1 95be 8599 d73f 3e2d 233f d7fe d13e
000000d0: b639 e3be 38f5 10be d056 cf3e f6b3 2bbf
000000e0: 02b2 463f b954 84bf f8c9 083f 12c7 02bf
000000f0: 9be8 f13d 0dd8 3ebe 2155 38bf 97b5 eebe

spacial_block.1.running_var f4 [64]
1.3421637 0.7759365 2.0999887 0.78829026 2.0378108 0.99561596 1.2472136 1.2287488
1.3851278 0.601582 1.3198574 1.011453 0.883435 1.0042717 1.4319533 2.2497246
0.77656627 1.1692401 1.7608231 1.0213608 0.944288 1.0895411 1.2529359 0.99699736
1.4065266 1.8524152 1.015149 5.792392 3.6792245 2.1886687 2.6112459 1.493092
1.5894293 1.734911 1.8685273 1.7821139 1.550877 1.3563935 1.4139931 1.55541
1.2019149 1.0711514 3.0421824 1.0083914 0.5313693 2.9725256 1.3999376 0.8187052
1.4800125 2.4441516 0.74832857 1.2662878 0.7688236 1.4237058 1.6831963 0.6152974
5.9376206 1.3419231 1.4323289 1.2975596 4.75918 0.82233256 0.806647 1.1746988
00000000: 05cc ab3f c6a3 463f 3766 0640 64cd 493f
00000010: 7e6b 0240 b0e0 7e3f b2a4 9f3f a447 9d3f
00000020: de4b b13f 4701 1a3f 16f1 a83f 4b77 813f
00000030: cc28 623f fa8b 803f 3f4a b73f 7dfb 0f40
00000040: 0ccd 463f a9a9 953f a762 e13f f3bb 823f
00000050: dcbc 713f 1576 8b3f 3460 a03f 383b 7f3f
00000060: 1009 b43f f11b ed3f 67f0 813f 465b b940
00000070: 6a78 6b40 2613 0c40 a71e 2740 a31d bf3f
00000080: 6b72 cb3f 9011 de3f e72b ef3f 4f1c e43f
00000090: 2383 c63f 4d9e ad3f bafd b43f ad17 c73f
000000a0: 59d8 993f 7d1b 893f 1eb3 4240 f812 813f
000000b0: d207 083f dc3d 3e40 2831 b33f aa96 513f
000000c0: 0d71 bd3f fb6c 1c40 7692 3f3f b815 a23f
000000d0: a0d1 443f fe3b b63f fa72 d73f 2184 1d3f
000000e0: fd00 be40 23c4 ab3f 8e56 b73f 6f16 a63f
000000f0: 344b 9840 6384 523f 6b80 4e3f 885c 963f

conv.weight f4 [8, 1, 4]
-0.32489595 0.06684 -0.14439432 -0.04323063 -0.27058297 0.37878168 -0.4749582 -0.10977113
0.54243636 0.073335335 0.14708757 -0.09525134 -0.519405 -0.12558846 0.5699911 -0.25522256
0.6371585 -0.5505416 -0.44744137 0.10774112 0.54224855 -0.4343176 -0.019963505 -0.6280949
-0.30437237 0.36574888 -0.38834915 -0.25799176 0.01785997 -0.3536808 -0.54471385 0.115002826
00000000: c358 a6be 69e3 883d 1bdc 13be 9a12 31bd
00000010: da89 8abe acef c13e b92d f3be b0cf e0bd
00000020: 1cdd 0a3f d630 963d 209e 163e 2213 c3bd
00000030: baf7 04bf 439a 00be f0ea 113f 88ac 82be
00000040: d21c 233f 4bf0 0cbf 0917 e5be 60a7 dc3d
00000050: cdd0 0a3f e05e debe 818a a3bc d4ca 20bf
00000060: b2d6 9bbe 7043 bb3e b3d5 c6be 7f17 84be
00000070: 124f 923c a615 b5be 5e72 0bbf 9a86 eb3d

classify.weight f4 [2, 64]
0.20078403 -0.11878316 0.22262135 -0.22660182 -0.12441672 -0.22346038 0.25087637 -0.047006242
-0.09671241 -0.16865058 -0.22574858 0.23331155 -0.07854107 0.12525041 0.14629413 0.13472648
-0.14107424 0.25462657 0.16969699 -0.11299954 0.23537374 -0.20082566 0.1873347 -0.13142523
-0.18838826 -0.11003835 -0.14914675 0.20335236 0.11082315 -0.18380183 -0.191737 -0.16000561
-0.22649173 -0.0693609 -0.09309647 -0.22533152 0.16171695 -0.11583463 0.109286174 -0.21938269
0.21147652 0.12816441 0.12168158 -0.09993061 -0.11930623 0.16493697 0.13438989 -0.16328396
0.10799871 -0.19319947 -0.08352459 -0.16378313 -0.074256316 0.2584781 -0.08232305 -0.1842773
-0.059651032 0.24231519 -0.11779623 0.17330042 -0.13354212 0.08891056 0.1984667 0.23659138
-0.13154304 0.11085415 -0.15638031 0.075051144 0.21132512 0.061451834 -0.17986625 0.16196585
0.20326103 0.06264963 0.06726625 -0.21440166 0.19560865 -0.17220958 -0.19074416 -0.20446537
0.044570908 -0.09240152 -0.25641453 0.17865983 -0.25186747 0.2365356 -0.2002807 0.1924841
0.06960731 0.14596143 0.09026364 -0.15118356 -0.116401516 0.14943936 0.16525534 0.2088979
0.10664273 0.11076774 0.17758106 0.057341643 -0.17842542 0.14657547 -0.16057082 0.14930886
-0.08833697 -0.16557038 -0.13485608 0.22262548 0.1996393 -0.22460698 -0.26986852 0.10907617
-0.18953107 0.18898842 0.20320916 0.19488889 0.27276427 -0.045033023 0.21639794 0.14683789
0.13379996 -0.10619888 0.15702944 -0.1749385 0.09924299 -0.21630435 -0.1389137 -0.21798319
00000000: 549a 4d3e 9644 f3bd daf6 633e 4f0a 68be
00000010: 31ce febd ccd2 64be de72 803e 9e89 40bd
00000020: 2811 c6bd bdb2 2cbe a32a 67be 39e9 6e3e
00000030: 24da a0bd a541 003e 21ce 153e bdf5 093e
00000040: c475 10be 6a5e 823e 0cc5 2d3e 4e6c e7bd
00000050: d005 713e 3ea5 4dbe abd4 3f3e 5694 06be
00000060: dae8 40be c95b e1bd edb9 18be 9a3b 503e
00000070: 3ff7 e23d 8c36 3cbe b456 44be 83d8 23be
00000080: 73ed 67be 160d 8ebd 5da9 bebd 4ebd 66be
00000090: 2199 253e b53a edbd 6ed1 df3d dba5 60be
000000a0: 4d8d 583e 883d 033e 3134 f93d 6ba8 ccbd
000000b0: d356 f4bd 3de5 283e 819d 093e e933 27be
000000c0: 6d2e dd3d 15d6 45be f10e abbd c4b6 27be
000000d0: b213 98bd 3e57 843e fd98 a8bd 30b3 3cbe
000000e0: a454 74bd 7921 783e 263f f1bd aa75 313e
000000f0: 44bf 08be bd16 b63d db3a 4b3e 0345 723e
00000100: 38b3 06be 8007 e33d 2922 20be 6ab4 993d
00000110: 9d65 583e ebb4 7b3d dc2e 38be 60da 253e
00000120: a923 503e 734e 803d e3c2 893d 1c8c 5bbe
00000130: a24d 483e b557 30be 7052 43be 5f5f 51be
00000140: fc8f 363d 023d bdbd c448 83be 9af2 363e
00000150: c6f4 80be 6336 723e 6216 4dbe 8d1a 453e
00000160: 478e 8e3d ea76 153e 25dc b83d ddcf 1abe
00000170: eb63 eebd a206 193e b238 293e 55e9 553e
00000180: 8167 da3d 32da e23d cfd7 353e 12df 6a3d
00000190: 27b5 36be e117 163e ad6c 24be 6ce4 183e
000001a0: 03ea b4bd 488b 29be b617 0abe eff7 633e
000001b0: 3f6e 4c3e 5fff 65be 352c 8abe 5463 df3d
000001c0: 6f14 42be 2e86 413e 1016 503e f490 473e
000001d0: c2a7 8b3e 8c74 38bd 6c97 5d3e ac5c 163e
000001e0: db02 093e cc7e d9bd 53cc 203e 1423 33be
000001f0: e93f cb3d e37e 5dbe 653f 0ebe fc36 5fbe

classify.bias f4 [2]
-0.02382681 0.04828384
00000000: 7130 c3bc 47c5 453d
