BCI/output/openBMI/LightConvNet/sub25/2023-10-05--17-38/model.pth (torch, 51356 bytes, 9 tensors)

spacial_block.0.weight f4 [64, 9, 20, 1]
00000000: 063d ebbc def9 943b 8ee6 dbbd 30c1 c7bb
00000010: 8a86 2d3d e49d eebc 88dc d53c f377 523d
00000020: 66ed a0bc 87fb 433d f371 81bc f10c ce3c
00000030: 309a 023c cd13 0f3d 664d 4fbd f01b 1abd
00000040: 17ad 203d d95a 353d 2133 843c dbdd 6bbd
00000050: 296b bdbc 430f 553c 1bf7 48bd 6fd4 323d
00000060: d1ad 583c 1182 d2bc a22b 263d d20c e7bc
00000070: aac8 1cbd b801 a53d 89af 103c ebf0 633c
00000080: aed1 b4bc 23fe f43b 80a2 97bb e7ba 20bd
00000090: 5dfd 85bc e89f f53b 825c 293d 4649 7cbc
000000a0: dab9 b8bc a76b d8bc d1f0 00bc 7188 62bc
000000b0: 45ea 583d a603 01bc 6718 2cbc 5d95 4e3d
000000c0: 07c9 65bd 0ddc d93d 3f5c 26bc a0d5 62bd
000000d0: 71df 703b f9ba 893d 1fb8 b23a 758b 67bd
000000e0: 7ec3 2fbd 28ab 20bd f99c b63d 2a57 0abd
000000f0: 4c4a 533d e2a3 8cbd 2851 9dbd 7074 cbbc
00000100: 1faa e13d 5098 87bc 5c06 7b3c 8a47 1dbd
00000110: 8c47 2dbd e09c b13d 9c9c afbc 2cef bbbc
00000120: 1cb4 9cbc 2b51 f53d e8ee 6d3b aa63 243c
00000130: 5517 ebbc 9d6e 97bd 9543 ad3d 5feb 07bd
00000140: 2eb7 be3b ac98 7fbc e84b a93d b368 363c
00000150: 057e 423d a3cc 06be c577 b33b 8d0a d8bc
00000160: 3e41 36bd afae 8b3d 1da2 533d a324 14bd
00000170: aac6 143e 8c3e 9b3d f357 29be 96b1 93bd
00000180: 3d70 933d 64d6 1e3c 52ad 16bd 1de5 59bd
00000190: ffeb d73d c926 5abd 4e9e bfbc ac94 6b39
000001a0: 3cbc 003d 2ee5 03bd 28d7 9fbd 5b32 69bd
000001b0: 9a98 d0bc 7271 d03d f5a0 1f3b aa55 3fba
000001c0: ffe2 6e39 52da bb3d b310 833c 6fe9 2dbd
000001d0: 4a6b 6dbc 0bfe 1c3c a497 0b3d 45f5 91bd
000001e0: 770e 9e3b 26a1 b2bc 8486 bd39 cdc2 803d
000001f0: 1f13 8cbc b742 023d 65c8 41bd a25c 753d
00000200: 3cf7 a3bd 8c65 883c 0ebe 6b3d a423 e1bc
00000210: 330f 9bbd f5cb 3f3d 566b a33c c54f 6ebd
00000220: 35ff 08bd a37c 3b3c b2b5 b73c aef9 c0bc
00000230: 862f ee3d 0c91 b0bc 96a1 663d 553e df3c
00000240: e516 2c3d eb3e c0bc 13f2 8abc c5bd 8fbc
00000250: 3a62 d5bd 52af b13c ed7c d8bc 05fa 80bd
00000260: ba9e 5bbc 6fa1 c43d 34da 99ba 6f5b cebd
00000270: be74 ac3c a9c9 73bd 3df8 6e3d f056 c93c
00000280: 807f b73d 32c3 24bd 6854 b5bd aaf7 53bd
00000290: 1f80 d93c 0cf5 2fbd 0def a53c 88d7 423d
000002a0: d99b cfbd f780 853d 4bae 373d 6d0b b4bb
000002b0: 9b10 953d 71ca f33d 5601 dabd c7e6 023d
000002c0: f878 31bd eae5 24bd ec5f df3d a4b6 8fbd
000002d0: d366 34bb 2648 1a3d 125d 503c bc83 87bd
000002e0: 06f5 24bc ba51 0e3d ab4e f83b 946e c0bc
000002f0: 3c39 24bd 5fb4 383d 2f27 2e3d bbf2 ea3b
00000300: d1d5 92bd 7d9a 493d 3ff8 61bb c020 debd
00000310: 52cb 333c 3c1e 893d 3394 ea3c 9e5d 95bc
00000320: e45d 87bb 2f0c 833d 67a8 65bb 7107 81bd
00000330: fbdd 13bc 50bf ae3c ccc9 ed3b 5fe1 50bc
00000340: 58c4 89bc 1744 203d 9293 333d a74c 83bd
00000350: 5dc4 023d 97d1 abbb 3fdd 3dbd d009 2a3c
00000360: 831d d1bc ae80 8b3c 16a8 873d 4e5d 2ebd
00000370: 288d c13c bce2 583d 6a8a 0dbd 5212 283d
00000380: d9fd 03be b641 32bd 9f42 4abd 6002 623d
00000390: d8cd 9d3d c091 833c e754 c43d 9ebd b93d
000003a0: ed0e 33bd 92e4 433c 1caf 0ab9 7cdb 9dbd
000003b0: 876a 583b 0c70 3bbd f2cc 94bd 61a6 823d
000003c0: bd03 88ba bc96 6b3d bf74 f4bc 7476 a6bd
000003d0: 7102 3e3d a8b1 86bd 0cb2 4c3c c38d 89bc
000003e0: 7132 c63c 9b7c 613c 1153 42bb dcf2 043d
000003f0: e357 f7bc 427c 993b a31e cfbc 189b 483d
-0.028715622 0.004546388 -0.10737334 -0.006096028 0.042364635 -0.029128022 0.026106134 0.051383924
-0.01964445 0.047847297 -0.015801406 0.025152655 0.0079713315 0.034930993 -0.050610922 -0.0376243
0.03922757 0.044276092 0.016137661 -0.057584625 -0.023122387 0.013004127 -0.049063783 0.043659624
0.013225035 -0.025696786 0.040568955 -0.028204355 -0.038277306 0.080569685 0.008830913 0.01391242
-0.02207264 0.0074765845 -0.004627526 -0.039240744 -0.016356165 0.007495869 0.041347988 -0.015398329
-0.022549558 -0.02641852 -0.007869915 -0.0138264755 0.05295779 -0.007874405 -0.010503865 0.050435413
-0.056099918 0.106376745 -0.010153829 -0.05537951 0.0036754275 0.06725115 0.0013635195 -0.05652948
-0.042911045 -0.039225727 0.08916659 -0.033774532 0.051584527 -0.06867196 -0.07681495 -0.024835795
0.11018776 -0.01655212 0.01532134 -0.038398303 -0.04230456 0.086725 -0.021436982 -0.022941194
-0.019128852 0.11978372 0.003630573 0.010033527 -0.028697649 -0.07394145 0.08460156 -0.03318345
0.0058201766 -0.015600365 0.08266431 0.011133361 0.047483463 -0.13164 0.005476924 -0.026372219
-0.044495814 0.068204276 0.051668275 -0.036167752 0.1452891 0.07580289 -0.16537456 -0.07211606
0.07199142 0.009694669 -0.036786385 -0.053197015 0.105430596 -0.053259645 -0.023390915 0.00022466731
0.031429514 -0.032200985 -0.0780471 -0.05693279 -0.025463391 0.10177888 0.0024357412 -0.0007298837
0.00022782011 0.09172501 0.015999174 -0.042458948 -0.014490912 0.009582053 0.034080163 -0.071268596
0.0048235017 -0.021805357 0.0003614911 0.06287155 -0.017098961 0.031801905 -0.04731025 0.059902795
-0.080061406 0.016649984 0.057554297 -0.027482815 -0.075712584 0.046825368 0.019948643 -0.058181543
-0.03344651 0.01144329 0.022425506 -0.023556557 0.11630158 -0.021553539 0.056306444 0.027251402
0.04201402 -0.023467502 -0.016961133 -0.017546544 -0.10419126 0.021690045 -0.026426757 -0.062976874
-0.013404543 0.096011035 -0.0011738003 -0.10076033 0.02105176 -0.05951849 0.058342207 0.024577588
0.089598656 -0.040225215 -0.0885399 -0.051749863 0.02655035 -0.042958304 0.02025559 0.047568828
-0.101371475 0.06518739 0.044843953 -0.005494526 0.07278558 0.11903847 -0.10644786 0.031958368
-0.043328255 -0.040258326 0.109069675 -0.07017258 -0.0027527108 0.037666462 0.012717502 -0.06616923
-0.010068184 0.03474591 0.0075777373 -0.023490228 -0.040093645 0.04509389 0.042517837 0.007170049
-0.071696885 0.049219597 -0.0034480242 -0.1084609 0.010973768 0.0669522 0.02863512 -0.018233117
-0.0041310657 0.06398808 -0.0035043003 -0.063002475 -0.009025092 0.02133146 0.007256722 -0.012749045
-0.016817257 0.039127436 0.043841906 -0.06411105 0.031925548 -0.005243491 -0.046353575 0.010378316
-0.025526768 0.017029133 0.06623857 -0.04256945 0.023626879 0.052950606 -0.03455583 0.041033097
-0.12889804 -0.043519698 -0.04937994 0.055178046 0.07705277 0.01606071 0.09586506 0.0906937
-0.043715406 0.011956351 -0.00013225939 -0.07707879 0.003302248 -0.045761153 -0.07265653 0.063793905
-0.0010377091 0.0575168 -0.029840825 -0.08128062 0.046389047 -0.06576854 0.012493622 -0.01679123
0.024193974 0.013762618 -0.0029651562 0.03245817 -0.030193275 0.004684002 -0.025283163 0.048976034

spacial_block.0.bias f4 [64]
00000000: 92a8 c8bc 1e10 7cbd 51a1 b93c 2743 04bd
00000010: 40b4 c13b 517d 38bd 2f95 1e3d 15a7 5cbd
00000020: 73aa 7fbd 3cb2 8fbd 525f 823d 436d 113d
00000030: fd42 57bd 88ec 98bc fe13 673d 8e90 ab3c
00000040: ffd2 8a3d 64b6 49bc f3cb f3bb e442 643d
00000050: d84a 5bbb 0236 82bd 5949 93bc a649 5b3d
00000060: 8d86 ff3c bd58 79bc 48a0 93bd bb26 5a3d
00000070: 24e9 7cbc ca66 92bc 0c0c 8a3d 37cb 293d
00000080: d5b7 c43c 6ee8 cc3c a514 b13a b112 993b
00000090: b054 21bd d46d d93c 9965 183d 087d 263d
000000a0: f2da 1bbd 9032 933b b281 abbb a1f1 2ebd
000000b0: d213 883c 64e1 2c3d e73a e53b 7f3a 09bd
000000c0: c064 7a3d 040d 1abd bf75 eb3c 851c 083b
000000d0: 9b53 d53c ec81 e93c ccf4 8ebd e2df 973c
000000e0: a535 61ba 99e8 76bd d0c9 3d3d ee09 1f3c
000000f0: 054c acbc 67a0 33bb 11b3 573d d097 dcbc
-0.024494443 -0.061538808 0.02265993 -0.032290604 0.00591138 -0.045041386 0.03871649 -0.05387028
-0.062418412 -0.070164174 0.06365837 0.03550459 -0.05255412 -0.018667474 0.05641555 0.020942952
0.067785256 -0.012311552 -0.007440084 0.055727854 -0.0033461358 -0.063579574 -0.01797931 0.053537033
0.031192088 -0.015218911 -0.072083056 0.053259593 -0.015436444 -0.01787128 0.06740579 0.041453566
0.02401344 0.025013175 0.0013510181 0.0046714176 -0.039387405 0.026541628 0.037206266 0.040646583
-0.0380506 0.0044921115 -0.0052339667 -0.042710904 0.016611014 0.042207137 0.006995547 -0.03350305
0.06113124 -0.03761007 0.02874267 0.0020768952 0.026040843 0.028504334 -0.06980285 0.018539373
-0.00085910625 -0.060280416 0.04633504 0.009706957 -0.021032343 -0.002740884 0.052661005 -0.026927859

spacial_block.1.weight f4 [64]
00000000: 39fb 853f 4921 8d3f f81e 883f 0557 8b3f
00000010: c6fe 833f ab47 853f 06b2 853f 0275 863f
00000020: 30d4 823f c51a 8a3f dbe1 863f 763c 883f
00000030: 8ee4 903f bb49 923f 08e3 8b3f 917e 843f
00000040: 866d 8c3f 3e38 8d3f 0921 873f ed91 863f
00000050: 7917 883f 242a 843f 1b24 8a3f c9a1 833f
00000060: 896f 843f 30fa 823f 25e0 8a3f 8929 873f
00000070: 9b3c 8b3f 4088 823f 6aba 803f 0213 833f
00000080: 435a 813f 8464 853f 056b 823f b0e3 873f
00000090: 8deb 873f 9ecf 883f 9043 923f eb7b 803f
000000a0: d7b4 8f3f 9baf 923f 11f7 8a3f 8486 883f
000000b0: edd8 8e3f 71f0 873f 456b 883f 07bf 913f
000000c0: 4ea8 8c3f b73e 843f 41ad 853f e999 873f
000000d0: bac9 963f 206d 8d3f 9b30 8c3f 88fa 8a3f
000000e0: 9334 843f 1b0a 903f ee6a 843f 596f 8a3f
000000f0: 2101 873f 0290 893f a92c 863f 636c 893f
1.0467292 1.1025783 1.0634451 1.0885931 1.0312126 1.0412496 1.0444953 1.0504458
1.0221004 1.078942 1.0537676 1.0643451 1.1319749 1.1428751 1.092866 1.0351125
1.0970924 1.1032789 1.0556957 1.0513283 1.0632163 1.032536 1.0792269 1.0283748
1.0346538 1.0232601 1.0849653 1.055955 1.087787 1.019783 1.0056889 1.0240176
1.0105671 1.04213 1.018891 1.061636 1.0618759 1.068836 1.1426868 1.0037817
1.1227063 1.145984 1.0856649 1.0666051 1.115995 1.0620252 1.0657736 1.1386422
1.0988863 1.0331639 1.0443498 1.0593845 1.1780312 1.1048927 1.0952333 1.0857706
1.0328544 1.1253084 1.0345132 1.0815231 1.054722 1.0747073 1.0482379 1.0736202

spacial_block.1.bias f4 [64]
00000000: 3367 a8bd 86aa 21be ca4f cdbd ffc3 debd
00000010: 7a55 ccbd 794e dfbd 914a d4bd 48b3 a9bd
00000020: 8570 a6bd 29b6 22be 1286 d9bd 3e5b ccbd
00000030: 7086 27be c55f 24be d0a3 00be 07a2 adbd
00000040: d8a7 0dbe 451e 01be 4b7a d1bd 1b98 e7bd
00000050: a08c f5bd d8ca d3bd 7120 bbbd fdf7 58bd
00000060: 83a9 a8bd 374e 89bd b655 06be 02ce 7cbd
00000070: 642b e9bd 8525 d0bd 9d6f 3abd 0ac4 a1bd
00000080: 7d05 88bd 78a2 c3bd 6cb0 b6bd 335a ffbd
00000090: 8856 08be ca7c 14be c1d5 06be c581 1cbd
000000a0: 658e 17be ecde 0fbe 108b e3bd 9ae5 ccbd
000000b0: 1fcc 1cbe d3d7 b3bd 067b a3bd c066 2dbe
000000c0: 8455 e4bd 722b cfbd f7f9 aebd be72 afbd
000000d0: 2b3f 46be 94b5 2dbe 7746 0fbe dddf d3bd
000000e0: 3ba0 b4bd 394d 10be 1354 9fbd f2e5 52bd
000000f0: 8330 c7bd 34d6 d9bd 984d 01be d641 cbbd
-0.08222809 -0.15787706 -0.10024984 -0.10877227 -0.09977241 -0.10903639 -0.10365785 -0.08286148
-0.0812693 -0.15889801 -0.10621275 -0.099783406 -0.16359878 -0.16052158 -0.1256249 -0.0847817
-0.13833559 -0.12609203 -0.10228404 -0.11308309 -0.11989713 -0.10341424 -0.09137047 -0.052970875
-0.08235457 -0.067043714 -0.13118634 -0.0617199 -0.11385229 -0.10163406 -0.0455166 -0.078987196
-0.06641672 -0.09552473 -0.089203686 -0.12468376 -0.13314259 -0.14500728 -0.13167478 -0.038209695
-0.14800413 -0.14049882 -0.111105084 -0.100047305 -0.15312241 -0.087813996 -0.07982449 -0.16933727
-0.11149123 -0.101157084 -0.08543771 -0.08566807 -0.19360034 -0.16963798 -0.13991724 -0.10345433
-0.08819624 -0.14091958 -0.07779708 -0.051488824 -0.0972605 -0.10636559 -0.12627256 -0.099246666

spacial_block.1.running_mean f4 [64]
00000000: 090b 443f 8898 c9be 56ef c0bd 9efc d1be
00000010: 2d7a cdbe 1811 743d fc49 58bf 9529 3c3e
00000020: 263e 2ebf 19c6 9fbd 00cf a6be db2f 2dbf
00000030: 4988 393e c21d bdbd c250 583f efcc 953d
00000040: e34b dabc 4f5b b7bf ce7c ab3f 22ad 8abe
00000050: 45bc e7bd d0c0 2abc 2893 cdbf 5bbf 9c3d
00000060: 37a4 1a3e 6714 913e a4ed 4fbf ee5c 4640
00000070: 5172 57bd ec87 2ebe d3f2 f33d 4d59 b5be
00000080: 1de4 b5bd af36 c1be 3f3f b9bd db34 e9be
00000090: 9e9d dabe a8de 463e 28e6 973f 4205 b03e
000000a0: e3a6 b23c 82d8 953f 5308 913f a00b 33bf
000000b0: b0ec 01be a20a 6e3f edd7 0440 1dff b8bd
000000c0: bbb2 49bf 5846 80be ac77 033d 25ab f7be
000000d0: 9b9a a13e 09db 4f3f 20f8 27be 9568 3fbe
000000e0: 4463 aebe 0de8 96bf 621d 993c e584 ee3f
000000f0: dd6b 3bbe 5430 053f c5aa 903e 31d3 26be
0.7657934 -0.39374185 -0.0942065 -0.41013044 -0.40132275 0.059586614 -0.8448789 0.18375237
-0.6806358 -0.07801456 -0.32579803 -0.67651147 0.18118395 -0.092341915 0.84498227 0.073144786
-0.026647514 -1.432474 1.3397462 -0.27085215 -0.113152064 -0.010421947 -1.6060534 0.07653686
0.15101705 0.28335878 -0.81221986 3.099422 -0.052599255 -0.17044038 0.119115494 -0.35419694
-0.088814 -0.37737033 -0.09045266 -0.45548138 -0.42698377 0.19420874 1.1867113 0.3437901
0.021808093 1.1706698 1.1330665 -0.69939613 -0.12687945 0.92984974 2.075679 -0.09033034
-0.78788346 -0.25053668 0.03209655 -0.4837276 0.31563267 0.81193596 -0.16403246 -0.18692239
-0.3406011 -1.1789566 0.018690769 1.8634306 -0.18302865 0.5202687 0.28255287 -0.162915

spacial_block.1.running_var f4 [64]
00000000: 62e3 093f 2a2f 2e3f ab48 eb3e f314 413f
00000010: 058a 483f 6977 3b3f db75 033f ba58 fc3e
00000020: d4d3 213f dab3 de3e 4233 1f3f 1640 f43e
00000030: d424 ac3e 4a46 013f 9047 103f c6cf d43e
00000040: 842f db3e bbdb 2a3f ad9e 1c3f f86f ab3e
00000050: 4205 153f 067f ba3e a19d 533f ba0f 493f
00000060: 7909 393f a132 183f 07b4 713e 6cff 953f
00000070: fa14 c13e ac76 d43e 65d3 123f 2f1a 7b3f
00000080: 0069 d43e 8397 213f 45b8 e03e f043 863f
00000090: 0559 063f cd04 e53e b04b e23e f056 7d3f
000000a0: 63bb e83e c57d f73e 57ce cf3e 8dd2 213f
000000b0: 091a 923e 17ed 023f 2449 5a3f ecaa c23e
000000c0: 0a83 933e d187 9d3f 7cb9 b83e 0173 d03e
000000d0: 2182 e73e 895e 273f 70f1 343f 18b7 c63e
000000e0: a63d 003f 32cc 163f 9cad 2a3f c013 013f
000000f0: 314b 463f 3efd e93e 24bc c23e b3e4 b83e
0.53862584 0.68040717 0.4595388 0.7542259 0.783356 0.7322908 0.5135171 0.49286443
0.6321385 0.4349659 0.6218759 0.47705144 0.33621848 0.5049788 0.56359196 0.4156477
0.4280969 0.6674153 0.6117962 0.33483863 0.5821115 0.36425036 0.826624 0.7853962
0.7228008 0.59452254 0.23603831 1.1718574 0.37711316 0.4149679 0.5735381 0.9808683
0.4148636 0.63121814 0.43890586 1.0489483 0.52479583 0.44730225 0.4419837 0.9896078
0.45455465 0.48338142 0.40587112 0.632119 0.28535488 0.5114302 0.85267854 0.38021028
0.28810912 1.2307073 0.36079013 0.4071274 0.45216468 0.65378624 0.70680904 0.38811564
0.5009407 0.5890533 0.66671157 0.5042076 0.77458483 0.4570102 0.38034165 0.36111984

conv.weight f4 [8, 1, 4]
00000000: 7608 c9be ec22 a2be baa7 7bbe 7e4b c13e
00000010: 45a9 78be 5042 c93e b929 0abf 875a 923d
00000020: 33b3 193e 6553 63be 9c42 0b3f 4a4d 4a3e
00000030: 07be 10bf 6959 9abe 5753 053f 9b39 22be
00000040: ab9d 143f 7d91 1dbf 0b3b e3be 0131 013f
00000050: 3041 183f fe1b f1be 520e 113e 7de5 16bf
00000060: fbf8 fcbe 83ef c83e b9f2 bbbe 50bf 11be
00000070: ceaa 89be c9e1 10bf 4476 0ebf 3275 b93e
-0.39264268 -0.31667268 -0.24575701 0.37752908 -0.24283321 0.39308405 -0.53969914 0.07146173
0.15009765 -0.22199781 0.5439851 0.19756046 -0.5653996 -0.3014634 0.5208029 -0.15842287
0.5805308 -0.6155012 -0.44380984 0.504654 0.5947447 -0.4709167 0.14165619 -0.5894392
-0.49408707 0.39245233 -0.3670862 -0.14233136 -0.26888126 -0.5659452 -0.5564921 0.36222225

classify.weight f4 [2, 64]
00000000: 9489 523e cfd7 14be 52f7 6d3e 88aa 55be
00000010: 1c52 1bbe fad6 5ebe e4ad 823e c764 b7bd
00000020: e8d9 b6bd 68ff 38be 524c 70be cabf 7e3e
00000030: 6fc9 9dbd 760e 023e 0a24 203e 534a 293e
00000040: d756 24be e4a8 893e 90a6 1e3e 5481 bdbd
00000050: 16c2 613e 9356 60be 7ae8 533e f4e0 21be
00000060: 5dfa 50be 027f 06be 7588 3dbe 24ad 803e
00000070: 95e9 1d3e e894 5abe ad30 36be e84e 2bbe
00000080: 39cc 61be 7cd1 c6bd 5736 bfbd 6290 5fbe
00000090: 9d2e 283e 5b60 1bbe bbe3 023e 67fb 34be
000000a0: 5ccd 533e d3b0 ed3d 8da8 233e b7fa c9bd
000000b0: 9562 d8bd 173d 4c3e fefd fd3d ea60 1cbe
000000c0: b669 0c3e 7dc8 60be 47e5 9abd 725d 2dbe
000000d0: 0970 853e 7696 863e 51b8 afbd 1480 25be
000000e0: 3858 18be 7812 7d3e 3426 f1bd 06f1 4c3e
000000f0: d565 58be c1cc d73d 5e06 3e3e 7ffb 713e
00000100: 77a2 0bbe 44b9 0c3e a322 2abe cae9 693d
00000110: ad50 743e aec5 633d e5a4 3cbe 616a 513e
00000120: 0888 483e c4e7 983d 4d06 9c3d aa62 6bbe
00000130: 44c5 463e 8624 32be 5aa8 4dbe f0b3 70be
00000140: 270a 833d dc66 dabd 0e73 77be 1efd 213e
00000150: d0a5 72be dc73 823e 312a 61be 2667 603e
00000160: 5fb1 ae3d 0e48 2b3e 9f3c 013e 7eee 4bbe
00000170: ec9f 23be 0065 373e ab12 1b3e c15f 5d3e
00000180: 1525 ce3d 53cf 0d3e 501e 363e 5e2b 4e3d
00000190: 9f4a 39be ddda 3a3e ac67 37be f473 da3d
000001a0: 226a abbd 2c26 1dbe 2a26 31be 0ca1 623e
000001b0: 1a74 3e3e 9fab 84be fbdc 84be 58bd c93d
000001c0: f6e6 5fbe 9778 5c3e 3501 483e 9e37 4d3e
000001d0: c869 7ebd 5f6e 4abd 1727 613e 0f53 fe3d
000001e0: f045 643e c760 e3bd dcbf 203e 6f9e 4ebe
000001f0: 8046 353e ea59 6ebe ee0a 01be 78ed 5ebe
0.20560294 -0.1453545 0.23238876 -0.20865834 -0.15168041 -0.21761695 0.25523293 -0.08954769
-0.08928281 -0.1806618 -0.23466614 0.24877849 -0.07704436 0.12700829 0.15638748 0.16532259
-0.16048752 0.26886666 0.15493226 -0.09253183 0.22046694 -0.21908025 0.20694152 -0.15808469
-0.20408006 -0.13134387 -0.18509085 0.25132096 0.15421136 -0.21345866 -0.17792006 -0.16729319
-0.22050561 -0.09707925 -0.093365364 -0.21832421 0.16424032 -0.15173475 0.12782185 -0.17674027
0.20683807 0.11605992 0.15982266 -0.09862273 -0.10565678 0.19945179 0.12401961 -0.15271345
0.137122 -0.2195148 -0.075632624 -0.16930178 0.2606204 0.26286668 -0.085800774 -0.16162139
-0.14877403 0.24714077 -0.11774865 0.20013818 -0.21132596 0.105371006 0.18557116 0.23631094
-0.13636194 0.13742548 -0.16614775 0.057107724 0.238589 0.055608444 -0.18422277 0.20450737
0.19583142 0.07466081 0.07618389 -0.22986856 0.19411188 -0.17396745 -0.20083752 -0.2350614
0.06398421 -0.1066415 -0.24164984 0.15819213 -0.23696065 0.2547902 -0.21988751 0.21914348
0.085299246 0.16726705 0.12620781 -0.19915196 -0.15978974 0.17909622 0.1514384 0.21618558
0.100656666 0.13848619 0.17785001 0.050334327 -0.18094872 0.18247552 -0.17910641 0.106666476
-0.083698526 -0.15346593 -0.17299715 0.22131747 0.18598977 -0.25912187 -0.25949845 0.098505676
-0.21865448 0.21530376 0.1953171 0.20040748 -0.0621126 -0.049421664 0.21987568 0.12418186
0.22292304 -0.11102443 0.15698189 -0.20177625 0.17702675 -0.23276487 -0.12601826 -0.21770275

classify.bias f4 [2]
00000000: bc22 753c a591 1b3c
0.014961895 0.009495174
