BCI/output/openBMI/LightConvNet/sub47/2023-10-05--17-38/model.pth (torch, 51356 bytes, 9 tensors)

spacial_block.0.weight f4 [64, 9, 20, 1]
0	0xbaa01032	-0.0012211858
1	0x3ce85eb1	0.028365465
2	0xbd7a537e	-0.06111478
3	0xbd7723ed	-0.060336996
4	0x3b8e36cb	0.004340028
5	0x3d6d75f4	0.057973817
6	0x3ca9531a	0.020669509
7	0x3d095be1	0.03353489
8	0x3acf9abe	0.0015838963
9	0x3d0b4342	0.03399969
10	0xbb7f41e1	-0.003894918
11	0x3c14c797	0.009080789
12	0xbd021aa9	-0.031763706
13	0xbd0899b0	-0.033349693
14	0x3b236ce8	0.002493674
15	0xbcded3ae	-0.027200546
16	0x3c24cf22	0.01005915
17	0x3d3b2038	0.045685023
18	0xbd19227a	-0.037386395
19	0x3c5888e8	0.013216235
20	0xbd7d0d33	-0.061780166
21	0x3d981bd8	0.07427186
22	0x3c573178	0.013134353
23	0x3cc0a85d	0.023517782
24	0xbd82a7ba	-0.063796476
25	0x3d456995	0.048196394
26	0x3d6f687b	0.05844925
27	0xbc71c282	-0.014755847
28	0xbc3aca5b	-0.011400784
29	0xbd0abeb4	-0.033873275
30	0xbd06fb71	-0.032954637
31	0x3d516303	0.051119816
32	0xbd2de50c	-0.042454764
33	0xbcbad222	-0.022805277
34	0xbc84006b	-0.01611348
35	0xbd055c14	-0.032558516
36	0xbc9bd13f	-0.019020675
37	0x3d9b11c2	0.075717464
38	0xbba2de8f	-0.0049703787
39	0x3ceca20b	0.028885862
40	0xbdc6fdfa	-0.09716411
41	0x3cf387b5	0.029727796
42	0xbb54f91a	-0.003249711
43	0xbd9dd5d9	-0.07706804
44	0xbda7da46	-0.08195929
45	0x3d85d545	0.065348186
46	0xbacf0d70	-0.0015796851
47	0xbad6b888	-0.0016381899
48	0x3ca64bc1	0.020299794
49	0x3ce207cb	0.027591607
50	0x3d568c43	0.052379858
51	0x3d6c44cb	0.057682794
52	0x3d3e041a	0.04639063
53	0x3d752478	0.059849232
54	0xbc497ab6	-0.012297323
55	0x3c5f68fc	0.01363587
56	0x3ca0a358	0.019609138
57	0xbd61966f	-0.055075105
58	0xbd1ef7bf	-0.038810488
59	0xbcb0c689	-0.021579044
60	0xbc21687b	-0.00985157
61	0x3d84ddf8	0.0648765
62	0xbd621ba2	-0.055202134
63	0xbd2b03aa	-0.04175154
64	0xbd237b3c	-0.039912447
65	0x3d6b5d7d	0.057462204
66	0x3c64a89a	0.013956213
67	0xbccdba87	-0.025113357
68	0xbb8de4f5	-0.0043302723
69	0x3d995e0d	0.07488642
70	0xbcd1484c	-0.02554717
71	0xbd8f45b1	-0.069957145
72	0x3ceb7109	0.028740423
73	0x3d1c632b	0.03818051
74	0xbcf7f60f	-0.030268697
75	0x3a279780	0.00063931197
76	0xbba8fced	-0.005157104
77	0xbc0f52a1	-0.008747728
78	0x3d417030	0.04722613
79	0x3d21f304	0.0395384
80	0xbe116117	-0.14197193
81	0xbda24c37	-0.07924693
82	0x3d59aa3d	0.053140868
83	0xbd688baf	-0.056773838
84	0xbc2be516	-0.01049163
85	0x3e0d0cec	0.1377446
86	0x3dfc640a	0.123237684
87	0xbc96de82	-0.018416647
88	0x3d4bc707	0.049750354
89	0xbc271ac2	-0.010199251
90	0x3d4cc725	0.049994607
91	0xbd77b648	-0.06047657
92	0x3d326873	0.04355664
93	0x3e23437c	0.15943712
94	0xbe08c8e2	-0.1335788
95	0xbcc5b738	-0.024135217
96	0x3d91c133	0.07116928
97	0x3caed0fc	0.021339886
98	0xbd815d71	-0.06316651
99	0xbdd89c8c	-0.10576734
100	0xbc2600d2	-0.0101320315
101	0x3e05b6e7	0.13058053
102	0xbbf49ed4	-0.007465223
103	0xbde43554	-0.11142984
104	0xbe362b43	-0.1778994
105	0x3e08646d	0.1331956
106	0xbc1ed121	-0.009693415
107	0xbe0a6ca2	-0.13518003
108	0x3c3105d2	0.01080461
109	0x3db64801	0.089004524
110	0x3d7bec74	0.061504796
111	0x3d0b34b8	0.033985823
112	0xbd108cc0	-0.03529048
113	0x3dd76707	0.10517698
114	0xbd205990	-0.039147913
115	0xbdb35400	-0.08756256
116	0x3d279e55	0.04092248
117	0x3d8d74b7	0.06907027
118	0xbb03e2aa	-0.0020124116
119	0xbd034f6b	-0.03205816
120	0xbd0e7381	-0.03477812
121	0x3d9e8d14	0.07741752
122	0xbd46a72c	-0.04849927
123	0x3ce1906f	0.027534692
124	0xbe12fa57	-0.1435331
125	0x3e151876	0.14560112
126	0x3d6eb21d	0.05827533
127	0xbdc6308e	-0.0967723
128	0xbcf46a0c	-0.029835723
129	0xbd3bd761	-0.0458597
130	0x3d264769	0.040595446
131	0xbd8a37ad	-0.067489006
132	0x3c0e8eec	0.008701067
133	0x3dfac7b2	0.1224512
134	0xbc0505ee	-0.0081190895
135	0x3c9c75ae	0.019099083
136	0xba7932d9	-0.0009506173
137	0x3d028a11	0.03186995
138	0x3cbd4038	0.023101911
139	0xbcf6b4a6	-0.030115437
140	0xbcd85144	-0.026405938
141	0x3d70eae9	0.058817778
142	0x3ce3c6da	0.02780478
143	0xbc4e618b	-0.012596498
144	0xbdd9cfee	-0.106353626
145	0x3e0cf66c	0.13765877
146	0x3d9efac9	0.07762677
147	0xbdbe6778	-0.09297079
148	0xbd839b77	-0.06426137
149	0xbcb24ca7	-0.021765066
150	0x3d1e30c1	0.038620714
151	0xbdc47f0d	-0.095945455
152	0x3c80ec5d	0.015737707
153	0x3d9e47a0	0.07728505
154	0xbcb44976	-0.022007685
155	0xbe1136e7	-0.141811
156	0x3d3e65dd	0.046483863
157	0x3d9a6ca4	0.07540253
158	0x3d892e19	0.066982456
159	0xbdba27e2	-0.09089638
160	0xbdefea32	-0.11714591
161	0xbc0b6378	-0.008507602
162	0xbd8eda8b	-0.069752775
163	0xbda61835	-0.08110086
164	0xbd399d5b	-0.04531608
165	0x3e154043	0.14575295
166	0x3db8dc1c	0.090263575
167	0xbc56a2a4	-0.0131003
168	0xbd458476	-0.048222028
169	0x3db39cea	0.08770163
170	0x3e0c70e4	0.1371494
171	0xbdd1e213	-0.10248198
172	0x3d5494a9	0.051899586
173	0x3e4039ca	0.18772045
174	0xbdf80523	-0.12110355
175	0x3d5023a4	0.05081524
176	0x3badb078	0.0053005777
177	0xbd343dc3	-0.044004213
178	0xbbe82f00	-0.007085681
179	0xbdd344ca	-0.10315855
180	0x3c6e42b5	0.014542271
181	0xbc568e24	-0.013095412
182	0x3d058e8a	0.03260664
183	0xbc987259	-0.018609213
184	0xbb06180d	-0.0020461113
185	0x3b2a9114	0.0026026415
186	0xbc33721b	-0.010952498
187	0x389dfcaf	7.5334094e-05
188	0xbd7e83d4	-0.06213744
189	0xba1e9656	-0.00060496235
190	0x3d64ef89	0.0558925
191	0x3cfd23c2	0.03090084
192	0xbd8e00df	-0.0693376
193	0x3d525628	0.051351696
194	0xbd167744	-0.036734834
195	0xbc5eb691	-0.013593332
196	0xbcbdd591	-0.023173125
197	0x3d320542	0.043462045
198	0xbcba1684	-0.022715814
199	0x3c8c265c	0.017108135
200	0x3c48b796	0.012250802
201	0xbc00d9ae	-0.007864399
202	0xbcc8a9ae	-0.024494972
203	0xbd4c5866	-0.04988899
204	0xbd813b76	-0.063101694
205	0x3d7aba43	0.06121279
206	0xbc78521f	-0.015156298
207	0x3d5b9a3e	0.053613894
208	0x3da1897c	0.07887551
209	0x3d10f852	0.035393067
210	0x3d0686a7	0.03284326
211	0xbcc7e71e	-0.024402197
212	0x3cae0dcb	0.021246811
213	0xbce16600	-0.027514458
214	0xbc40431a	-0.011734748
215	0xbc3f2cf8	-0.011668436
216	0xbd3de4dc	-0.046360835
217	0xbcd2c62d	-0.025729263
218	0x3d5e8916	0.054329954
219	0xbcf5a64f	-0.029986529
220	0x3cf99aee	0.030469384
221	0x3d2a456b	0.04157011
222	0x3d34dead	0.044157673
223	0xbd9f8848	-0.077896655
224	0xbc837e80	-0.01605153
225	0xbd2ce640	-0.04221177
226	0xbd4b8b46	-0.04969337
227	0xbdaab810	-0.083358884
228	0x3d37a64d	0.04483633
229	0xbd367027	-0.04454055
230	0x3d784ec0	0.060621977
231	0x3c810bb4	0.01575265
232	0x3db85cd7	0.09002083
233	0x3d9671de	0.07345937
234	0x3dc4f490	0.09616959
235	0xbe0dce0d	-0.13848133
236	0x3ddbe670	0.10737312
237	0xbd5a6233	-0.053316306
238	0xbd3d27a1	-0.04618037
239	0x3c57d83c	0.013174113
240	0x3d3a7f3f	0.045531508
241	0x3d3c7d63	0.046018016
242	0x3c813a2f	0.015774814
243	0xbcb7f3b4	-0.022455074
244	0x3da93bd4	0.082633644
245	0xbd1c80eb	-0.038208883
246	0x3d921f19	0.07134838
247	0xbd74ffc8	-0.059814245
248	0x3d31a33c	0.043368563
249	0xbd22ad60	-0.039716125
250	0xbdabae96	-0.08382909
251	0xbc27b5ec	-0.010236245
252	0x3e02926f	0.12751172
253	0xbd2a40d7	-0.041565742
254	0x3ceaecac	0.028677307
255	0xbd2f3431	-0.042774383

spacial_block.0.bias f4 [64]
0	0xbcd7f8ad	-0.026363695
1	0xbd7d811f	-0.061890718
2	0x3cb5f213	0.022210157
3	0xbd041ac8	-0.032252103
4	0x3bcf7532	0.0063311094
5	0xbd3ab68b	-0.045584243
6	0x3d205241	0.039140943
7	0xbd5dc623	-0.054144036
8	0xbd7d1d06	-0.061795257
9	0xbd8ff12e	-0.07028423
10	0x3d84e02f	0.06488072
11	0x3d0c0a48	0.034189492
12	0xbd5710ad	-0.052506138
13	0xbc956d95	-0.01824073
14	0x3d6de8d6	0.058083378
15	0x3cbe24d6	0.023210924
16	0x3d8a1a72	0.06743325
17	0xbc3576af	-0.01107566
18	0xbbf4e2cd	-0.007473326
19	0x3d62f228	0.05540672
20	0xbb80df8a	-0.003932898
21	0xbd834363	-0.06409337
22	0xbc829d53	-0.015944159
23	0x3d60db92	0.0548969
24	0x3cfdd88f	0.030987052
25	0xbc7b54fc	-0.015340086
26	0xbd95b9e7	-0.07310849
27	0x3d5ff4d4	0.054676846
28	0xbc872142	-0.01649535
29	0xbc9ac226	-0.018891405
30	0x3d8eb863	0.06968763
31	0x3d278f23	0.04090799
32	0x3cb70eba	0.02234589
33	0x3cd5fd7a	0.026121844
34	0x3aad5950	0.001322547
35	0x3bd90941	0.0066234176
36	0xbd1eac0f	-0.038738307
37	0x3cd9b47a	0.026575316
38	0x3d16bca1	0.036800984
39	0x3d23a189	0.039948974
40	0xbd1a8b2b	-0.037730377
41	0x3b704e5d	0.0036667802
42	0xbba2a8d7	-0.004963975
43	0xbd32efb0	-0.043685615
44	0x3c84f2e1	0.016229095
45	0x3d2cfbfa	0.04223249
46	0x3bd325a6	0.006443697
47	0xbd0acebc	-0.033888564
48	0x3d75156e	0.05983489
49	0xbd277f96	-0.04089316
50	0x3cee4bfa	0.029088963
51	0x3a4faa7c	0.00079218275
52	0x3cd4fcb1	0.025999399
53	0x3cec5d62	0.028853122
54	0xbd8df50c	-0.069315046
55	0x3c9a4850	0.01883331
56	0xb892356c	-6.971773e-05
57	0xbd78dbcb	-0.060756486
58	0x3d3e6bf3	0.046489667
59	0x3be99570	0.00712841
60	0xbcb127c8	-0.021625414
61	0xbb76b00f	-0.003764156
62	0x3d582400	0.052768707
63	0xbcd8176f	-0.026378362

spacial_block.1.weight f4 [64]
0	0x3f896b91	1.0735952
1	0x3f861f99	1.0478393
2	0x3f86b9f1	1.0525495
3	0x3f84614b	1.0342191
4	0x3f89ba97	1.0760068
5	0x3f817cc5	1.0116202
6	0x3f816492	1.0108817
7	0x3f828e24	1.0199628
8	0x3f84e306	1.0381782
9	0x3f94538e	1.1587999
10	0x3f8db77a	1.1071618
11	0x3f8b7e5f	1.089794
12	0x3fa375a4	1.2770276
13	0x3fa12bee	1.2591531
14	0x3f8c77c5	1.0974051
15	0x3f829f4b	1.0204862
16	0x3f93d8ce	1.1550539
17	0x3f8623d4	1.0479684
18	0x3f86d7b6	1.053458
19	0x3f8542ea	1.0411046
20	0x3f87a831	1.0598203
21	0x3f854d07	1.0414132
22	0x3f8a99b0	1.0828152
23	0x3f82b282	1.0210726
24	0x3f823662	1.0172846
25	0x3f81220b	1.0088514
26	0x3f89b6bd	1.0758892
27	0x3f8257ee	1.0183084
28	0x3f8ba3ff	1.0909423
29	0x3f8a224c	1.0791717
30	0x3f88c5ac	1.0685325
31	0x3f81becd	1.0136353
32	0x3f85a187	1.0439919
33	0x3f8c98de	1.0984151
34	0x3f86e51f	1.0538672
35	0x3f8a9a41	1.0828325
36	0x3f890b31	1.070654
37	0x3f837003	1.0268558
38	0x3f994149	1.1973048
39	0x3f8471b4	1.03472
40	0x3f9b3b03	1.2127384
41	0x3fa3f8f3	1.2810348
42	0x3f866e3a	1.0502388
43	0x3f866a4f	1.0501193
44	0x3f8e5b4f	1.1121615
45	0x3f861c38	1.0477362
46	0x3f8a3dc1	1.0800096
47	0x3f969ca6	1.1766555
48	0x3f89b45d	1.0758168
49	0x3f873375	1.0562578
50	0x3f85a555	1.044108
51	0x3f858948	1.043252
52	0x3f92dd88	1.1473856
53	0x3f925240	1.1431351
54	0x3f895eb9	1.0732032
55	0x3f948e72	1.1605971
56	0x3f822dc2	1.0170214
57	0x3f9727fd	1.1809078
58	0x3f80a62d	1.0050713
59	0x3f8e9a00	1.1140747
60	0x3f82e578	1.0226278
61	0x3f90ea3a	1.132148
62	0x3f8691d2	1.0513251
63	0x3f86dad4	1.0535531

spacial_block.1.bias f4 [64]
0	0xbd484eec	-0.04890339
1	0xbe33cf3d	-0.17559524
2	0xbe0e426d	-0.13892527
3	0xbe04fe35	-0.12987597
4	0xbe1dd77d	-0.15414234
5	0xbd4eb834	-0.05046864
6	0xbd5f0081	-0.05444384
7	0xbd9324b8	-0.07184738
8	0xbe008d84	-0.12553984
9	0xbe68fa26	-0.22751674
10	0xbe5e5993	-0.21713857
11	0xbe1f1a0c	-0.1553728
12	0xbe8cafbd	-0.27477828
13	0xbea5a86d	-0.3235506
14	0xbe7a535d	-0.24445863
15	0xbdab1495	-0.08353535
16	0xbe4c9397	-0.19978176
17	0xbe124715	-0.14284928
18	0xbe44b41c	-0.19209331
19	0xbe2a6e1a	-0.16643563
20	0xbe38779d	-0.18014379
21	0xbe00eeee	-0.12591144
22	0xbe3657b9	-0.17806901
23	0xbdc7d33b	-0.09757086
24	0xbd8c2529	-0.06843025
25	0xbd3583d3	-0.04431517
26	0xbe2a18be	-0.16611001
27	0xbd105cdd	-0.03524481
28	0xbe399d17	-0.18126331
29	0xbe17b802	-0.14816287
30	0xbe02b176	-0.12763008
31	0xbd5d43e4	-0.054019824
32	0xbdf30de3	-0.11867883
33	0xbe2be6ce	-0.16787264
34	0xbe229bb8	-0.15879714
35	0xbe3860af	-0.18005632
36	0xbe5b89ed	-0.21439333
37	0xbe0531c3	-0.13007264
38	0xbe965771	-0.29363587
39	0xbde19a8f	-0.11015808
40	0xbe9ed653	-0.3102289
41	0xbea5ffa7	-0.3242161
42	0xbe44e2d5	-0.19227155
43	0xbe25cb51	-0.1619084
44	0xbe571712	-0.21004894
45	0xbe12b5fa	-0.14327231
46	0xbe0d0737	-0.13772283
47	0xbe75974a	-0.23983493
48	0xbe145003	-0.14483647
49	0xbe0c626c	-0.1370942
50	0xbe123a67	-0.14280091
51	0xbde0a725	-0.1096938
52	0xbe6bb884	-0.23019606
53	0xbe75fd57	-0.24022423
54	0xbe1e8ff3	-0.154846
55	0xbe5bf74c	-0.21481055
56	0xbdaa559f	-0.08317112
57	0xbe807e8d	-0.2509655
58	0xbd0e2c37	-0.034710135
59	0xbcdbe01d	-0.026840264
60	0xbdbefc6d	-0.0932549
61	0xbe44c6ed	-0.19216509
62	0xbe1d1aef	-0.15342306
63	0xbe11cf8d	-0.1423933

spacial_block.1.running_mean f4 [64]
0	0xbf1e6d30	-0.61885357
1	0x3f199800	0.5999756
2	0xbe2fd040	-0.17169285
3	0x3f655561	0.895834
4	0x3ea8a07d	0.32934943
5	0x3ef0fa2b	0.47065863
6	0xbdd43131	-0.10360945
7	0x3f21eeaa	0.632548
8	0x3f824282	1.0176547
9	0x3e8a7074	0.2703892
10	0x3e922a1f	0.2854776
11	0xbf51d1fe	-0.8196105
12	0x3e8a937e	0.27065653
13	0x3e84eb49	0.25960758
14	0x3ec8d99d	0.39228526
15	0xbf0ed878	-0.55799055
16	0x3f63f931	0.8905211
17	0x3f102d50	0.5631914
18	0x3f31c3e1	0.6943951
19	0x3f360b6a	0.71111166
20	0x3e92fc36	0.28708047
21	0x3f21ae3d	0.6315649
22	0xbe0e9262	-0.13923028
23	0x3f007a06	0.50186193
24	0x3f897dab	1.0741476
25	0x3f747ba9	0.9550119
26	0x3e3408c0	0.17581463
27	0xbf16d909	-0.5892492
28	0x3ed883d2	0.4228807
29	0x3de5c3ff	0.11219024
30	0x3eedb65d	0.46428195
31	0x3f897a9a	1.074054
32	0x3f368f53	0.71312445
33	0x3f91d3bc	1.1392741
34	0x3f8ac5e4	1.0841641
35	0x3f0d4a19	0.5519119
36	0x3eea20c2	0.45728117
37	0x3ef8aa8a	0.4856761
38	0x3e2a07cc	0.16604537
39	0x3f48fa13	0.7850658
40	0x3eaf1080	0.34192276
41	0x3e4ffb48	0.203107
42	0x3f176060	0.5913143
43	0x3efcb379	0.49355677
44	0x3e867bf5	0.26266447
45	0x3f758a26	0.9591392
46	0xbe60471d	-0.21902128
47	0x3f503b74	0.8134072
48	0xbeec57a3	-0.46160612
49	0x3f369f56	0.7133688
50	0x3eccfb1d	0.40035334
51	0x3ef0e51b	0.47049794
52	0x3e626d96	0.22112116
53	0x3cb52e30	0.02211675
54	0x3f44e71e	0.76915157
55	0x3e7087f2	0.23489359
56	0x3f7fb1b4	0.9988053
57	0x3c7efe0e	0.015563501
58	0x3f941993	1.1570305
59	0xbda83bd4	-0.08214536
60	0xbd1681c8	-0.036744863
61	0x3e9aa22e	0.30201858
62	0x3e673731	0.22579648
63	0x3ed60d26	0.41806906

spacial_block.1.running_var f4 [64]
0	0x3f35c136	0.7099794
1	0x3f3b7d2a	0.7323786
2	0x401ff478	2.4992962
3	0x3f7c8938	0.9864688
4	0x3e95b5f1	0.29240373
5	0x3ff19eff	1.8876647
6	0x3f996da1	1.1986581
7	0x40001cf3	2.001767
8	0x3f65f18b	0.8982169
9	0x3ed2d3a0	0.41177082
10	0x3f0f7805	0.5604251
11	0x3f25036d	0.6445835
12	0x3eb5acca	0.3548339
13	0x3f082b92	0.53191483
14	0x3fbe6319	1.4873992
15	0x3ff2fe52	1.8983862
16	0x3ef5200b	0.4787601
17	0x4016d9c6	2.3570418
18	0x40320802	2.7817388
19	0x3f2e803b	0.68164414
20	0x3f827b24	1.019383
21	0x3f75c474	0.9600289
22	0x3fe99f70	1.8251781
23	0x3f583722	0.84459126
24	0x40684087	3.6289384
25	0x4057270d	3.3617585
26	0x3f10f798	0.566278
27	0x40001618	2.0013485
28	0x3f4afafb	0.79289216
29	0x3edaa93d	0.42707244
30	0x3f1f286b	0.6217105
31	0x40a27be3	5.077623
32	0x3fb30125	1.3984724
33	0x3f06e8ee	0.5269917
34	0x3f8f2d7f	1.1185759
35	0x3f3428da	0.70374835
36	0x3ff71076	1.9301898
37	0x3f261e14	0.64889646
38	0x3f4caa8c	0.79947734
39	0x3f4ecddb	0.8078286
40	0x3f03f53c	0.5154607
41	0x3f67862b	0.904391
42	0x3f86eee3	1.0541652
43	0x3f20ef46	0.628651
44	0x3ea69af1	0.32540086
45	0x3faa5f03	1.3310245
46	0x3f171175	0.5901101
47	0x3efcfbcc	0.49410856
48	0x3f21f18a	0.63259184
49	0x3f9fc894	1.2483087
50	0x3edd0a46	0.431719
51	0x3f1756a3	0.5911657
52	0x3ec5f1d2	0.38661057
53	0x3f2c36e4	0.67271256
54	0x3f49a569	0.7876802
55	0x3eb83b88	0.3598292
56	0x406989b4	3.6490297
57	0x3f595891	0.84900767
58	0x3f905379	1.1275474
59	0x3f2d3d3e	0.67671573
60	0x3f9e9c80	1.239151
61	0x3eb2ea8a	0.34944564
62	0x3f9ae293	1.2100395
63	0x3f4b307b	0.7937085

conv.weight f4 [8, 1, 4]
0	0xbf022af6	-0.50846803
1	0xbe607fa7	-0.21923696
2	0xbe9281c5	-0.2861463
3	0x3f0337b7	0.5125689
4	0xbe8df23e	-0.2772388
5	0x3eebbe3c	0.46043575
6	0xbf0ebaa8	-0.55753565
7	0xbe5a716c	-0.2133233
8	0x3f1a1d8a	0.60201323
9	0x3e323728	0.17403853
10	0x3d85992c	0.06523356
11	0xbe42542e	-0.18977425
12	0xbf1e2824	-0.6178
13	0xbe762628	-0.24037993
14	0x3f18fe40	0.59762955
15	0xbe83023d	-0.25587645
16	0x3f2f5aab	0.68497723
17	0xbf1ce731	-0.6129027
18	0xbf04f7de	-0.51940715
19	0x3d8bfc6c	0.06835255
20	0x3f353963	0.7079069
21	0xbf0f9a53	-0.56094855
22	0xbde97555	-0.113993324
23	0xbf361526	-0.7112602
24	0xbe3787ec	-0.17922944
25	0x3ee12b3d	0.439783
26	0xbed86649	-0.42265537
27	0xbe8df0ee	-0.27722877
28	0xbeb9fe37	-0.36326763
29	0xbe901909	-0.281441
30	0xbf2496b0	-0.6429243
31	0x3ee9e66f	0.4568362

classify.weight f4 [2, 64]
0	0x3e1ede75	0.15514548
1	0xbdce0f49	-0.10061509
2	0x3e5418c7	0.20712577
3	0xbe3127ab	-0.17300288
4	0xbe1e0f4a	-0.1543552
5	0xbe0f931e	-0.14020965
6	0x3e57d7f6	0.21078476
7	0xbc617b21	-0.013762266
8	0xbda0364b	-0.078228556
9	0xbe1b03fb	-0.15138237
10	0xbe867e84	-0.262684
11	0x3e81e1b2	0.25367504
12	0xbde23d54	-0.11046854
13	0x3dce5fe4	0.100768834
14	0x3dfe58ea	0.12419303
15	0x3dd37e17	0.10326784
16	0xbe05a3f9	-0.13050832
17	0x3e49fa62	0.1972442
18	0x3e13d897	0.14438091
19	0xbdc368bb	-0.0954146
20	0x3e74828d	0.23877926
21	0xbe3db9b4	-0.18527871
22	0x3e416b09	0.18888487
23	0xbdf6fc16	-0.120598
24	0xbe0d96cd	-0.13827057
25	0xbd8d947a	-0.06913085
26	0xbdf26754	-0.118361145
27	0x3e26e28b	0.16297357
28	0x3dc3a692	0.09553255
29	0xbe64e766	-0.22353896
30	0xbe6e0b3c	-0.23246473
31	0xbdd246d5	-0.102674164
32	0xbe5f3a61	-0.21799614
33	0xbdcc2f7c	-0.099699944
34	0xbd9aebb3	-0.07564487
35	0xbe82531a	-0.25454026
36	0x3e001803	0.1250916
37	0xbdfc07c9	-0.123061724
38	0x3d94650f	0.07245838
39	0xbe42665c	-0.1898436
40	0x3e6dd1d8	0.2322458
41	0x3de6a6ef	0.11262309
42	0x3dd96036	0.10614054
43	0xbddaf1e5	-0.10690669
44	0xbd0f31c9	-0.03495959
45	0x3e14ffa4	0.14550644
46	0x3dff6d21	0.124719866
47	0xbdf7c82a	-0.12098725
48	0x3d9ff03c	0.07809493
49	0xbe67b424	-0.22627312
50	0xbd8d8b73	-0.069113635
51	0xbe196bb8	-0.14982498
52	0x3cebf420	0.028802931
53	0x3e8bb379	0.27285364
54	0xbd800da8	-0.06252605
55	0xbe38b95e	-0.18039462
56	0xbda64665	-0.081188954
57	0x3e805246	0.2506277
58	0xbd430c3b	-0.047619086
59	0x3e1c9371	0.1529062
60	0xbe1061a8	-0.14099753
61	0x3dd3b140	0.10336542
62	0x3e19660f	0.14980339
63	0x3e701404	0.23445135
64	0xbdafeea9	-0.08590443
65	0x3dbdd234	0.09268609
66	0xbe104415	-0.14088471
67	0x3cafbcab	0.021452269
68	0x3e770ddd	0.24126382
69	0xbcb293d8	-0.021799013
70	0xbe0f2113	-0.1397746
71	0x3e03cfa8	0.12872183
72	0x3e3d363e	0.18477723
73	0x3d39e1da	0.045381404
74	0x3dd567b5	0.10420171
75	0xbe706649	-0.23476519
76	0x3e68ff43	0.22753625
77	0xbe174600	-0.14772797
78	0xbe2cb0c2	-0.16864303
79	0xbe3128ac	-0.17300671
80	0x3d0b48c1	0.03400493
81	0xbd0f701a	-0.035019018
82	0xbe6ca512	-0.23109844
83	0x3e24f0d8	0.161075
84	0xbe82b323	-0.25527295
85	0x3e624ad8	0.22098863
86	0xbe4eacbe	-0.20183083
87	0x3e3a0440	0.18165684
88	0x3c9fa8fc	0.019489758
89	0x3dd72687	0.105053954
90	0x3d739f4c	0.05947809
91	0xbde2ed92	-0.11080469
92	0xbdcf1341	-0.10111094
93	0x3e41b77e	0.18917653
94	0x3e52ed3a	0.20598307
95	0x3e1b3444	0.15156657
96	0x3dc9015d	0.09814713
97	0x3e107e4d	0.1411068
98	0x3e23f8fd	0.1601295
99	0x3db14151	0.08655036
100	0xbe113406	-0.14180002
101	0x3e1d7e67	0.1538025
102	0xbdfd6cff	-0.12374305
103	0x3df549e2	0.11976983
104	0xbddf7324	-0.10910633
105	0xbe19a13c	-0.15002912
106	0xbdf45b6d	-0.119315006
107	0x3e6b1ca9	0.22960152
108	0x3dec1e85	0.11529259
109	0xbe5219c2	-0.20517638
110	0xbe8538c5	-0.26019874
111	0x3d88c3ac	0.066779464
112	0xbe23755c	-0.15962738
113	0x3e63643e	0.22206208
114	0x3e415452	0.18879822
115	0x3e3945ea	0.18093076
116	0x3e2dc720	0.16970491
117	0xbd73565c	-0.05940853
118	0x3e4951ce	0.19660112
119	0x3e1262d1	0.14295508
120	0x3e1f10ea	0.15533796
121	0xbdea84ef	-0.11451136
122	0x3db1df9e	0.0868523
123	0xbe1e40da	-0.15454426
124	0x3dda849d	0.10669825
125	0xbe6c4c24	-0.2307592
126	0xbdb8d535	-0.09025041
127	0xbe5d0601	-0.21584322

classify.bias f4 [2]
0	0x3c808cfa	0.015692223
1	0x3c0f9a5e	0.008764831
