BCI/output/openBMI/LightConvNet/sub14/2023-10-05--17-38/model.pth (torch, 51356 bytes, 9 tensors)

spacial_block.0.weight f4 [64, 9, 20, 1]
000000 76 50 82 3b b9 ea d5 3c 79 60 c4 bd 16 d8 99 bc
       0.003976877 0.026112901 -0.09588713 -0.018779796
000010 fd ed 4e bc 24 3f c8 3c 39 b6 2d 3d 13 0f f8 3b
       -0.012629983 0.02444417 0.04241011 0.0075701564
000020 0d a5 94 bc f1 3d 70 bb a3 fc ba 3c ea 63 fe bb
       -0.018145109 -0.0036658014 0.022825545 -0.0077633755
000030 36 86 c6 bc de 59 c4 bc 7d dd 95 bd fa 7f cd bc
       -0.024233919 -0.023968633 -0.07317636 -0.025085438
000040 37 a1 e5 3b 11 6e e7 3d 60 52 ed 3b ac 50 60 bc
       0.0070077437 0.113002904 0.007242486 -0.013691109
000050 45 1a 00 3c 6c aa c3 3c d1 2a 9f bb f1 f5 46 3d
       0.007818763 0.023884974 -0.004857399 0.04857439
000060 bc bd b5 bc 96 ce 9b 3d 44 7b a4 3d 95 4a 20 bd
       -0.022185199 0.076077625 0.080313236 -0.039133627
000070 90 fe 8f bd 87 e6 7d bd d8 1a b0 bc d7 86 93 bb
       -0.07030976 -0.061987426 -0.021497175 -0.004502158
000080 06 b7 f8 3b 16 8d c8 bb 59 43 0f 3c f7 72 48 3b
       0.0075901775 -0.0061203344 0.008744084 0.0030586103
000090 8b 53 94 bd 51 d7 3a 3d 82 77 03 3c 55 b7 3f 3c
       -0.07242497 0.045615498 0.008024098 0.011701425
0000a0 57 e1 29 3c b6 62 db bc 77 dd 37 3d 3d 4d a1 bd
       0.010368667 -0.026780467 0.04488894 -0.0787606
0000b0 ba ce 0f bd 64 91 32 3d ad 59 5d 3d 2f 39 b7 3c
       -0.03510926 0.043595687 0.0540406 0.022366134
0000c0 8c 5b c5 bc cb 84 0b bd a1 9a 36 3d 4d ae 46 3d
       -0.024091505 -0.034062188 0.04458106 0.04850607
0000d0 1e 3f b3 3d 9f da 4c bc 90 8b b8 3c f3 b9 31 bd
       0.08752273 -0.012503295 0.022527486 -0.043390226
0000e0 81 6a f9 bc dd 46 82 bd 66 62 36 bc 35 fd df 3b
       -0.030446293 -0.06361172 -0.011131858 0.0068356046
0000f0 de ff 96 3c d4 7f 11 3c 15 a2 52 bd e0 33 b9 3c
       0.018432554 0.008880574 -0.051424105 0.022607744
000100 42 50 bb 3c 33 57 d1 bc 6d 93 b6 bc 31 2b b8 3b
       0.022865418 -0.025554275 -0.022287095 0.005620383
000110 24 83 0b 3d 7b ba 87 3d b7 46 59 bd 11 8f 5b bd
       0.034060612 0.06627365 -0.053045955 -0.053603236
000120 cd 14 8a 3d 27 67 e8 3c 25 10 5f 3d 26 30 4e 3d
       0.06742249 0.0283695 0.054458756 0.050338887
000130 f2 b9 74 bc c9 d5 9d bd 84 9f bb 3c cf 5a 6c bc
       -0.014936911 -0.07706792 0.022903211 -0.014425947
000140 b1 8b 32 bc ed 7b 9d 3d 28 7c b4 3d 45 b7 bf bd
       -0.010897563 0.076896526 0.088127434 -0.09361128
000150 bc c3 fd 3a c7 0f 81 bb 04 6a 0e 3d 23 8a 97 3b
       0.0019360702 -0.0039386484 0.034769073 0.0046246215
000160 a5 8a 0a 3d 2f 57 82 bd 1c fa f7 3c 6f 8a 0d bd
       0.033823628 -0.06364285 0.030270629 -0.03455585
000170 dc 73 88 3d 13 99 74 3d 46 25 f8 bc 8d cd 33 bd
       0.066627234 0.059716295 -0.03029121 -0.0438972
000180 cf 2b a8 bc 3a 7b a1 bc a2 75 51 bd 71 45 ca bc
       -0.020528702 -0.01971208 -0.051137574 -0.024691315
000190 ff 76 88 3d 12 e1 05 3d 98 db 55 bc 31 5f 03 bb
       0.06663322 0.032685347 -0.0130528435 -0.0020045752
0001a0 50 f7 11 bd ab 65 4a 3d 72 13 18 bd ff 8d 51 bd
       -0.035636246 0.049413364 -0.03712792 -0.05116081
0001b0 5e b2 5a 3b 21 71 7a 3c a7 52 0e bc 37 3e fc 3b
       0.0033370475 0.015285761 -0.008686698 0.0076978463
0001c0 f6 f1 a4 3c b1 0d 16 3d 9f 40 66 3d c5 0a 69 bd
       0.020134907 0.03663415 0.05621397 -0.056895036
0001d0 45 1b 5a bd 32 68 be bb 5d d4 34 3d 71 96 37 3d
       -0.053248663 -0.005810761 0.044147838 0.044821206
0001e0 95 47 1c 3d 2b bb bd bc de 43 8a bc 4c a1 1e 3d
       0.038154203 -0.023160538 -0.016878065 0.038728043
0001f0 3d 9e 49 bd ef 4a bb 3c 03 e3 86 3c eb 71 95 bc
       -0.049223173 0.02286288 0.01646567 -0.018242797
000200 cc c8 84 bc b4 ee 67 bd 6f b7 a6 3c 52 9d 73 bc
       -0.016209029 -0.05662413 0.02035114 -0.014869051
000210 8d d0 e2 3b fa d6 8d bb 77 42 9a 3d 24 b6 06 bb
       0.006921834 -0.0043286057 0.075322084 -0.0020555342
000220 dd fd 05 bd a2 34 8f bc ea 5f 46 3d 9a 39 72 3d
       -0.032712806 -0.017481152 0.048431315 0.059136964
000230 81 3d 62 3d 6f 9d 95 bc 01 41 5a 3d 78 95 83 bc
       0.055234436 -0.018263547 0.05328465 -0.016062483
000240 dd 89 ae bd 85 96 1f bd a5 09 82 3c 74 02 53 bd
       -0.08522389 -0.038961906 0.01587374 -0.05151601
000250 fa 6b af bd 54 ee a6 bd af 76 7b bd 27 b0 07 be
       -0.08565517 -0.08150926 -0.061392482 -0.1325079
000260 58 c9 9e 3c ea 20 57 bd 04 0c 8b bc dd ae cf bd
       0.019383118 -0.052521624 -0.016973503 -0.101407744
000270 fa 8c 9e bc cf c5 c3 bd 3a b1 9f bc bb 30 20 bd
       -0.019354332 -0.09559213 -0.019493688 -0.039108973
000280 87 aa d3 3c 7c 4b 37 bc d0 34 4b bd b8 5c 6e bd
       0.02583815 -0.0111874305 -0.049610913 -0.058193892
000290 a1 99 9e bc c5 c2 2a 3d b7 c1 ad 3c 87 03 08 3d
       -0.019360365 0.041689653 0.021210534 0.03320649
0002a0 e8 c4 9c bd 67 e9 aa bc 25 c6 92 3d 93 7c 8c bd
       -0.076547444 -0.020863248 0.07166699 -0.06859698
0002b0 40 90 02 3e ef 0d 39 3d 81 f1 73 bd 49 1c 02 3d
       0.1275034 0.045179304 -0.059556488 0.031765256
0002c0 0a 1d 8d bd ba 30 91 bd cf f8 96 3d a6 24 6e bc
       -0.068903044 -0.07089372 0.07371675 -0.014535105
0002d0 b3 a0 b0 bc 4e b1 0f bb 47 e7 99 3c 33 68 70 bc
       -0.021561002 -0.002192575 0.01878704 -0.0146732805
0002e0 31 56 09 3c d6 04 ab 3c 40 b8 14 bd 82 67 06 3d
       0.008382366 0.02087633 -0.036308527 0.032813556
0002f0 fa d3 cd bd 5f 64 92 3d 86 b7 fc 3c c5 02 e5 3a
       -0.10050197 0.071480505 0.03084923 0.0017472139
000300 9e b6 89 bd 8a c7 92 3d 5f bb 06 bd 9c c0 11 bd
       -0.067242846 0.07166965 -0.032893535 -0.035584077
000310 15 2f 52 3c 1c 6a a4 3d 18 ad 8c bc 2a 16 29 bc
       0.012828608 0.08028051 -0.017172381 -0.010320226
000320 36 65 82 3c 03 c1 08 3d 08 99 a5 bd e2 23 97 bc
       0.015917402 0.033387195 -0.08085829 -0.018449727
000330 93 b6 68 3c e6 e2 6e 3d ab 14 99 bc 84 53 5d 3d
       0.014203685 0.058321856 -0.018686613 0.054034725
000340 5f e2 01 3c d5 d8 27 3d e3 68 ee 3c 6c 24 99 3c
       0.007927506 0.04097827 0.029102748 0.018694125
000350 3e 27 75 bc 60 52 30 3d fc d2 38 bb a2 6b 96 bc
       -0.014962969 0.04304731 -0.0028201928 -0.01836187
000360 75 43 b4 bd 46 a2 b6 bc 1c 01 9c 3d 47 35 c2 bd
       -0.08801929 -0.022294175 0.07617399 -0.09482818
000370 c6 24 81 bc a0 25 fe 3d d2 45 be 3b 6a a1 54 3c
       -0.015764605 0.1240952 0.005806663 0.012977937
000380 89 53 8c bd a2 31 c7 3c df 7f aa bd c5 74 67 bd
       -0.068518706 0.024315659 -0.08325171 -0.056507844
000390 19 7d 33 bc b2 4b 11 3d 93 be bf 3c 2d ce 8a 3d
       -0.010955119 0.03547258 0.023406303 0.06777606
0003a0 d6 53 88 3b 81 ab 2d 3c c6 50 0f bd 9d 5e cb bd
       0.0041603846 0.010599972 -0.03498914 -0.099301554
0003b0 aa 99 a9 3d 7f c4 19 bc 5a 3b 23 bd 6f 73 22 bc
       0.08281262 -0.009385227 -0.039851524 -0.009915217
0003c0 cf 4c 80 3d 45 dc a9 3d cc 37 92 bd 2e 92 c5 3b
       0.0626465 0.08293966 -0.07139549 0.006029389
0003d0 c7 9f 90 3c ee a6 d8 bd 39 93 5c bc 74 e4 56 bd
       0.017654313 -0.10578714 -0.013462835 -0.052463964
0003e0 b3 7b d0 bb 75 65 86 3d db b8 4c 3b bd 1e 98 3c
       -0.0063624023 0.0656232 0.0031238112 0.018569345
0003f0 64 3b ca 3c b3 af be bc 97 75 31 bd 6e 28 06 bd
       0.024686523 -0.02327714 -0.043325033 -0.0327534

spacial_block.0.bias f4 [64]
000000 71 2c cb bc 5d ff 7c bd db a3 c3 3c e5 68 04 bd
       -0.024801465 -0.06176697 0.023881843 -0.032326598
000010 07 96 89 3b 50 4a 3a bd 30 cd 1b 3d 4a 97 5d bd
       0.004198793 -0.045481026 0.03803748 -0.05409936
000020 cc 0c 7f bd 65 e2 8f bd 12 13 85 3d a8 02 0b 3d
       -0.062268063 -0.07025603 0.06497778 0.03393808
000030 b3 af 59 bd 6b 06 95 bc 69 c0 6a 3d e9 b3 be 3c
       -0.053146075 -0.018191537 0.057312403 0.023279147
000040 7e cc 8a 3d ca 51 33 bc ff c9 d8 bb a0 7b 64 3d
       0.06777285 -0.010944793 -0.0066158767 0.05578196
000050 37 80 97 bb cd 61 86 bd ca b3 86 bc 62 7d 5e 3d
       -0.0046234387 -0.06561623 -0.016443152 0.054318793
000060 25 6c 02 3d 33 84 72 bc 01 ba 95 bd 15 80 59 3d
       0.031841416 -0.014802027 -0.07310868 0.053100664
000070 60 6d 86 bc af ea 94 bc bb b0 88 3d 7f ed 25 3d
       -0.016409576 -0.018178312 0.06674334 0.040509697
000080 5e 04 b7 3c cc 44 cd 3c 22 92 b1 3a 27 5d 98 3b
       0.02234095 0.025057219 0.0013547579 0.0046497765
000090 85 92 1e bd d6 78 d8 3c 16 b1 1a 3d be f5 28 3d
       -0.03871395 0.026424807 0.03776654 0.041249983
0000a0 7f aa 20 bd ed e0 8f 3b e8 a5 af bb b4 48 31 bd
       -0.039225098 0.004390827 -0.0053603537 -0.043282226
0000b0 47 46 85 3c 44 73 28 3d 42 4d d3 3b 97 6d 0b bd
       0.016268862 0.04112555 0.006448419 -0.03404006
0000c0 48 3a 71 3d 68 b3 20 bd 81 97 ec 3c ce b8 a1 ba
       0.058893472 -0.039233595 0.028880836 -0.0012338401
0000d0 0a 52 d3 3c 45 c6 df 3c a1 73 8e bd 29 ce 8e 3c
       0.025795955 0.027316222 -0.06955648 0.01743229
0000e0 cd ba ad b9 9d d2 76 bd ff 3d 40 3d ed 6d 29 3c
       -0.0003313631 -0.06025945 0.046934124 0.01034115
0000f0 96 75 ae bc a5 da 38 bb a1 a5 57 3d 2a 22 e1 bc
       -0.021296304 -0.0028206494 0.05264819 -0.027482111

spacial_block.1.weight f4 [64]
000000 75 03 84 3f 61 34 84 3f 96 ed 88 3f b5 57 87 3f
       1.0313555 1.0328485 1.0697505 1.0573641
000010 6b 41 84 3f 3f 31 80 3f 9c 85 86 3f 7c 7b 80 3f
       1.0332464 1.0015029 1.0509524 1.0037684
000020 f3 d3 7c 3f 64 d8 80 3f 17 f4 83 3f 9f 4e 89 3f
       0.9876091 1.0066037 1.0308865 1.0727118
000030 f9 9c 9e 3f 05 7c 9c 3f bc 61 8d 3f db 2a 84 3f
       1.2391654 1.2225348 1.1045451 1.0325578
000040 20 94 8c 3f da 6b 89 3f 06 af 8c 3f f6 8d 88 3f
       1.0982704 1.0736039 1.0990913 1.0668323
000050 c4 d4 86 3f eb d4 81 3f f4 97 87 3f 27 bc 86 3f
       1.0533681 1.0143102 1.0593247 1.052617
000060 43 f1 86 3f a7 c5 7f 3f 5f 58 91 3f 77 c1 86 3f
       1.0542377 0.9991097 1.1355094 1.0527791
000070 a0 93 86 3f 2e 9d 87 3f 43 e4 84 3f 3b 3d 83 3f
       1.0513802 1.0594842 1.038216 1.0253061
000080 75 52 88 3f a1 1d 89 3f eb 8a 80 3f cf bc 88 3f
       1.0650164 1.0712167 1.0042394 1.068262
000090 ec a3 8c 3f d2 8e 86 3f 4e df 97 3f be af 80 3f
       1.0987525 1.0512335 1.1865022 1.0053632
0000a0 30 f8 95 3f 15 86 98 3f ff 51 8b 3f 8a d6 81 3f
       1.1716366 1.1915919 1.0884398 1.0143597
0000b0 2b 82 87 3f ed 5b 85 3f b4 6f 8b 3f 55 d6 90 3f
       1.0586599 1.0418679 1.0893464 1.1315409
0000c0 60 fe 8c 3f 82 c7 85 3f 73 61 81 3f 52 8b 88 3f
       1.1015129 1.045151 1.0107864 1.0667517
0000d0 a8 3d 99 3f bf fe 92 3f 59 31 80 3f 3b b4 87 3f
       1.1971941 1.1483992 1.001506 1.0601877
0000e0 0d 0f 81 3f 77 49 8d 3f 24 b2 7d 3f 35 83 88 3f
       1.0082718 1.1038045 0.99099946 1.0665041
0000f0 2d 51 80 3f b7 db 89 3f 9e 18 88 3f c6 1c 87 3f
       1.0024773 1.0770177 1.0632513 1.0555656

spacial_block.1.bias f4 [64]
000000 90 c0 8b bd ba 3f d2 bc cf 1c f5 bd 56 8f 3f bd
       -0.06823838 -0.025665153 -0.119683854 -0.046767555
000010 2b d9 b6 bd 4c 19 3d bd 29 9c d1 bd 83 2a fd bc
       -0.0892814 -0.046166703 -0.10234863 -0.03090406
000020 75 04 8a bb ff 43 83 bd 6a 3a f4 bd 9d cd 6b bd
       -0.004211957 -0.064094536 -0.11925204 -0.057569135
000030 e8 f7 4a be aa c1 3e be 3f 66 f5 bd cb 96 ae bd
       -0.19821131 -0.18628564 -0.119823925 -0.08524855
000040 37 11 0b be b2 0e 97 bd 71 fc c9 bd ca 0b df bd
       -0.13580786 -0.0737585 -0.098626025 -0.108909205
000050 0e cf d8 bd da d2 54 bd ed 47 f1 bd cb 01 e6 bc
       -0.105863675 -0.051958896 -0.11781297 -0.028077027
000060 a3 65 cc bd 59 0f 85 bd 45 19 23 be 8d 2c b7 bd
       -0.09980323 -0.06497068 -0.15927608 -0.08944044
000070 06 d6 1b bd 14 2d f0 bd b0 eb d9 bd 27 c6 cc 3a
       -0.038045906 -0.11727348 -0.10640657 0.0015623019
000080 91 5a 8b bd a1 86 c7 bd 72 63 83 bd e0 d3 b2 bd
       -0.068043835 -0.09742475 -0.06415452 -0.08731818
000090 1c 33 15 be e8 18 ab bd 58 fe 3a be b1 1c 8f bd
       -0.14570278 -0.0835436 -0.18261087 -0.06987894
0000a0 a9 37 30 be f8 1f 0c be 33 2d 05 be 67 1c 57 bd
       -0.17208733 -0.1368407 -0.13005523 -0.05251732
0000b0 8b 82 61 bd d7 01 bf bd a6 b4 7f bd 19 31 11 be
       -0.055056136 -0.09326523 -0.06242814 -0.14178886
0000c0 34 85 bd bd 6d 38 b7 bd 61 75 96 bc 4a 60 bb bd
       -0.09253922 -0.08946309 -0.018366517 -0.09149225
0000d0 eb 00 48 be 2e cf 1b be 50 31 52 bd 77 de c9 bd
       -0.195316 -0.15215752 -0.05131656 -0.09856885
0000e0 a6 31 61 bd b8 22 12 be c8 6a 20 bd f7 72 80 bd
       -0.05497899 -0.14271057 -0.039164335 -0.06271928
0000f0 eb c0 26 bd 76 29 82 bd 8c c3 04 bd 2e 50 a3 bd
       -0.040711325 -0.06355564 -0.03241305 -0.079742774

spacial_block.1.running_mean f4 [64]
000000 1c 43 09 3f 3d d2 2d bd 30 4a a8 3e 81 fb a3 3c
       0.53618026 -0.042436827 0.328691 0.020017387
000010 d8 da 1b bf 00 5a 5f 3e b7 10 34 be fb 2c 97 3e
       -0.60880804 0.21811676 -0.17584501 0.29526505
000020 6c fa 3d 3e 68 fd 27 bf f7 87 07 3f 1b 4a a4 be
       0.1855256 -0.6562104 0.5294184 -0.32087788
000030 78 4c 33 3b e0 a9 15 3f 12 65 82 be c5 76 3c 3e
       0.0027358811 0.58462334 -0.25467736 0.18404682
000040 15 85 e0 bd d7 9f 68 be 92 7c 1c 3f c7 b4 42 3d
       -0.109628834 -0.22717224 0.6112758 0.047535684
000050 c0 2e 3c 3f cc 25 e8 3d 45 3c cd be e0 e5 bf be
       0.73508835 0.11335334 -0.40085045 -0.37480068
000060 be ed 0e bf cc af 92 be 04 f6 1f bf 94 22 82 3f
       -0.55831516 -0.28649747 -0.62484765 1.0166802
000070 37 a6 3f 3f 87 c4 3d 3e c1 a3 ad 3d 9f d2 95 be
       0.74863 0.18532 0.08478499 -0.29262254
000080 64 17 ad 3e 0c 33 f4 be 71 c0 ec be 41 32 07 bf
       0.33806908 -0.47695196 -0.4624057 -0.52811056
000090 3c 9c 3c 3f e0 b3 e6 be 16 3f 21 3f 8d 46 2c bf
       0.73675895 -0.4505911 0.62986887 -0.6729515
0000a0 0a 21 5c 3e 9d 5a 83 3e 4e 0b 1a 3f 21 5a cf be
       0.21496978 0.2565507 0.601735 -0.4049845
0000b0 9a 2b 4e be 88 87 44 be 0a 87 c2 3e 3d 76 86 be
       -0.2013382 -0.19192326 0.37993652 -0.26262084
0000c0 51 d1 4c 3f da 16 f3 3e 66 bc 19 3f e3 b9 82 bf
       0.8000689 0.47478372 0.600531 -1.0212978
0000d0 81 9e 62 3d 56 32 de 3e 1c 33 b8 be 26 d3 11 bf
       0.055326942 0.43397778 -0.35976493 -0.5696281
0000e0 b6 53 99 bf 2c b7 68 be 8a aa 8b 3e ad ce f5 3e
       -1.1978672 -0.22726125 0.27278548 0.48009244
0000f0 38 74 a2 bf 41 7b 17 3f 8d 3e f7 3e f6 13 13 3f
       -1.2691717 0.59172446 0.4828991 0.5745233

spacial_block.1.running_var f4 [64]
000000 79 78 80 40 fa 94 73 3f 76 07 92 3f b8 68 9f 3f
       4.014706 0.95149195 1.1408527 1.2453833
000010 23 d6 46 3f 9d a3 a1 3f fa 68 aa 3f c6 bf c1 3f
       0.77670497 1.2628056 1.3313286 1.513665
000020 83 9d 36 41 51 a8 9f 3f 94 e4 a8 3f c4 c2 d0 3f
       11.413455 1.2473241 1.3194757 1.6309438
000030 f2 e3 07 3f 22 0c ad 3f 87 a4 c4 3f 7c 80 f1 3f
       0.5308219 1.3519328 1.536271 1.8867335
000040 0d 77 75 3f 64 ec 8b 3f 05 bb 90 3f fb 14 29 3f
       0.9588478 1.0931516 1.1307074 0.6604764
000050 b8 a0 86 3f b0 fd 96 3f 5b 75 98 3f de 16 50 3f
       1.0517797 1.1796169 1.1910814 0.8128489
000060 15 1d a7 3f 64 c0 e9 3f 5e 10 48 3f 75 02 e9 3f
       1.305575 1.8261838 0.78149974 1.8203875
000070 50 6a 32 40 4f 75 36 3f c6 ac 56 3f f9 c2 92 3f
       2.7877388 0.7127275 0.8385738 1.1465751
000080 ad f8 15 3f 96 59 8b 3f 31 48 55 3f ad a3 97 3f
       0.58582574 1.0886714 0.8331328 1.1846825
000090 3b ae fc 3f 9f 2f 26 3f 2e 68 c8 3f e6 a4 02 40
       1.9740671 0.64916414 1.5656793 2.0413146
0000a0 f8 7b 94 3f c8 35 ba 3f da 70 76 3f a4 36 4b 3f
       1.1600332 1.4547663 0.9626595 0.7938025
0000b0 9e 57 51 3f b7 58 ad 3f ac 06 77 3f 11 68 6f 3f
       0.8177432 1.3542699 0.96494555 0.9351817
0000c0 60 9e d3 3f 75 6b 13 40 fb 8f 86 3f df 13 32 3f
       1.6532707 2.3034337 1.0512689 0.6956157
0000d0 be bc 82 3f a4 f8 4f 3f dc 02 95 3f e2 09 1c 3f
       1.021385 0.8123877 1.1641498 0.6095258
0000e0 30 7e 0e 40 22 d5 43 3f d9 5d 05 40 17 34 70 3f
       2.2264519 0.7649709 2.083853 0.9382948
0000f0 5f a7 95 3f 0e 6b bd 3f 08 f7 b3 3f 04 ba 9b 3f
       1.1691703 1.4798295 1.4059763 1.2166142

conv.weight f4 [8, 1, 4]
000000 a7 bf 95 be 97 a4 4b bd 18 96 90 be c1 b5 ac 3e
       -0.29247782 -0.049717512 -0.28239512 0.33732417
000010 8b f0 43 be ae 3b c3 3e 76 7f 04 bf d9 7e c7 3d
       -0.19134729 0.3813147 -0.5175699 0.09740991
000020 13 ca 06 3f 33 b0 1e be f6 e2 05 3e 33 bf 93 bd
       0.5265209 -0.15496902 0.1307486 -0.07214203
000030 35 83 11 bf cf 66 d3 be 0e 4a 0b 3f 26 95 7c be
       -0.5684083 -0.41289374 0.54409873 -0.2466627
000040 83 49 1e 3f b6 18 27 bf 73 07 f2 be f7 20 ae 3e
       0.6183092 -0.6527208 -0.47271308 0.34009525
000050 e5 02 18 3f 62 ac 02 bf 3f 47 ae bd 2c c6 25 bf
       0.59379417 -0.51044285 -0.08509683 -0.6475551
000060 14 0c 36 be f5 4e 9f 3e 34 a2 81 be 07 b0 6f be
       -0.17778045 0.31114927 -0.25319064 -0.23406993
000070 b8 58 e3 bd 50 e4 0c bf b3 24 0d bf 60 c9 c4 3e
       -0.11100906 -0.5503588 -0.55134124 0.38434887

classify.weight f4 [2, 64]
000000 36 32 14 3e 7a 08 b2 bd f6 3f 6c 3e ff cb 45 be
       0.14472279 -0.08693023 0.23071274 -0.193161
000010 29 6c 0e be 41 a7 21 be d2 b9 5d 3e 47 b7 da bc
       -0.13908447 -0.15786459 0.21652916 -0.026698722
000020 d9 36 e8 3b be 46 eb bd b1 af 46 be 0d df 61 3e
       0.0070866165 -0.114881024 -0.19402958 0.22057743
000030 7a 1f 4f 3e 9e fc e2 3d 37 1f 0c 3e 3b 71 02 3e
       0.20226851 0.11083339 0.13683783 0.12738506
000040 8e b4 0b be bd c7 6a 3e 5c f0 2b 3e d4 2b ba bd
       -0.13643095 0.22927757 0.16790909 -0.09090391
000050 f7 35 5d 3e ba 40 2b be fd cf 37 3e 3b 79 23 be
       0.21602617 -0.1672391 0.17950435 -0.15964215
000060 f3 b1 55 be 5b 22 d7 bd 76 b7 35 be e4 32 5e 3e
       -0.20868663 -0.105046 -0.17745766 0.216991
000070 8e 9e 90 3d 57 42 67 be de 49 48 be bc 74 1d be
       0.07061492 -0.225839 -0.19559428 -0.15376562
000080 3d 11 6d be 39 c3 9c bd 62 1a 2b bd 55 df 7d be
       -0.23151107 -0.07654423 -0.041773207 -0.24792226
000090 3b 0d 1f 3e 60 8d dd bd 50 b1 de 3d 69 86 2c be
       0.15532391 -0.10817981 0.108736634 -0.16848148
0000a0 3f c2 56 3e 6b 28 5d 3d ff 53 f7 3d 82 44 04 bd
       0.20972537 0.053993624 0.12076568 -0.032291897
0000b0 77 98 1a bd 14 70 25 3e b7 1a cf 3d 95 53 d3 bd
       -0.037743058 0.16156036 0.10112517 -0.103186764
0000c0 6a e9 a1 3d 7b 1d 41 be eb 20 01 bd 9e b3 29 be
       0.07905848 -0.18858902 -0.031525534 -0.16572425
0000d0 8d 54 6d 3e 76 48 80 3e 9e c1 82 bc 9a e4 15 be
       0.23176785 0.25055283 -0.015961464 -0.14637986
0000e0 91 1e b0 bd 1d a5 69 3e d2 2e 96 bd f4 6b 22 3e
       -0.0859958 0.22816892 -0.07333149 0.15861493
0000f0 c2 8a 05 be 2b fc 6a 3d 4f 6b 01 3e b5 00 61 3e
       -0.13041213 0.057369392 0.12638591 0.21972926
000100 23 96 9a bd 63 cb a1 3d 43 6b 28 be 8a 6f 2a 3d
       -0.075481676 0.07900121 -0.16447167 0.04161028
000110 b4 6a 67 3e 67 ca 87 bb f0 02 15 be e1 0e 11 3e
       0.22599298 -0.0041440013 -0.14551902 0.14165832
000120 bc b2 cb 3d c9 7d 11 3c fa 99 11 3d e9 81 4e be
       0.099462 0.008880087 0.035547234 -0.20166744
000130 cc 7d ae bd 61 94 21 be 88 a3 39 be d6 da 49 be
       -0.085200876 -0.15779258 -0.18128788 -0.19712386
000140 1f 8b 23 3d c2 52 89 bd 71 5e 82 be 5d 52 20 3e
       0.039927598 -0.06705238 -0.25462678 0.15656419
000150 b4 19 6e be d7 d1 4f 3e b5 11 45 be 72 ff 61 3e
       -0.23251992 0.20294891 -0.19245036 0.22070101
000160 71 20 b8 3d 35 5a 10 3e 42 d7 f2 3d 1d c7 28 be
       0.08990563 0.14096911 0.118574634 -0.16482206
000170 3b 0b 9c bd 6a 12 44 3e e1 2b 2d 3e 91 85 4f 3e
       -0.076193295 0.1914765 0.1691127 0.20265795
000180 09 af e4 3d 56 90 f1 3d ba 49 01 3e 8b b3 a3 3d
       0.11166198 0.11795108 0.1262578 0.079932295
000190 40 29 30 be 30 41 0e 3e 9d dc 23 be f1 89 c9 3d
       -0.17203236 0.13892055 -0.16002126 0.09840763
0001a0 d7 53 b1 bd ba 2f bb bd 99 27 09 be d8 b4 1e 3e
       -0.08658569 -0.091399625 -0.13394012 0.15498674
0001b0 db d1 f1 3d 34 8a 62 be 47 48 72 be 37 9e 48 3d
       0.11807605 -0.22123033 -0.23660384 0.04897901
0001c0 f2 71 24 be 95 cd 3c 3e d0 d6 1a 3e c9 8d 49 3e
       -0.16059092 0.18437798 0.15121007 0.19682993
0001d0 b5 3b 08 bd 3b fe 17 bd 2b a3 19 3e 2f 1c df 3d
       -0.033260066 -0.037107687 0.1500365 0.108940475
0001e0 fc fc 23 3e 10 86 bc bd 58 88 e6 3d 5e 19 24 be
       0.16014475 -0.09205258 0.11256474 -0.16025302
0001f0 df d6 c4 3d 8c 32 3d be b4 df 88 bd b1 f2 4d be
       0.09611296 -0.18476313 -0.06683293 -0.2011211

classify.bias f4 [2]
000000 bb 12 cc 3c 33 23 ee b9
       0.024911275 -0.00045421123
