BCI/output/openBMI/LightConvNet/sub33/2023-10-05--17-38/model.pth (torch, 51356 bytes, 9 tensors)

spacial_block.0.weight f4 [64, 9, 20, 1]
000000 69 7d 99 bc a6 1a df bb 47 f9 54 bd 39 04 1f bd
       -0.018736558 -0.0068085967 -0.051995542 -0.038822386
000010 9f 4e 82 3a c1 79 18 3d f9 d7 26 3b 27 a3 33 3d
       0.0009941644 0.03722549 0.002545832 0.043856766
000020 89 74 12 bb d4 c0 c4 3c 99 dd 83 bc 08 24 06 3c
       -0.0022347292 0.024017729 -0.016096877 0.008187301
000030 b8 20 31 bd 45 19 2a bd d9 90 15 bd 61 40 84 3b
       -0.043244094 -0.041528005 -0.03651509 0.004035995
000040 f9 a3 57 3d fb 2f 8d 3d c9 6b 94 bc 3e 3e 6a 3c
       0.05264661 0.06893917 -0.018117802 0.014297066
000050 7d ad 68 bd 2d 5c f0 3c c0 85 21 bd c5 1d b0 3c
       -0.056806076 0.029340828 -0.039434195 0.02149857
000060 2a 44 57 bd f6 fb 82 bc f0 2e 8b 3d ca 08 17 bd
       -0.05255524 -0.015989285 0.06796062 -0.036873616
000070 e4 91 4e bd 8a 61 b6 bc 85 ba 80 b9 95 69 c4 3d
       -0.0504321 -0.022263307 -0.0002455303 0.09590451
000080 f8 0c 32 bd b0 7d 6e bc 44 92 1a bc bb b5 4b bd
       -0.0434694 -0.014556333 -0.0094342865 -0.04973386
000090 86 36 29 bc ea 6d d6 3d dd c8 87 3d 0e 07 5e 3d
       -0.010327941 0.10470183 0.066301085 0.054205947
0000a0 98 9b 93 bc b7 9b 02 bd 20 c5 cd 3d 97 f9 8f bd
       -0.018018529 -0.031886782 0.10047364 -0.07030027
0000b0 36 7d ef bd a5 21 88 bc c8 49 49 bc a1 35 93 ba
       -0.11693804 -0.016617605 -0.012285657 -0.0011231193
0000c0 cf 2c e5 3c 15 32 b7 3d 83 b2 f3 bc d4 b5 0d bc
       0.027975468 0.08945099 -0.029748207 -0.008649308
0000d0 1e a4 6a 3c 55 45 19 bd 6c a1 3f 3d 27 fa bb 3c
       0.014321355 -0.037419636 0.046784803 0.02294643
0000e0 12 36 be 3d 0a c1 b6 bd 7e 1b ac bd 9b 1b 9c bc
       0.09287657 -0.08923538 -0.08403681 -0.019056132
0000f0 74 c7 8b bc 9d 84 89 bc a2 1b 76 bd b1 eb e6 bb
       -0.01706288 -0.016786868 -0.060084946 -0.0070471396
000100 ee d0 69 3b 79 97 ad 3c 8f 89 15 bd 8d 6c 17 bd
       0.003567751 0.021190392 -0.03650814 -0.036968756
000110 ea 9c 4b bb 37 b4 62 3d 9e 80 b5 bd e1 dd 5b bc
       -0.003106887 0.055347648 -0.088624224 -0.013419599
000120 3f 3a 76 3d 6d 1f 32 3d c5 b7 3d 3c 14 5b 8f 3c
       0.06011414 0.043487 0.011579459 0.017499484
000130 83 65 76 3c 32 81 54 bd d4 fa 66 3d 13 8f c4 3c
       0.015038851 -0.051881023 0.056391552 0.023994004
000140 3f 6c 62 bd 44 44 c3 3c 85 21 72 3d ff 25 4e bd
       -0.055279013 0.023836263 0.059113998 -0.050329205
000150 8e 02 0d 3d b2 06 c2 3c 6b d4 04 3d 0b cc 7f bd
       0.034426264 0.023684833 0.03242914 -0.06245045
000160 86 ed 08 bc 0c e3 18 bd 98 8f b2 bc 26 b5 a9 3c
       -0.008357411 -0.037325904 -0.021796986 0.020716261
000170 07 e0 2f 3d 6b 6a 98 3d d5 67 69 bd 25 f3 73 bd
       0.04293826 0.074421726 -0.056983788 -0.059558053
000180 cf c8 82 3d bb b7 fa 3c a7 98 d9 bc 04 7a 93 3c
       0.063859574 0.030605188 -0.026562048 0.018002518
000190 df ae 85 3d ec 11 9a 3c 2e ee 57 3c 68 18 47 3d
       0.06527495 0.018807374 0.013179345 0.04860726
0001a0 9d 82 38 bc ab db 56 3d 6b 8d 53 bd 18 8a b5 bd
       -0.011261609 0.052455585 -0.05164854 -0.0886423
0001b0 48 c9 10 bd 24 ad b2 3c 52 7d 48 bd 54 d7 2b 3d
       -0.035348207 0.021811076 -0.04894764 0.0419534
0001c0 64 f1 3e bd 84 a4 9a 3d 15 4b 41 3d 1c c7 be bd
       -0.046616927 0.0755091 0.047190744 -0.09315321
0001d0 e0 fb 7a bc d9 9c 45 bc 19 61 27 3b d0 2b 2c 3d
       -0.015318841 -0.012061321 0.0025540052 0.04203397
0001e0 40 71 d8 3b 08 69 e4 bc ec 29 d3 ba 33 1a a1 3d
       0.0066052973 -0.027882114 -0.0016110516 0.07866325
0001f0 0a 0f 46 bd f4 10 01 3c f6 c3 21 bc 1f 1f 81 bd
       -0.048354186 0.007877577 -0.009873381 -0.06304764
000200 31 72 85 bd cd 5a fd bc 80 c0 14 bd c0 54 bc 3c
       -0.06515921 -0.030927086 -0.036316395 0.02298963
000210 4f 0d d2 bc b5 84 68 3c e6 7f 16 3d 50 78 64 bc
       -0.025641112 0.014191796 0.036743067 -0.0139447
000220 76 33 95 3c a6 ed 06 3c 92 f4 0d 3d bb 61 85 3d
       0.018213015 0.008235371 0.03465707 0.06512781
000230 3c 8b 06 3d d8 cc d6 bb 00 3c 91 3d a5 5d 51 3d
       0.032847628 -0.006555181 0.07091522 0.051114697
000240 f7 3a 1f bb 93 8a 16 3d 91 a7 e4 3c 3a 59 5b bd
       -0.002429662 0.03675325 0.027911933 -0.05355189
000250 d8 db a1 bd 80 80 42 bd 0c 9b a0 bd cc 17 4c bd
       -0.0790326 -0.04748583 -0.07842073 -0.049827382
000260 57 70 fe 3b f5 40 96 3a c3 93 c7 bb 78 8a c6 bd
       0.007764857 0.001146345 -0.0060906126 -0.096943796
000270 e4 e5 97 3d fd b5 1c bd 4c df ce 3c cd 35 9e 3c
       0.07416895 -0.038259495 0.02525296 0.019312764
000280 6a a7 38 bd d9 1a 8c bd a2 f0 2f bd 5e 9c cf bc
       -0.045081533 -0.06841058 -0.042954095 -0.025343116
000290 eb 4b ae 3c 75 85 1b 3d 0a 2f f5 bc 5a 07 02 bc
       0.021276435 0.03796907 -0.029929657 -0.007936323
0002a0 9b 74 cd bd 59 b8 67 3c c9 1c af 3c b9 e9 41 bd
       -0.10032006 0.014143073 0.02137603 -0.047342036
0002b0 c3 69 d9 3c 3f ca 80 3d 12 ac 89 bd ad 23 46 3d
       0.026539689 0.062885754 -0.06722273 0.048373867
0002c0 bf f3 92 3c d6 4f 88 bc 15 1d 9f 3d e6 c0 52 bb
       0.017938493 -0.016639631 0.07769219 -0.0032158433
0002d0 ad bf 51 bc 60 e3 05 bd ee c1 10 3d ba 45 63 bc
       -0.012802047 -0.032687545 0.035341196 -0.013871605
0002e0 2f fe 3e 3c 92 52 18 3c d5 4c dd 3b d2 19 fe 3c
       0.011657282 0.00929703 0.006753544 0.031018171
0002f0 52 18 81 bd 0c 60 8c 3c 08 fe a1 3c 84 52 1b 3c
       -0.06303467 0.017135642 0.019774452 0.0094801225
000300 f6 d5 cc bc 92 46 e4 3b f2 30 40 3c f5 52 a5 bc
       -0.025004368 0.0069664204 0.0117304195 -0.020181159
000310 68 a1 1e 36 88 43 26 3d 49 7f 29 bd 0a 31 f1 3b
       2.3637785e-06 0.040591747 -0.041381154 0.0073605822
000320 a4 08 b6 3c ab f3 51 3d 7d a6 48 bd 5c d8 4b bc
       0.022220917 0.05125777 -0.0489869 -0.012441721
000330 ba c4 07 bd 2e 28 16 3d cf 46 0b bd 81 e2 87 3c
       -0.033146597 0.036659412 -0.034003075 0.016587498
000340 20 94 b9 3b 20 0a bb 3c b8 6d 84 3c b6 0c 10 bd
       0.00566341 0.022831976 0.0161656 -0.035168372
000350 77 03 0e 3d e1 d8 4c bc 85 b4 91 3a 8f 38 bf 3c
       0.034671273 -0.01250288 0.0011116421 0.023342399
000360 f6 4a f0 bc e3 12 30 bd e8 4f 8f 3d 29 ac 20 bd
       -0.02933262 -0.04298676 0.06997663 -0.039226685
000370 33 45 8a bd 0c e1 1e 3e 52 00 8a bb e7 ca c3 bd
       -0.0675148 0.15515536 -0.004211464 -0.09560185
000380 35 33 45 bd 8c 50 6f 3d f6 9f 3e bd cf ad e5 3d
       -0.048144538 0.058426425 -0.04653927 0.11214792
000390 e1 7d c2 3c 11 40 d5 bd e1 f0 2b 3d 35 9e e8 3d
       0.023741664 -0.1041261 0.041977767 0.113583006
0003a0 9d 9e f1 bc 98 e1 05 bb 67 ef 67 3d 23 bb 6e bd
       -0.029494578 -0.0020428654 0.056624796 -0.058283936
0003b0 07 73 f4 bc 0f d6 fd bc fd be 5f bc a2 82 c3 3a
       -0.029840006 -0.03098586 -0.013656375 0.0014916251
0003c0 2a e6 34 bd 65 cc 92 3d f3 9f 97 bd d6 84 26 3d
       -0.044164814 0.071678914 -0.07403555 0.040654026
0003d0 40 a5 ae 3c b5 ca cb bd 73 08 06 3d 26 f3 fb 3a
       0.021319032 -0.09950773 0.0327229 0.0019222244
0003e0 5c 8f 94 3c 54 3b 39 bc 55 18 a3 3c 15 d0 4f 3d
       0.018134765 -0.011305649 0.019909063 0.050735552
0003f0 49 de 4f 3d 05 dc 14 3d 3b 36 24 3c 86 d1 b3 bc
       0.050749097 0.03634264 0.010022695 -0.021950494

spacial_block.0.bias f4 [64]
000000 4b 7b cb bc 32 53 7c bd 21 7a b4 3c 81 76 04 bd
       -0.024839064 -0.06160278 0.022030892 -0.032339577
000010 c8 54 b4 3b 70 d7 39 bd 77 bb 1c 3d aa 0e 5e bd
       0.005503271 -0.045371473 0.038264718 -0.054213203
000020 6e 69 7d bd a6 1b 90 bd ad 85 85 3d 8a 77 09 3d
       -0.061868124 -0.070365235 0.06519637 0.033561267
000030 52 1c 57 bd 43 10 99 bc 62 91 6a 3d d1 37 bc 3c
       -0.052517243 -0.018684512 0.057267554 0.022975834
000040 8a b8 8a 3d d7 c7 2d bc 69 04 ff bb e2 43 64 3d
       0.06773479 -0.010606728 -0.007782508 0.0557288
000050 a3 b7 5e bb eb fe 81 bd 45 8d 87 bc ab 90 61 3d
       -0.0033983968 -0.0634745 -0.016546855 0.055069607
000060 25 20 fe 3c 10 82 75 bc 19 9d 95 bd 0e 62 5e 3d
       0.031021187 -0.014984623 -0.073053546 0.05429273
000070 ae 1c 86 bc a1 e9 78 bc 1e 81 8b 3d 2a b9 27 3d
       -0.016371097 -0.01519242 0.068117365 0.04094807
000080 e7 ba be 3c 09 1b d1 3c 54 13 8e 3a 88 70 bc 3b
       0.023282481 0.025525587 0.00108395 0.0057507195
000090 8a 8f 1f bd c5 5b d8 3c e0 60 17 3d b8 81 25 3d
       -0.03895525 0.026410947 0.03695762 0.040406913
0000a0 27 61 1b bd 15 64 7f 3b 4e b1 96 bb b7 1c 30 bd
       -0.03793445 0.0038969566 -0.004598773 -0.042996135
0000b0 6b 3b 84 3c 94 e6 24 3d 92 40 d2 3b bb 17 0b bd
       0.016141614 0.04025896 0.006416389 -0.033958178
0000c0 7d 7d 70 3d d6 5d 1b bd 05 bb ef 3c 58 2d 2c 39
       0.058713425 -0.037931286 0.029263983 0.0001642009
0000d0 55 66 d3 3c 5a 47 e9 3c a8 da 8e bd a2 31 8f 3c
       0.025805632 0.028476406 -0.06975299 0.017479721
0000e0 6b b6 0d b8 16 a9 74 bd bb 6c 40 3d 41 1a cb 3b
       -3.378691e-05 -0.059731565 0.046978693 0.006198198
0000f0 86 d9 b1 bc c9 89 8f bb f4 6a 57 3d 01 e0 e2 bc
       -0.021710169 -0.004380439 0.052592233 -0.027694704

spacial_block.1.weight f4 [64]
000000 7a 1d 81 3f b0 db 85 3f 9d 85 82 3f 97 2c 87 3f
       1.008712 1.0457668 1.0197026 1.0560483
000010 70 50 81 3f 11 04 86 3f 98 94 81 3f 11 7b 80 3f
       1.0102673 1.0469991 1.0123472 1.0037557
000020 dd ac 83 3f f6 29 87 3f ca bf 85 3f c5 59 82 3f
       1.0287129 1.055968 1.0449154 1.0183645
000030 e3 69 9a 3f 65 71 92 3f bd bd 85 3f 97 c0 81 3f
       1.2063564 1.1440855 1.0448529 1.0136899
000040 b5 76 8b 3f 76 27 84 3f 79 b6 82 3f ce bc 82 3f
       1.0895602 1.0324543 1.0211936 1.0213869
000050 15 23 82 3f 6e 63 81 3f 90 56 82 3f 13 72 81 3f
       1.0166956 1.0108469 1.0182667 1.0112938
000060 cb 6c 81 3f c6 57 82 3f a3 8e 8b 3f 88 9e 80 3f
       1.0111326 1.0183036 1.0902904 1.004838
000070 68 a3 82 3f 89 b6 82 3f 9f eb 82 3f cc 83 82 3f
       1.0206118 1.0211955 1.0228156 1.0196471
000080 08 09 82 3f 25 79 84 3f f1 b4 83 3f 95 4d 81 3f
       1.0159006 1.034947 1.0289594 1.0101801
000090 9d c6 83 3f 6d d7 81 3f 67 97 90 3f 2d a1 81 3f
       1.0294987 1.0143868 1.1296204 1.0127312
0000a0 ae 8f 8b 3f 7b d8 91 3f e5 51 85 3f 3a 53 83 3f
       1.0903223 1.139419 1.0415617 1.0259774
0000b0 6b 61 87 3f c4 e3 82 3f df c4 82 3f df 03 8c 3f
       1.0576605 1.0225759 1.021633 1.0938681
0000c0 47 d2 85 3f 1b 27 84 3f c5 a5 80 3f 39 2f 82 3f
       1.0454797 1.0324434 1.0050589 1.0170661
0000d0 14 cc 8f 3f 2e 56 87 3f 23 ad 84 3f 76 06 84 3f
       1.1234155 1.0573175 1.0365337 1.0314472
0000e0 96 d8 82 3f 72 e0 86 3f fe fb 81 3f ff 19 82 3f
       1.0222347 1.0537245 1.0155027 1.0164183
0000f0 55 d4 80 3f 44 01 83 3f 2e b5 81 3f d4 9f 81 3f
       1.0064799 1.0234761 1.0133417 1.0126901

spacial_block.1.bias f4 [64]
000000 04 58 c5 bd f7 2c f9 bd c2 15 94 bd c3 79 09 be
       -0.09635928 -0.121667795 -0.072307125 -0.13425355
000010 3e 64 3d bd ba 6a fe bd 75 4d 92 bd c9 23 4c bd
       -0.046238177 -0.124227 -0.0714368 -0.049838815
000020 90 0f f5 bd 48 3c df bd 46 2e e1 bd c1 4e ad bd
       -0.11965859 -0.109001696 -0.10995154 -0.08462287
000030 28 39 3e be af 24 31 be 4b 20 ea bd 53 e9 c9 bd
       -0.18576491 -0.1729915 -0.11431941 -0.09858956
000040 d0 39 11 be cb 52 e9 bd 80 15 b8 bd ee d1 f0 bd
       -0.1418221 -0.11392745 -0.08988476 -0.11758791
000050 d2 60 ab bd 5c c0 24 bd fd 7a 9e bd 0d 8f 5a bd
       -0.083680764 -0.04022251 -0.07738302 -0.05335908
000060 dc f5 0e bd b5 64 99 bd 96 ba 28 be de 44 d2 bd
       -0.03490244 -0.074899115 -0.16477427 -0.102670416
000070 d2 a4 d0 bd 1f dc 43 bd 67 de 98 bd 78 d1 8f bd
       -0.10187687 -0.047817346 -0.07464295 -0.07022375
000080 3a f4 d4 bc 29 fc b8 bd dd 92 f6 bd 87 88 ab bd
       -0.025995363 -0.09032471 -0.12039731 -0.0837565
000090 c7 99 ca bd 67 2c 57 bd 97 01 14 be 68 6a 31 bd
       -0.09892612 -0.05253258 -0.14453731 -0.043314368
0000a0 dc 15 18 be a0 14 19 be 82 b1 da bd c4 ab cb bd
       -0.14852089 -0.14949274 -0.10678388 -0.09944871
0000b0 df 0e f4 bd 4f b3 b5 bd 18 40 d4 bd da d8 f2 bd
       -0.11916899 -0.08872091 -0.103637874 -0.118577674
0000c0 45 80 d3 bd 8f de b2 bd 0b 06 28 bc 00 94 9a bd
       -0.103272 -0.08733856 -0.010255347 -0.0754776
0000d0 b7 1f 13 be 75 29 14 be 18 00 f1 bd 09 60 de bd
       -0.14367567 -0.1446894 -0.11767596 -0.10858161
0000e0 a5 3c a9 bd 4b f6 16 be 21 7f 6f bd 04 f6 a4 bd
       -0.0826352 -0.14742391 -0.05847085 -0.08054736
0000f0 89 ac 37 bc 90 dd 96 bd 38 60 a1 bd 7b cb c6 bd
       -0.011210569 -0.073664784 -0.078796804 -0.097067796

spacial_block.1.running_mean f4 [64]
000000 42 3a bc be aa 39 0c bf 17 ee 16 3e c8 96 9c 3e
       -0.36763197 -0.5477549 0.14739262 0.30583787
000010 6a fb 04 bf d5 26 80 3f 52 57 6e 3b ef 7e 94 bb
       -0.5194613 1.001185 0.0036367965 -0.004531733
000020 4a e5 28 3f e2 54 3f bf d8 a9 05 3f 69 a2 80 3e
       0.6597487 -0.74738896 0.52212286 0.2512391
000030 86 7f 13 be 7d db 50 bc 72 f9 d7 3b 98 8c 41 bc
       -0.14404115 -0.012747643 0.0065910155 -0.011813305
000040 58 fa ac 3e f7 4c 46 3e 23 8f d1 be 2e 18 3a 3f
       0.33784747 0.19365297 -0.40929517 0.72693145
000050 68 14 2f 3f 74 9b b6 be 3a 66 02 bf 60 ca 9b ba
       0.6839051 -0.35665476 -0.50937235 -0.0011885874
000060 c2 ee 5f bd 2d 06 27 3f b2 c5 0d 3f f3 4b f7 3e
       -0.054671057 0.652438 0.55379784 0.48300132
000070 f9 b5 31 3f 18 35 5f be 36 a2 5c 3f 95 96 3b 3c
       0.69418293 -0.21797597 0.86185014 0.011449476
000080 48 b2 ac 3e 7c 25 38 3f c7 54 ab 3f 37 09 f2 be
       0.33729768 0.71932197 1.3385247 -0.47272655
000090 de 06 87 be 1f de b0 be 51 a1 1c 3f 2d 0c 38 be
       -0.26372427 -0.34544465 0.6118365 -0.17973395
0000a0 d2 b7 91 bd b3 39 9c be 7b 4e 9b be 32 5a 84 3e
       -0.07115139 -0.3051277 -0.30333313 0.25850064
0000b0 57 00 59 3e 6a 6c 1f be 3a 9b 89 3c 35 ee 59 be
       0.21191536 -0.155687 0.01679765 -0.21282275
0000c0 25 ac 4a 3f 14 c5 40 3f 80 3e 7f 3f bd 9f 37 bf
       0.7916892 0.7530072 0.9970474 -0.71728116
0000d0 59 f6 24 bf fc cb 06 3f 56 c8 5f 3f 31 12 69 3f
       -0.64438397 0.52655005 0.87415063 0.9104338
0000e0 b3 24 9a 3e fa c2 f5 3e 3e 92 43 3f 66 46 0f bf
       0.30106124 0.48000318 0.7639502 -0.55966794
0000f0 62 5e b1 bf e2 75 91 be ea 9a 73 be 7b 73 de 3e
       -1.3856928 -0.2841025 -0.23789564 0.4344748

spacial_block.1.running_var f4 [64]
000000 1f b9 c0 3f d8 05 b7 3e 64 95 8d 3f 98 a6 8c 3e
       1.5056494 0.35746646 1.1061215 0.2747085
000010 54 56 f9 3e d3 62 f7 3e f8 ff 84 3f aa a4 32 3f
       0.48698676 0.48317584 1.0390615 0.6978251
000020 df 33 43 3f 82 8d 0d 3f a9 49 05 3f b7 74 46 3f
       0.76251024 0.5529405 0.5206552 0.7752184
000030 01 4f a3 3e 57 f7 03 3f e1 ae 2e 3f d0 ed 15 3f
       0.31896213 0.51549286 0.68235594 0.58566
000040 d0 c1 62 3e 42 89 4b 3f 52 e3 a2 3f e7 2e 4d 3f
       0.22144246 0.79506314 1.2725623 0.8014969
000050 c6 a7 95 3f 52 d5 73 3f 9b b9 52 3f 74 d7 0f 3f
       1.1691825 0.95247376 0.8231446 0.5618813
000060 27 4a 00 40 10 3e 77 3f 5e 8c 8d 3e 3f 4f 7a 3f
       2.004526 0.96579075 0.27646154 0.9777717
000070 9d a1 b6 3f ab 92 f4 3f 0f b8 c3 3f 12 99 06 3f
       1.426807 1.910726 1.5290545 0.52577317
000080 03 1d 24 3f 48 93 5a 3f 57 0e 5a 3f 44 84 76 3f
       0.6410677 0.85380983 0.8517813 0.9629557
000090 e5 4e 93 3f bf 30 21 3f 49 02 a4 3f d5 1a 44 3f
       1.1508452 0.62965006 1.2813197 0.7660344
0000a0 48 82 0d 3f af d2 91 3f 2d 1d 93 3f 98 aa 8e 3e
       0.5527692 1.139242 1.1493279 0.27864528
0000b0 0c 65 14 3f 98 fe 8b 3f cb 29 52 3f 59 0d ab 3e
       0.57966685 1.0937071 0.8209502 0.3340862
0000c0 7b 98 37 3f 22 e6 1d 3f f4 d8 37 3f 99 54 f1 3e
       0.7171704 0.6167928 0.7181542 0.47134855
0000d0 b4 23 02 3f 05 ce ef 3e a7 11 5b 3f af 38 3c 3f
       0.5083573 0.46836868 0.8557381 0.7352399
0000e0 85 87 2e 3f 33 55 73 3f 0c 00 80 3f 78 32 06 3f
       0.68175536 0.9505188 1.0000014 0.5242076
0000f0 61 59 cc 3f a0 99 80 3f 96 63 36 3f 74 2d 1e 3f
       1.5964776 1.0046883 0.71245706 0.61788106

conv.weight f4 [8, 1, 4]
000000 64 7e ca be d7 72 95 3c 09 74 4e 3d 2a 30 f4 3d
       -0.39549553 0.018243236 0.05040363 0.11923249
000010 a7 d5 6c be 5b 96 a7 3e 55 8a 6a be 83 6d 5f bd
       -0.23128377 0.327319 -0.22904332 -0.054547798
000020 6e 4f 17 3e 31 25 03 3e f0 bc db 3e 61 96 58 3d
       0.14776394 0.12807156 0.42917585 0.052877788
000030 ee e6 0a bf 9f 97 ea bd a5 1e ec 3e ea cd 25 be
       -0.5425862 -0.11454701 0.4611713 -0.16191831
000040 68 01 75 3e aa 9f 94 be 9f 7b bc bd 5d ec ed 3e
       0.23926318 -0.29028064 -0.09203266 0.46469393
000050 98 82 7c 3e 26 20 71 be 55 ea 82 3e 07 85 08 bf
       0.24659193 -0.2354742 0.25569406 -0.53327984
000060 6d 0f dc be 2e 4b aa 3e 75 cb d7 bd eb f2 04 be
       -0.4298052 0.33260483 -0.10536853 -0.12983291
000070 3f a0 9e be 6c 6d 5c be 78 95 70 be 07 72 41 3e
       -0.30981633 -0.21526116 -0.23494518 0.18891154

classify.weight f4 [2, 64]
000000 d2 63 34 3e 39 4c f0 bd 43 25 57 3e 9f 54 45 be
       0.17616203 -0.11733288 0.21010308 -0.19270562
000010 6f 38 f8 bd 7b a2 58 be 43 36 72 3e ce 9b 7d bd
       -0.12120139 -0.21155731 0.23653512 -0.061916165
000020 55 42 bc bd e2 3a 2e be a2 0e 56 be 33 2d 51 3e
       -0.09192339 -0.1701465 -0.2090402 0.20427398
000030 1c 69 9e bd 6f bd bb 3d f5 da 00 3e 02 66 20 3e
       -0.07734892 0.09166991 0.12583525 0.15663913
000040 af 99 29 be c8 13 76 3e 2f c9 1e 3e 76 f0 ae bd
       -0.16562532 0.24030983 0.15506433 -0.08541958
000050 0c 12 34 3e 8f 54 1b be fc 20 2a 3e ee 8b 04 be
       0.1758501 -0.15168975 0.16614145 -0.12944004
000060 fd a6 26 be 6b 4d ff bd b6 f0 26 be 3a 26 6f 3e
       -0.16274638 -0.12465938 -0.16302761 0.23354426
000070 db 05 c6 3d b2 f2 11 be 92 a6 24 be db 71 17 be
       0.096690856 -0.14252737 -0.16079167 -0.14789526
000080 8b b2 5a be af 88 89 bd 67 10 bb bd 35 c4 52 be
       -0.21357171 -0.067155235 -0.09133988 -0.2058266
000090 23 63 02 3e 9d 44 c1 bd ff 8d f1 3d eb f3 41 be
       0.1273313 -0.09436915 0.11794662 -0.18940704
0000a0 d9 98 43 3e 0e e7 de 3d d3 65 0a 3e 05 aa b5 bd
       0.19101276 0.10883914 0.13515405 -0.08870319
0000b0 16 9d 00 3e c8 8c 25 3e e5 b0 bc 3d 36 68 ce bd
       0.12559924 0.16166985 0.092134275 -0.100784704
0000c0 27 42 b6 3d fe 6a 42 be 0e 69 0d bd be 5a 0f be
       0.08899336 -0.18986127 -0.034524016 -0.13999459
0000d0 3e ed da bc bd ef 68 3e f0 4f 58 bd c3 44 03 be
       -0.026724454 0.22747703 -0.05281061 -0.128192
0000e0 fa 45 dd bd 6a 2e 57 3e ab ae a2 bd 13 35 30 3e
       -0.108043626 0.210138 -0.079434715 0.17207746
0000f0 f8 3f ee bd 4e 1c 9c 3d 87 79 21 3e 37 94 61 3e
       -0.11633295 0.07622586 0.15769015 0.22029196
000100 73 f9 da bd 21 0f e0 3d 8f 50 13 be 34 92 28 3d
       -0.1069211 0.109403856 -0.143862 0.041155055
000110 bf 1a 55 3e 98 f3 4a 3d 62 7f 29 be ea 1e 35 3e
       0.20810984 0.049548715 -0.16552499 0.17687574
000120 43 3c 4b 3e bd 5e 83 3d ab 15 4f 3d 14 d0 3d be
       0.19847207 0.06414554 0.050557774 -0.18536407
000130 27 15 47 3e c7 f4 0d be 43 5f 2e be a1 cf 67 be
       0.19441663 -0.13862906 -0.17028527 -0.22637798
000140 cf 8f 8d 3d d2 ea 9f bd b9 95 77 be ab b4 1a 3e
       0.06912195 -0.0780846 -0.24178208 0.15107982
000150 c4 f5 44 be b1 e5 3f 3e b6 62 37 be 19 12 43 3e
       -0.19234377 0.18739964 -0.17908749 0.19049872
000160 24 15 34 3d c1 6f 24 3e c3 49 d5 3d 78 ba 39 be
       0.043965474 0.16058256 0.104144596 -0.18137538
000170 8b 72 d1 bd 99 85 dd 3d 89 88 09 3e a9 82 49 3e
       -0.102269255 0.10816497 0.1343099 0.19678749
000180 95 f1 bf 3d c8 55 de 3d 59 0b 34 3e 95 fa 1a 3d
       0.0937225 0.10856205 0.17582454 0.03783663
000190 34 7f 13 be d1 1c 00 3e f8 4a 2d be 0d 65 f4 3d
       -0.14403993 0.12510993 -0.1692313 0.119333364
0001a0 30 01 8b bd 4b c1 15 be 76 e3 17 be b7 78 58 3e
       -0.06787336 -0.14624517 -0.14832863 0.21139799
0001b0 0f 69 39 bd ec a6 62 be 65 13 69 be 6e c7 3e 3d
       -0.045266207 -0.22133988 -0.22761305 0.04657691
0001c0 51 9e 2e be 16 1b 3e 3e d0 e8 1d 3e ed 34 2f 3e
       -0.1705258 0.1856502 0.15420842 0.17110033
0001d0 4b a3 66 3e 6a e6 65 bc ef 5e 3f 3e 71 dc b9 3d
       0.22523229 -0.014031986 0.18688558 0.09075249
0001e0 ab 90 3a 3e bb 98 97 bd 27 08 f3 3d 7c e2 31 be
       0.18219249 -0.07402178 0.11866789 -0.17371553
0001f0 51 01 a8 3d a6 81 50 be 1d fc c8 bd 31 86 4e be
       0.08203376 -0.20361957 -0.09813712 -0.20168377

classify.bias f4 [2]
000000 8d 4c f5 3b 0d 07 8b 3c
       0.007485932 0.016971136
