BCI/output/openBMI/LightConvNet/sub17/2023-10-05--17-38/model.pth (torch, 51356 bytes, 9 tensors)

spacial_block.0.weight f4 [64, 9, 20, 1]
-0.0019732118 -0.0065566376 -0.07417123 -0.0061626583 0.029645588 -0.0033931562 0.010442995 0.077820934
-0.015200057 0.018018024 0.018474165 0.046196952 -0.046161354 -0.034535065 0.008364912 -0.009725554
-0.014993174 0.01686706 -0.014329637 -0.012395102 0.028965764 0.011514785 -0.0056597185 0.073392175
0.0053681633 -0.07186984 0.024915429 0.02323847 -0.07504402 -0.127284 -0.02681854 0.15037118
-0.10943065 0.0060935346 0.0060750754 -0.013853051 -0.13496408 0.14862937 0.114950545 0.025805354
0.013637053 -0.016485825 0.040664807 -0.055875152 -0.06963989 0.029212931 -0.019020904 0.069689654
-0.012114398 0.036278043 -0.054247387 -0.0132948905 0.08350199 -0.027044177 0.009418554 0.031213792
0.023861805 -0.083177835 -0.06293587 0.004638538 -0.011649856 -0.012773681 -0.061744194 0.05386398
0.07489595 -0.043221496 0.0014695484 -0.010039538 0.018987643 0.053236663 -0.041872054 -0.00056880293
0.02532627 0.017405685 0.007928561 0.010158522 -0.014942261 -0.08094748 -0.022011742 0.029757788
-0.0020240804 0.0045357104 0.026230637 -0.06797357 0.014157807 0.010375619 0.004798144 -0.014759096
0.0032837747 -0.043866135 0.052103337 0.12532724 0.008525052 0.07305418 -0.051871374 -0.032301094
0.00795015 0.023741532 -0.100800835 0.023164982 -0.007874827 -0.03132919 -0.0045729135 -0.030243624
-0.074234374 -0.0017110385 -0.057245098 0.0005560961 0.013218094 0.029780433 -0.05447892 0.054575853
-0.016109683 0.028724909 0.046505902 -0.034160826 -0.012431622 0.03601837 0.053292874 0.054603018
0.13527662 -0.005546384 -0.057397466 0.068971775 -0.036222268 0.019646466 -0.05404655 -0.024068028
-0.04330058 -0.06935219 -0.011529276 0.049535803 -0.05739008 0.032802887 0.069008835 -0.013373204
-0.010739187 -0.014739005 -0.0023456842 0.07652679 0.102141194 -0.02946446 0.04011292 0.04106098
-0.017486265 0.027555387 0.007256301 0.002088497 -0.06726217 -0.04649999 -0.045293413 0.04422163
0.039019372 0.021981323 0.015158058 -0.076940574 0.036249567 -0.056346625 -0.015691616 -0.01456771
0.021552768 0.00013839277 -0.07743044 -0.033873465 0.018203622 0.010070638 0.0062778583 0.03590602
-0.07668325 0.0006262195 0.074866995 0.026675258 0.000283046 0.046606224 -0.05941108 0.047549732
-0.02702925 -0.03589906 0.044316728 -0.03179152 0.063814335 -0.044035826 0.012933561 -0.02755057
-0.036329 0.0681879 -0.08813786 0.01004628 -0.0011843236 0.08003805 0.037074037 -0.043475214
-0.042558 0.11283823 -0.06193301 0.035181254 -0.13814652 0.047340278 0.054562103 -0.038963877
-0.0029952955 -0.003500575 -0.007968764 -0.009797086 0.0012882965 0.009148151 -0.011693505 -0.01706089
0.026525786 -0.02943356 0.058249436 -0.040500283 0.015359258 -0.005807045 0.030395431 0.010099103
-0.015882736 -0.03191469 0.06285048 -0.04168308 0.0030280214 0.027828632 0.031694572 -0.0076896115
-0.07113989 0.0030861811 -0.054033086 -0.0018174205 -0.013104858 -0.024100477 0.026457643 0.013463852
0.0072462675 0.031521413 0.02179501 -0.022343662 0.0370066 -0.021174317 0.026312314 -0.023593249
0.01797365 0.07159181 -0.052088205 -0.012584852 0.006103778 -0.005069819 0.05293285 -0.1506391
0.06690963 0.02173467 -0.072317824 -0.019365206 0.094391584 -0.067232214 -0.018729141 0.0032325564
00000000: 0051 01bb 10d9 d6bb 16e7 97bd 20f0 c9bb
00000010: 4edb f23c b75f 5ebb 1819 2b3c 9560 9f3d
00000020: a909 79bc 899a 933c 2257 973c 0439 3d3d
00000030: b013 3dbd a474 0dbd fc0c 093c ee57 1fbc
00000040: eea5 75bc ca2c 8a3c dbc6 6abc d314 4bbc
00000050: 9c49 ed3c 82a8 3c3c 2975 b9bb a34e 963d
00000060: 6be7 af3b 7f30 93bd 711b cc3c 9b5e be3c
00000070: aeb0 99bd bd56 02be 8eb2 dbbc e7fa 193e
00000080: 2d1d e0bd 46ac c73b 6d11 c73b e8f7 62bc
00000090: 0634 0abe 4c32 183e 316b eb3d c065 d33c
000000a0: f26d 5f3c 480d 87bc 2490 263d 58dd 64bd
000000b0: 5c9f 8ebd f54f ef3c bad1 9bbc 73b9 8e3d
000000c0: 787b 46bc 4998 143d 8232 5ebd d0d2 59bc
000000d0: 1703 ab3d c08b ddbc 4750 1a3c 11b4 ff3c
000000e0: d579 c33c 2459 aabd 85e4 80bd e1fe 973b
000000f0: 0adf 3ebc b448 51bc 7be7 7cbd 7aa0 5c3d
00000100: 0c63 993d 0609 31bd dd9d c03a e07c 24bc
00000110: f98b 9b3c b00e 5a3d 0882 2bbd b81b 15ba
00000120: 0a79 cf3c 5e96 8e3c cce6 013c ee6f 263c
00000130: 63d0 74bc cbc7 a5bd f851 b4bc 9bc6 f33c
00000140: 6fa6 04bb 4ca0 943b a2e1 d63c ba35 8bbd
00000150: 26f6 673c 80fe 293c c039 9d3b 23d0 71bc
00000160: 9934 573b faac 33bd 4f6a 553d c955 003e
00000170: a9ac 0b3c 6e9d 953d 1477 54bd 274e 04bd
00000180: 5941 023c 9a7d c23c ab70 cebd 7dc4 bd3c
00000190: 6b05 01bc 0953 00bd 61d8 95bb 7ac1 f7bc
000001a0: 3108 98bd ed44 e0ba d679 6abd fac6 113a
000001b0: b490 583c 18f6 f33c 4a25 5fbd ee8a 5f3d
000001c0: 74f8 83bc 8050 eb3c f97c 3e3d 39ec 0bbd
000001d0: 00ae 4bbc 0088 133d a149 5a3d 6aa7 5f3d
000001e0: f485 0a3e 71be b5bb 9b19 6bbd 1341 8d3d
000001f0: cd5d 14bd a0f1 a03c ea5f 5dbd 502a c5bc
00000200: f35b 31bd 8508 8ebd 4ae5 3cbc 0ee6 4a3d
00000210: dc11 6bbd 525c 063d 8154 8d3d 481b 5bbc
00000220: 6af3 2fbc de7b 71bc 0dba 19bb 14ba 9c3d
00000230: 672f d13d 745f f1bc 724d 243d 8f2f 283d
00000240: 5b3f 8fbc d6bb e13c 44c6 ed3b 2adf 083b
00000250: c0c0 89bd c676 3ebd 9685 39bd bd21 353d
00000260: c7d2 1f3d 2d12 b43c 8159 783c 0593 9dbd
00000270: 6d7a 143d b8cb 66bd b48b 80bc 68ad 6ebc
00000280: 6e8f b03c 871d 1139 da93 9ebd e7be 0abd
00000290: c31f 953c 51ff 243c 7eb6 cd3b 3112 133d
000002a0: 1c0c 9dbd e128 243a de53 993d 1286 da3c
000002b0: cb65 9439 2be6 3e3d 0859 73bd 82c3 423d
000002c0: 726c ddbc e50a 13bd 7585 353d d337 02bd
000002d0: 17b1 823d e95e 34bd 49e7 533c bcb1 e1bc
000002e0: b8cd 14bd 19a6 8b3d 9f81 b4bd 2799 243c
000002f0: 4e3b 9bba fdea a33d f2da 173d 1113 32bd
00000300: 4c51 2ebd bb17 e73d 78ad 7dbd 381a 103d
00000310: 4876 0dbe e1e7 413d 837c 5f3d 9698 1fbd
00000320: b84c 44bb e769 65bb 6b8f 02bc f583 20bc
00000330: 0fdc a83a 20e2 153c 1d96 3fbc 48c3 8bbc
00000340: 9b4c d93c a61e f1bc f696 6e3d a0e3 25bd
00000350: 66a5 7b3c 0649 bebb d7ff f83c b576 253c
00000360: 831c 82bc fab8 02bd c1b7 803d e1bb 2abd
00000370: c571 463b dff8 e33c 2bd2 013d 23f9 fbbb
00000380: cab1 91bd 8741 4a3b cc51 5dbd 8336 eeba
00000390: c2b5 56bc 5d6e c5bc b3bd d83c 7d97 5c3c
000003a0: 1972 ed3b 991c 013d 738b b23c 0e0a b7bc
000003b0: 3c94 173d c375 adbc ec8c d73c a146 c1bc
000003c0: 7a3d 933c ba9e 923d 715a 55bd b230 4ebc
000003d0: 3302 c83b b920 a6bb 1ed0 583d 2341 1abe
000003e0: eb07 893d e80c b23c 5e1b 94bd c8a3 9ebc
000003f0: 6050 c13d 0bb1 89bd db6d 99bc 4cd9 533b

spacial_block.0.bias f4 [64]
-0.025046648 -0.061319813 0.021865848 -0.03259372 0.0055128844 -0.045344617 0.03828203 -0.054216873
-0.06228306 -0.07029984 0.06453022 0.035692725 -0.052224632 -0.018396204 0.057113625 0.023514662
0.06773129 -0.011226888 -0.0072193635 0.05555365 -0.0022587376 -0.06332366 -0.017518608 0.055332735
0.03092217 -0.015192116 -0.072549656 0.054089032 -0.01608008 -0.015463805 0.067905776 0.03978339
0.023752691 0.0249515 0.001575021 0.00583154 -0.037718948 0.025564447 0.03689208 0.039263353
-0.037814878 0.003820357 -0.00495866 -0.042669654 0.016323041 0.0416267 0.006226305 -0.034281783
0.06031305 -0.03929761 0.028689671 0.001359979 0.025895659 0.028862217 -0.06950182 0.018020025
-8.721383e-05 -0.059948854 0.046716068 0.0070203207 -0.022038504 -0.0036179323 0.05326802 -0.027973011
00000000: a12e cdbc 7c2a 7bbd 0220 b33c fe80 05bd
00000010: 6da5 b43b 47bb 39bd 9ecd 1c3d 8312 5ebd
00000020: 861c 7fbd 5df9 8fbd 6c28 843d 8932 123d
00000030: 7fe9 55bd a3b3 96bc faef 693d d2a1 c03c
00000040: b4b6 8a3d fbf0 37bc 6990 ecbb 398c 633d
00000050: 5407 14bb d6af 81bd 2f83 8fbc 94a4 623d
00000060: 7e50 fd3c 5ae8 78bc ea94 94bd 768c 5d3d
00000070: 5fba 83bc e65b 7dbc 2f12 8b3d e8f3 223d
00000080: 0195 c23c 1767 cc3c ef70 ce3a 8116 bf3b
00000090: 2f7f 1abd 886c d13c 261c 173d 9cd2 203d
000000a0: c6e3 1abd f45e 7a3b 417c a2bb 60c6 2ebd
000000b0: e6b7 853c c280 2a3d 0806 cc3b 0e6b 0cbd
000000c0: d10a 773d 88f6 20bd 9a06 eb3c 5341 b23a
000000d0: 2223 d43c 7570 ec3c f856 8ebd bb9e 933c
000000e0: 92e6 b6b8 ee8c 75bd 5959 3f3d b80a e63b
000000f0: 188a b4bc d51a 6dbb 912f 5a3d a827 e5bc

spacial_block.1.weight f4 [64]
1.0357236 1.0637413 1.0515134 1.1135551 1.0599273 1.0542232 1.0572379 1.0069922
1.0432163 0.99947476 1.0459191 1.0508645 1.1932949 1.1770657 1.040536 1.0246592
1.0453659 1.0316179 1.0410414 1.0426723 1.039658 1.0028036 1.0203784 1.0512514
1.0275373 1.0142343 1.1153783 1.0445135 1.0195642 1.0358108 1.0421268 1.0403296
1.066087 1.054167 1.07384 1.0484529 1.0570968 1.073617 1.1293643 1.0280312
1.1496941 1.2032033 1.0885153 1.0604606 1.1402345 1.0223353 1.0489398 1.1496199
1.0713794 1.0185795 1.0128748 1.0483406 1.1630138 1.1239529 1.0649751 1.1051464
1.0119966 1.1136245 1.0480931 1.034839 1.0206943 1.0321635 1.0621804 1.0394983
00000000: 9792 843f ad28 883f fe97 863f f988 8e3f
00000010: b3ab 873f c9f0 863f 9253 873f 1fe5 803f
00000020: 1d88 853f 94dd 7f3f ade0 853f ba82 863f
00000030: e3bd 983f 17aa 963f 4930 853f 0828 833f
00000040: 8dce 853f 0e0c 843f d840 853f 4976 853f
00000050: 8313 853f de5b 803f c29b 823f 688f 863f
00000060: 5886 833f 6ed2 813f b7c4 8e3f 9eb2 853f
00000070: 1481 823f 7395 843f 6964 853f 8529 853f
00000080: 8a75 883f f2ee 863f 9773 893f b433 863f
00000090: f34e 873f 486c 893f 028f 903f 8796 833f
000000a0: 2d29 933f 9102 9a3f 7854 8b3f 2cbd 873f
000000b0: 34f3 913f e2db 823f a943 863f bf26 933f
000000c0: f622 893f d060 823f e2a5 813f 0630 863f
000000d0: a3dd 943f b0dd 8f3f 1b51 883f 7075 8d3f
000000e0: 1b89 813f 3f8b 8e3f ea27 863f 9b75 843f
000000f0: 1ca6 823f ef1d 843f 87f5 873f 480e 853f

spacial_block.1.bias f4 [64]
-0.106291026 -0.12963863 -0.07901607 -0.0407632 -0.08581245 -0.090043776 -0.12714553 -0.03590737
-0.040629018 -0.00999173 -0.040119626 -0.087808385 -0.18081129 -0.20900661 -0.11530222 -0.06210469
-0.061626818 -0.073992215 -0.11774114 -0.036939077 -0.06906454 -0.020659344 -0.06738981 -0.017566545
-0.05489209 -0.06252814 -0.08366828 -0.08355057 -0.054795984 -0.044204466 -0.08583232 -0.10183423
-0.10785046 -0.057344086 -0.1208896 -0.038755547 -0.1446939 -0.08828295 -0.12037774 -0.08169726
-0.17267631 -0.17994286 -0.13229479 0.03195265 -0.17624995 -0.059162542 -0.08460085 -0.13851444
-0.08407197 -0.0515179 -0.023253411 -0.09683003 -0.1395006 -0.13999401 -0.13171157 -0.13967904
-0.050688304 -0.09737132 -0.054078642 -0.06535126 -0.06938463 -0.06700487 -0.087498784 -0.09594417
00000000: 1caf d9bd fdbf 04be 2dd3 a1bd 50f7 26bd
00000010: 70be afbd df68 b8bd 7032 02be 9b13 13bd
00000020: 9d6a 26bd 5ab4 23bc 7a54 24bd e2d4 b3bd
00000030: 9826 39be d405 56be 9223 ecbd 7d61 7ebd
00000040: 676c 7cbd 3b89 97bd 4422 f1bd 6e4d 17bd
00000050: b671 8dbd c93d a9bc ab03 8abd b7e7 8fbc
00000060: 87d6 60bd c10e 80bd 465a abbd 901c abbd
00000070: c171 60bd be0f 35bd dbc8 afbd 778e d0bd
00000080: b4e0 dcbd a2e1 6abd f794 f7bd 23be 1ebd
00000090: a32a 14be b1cd b4bd 9b88 f6bd e550 a7bd
000000a0: 0fd2 30be f142 38be 4978 07be c8e0 023d
000000b0: de7a 34be 6c54 72bd 3643 adbd bbd6 0dbe
000000c0: ed2d acbd 6f04 53bd f07d bebc d34e c6bd
000000d0: 3fd9 0ebe 975a 0fbe 66df 06be 0608 0fbe
000000e0: 8a9e 4fbd 9d6a c7bd 9181 5dbd e2d6 85bd
000000f0: 8719 8ebd d939 89bd 9032 b3bd 617e c4bd

spacial_block.1.running_mean f4 [64]
-0.19769442 -0.3302949 -0.23580894 -0.18099287 0.16933781 -0.24984217 -0.44517645 0.19039696
-0.4699767 0.07701024 -0.72844607 -0.51029557 -0.036702897 0.24804616 -1.0097365 -0.22916527
0.67279553 0.17376196 0.42332327 -0.6014502 0.09683726 -0.48158538 -0.35273114 0.124809995
0.54928637 0.016171074 0.34903002 0.7887409 0.40508774 0.45643422 0.45513815 0.3993864
0.6363189 0.88072354 0.7495111 -0.8458129 -0.46698546 0.010301137 -0.4900081 -0.26239294
-0.6215625 0.4279417 0.10631941 -0.059388325 0.5570739 -0.028501676 0.037587136 0.614441
0.4490345 0.9499525 -0.012128415 0.2846403 -0.08866789 0.29240957 0.13566805 0.34258866
-0.31043923 -0.5618937 0.35071823 0.25714353 -0.5341636 -0.18792945 -0.3982369 -0.68627846
00000000: 6870 4abe 6a1c a9be e677 71be 3256 39be
00000010: e466 2d3e a0d6 7fbe 2bee e3be 6cf7 423e
00000020: c9a0 f0be 8bb7 9d3d 717b 3abf bba2 02bf
00000030: c755 16bd d0ff 7d3e 0c3f 81bf 4daa 6abe
00000040: 543c 2c3f a8ee 313e d4bd d83e a4f8 19bf
00000050: 9d52 c63d 5c92 f6be 2d99 b4be 629c ff3d
00000060: 089e 0c3f 3379 843c 10b4 b23e ecea 493f
00000070: a967 cf3e bfb1 e93e de07 e93e 607c cc3e
00000080: cce5 223f 1977 613f f6df 3f3f 3287 58bf
00000090: b818 efbe 1ac6 283c 57e2 fabe 5e58 86be
000000a0: b81e 1fbf 2d1b db3e febd d93d 2c41 73bd
000000b0: 659c 0e3f 597c e9bc f8f4 193d 014c 1d3f
000000c0: dae7 e53e 1630 733f 42b6 46bc 60bc 913e
000000d0: 8397 b5bd b5b6 953e 91ec 0a3e c867 af3e
000000e0: e4f1 9ebe 44d8 0fbf 5791 b33e 51a8 833e
000000f0: f2be 08bf 9470 40be b5e5 cbbe f2af 2fbf

spacial_block.1.running_var f4 [64]
2.4556894 0.8058066 3.905351 1.163079 1.1490808 2.1815655 1.5319242 2.1967752
1.9885789 4.6746945 2.0469713 1.7273384 1.3980312 1.177736 2.0735273 2.7987185
2.084605 1.5044658 1.9113266 2.1702833 1.6126502 1.91373 2.2398398 1.3103932
2.16533 1.9432781 1.3213325 2.3949804 3.6085246 1.4636947 1.4264765 1.8201233
1.1160446 2.245689 1.6146004 1.9874339 2.9510415 1.5810596 1.5289625 1.4171094
1.6692144 1.4439964 1.1870531 1.367908 1.2784488 1.6292416 1.1510907 1.2462832
1.412599 2.1146474 1.1705401 1.0796313 1.7755377 1.8053584 1.2802242 0.88054633
2.3862548 1.5422876 1.408767 1.2582048 1.3638452 1.6259805 1.6236508 1.9480143
00000000: 042a 1d40 5749 4e3f 45f1 7940 c6df 943f
00000010: 1415 933f c59e 0b40 1816 c43f f797 0c40
00000020: c189 fe3f 1997 9540 9401 0340 6d19 dd3f
00000030: b0f2 b23f 0ec0 963f acb4 0440 341e 3340
00000040: 2b6a 0540 5692 c03f 5aa6 f43f ece5 0a40
00000050: 526b ce3f 1bf5 f43f 8959 0f40 f7ba a73f
00000060: c494 0a40 56bd f83f 6c21 a93f 5c47 1940
00000070: 11f2 6640 595a bb3f c896 b63f cdf9 e83f
00000080: 8dda 8e3f 5eb9 0f40 3aab ce3f 3c64 fe3f
00000090: dddd 3c40 2960 ca3f 0bb5 c33f d763 b53f
000000a0: d1a8 d53f e0d4 b83f 5bf1 973f 9c17 af3f
000000b0: 36a4 a33f fd8a d03f f156 933f 3586 9f3f
000000c0: 0bd0 b43f 6256 0740 42d4 953f 5c31 8a3f
000000d0: d244 e33f fc15 e73f 63de a33f 7c6b 613f
000000e0: 66b8 1840 ae69 c53f 7a52 b43f db0c a13f
000000f0: 7b92 ae3f 2120 d03f cad3 cf3f 8858 f93f

conv.weight f4 [8, 1, 4]
-0.37924138 -0.33196336 -0.26415107 0.3727409 -0.17712936 0.29783976 -0.49533918 0.18035373
0.517342 -0.24252193 0.5099654 -0.077548236 -0.5524842 -0.42740017 0.47088426 0.07247648
0.61677235 -0.6108892 -0.41704145 0.12401191 0.5987795 -0.58036417 -0.027182823 -0.57861364
-0.3944516 0.35884488 -0.22995926 -0.13407212 -0.22516447 -0.56072605 -0.5133927 0.3648115
00000000: ed2b c2be 1af7 a9be cf3e 87be e5d7 be3e
00000010: 6661 35be 747e 983e 199d fdbe a6ae 383e
00000020: 8670 043f ab57 78be 188d 023f 9cd1 9ebd
00000030: 9b6f 0dbf 32d4 dabe be17 f13e 8c6e 943d
00000040: cbe4 1d3f 3c63 1cbf 7586 d5be f5f9 fd3d
00000050: 9d49 193f bf92 14bf 83ae debc 0620 14bf
00000060: 8ff5 c9be 84ba b73e 717a 6bbe 344a 09be
00000070: 8491 66be be8b 0fbf b46d 03bf 93c8 ba3e

classify.weight f4 [2, 64]
0.18022126 -0.12259625 0.22647801 -0.20263302 -0.15050639 -0.21443789 0.24224508 -0.020949252
-0.09844784 -0.02488152 -0.23518686 0.22866318 0.20186089 0.12013917 0.14034835 0.14441416
-0.11017754 0.23821568 0.1587918 -0.066761665 0.20751512 -0.11468341 0.18528251 -0.16075443
-0.18489446 -0.13338082 -0.16326174 0.2310612 0.08605768 -0.17901507 -0.1921928 -0.17309655
-0.23745225 -0.06552817 -0.12202168 -0.22348183 0.1522429 -0.13022941 0.10659888 -0.21290505
0.20577827 0.10747183 0.13569264 -0.102276385 -0.0951482 0.18662773 0.101784475 -0.10724653
0.108070776 -0.19098751 -0.049825933 -0.15895447 0.23416178 0.25015628 -0.0789171 -0.16141045
-0.12003144 0.22545789 -0.12950945 0.17819001 -0.18672109 0.07913764 0.15923263 0.22416277
-0.110980295 0.11466724 -0.16023694 0.05108231 0.23741497 0.0524293 -0.17123495 0.13590886
0.20499638 -0.08111942 0.076704465 -0.20975327 -0.08479332 -0.16709833 -0.18479839 -0.21415307
0.013674204 -0.07599054 -0.2455095 0.13242191 -0.22400884 0.15039335 -0.19822851 0.22181325
0.06611352 0.16930392 0.10437873 -0.1788923 -0.09163609 0.1446526 0.1657111 0.22198883
0.11760327 0.10693501 0.20650631 0.05549196 -0.16895138 0.16097014 -0.15788351 0.14283137
-0.08263877 -0.14487784 -0.1488671 0.22497103 0.17548126 -0.24629772 -0.2372631 0.053038713
-0.18960321 0.18677646 0.16951038 0.19006017 -0.03565402 -0.036711276 0.21299215 0.12397099
0.19418035 -0.08934173 0.16874267 -0.17982809 0.15242189 -0.20653142 -0.09967976 -0.20555456
00000000: ec8b 383e be13 fbbd dae9 673e 087f 4fbe
00000010: 591e 1abe 9b95 5bbe 180f 783e c49d abbc
00000020: 059f c9bd 54d4 cbbc d3d4 70be ae26 6a3e
00000030: 9fb4 4e3e 860b f63d 7ab7 0f3e 4ee1 133e
00000040: c3a4 e1bd d0ee 733e 519a 223e 57ba 88bd
00000050: d87e 543e 23df eabd b3ba 3d3e cf9c 24be
00000060: f954 3dbe fb94 08be 162e 27be 4f9b 6c3e
00000070: 023f b03d ba4f 37be 30ce 44be 3940 31be
00000080: af26 73be a233 86bd 81e6 f9bd 6cd8 64be
00000090: 90e5 1b3e dc5a 05be 8350 da3d c803 5abe
000000a0: 8ab7 523e 311a dc3d 03f3 0a3e 4876 d1bd
000000b0: 0fdd c2bd 571b 3f3e 6174 d03d 12a4 dbbd
000000c0: 3654 dd3d 3b92 43be 4716 4cbd f6c4 22be
000000d0: 1bc8 6f3e 7c14 803e 4a9f a1bd c848 25be
000000e0: 0bd3 f5bd 6fde 663e 209e 04be 7177 363e
000000f0: d033 3fbe ea12 a23d e10d 233e ed8a 653e
00000100: a349 e3bd a8d6 ea3d 2715 24be af3b 513d
00000110: e91c 733e 1bc0 563d 3758 2fbe b12b 0b3e
00000120: 92ea 513e f021 a6bd 3b17 9d3d 90c9 56be
00000130: 1fa8 adbd d31b 2bbe ca3b 3dbe f14a 5bbe
00000140: c509 603c eea0 9bbd d866 7bbe 9c99 073e
00000150: 9362 65be b700 1a3e 6afc 4abe 0323 633e
00000160: 8666 873d 025e 2d3e 84c4 d53d 8b2f 37be
00000170: b4ab bbbd d01f 143e 2cb0 293e 0a51 633e
00000180: fcd9 f03d be00 db3d 6476 533e 8a4b 633d
00000190: 9701 2dbe 5bd5 243e 37ac 21be 6342 123e
000001a0: 843e a9bd db5a 14be 9e70 18be ce5e 663e
000001b0: 5cb1 333e 7835 7cbe 19f5 72be 1f3f 593d
000001c0: 5827 42be 5442 3f3e 2194 2d3e 229f 423e
000001d0: f309 12bd 905e 16bd 9d1a 5a3e 81e4 fd3d
000001e0: 37d7 463e ccf8 b6bd e1ca 2c3e db24 38be
000001f0: 7c14 1c3e f97c 53be e724 ccbd e57c 52be

classify.bias f4 [2]
0.014061122 0.01039595
00000000: 9f60 663c c653 2a3c
