BCI/output/openBMI/LightConvNet/sub21/2023-10-05--17-38/model.pth (torch, 51356 bytes, 9 tensors)

spacial_block.0.weight f4 [64, 9, 20, 1]
000000 9f 0a 1c 3c fe 04 75 3d 03 cc 2b bd 23 bf 08 bd
       0.009524017 0.059819214 -0.041942608 -0.033385407
000010 74 48 b1 bb 1f e8 4d 3d 58 72 cb bb 3a 5e 49 3d
       -0.0054102484 0.050270196 -0.006208699 0.049162127
000020 17 3e cb bb 2a 02 ce 3c 35 d3 86 bc cb 47 f7 3b
       -0.00620247 0.025147516 -0.016458133 0.0075464
000030 23 5e 2e bd d6 7a 51 bd 4c 5c 66 bd 61 cf 8d bb
       -0.042570245 -0.051142536 -0.056240365 -0.0043277
000040 25 f7 0b 3d e5 50 62 3d 13 cc 49 bd c3 7b 80 ba
       0.034171242 0.05525293 -0.049266886 -0.0009802509
000050 11 ca 89 bd 62 f7 78 3c dc 81 47 bd 19 31 0e bc
       -0.06727994 0.015195699 -0.048707828 -0.008678698
000060 3f cc b1 bd 50 a1 4f bd 35 f0 8f 3d 4b 9b cc bc
       -0.08681535 -0.05069095 0.07028238 -0.024976393
000070 77 e9 2c bc 71 d8 80 bd b9 c8 99 bd d9 d2 94 3d
       -0.010553709 -0.06291283 -0.07508988 0.072667785
000080 94 c7 31 bd c0 7f 23 3d d8 33 cf 3c 74 0e a1 bc
       -0.043403223 0.039916754 0.025293276 -0.019660212
000090 5e 48 bd bc 37 81 59 3d ab 7c a4 3d b0 de 92 3d
       -0.023105796 0.053101745 0.08031591 0.071713805
0000a0 23 f6 6a 3d 65 65 6c bc 27 85 c8 3d 65 4d dd bd
       0.05736364 -0.014428471 0.09791022 -0.108057775
0000b0 e9 ba 5a bd 69 a4 16 3b fc 83 54 3d 11 7e 41 3d
       -0.053400908 0.002298618 0.051883683 0.047239367
0000c0 a1 c1 37 bc b6 50 b6 3c d8 3e 80 bc da d4 0f bc
       -0.011215598 0.022255283 -0.015654966 -0.008778775
0000d0 ae de 9c bc e2 b1 7b 3a ac a0 4a 3d 74 66 13 bd
       -0.01914915 0.0009601397 0.049469635 -0.03598638
0000e0 c9 08 5d 3c 23 c3 da bd 85 9e dc bd 1a e1 70 bd
       0.013490864 -0.106817506 -0.10772423 -0.058808424
0000f0 72 e7 02 3d 83 7e 9e bb ef 91 26 bd 77 02 43 3d
       0.031959005 -0.0048368587 -0.040666517 0.047609773
000100 5b f9 b2 3d 0f 1a ef bc 91 b4 db bc 75 b9 06 bd
       0.08738967 -0.02918723 -0.0268195 -0.03289171
000110 4c 28 96 3b 32 21 45 3d 78 60 11 bd 92 44 89 bc
       0.0045824405 0.04812736 -0.03549239 -0.01675633
000120 fe 22 43 3d 13 27 14 3d 1c c5 d2 3c d6 cb d5 3c
       0.047640793 0.036170077 0.025728755 0.026098173
000130 37 c5 4b bc f6 28 fb bd 6d bd a2 bc cb 31 41 bd
       -0.012437156 -0.12263672 -0.019865716 -0.047166627
000140 68 5f 76 bd 13 1d 3a 3d bb 00 55 3d 3d 22 88 bd
       -0.06014958 0.045437884 0.05200265 -0.066471554
000150 cc 8e 06 3d 07 c6 4f bd 43 53 5a bc 7b 52 12 bd
       0.032851025 -0.050725963 -0.013325515 -0.03572319
000160 1a f0 e8 3c d7 b0 33 bd 2e e1 26 3d e7 a0 62 3d
       0.028434802 -0.04386982 0.04074209 0.05532923
000170 27 a1 a7 3d eb f5 5b 3d a1 69 47 bd 91 ee 1c bd
       0.08185034 0.053701323 -0.04868472 -0.038313452
000180 64 1e 55 3d f2 66 2d bd b0 d6 24 bd 2e 5d 01 bd
       0.052030936 -0.042334504 -0.040243804 -0.031583004
000190 4b 39 12 3d a0 c3 f5 3c 41 a4 09 bc b4 3a 0d 3d
       0.03569917 0.030000508 -0.008400978 0.03447981
0001a0 8e be 84 3b ba 27 79 3a 89 fc b7 bd f5 5b 98 bd
       0.004051036 0.0009504516 -0.08983714 -0.074394144
0001b0 1e 59 d3 3b d8 ee 76 3c 31 49 78 3b d8 3a 5e 3d
       0.0064498326 0.015071593 0.0037885422 0.054255337
0001c0 d5 fc cb 3a 61 55 da 3c e1 a5 a3 3c e0 2f c1 bd
       0.0015563021 0.02665204 0.019976558 -0.094329596
0001d0 07 0b 93 bc 89 b6 7d bd 4d 5d 15 3c 80 f4 98 3c
       -0.017949594 -0.061941657 0.009116483 0.018671274
0001e0 a3 2c bf 3b 80 51 80 bb 68 1d d4 bc 64 7b 35 3d
       0.0058341785 -0.0039159656 -0.025892928 0.044307128
0001f0 e4 bc 56 bd a1 62 94 bc 2f 0c 81 bc d9 d5 c8 bc
       -0.052426234 -0.018113436 -0.01575288 -0.024516033
000200 45 c8 a5 bc 81 e3 64 bd a9 20 04 bc b4 40 53 3c
       -0.020237098 -0.055881027 -0.008064427 0.012893844
000210 21 ad 83 bb ef 45 20 3d db 45 82 3d e8 e9 6d bc
       -0.0040184413 0.039129194 0.0636098 -0.0145211
000220 f9 df 48 3c 84 97 95 bd 38 73 76 3c ff 02 68 3d
       0.0122604305 -0.0730429 0.015042119 0.056643482
000230 42 84 94 3c 39 b2 7d 3b 9d 45 8b 3d 33 44 50 3c
       0.018129472 0.0038710965 0.06800387 0.012711572
000240 c6 22 90 bc f6 12 c4 ba d8 b2 e2 3c 08 d0 6a bb
       -0.017594706 -0.0014959264 0.02767317 -0.0035829563
000250 55 a2 0a bd a4 ee 97 bd 79 a9 5a bd 45 20 1f bd
       -0.03384622 -0.07418564 -0.053384278 -0.038849134
000260 3f 34 a6 3d 06 d6 e6 3c 9f 77 21 3d 6d ea 9f bd
       0.08115434 0.028178226 0.03942072 -0.07808385
000270 44 cf 56 3d ab 66 dd bd c9 34 23 3c c3 6d e0 3c
       0.052443758 -0.10810598 0.009961315 0.027396088
000280 90 ee 0f bc 07 47 60 bc a6 ce 53 bd 7e 36 69 bd
       -0.008784905 -0.013688809 -0.051710747 -0.056936733
000290 f7 4d 86 3c 82 68 dd 3b 45 fe 2e bc 47 9a 65 3d
       0.016394598 0.006756843 -0.01068074 0.056055333
0002a0 73 39 50 bd 76 25 2e b8 67 87 96 3d 07 7d 00 bd
       -0.050836038 -4.151972e-05 0.07350045 -0.031369235
0002b0 1a 79 d2 3d ee 1c 60 3d de 17 5c bd b1 47 49 3d
       0.102770045 0.05471509 -0.0537337 0.049140636
0002c0 8d 8d ab 3b 91 35 c8 bd f9 ad 4d 3d df f7 4d bd
       0.00523538 -0.09775842 0.05021474 -0.050285216
0002d0 72 2f 81 bc 65 94 26 bb 7f 48 cd 3b 83 94 1f bd
       -0.015769694 -0.002541804 0.0062647457 -0.03895999
0002e0 d0 d1 f8 bc 26 72 6d 3d b5 f3 e9 bb 1b 9d 94 3c
       -0.030373484 0.05797019 -0.007139648 0.01814132
0002f0 b0 10 b7 3c 05 dd 0f 3d f3 92 e3 3c 72 66 1a 3d
       0.022346824 0.03512289 0.027780032 0.037695356
000300 5b cb b2 bd 93 32 84 3c 01 a2 ec 3c 04 0d a2 bd
       -0.08730193 0.016137397 0.028885843 -0.07912639
000310 ae 35 44 bd 77 d3 20 3d ea 33 99 bc cb 21 0b 3d
       -0.047902755 0.03926417 -0.018701512 0.033967774
000320 b3 3f 8d bc 52 b5 48 3d ee 2a 94 bd 4c b0 1c bc
       -0.017242288 0.049001046 -0.07234751 -0.009563517
000330 a4 a3 e3 bc c3 a5 ed 3c b3 fa c4 bc be 75 7b 3d
       -0.02778799 0.029009705 -0.024045324 0.061391585
000340 ca 39 b5 bc 86 69 17 3b b5 e4 9e 3d 23 f6 03 bd
       -0.022122283 0.0023103668 0.07758466 -0.032217156
000350 cf 1c 4b 3a 17 15 df bc 6e a3 ff 3c cc 8a b4 bc
       0.0007748128 -0.027231736 0.031205859 -0.02203884
000360 44 72 d2 bc d0 76 d1 3c 40 67 72 3c fd 5f 0c bd
       -0.025689252 0.02556935 0.0147951245 -0.03427123
000370 d7 5a 87 bd ee 18 0b bd 34 f2 30 3c 46 fa 39 3d
       -0.06609123 -0.03395932 0.010799933 0.045404695
000380 1f f5 23 bd f5 51 24 3c d9 3b ca bd 15 e5 8c 3b
       -0.040028688 0.010029306 -0.09874696 0.0042997696
000390 13 2d c8 3d 8b 65 ae 3c 67 32 48 bd f4 72 77 3d
       0.09774222 0.021288654 -0.048876192 0.060412362
0003a0 8c dc 09 3c b7 64 f9 3c cc 65 a0 3d 4d d6 2a 3c
       0.008414399 0.030443532 0.07831916 0.01042707
0003b0 98 47 d8 3b b2 ad a6 bd cb 9a 5c bd b8 15 d9 3c
       0.0066003315 -0.081385985 -0.05385856 0.026499614
0003c0 d3 4c 39 bd e1 39 c9 3d 77 58 20 bd 34 4e b9 3b
       -0.04523928 0.09825493 -0.039146867 0.0056550745
0003d0 c1 09 39 3b 77 6f 80 ba 43 45 45 3d 50 fe bc bd
       0.0028234574 -0.0009798844 0.048161756 -0.09228194
0003e0 c5 aa 37 bd 7d ac 4a 3c 6d 57 c8 bc 5a e9 f5 3b
       -0.044840593 0.012370226 -0.02445575 0.0075046243
0003f0 5f 3c c4 3c 21 84 82 3c bc ad cd 3c 07 81 0d bc
       0.023954568 0.015932145 0.025107257 -0.00863672

spacial_block.0.bias f4 [64]
000000 c0 f6 cc bc f4 47 7d bd cf 6d b4 3c 1c d2 03 bd
       -0.025020003 -0.061836198 0.022025017 -0.032182798
000010 3c b2 87 3b 05 49 3a bd 4f d8 20 3d 14 3f 5f bd
       0.0041411202 -0.045479793 0.039268788 -0.054503515
000020 2d cf 7c bd 7b 2a 90 bd 5e b1 85 3d 77 eb 0e 3d
       -0.061721016 -0.070393525 0.06527971 0.034892526
000030 52 26 56 bd a3 5d 94 bc 88 84 69 3d aa cf bb 3c
       -0.05228264 -0.018111056 0.057011157 0.02292617
000040 04 b6 8a 3d b2 cb 35 bc d1 b3 eb bb 53 dc 63 3d
       0.06772998 -0.011095928 -0.0071930666 0.05563004
000050 f6 bf 40 bb c1 9d 81 bd 4a a1 89 bc 55 4a 64 3d
       -0.0029411293 -0.06328917 -0.016800541 0.05573495
000060 56 1c fb 3c 88 27 72 bc f0 57 95 bd 27 a0 60 3d
       0.03065316 -0.014779933 -0.07292163 0.054840233
000070 db f8 84 bc 04 64 88 bc fe d7 89 3d 7f cb 28 3d
       -0.016231945 -0.016649254 0.0673065 0.041209694
000080 45 28 be 3c f2 0a ce 3c 70 43 d5 3a 8d fb ba 3b
       0.023212561 0.025151704 0.0016270708 0.0057062567
000090 44 95 1e bd db 86 d8 3c c8 69 16 3d c4 84 25 3d
       -0.03871657 0.026431492 0.036721975 0.04040982
0000a0 9d 8c 19 bd 6e c6 88 3b bb 6a 91 bb 68 ee 30 bd
       -0.037487615 0.0041740453 -0.004437772 -0.043196112
0000b0 cb a2 84 3c 47 0d 2a 3d 3a a6 dd 3b 6f 83 0b bd
       0.016190907 0.04151657 0.0067642005 -0.03406089
0000c0 9c 4f 74 3d fa 04 1d bd be 16 eb 3c e9 8a 79 3a
       0.059646234 -0.038334824 0.028697368 0.00095192954
0000d0 45 31 d4 3c 9f c8 eb 3c a3 35 8e bd e9 04 95 3c
       0.0259024 0.028782187 -0.06943824 0.018190818
0000e0 eb ec 81 39 41 94 75 bd f8 46 40 3d 4b 64 e9 3b
       0.00024781315 -0.05995584 0.04694268 0.0071225516
0000f0 cf 88 b3 bc 75 dd 80 bb 70 49 56 3d 5f 07 e4 bc
       -0.021915821 -0.0039326497 0.05231613 -0.027835546

spacial_block.1.weight f4 [64]
000000 70 4b 80 3f ab de 84 3f c3 0d 81 3f 66 e1 82 3f
       1.0023022 1.0380453 1.0082325 1.0225036
000010 1c 62 81 3f dd 7f 81 3f b2 94 82 3f 72 63 81 3f
       1.0108066 1.0117146 1.0201628 1.0108473
000020 04 d7 80 3f d0 e9 88 3f 04 42 82 3f e9 62 82 3f
       1.0065618 1.0696354 1.0176396 1.0186435
000030 c1 1e 88 3f a0 9a 8d 3f db 37 85 3f af 09 80 3f
       1.0634385 1.1062813 1.0407671 1.0002955
000040 33 74 8c 3f de 2e 83 3f 16 83 81 3f 40 b3 81 3f
       1.0972961 1.0248678 1.0118129 1.0132828
000050 84 43 80 3f ec ac 80 3f 0a 3b 80 3f 63 96 81 3f
       1.0020604 1.0052772 1.0018017 1.0124019
000060 93 57 82 3f b5 2e 81 3f c6 bb 86 3f 9a 07 81 3f
       1.0182976 1.0092379 1.0526054 1.0080445
000070 d6 3a 82 3f d0 16 83 3f 56 05 82 3f 62 dd 81 3f
       1.0174205 1.0241337 1.0157878 1.0145686
000080 d9 f6 80 3f 13 e0 82 3f 40 1c 83 3f 3f 05 81 3f
       1.0075332 1.0224632 1.0242996 1.0079726
000090 2f b3 82 3f 88 6c 82 3f fa 7b 83 3f 7d 8c 80 3f
       1.0210932 1.0189371 1.027221 1.0042874
0000a0 79 42 8d 3f 37 90 88 3f bf 01 80 3f 97 0c 82 3f
       1.1035911 1.0669011 1.0000533 1.0160092
0000b0 bd ad 85 3f 40 32 81 3f a7 df 80 3f a3 35 86 3f
       1.0443646 1.009346 1.0068253 1.0485119
0000c0 06 b6 80 3f a5 bc 81 3f df 41 81 3f 6a 2e 83 3f
       1.0055549 1.0135695 1.0098227 1.024854
0000d0 78 53 8e 3f 3a 01 85 3f c3 80 81 3f 83 95 84 3f
       1.1119223 1.0390999 1.011742 1.0358127
0000e0 fe a7 80 3f 3f d3 81 3f 78 02 81 3f 01 2d 82 3f
       1.0051267 1.0142592 1.0078878 1.0169984
0000f0 69 fe 80 3f f6 23 81 3f c9 1c 81 3f b1 ea 82 3f
       1.007764 1.00891 1.008691 1.0227872

spacial_block.1.bias f4 [64]
000000 cf 58 74 bd f7 0c c2 bd 4c f6 83 bd ac 98 c3 bd
       -0.059655007 -0.09475129 -0.06443462 -0.09550604
000010 bc 96 3a bd c6 8f 9d bd ef f5 8c bd 04 66 6c bd
       -0.045553908 -0.07693438 -0.068828456 -0.057714477
000020 16 d0 ff bc dc 6e 25 be 6e 90 ce bd a6 af 9d bd
       -0.031227153 -0.16155571 -0.100861415 -0.07699518
000030 0a 94 bf bd 39 29 1b be f7 3c ec bd c0 0c 43 bd
       -0.09354408 -0.15152444 -0.115350656 -0.04761958
000040 42 c7 fc bd a7 b6 87 bd a4 95 42 bd 9d b3 8b bd
       -0.12342693 -0.06626635 -0.04750599 -0.06821368
000050 6c 8e 44 bd f0 51 26 bd fe be 3f bd 03 f1 1b bd
       -0.047987387 -0.040605485 -0.046813004 -0.038071644
000060 56 98 92 bd 7f c2 7e bd 48 52 95 bd 73 c5 2b bd
       -0.07157962 -0.062197205 -0.072910845 -0.04193635
000070 10 ae 91 bd 22 4c 53 bd cd 98 47 bd ba 56 32 bd
       -0.07113278 -0.051586278 -0.048729707 -0.04353974
000080 da 4d 76 bc d4 09 b7 bd 10 80 5e bd 01 8c 8d bd
       -0.01503321 -0.089374214 -0.05432135 -0.06911469
000090 e1 50 c4 bd 9b e9 5b bd d3 a2 03 be 84 b1 13 bd
       -0.09585739 -0.05368958 -0.12855081 -0.036057964
0000a0 51 f5 2a be c6 be 32 be 0f c4 0f bd 28 2f 9e bd
       -0.16695143 -0.17455587 -0.035099085 -0.07723838
0000b0 e4 78 9d bd 32 72 4b bd 9a 7c ac bd e7 9f c1 bd
       -0.07689074 -0.049669452 -0.08422203 -0.09454327
0000c0 d7 c1 92 bd c6 1b 66 bd ba 11 2f bd 15 e3 82 bd
       -0.07165878 -0.05617883 -0.042741515 -0.06390969
0000d0 96 41 e8 bd 87 06 fe bd fc d4 31 bd 1f ca 6b bd
       -0.113406345 -0.12403589 -0.04341601 -0.057565805
0000e0 f9 50 ab bc 10 09 9e bd bf 25 15 bd 88 29 65 bd
       -0.020912634 -0.07716572 -0.03641295 -0.05594781
0000f0 6b 43 46 bd 2d ae 7e bd f6 c5 61 bd 8f dd b8 bd
       -0.04840414 -0.062177826 -0.05512043 -0.09026634

spacial_block.1.running_mean f4 [64]
000000 d4 92 a0 be 26 8c c5 bf c4 d0 79 be 2a 64 80 bf
       -0.3136202 -1.5433395 -0.24396044 -1.0030568
000010 7c f8 30 3e 48 80 ee 3e 49 eb 47 3e 42 14 ef be
       0.1728229 0.46582246 0.19523348 -0.46695143
000020 be a6 2f 3e ef 14 8e be 14 d8 ad be d5 57 d2 be
       0.17153451 -0.27750346 -0.33953917 -0.41082636
000030 6c 4e d2 3e e0 bf de 3e 82 1b 24 bf 8b 1c 4d 3b
       0.41075456 0.43505764 -0.64104474 0.003129753
000040 90 77 8d 3f cb 99 13 be 46 ea 80 3f 43 98 4c bf
       1.1052113 -0.14414136 1.0071495 -0.7991983
000050 a8 da f5 3e b0 6c f7 bd d4 01 05 bf 83 70 19 bf
       0.48018384 -0.12081277 -0.51955914 -0.59937304
000060 3d 4d 85 be 9e bd 4d 3f 35 83 7a be 2f bf b1 3e
       -0.2603549 0.8036746 -0.24464114 0.34716174
000070 5f ae c1 3e 37 18 81 bf 43 f4 6c 3e 37 cc 48 bf
       0.37828347 -1.0085515 0.23140053 -0.7843661
000080 80 79 18 bd 5d 28 2a 3f c0 f8 07 3f 62 f7 80 be
       -0.037225246 0.6646784 0.5311394 -0.25188738
000090 0e df 11 3e 72 28 c3 3e 99 b7 16 bc 4e 90 f3 3d
       0.14245245 0.38116795 -0.0091990465 0.11892758
0000a0 a6 a4 4d bf ef 8e 6f be 5a 86 ea bc a6 67 78 be
       -0.8032936 -0.23394369 -0.028628517 -0.24258289
0000b0 24 9a 02 3e 12 2a dc 3e c3 37 36 3e b5 00 c7 3e
       0.12754112 0.43000847 0.17794709 0.38867727
0000c0 17 c9 10 3e 40 83 05 3f 64 c8 73 bf 4d bc 49 be
       0.1413921 0.52153397 -0.95227647 -0.19700737
0000d0 e0 24 71 3f 95 ba b0 be 98 19 49 be 17 17 68 bf
       0.9419689 -0.3451735 -0.1963867 -0.9066023
0000e0 26 04 f4 be 32 40 9c 3e 04 06 23 3e 2a c8 09 3f
       -0.47659415 0.30517727 0.15920264 0.5382105
0000f0 98 48 58 bf f1 f0 ec bc 9c 37 87 3e af 33 0c bf
       -0.8448577 -0.028923484 0.26409614 -0.5476636

spacial_block.1.running_var f4 [64]
000000 9f 8a 55 40 20 c3 37 3f ff 5a 46 3f d0 f1 32 3f
       3.3365858 0.7178211 0.774826 0.69900227
000010 4d 02 9e 3f b1 7b b1 3f aa 25 48 3f 35 37 99 3f
       1.2344452 1.3865873 0.7818247 1.1969973
000020 2e 21 b5 3f e3 d6 67 3f 91 d9 66 3f e0 4c db 3e
       1.4150751 0.90562266 0.9017573 0.42832088
000030 c7 05 39 3f ff 00 45 3f e1 61 34 3f 79 f6 b2 3f
       0.7227444 0.76954645 0.7046185 1.3981467
000040 4a d1 24 3f f9 93 07 3f 13 0f 5a 3f d1 46 78 3f
       0.6438185 0.52960163 0.8517925 0.9698306
000050 f6 7a 6b 3f db 3a 66 3f 4c 32 02 40 f3 8a 3e 3f
       0.919845 0.89933556 2.0343199 0.7443077
000060 d8 6a a0 3f 44 09 a9 3f c8 84 3d 3f 8e 2e d1 3f
       1.2532606 1.3205953 0.74030733 1.6342332
000070 39 61 90 3f fc 3b 41 3f ea 7e bc 3f cf 08 a0 3f
       1.127967 0.75482154 1.4726231 1.2502688
000080 e3 89 39 3f 06 88 63 3f d1 df 4d 3f dc f0 a0 3f
       0.72476023 0.8887943 0.8041964 1.2573504
000090 c3 e5 58 3f 16 fa 66 3f d8 cb 82 3f 24 6f 7d 3f
       0.8472559 0.9022535 1.0218458 0.9899771
0000a0 16 9f 3a 3f 8c 54 3a 3f f7 c6 18 40 16 59 8e 3f
       0.72898996 0.7278526 2.3871439 1.1120937
0000b0 28 eb 4e 3f a0 e5 16 3f 8e 93 0a 3f a0 20 49 3f
       0.8082757 0.5894413 0.541314 0.78565407
0000c0 8d 7f f8 3e 5d eb b5 3f b1 fc 65 3f 0f 85 93 3f
       0.48534814 1.4212452 0.898387 1.1524981
0000d0 10 b5 57 3f e9 34 8d 3f a8 f3 f3 3f 18 07 2e 3f
       0.84260654 1.1031772 1.9058733 0.67979574
0000e0 46 0d 08 40 78 6e 5c 3f 04 b8 8a 3f 0f 51 2f 3f
       2.1258101 0.8610606 1.0837407 0.6848306
0000f0 53 55 b7 3f b7 b5 0c 3f f2 2e 30 3f bb 21 47 3f
       1.4322914 0.54964775 0.6882163 0.77785844

conv.weight f4 [8, 1, 4]
000000 74 b3 c3 be b5 65 7b bc 64 6f 3e be 49 89 ab 3e
       -0.3822285 -0.015344073 -0.1859718 0.33503178
000010 7d 67 7d be c6 f8 b0 3e 6a 8c db be 80 38 4d 3e
       -0.24746509 0.345648 -0.42880565 0.20041084
000020 aa 7d 22 3e 56 ba f5 3d 4c a4 c0 3e 97 38 86 3e
       0.1586825 0.119984314 0.3762535 0.2621505
000030 1b 19 09 bf 22 bb e9 bd ee 34 d0 3e 07 cb 7e 3d
       -0.5355393 -0.11412646 0.40665382 0.06220534
000040 a0 c4 7c 3e 91 7d 8d be 73 7b 7e be 38 0b e9 3e
       0.24684381 -0.27634862 -0.2485178 0.45516372
000050 d2 c7 75 3e 07 2c 83 be 86 25 89 3e 30 16 92 be
       0.24002007 -0.25619528 0.2678644 -0.28532553
000060 28 b1 e3 be a0 a5 a8 3e 18 82 8d be 15 80 e3 3d
       -0.44471097 0.32938862 -0.27638316 0.11108414
000070 af f4 a2 be e6 76 91 be 3f 53 ed be 4b 46 ae 3e
       -0.31827304 -0.28411025 -0.46352574 0.34038004

classify.weight f4 [2, 64]
000000 0f 87 2a 3e 92 23 08 be 12 83 52 3e 8c 51 3d be
       0.16653083 -0.13294819 0.20557812 -0.18488139
000010 c7 0f f3 bd 42 3a 42 be 89 59 66 3e fe 9e 8d bd
       -0.11868244 -0.18967536 0.22495092 -0.06915091
000020 72 f7 ad bd a5 b2 2c be 0e b4 50 be 62 ea 5d 3e
       -0.08494462 -0.16865022 -0.20381185 0.21671441
000030 bd 1b 10 3e b0 63 c5 3d 9e c6 03 3e b8 30 0d 3e
       0.14073081 0.096381545 0.12868735 0.13788116
000040 3e 08 2e be e6 f4 73 3e e2 1d 1b 3e 76 83 a2 bd
       -0.16995332 0.2382389 0.15148118 -0.079352304
000050 76 1b 35 3e a5 0d 33 be 20 0c 2b 3e 6c 20 14 be
       0.17686257 -0.17485674 0.16703844 -0.14465493
000060 63 fd 3f be 23 82 01 be ec 4a 1a be 0c 8a 55 3e
       -0.18749003 -0.126473 -0.15067643 0.20853442
000070 ac ad ed 3d 90 9a 37 be c1 33 2b be 8c a7 1b be
       0.11605391 -0.17930055 -0.16718961 -0.15200633
000080 cb aa 62 be 29 06 c9 bd f8 9a cd bd 4e d0 57 be
       -0.22135465 -0.09815628 -0.100393236 -0.21075556
000090 b6 11 f8 3d 15 1d d5 bd 67 f1 c3 3d b9 c9 48 be
       0.12112753 -0.104059376 0.09567528 -0.19608201
0000a0 88 3c 44 3e 17 ef d6 3d 3f c5 a3 3d 5d a0 9e bd
       0.19163716 0.104948215 0.07996606 -0.077454306
0000b0 78 c1 99 bd 5b 6a 24 3e 6e bc a4 3d cd 67 08 be
       -0.07507604 0.16056196 0.080437526 -0.13320847
0000c0 b1 a5 b8 3d 71 cd 40 be 66 e5 84 bd 97 1f 0b be
       0.09015978 -0.1882837 -0.06489067 -0.1358627
0000d0 c9 97 64 3e 9e 63 66 3e 52 51 11 bd 87 27 07 be
       0.22323526 0.22498938 -0.035477944 -0.13198672
0000e0 6c 7a e1 bd a9 02 52 3e b4 2a d9 bd 7f b6 3c 3e
       -0.11009678 0.20508827 -0.10603848 0.18428992
0000f0 75 40 37 be 6f 86 92 3d f0 23 2e 3e 61 c0 54 3e
       -0.17895682 0.071545474 0.17005897 0.20776512
000100 e9 3f c7 bd 08 05 00 3e 5f ae 0e be a5 85 08 3d
       -0.09728987 0.1250192 -0.13933705 0.03333058
000110 6c 86 52 3e 87 a5 e2 3c ac a2 1d be 6f 87 3c 3e
       0.2055909 0.02766682 -0.15394086 0.18411039
000120 cf 16 44 3e 42 4e 80 3d 67 ab 39 3d 46 8d 4a be
       0.19149326 0.062649265 0.045329478 -0.19780454
000130 8f d9 c1 bc ec c7 12 be eb 4a 31 be 59 9a 54 be
       -0.02366331 -0.14334077 -0.17313735 -0.20762004
000140 fd 6c 96 3d 21 ad 9b bd 61 ea 73 be 2f 7e 14 3e
       0.073450066 -0.07601381 -0.23819877 0.1450126
000150 33 ff 45 be c3 9e 57 3e da 4d 38 be a0 a6 52 3e
       -0.19335632 0.21056657 -0.17998448 0.20571375
000160 56 b7 8c 3d 2b 4b 26 3e 2e fe bb 3d 48 1e 20 be
       0.06870906 0.16239612 0.0917934 -0.15636551
000170 5c 1a f9 bd a1 6a 14 3e c0 15 10 3e 59 b8 4d 3e
       -0.12163231 0.144938 0.14070797 0.20089854
000180 21 e2 cf 3d a5 e9 0e 3e a7 50 3d 3e 07 2b 2f 3d
       0.101505525 0.13956316 0.18487798 0.042765643
000190 dc 24 0d be 0d 09 0a 3e b3 7c 16 be 42 08 01 3e
       -0.13783592 0.13480015 -0.14696006 0.12600806
0001a0 8f 48 8c bd 47 c5 11 be 74 c0 be bd e0 f3 4c 3e
       -0.06849777 -0.14235412 -0.09314051 0.20014906
0001b0 89 23 1f 3e 81 84 61 be 1f 19 5d be 17 cb a1 3d
       0.155409 -0.22023202 -0.21591614 0.079000644
0001c0 1a d0 2f be 88 7d 3c 3e 4f 01 3d 3e bd f9 2a 3e
       -0.17169228 0.18407261 0.1845753 0.1669683
0001d0 30 91 ca bc b2 23 3d bc 4d 9f 2d 3e f7 a1 c1 3d
       -0.024727434 -0.011544155 0.169553 0.094547205
0001e0 e6 aa 3c 3e 36 41 8d bd 14 c2 14 3e ea 63 3e be
       0.18424568 -0.068972036 0.1452716 -0.18592802
0001f0 1f 21 14 3e ba b6 4b be df 50 e2 bd 5c b2 41 be
       0.1446576 -0.19893923 -0.11050581 -0.18915695

classify.bias f4 [2]
000000 00 a1 cc 3b f5 31 95 3c
       0.0062447786 0.018212298
