BCI/output/bci_iv_2a/LightConvNet/sub4/2023-10-02--20-12/model.pth (torch, 56047 bytes, 9 tensors)

spacial_block.0.weight f4 [64, 9, 22, 1]
0	0x3d0a80e1	0.033814315
1	0x3cd04acd	0.025426293
2	0xbd6dc884	-0.058052555
3	0xbd535aec	-0.05160038
4	0xbd26aa89	-0.04068998
5	0x3da7496a	0.081682995
6	0xbcb8c618	-0.022555396
7	0x3dbd6ef2	0.09249677
8	0x3d715889	0.058922324
9	0xb8bcfc7a	-9.011566e-05
10	0xbd88a4a7	-0.0667203
11	0xbcbfb8ad	-0.02340349
12	0x3d0258e6	0.03182306
13	0x3b742927	0.0037255974
14	0xbd023895	-0.031792242
15	0xbd78651f	-0.06064331
16	0xbc98dcd7	-0.018659992
17	0x3d52e228	0.05148521
18	0xbcc33e04	-0.023833282
19	0x3d1c3b20	0.038142323
20	0xbd537e27	-0.05163398
21	0x3d940ef1	0.07229412
22	0x3d673ebb	0.05645631
23	0xbbe93612	-0.0071170414
24	0xbd75e124	-0.060029164
25	0xbbf59d1d	-0.007495536
26	0x3de16555	0.11005656
27	0xbd2f6467	-0.04282036
28	0x3da8ae22	0.08236338
29	0xbd9179cd	-0.0710331
30	0xbd861a6e	-0.0654801
31	0x3d3eecce	0.046612553
32	0xbd187618	-0.037221998
33	0xbc4d9ba7	-0.012549317
34	0x3be6964b	0.0070369593
35	0xbd07ccf7	-0.033154454
36	0xbbedc396	-0.0072559817
37	0x3dd5cdbc	0.10439631
38	0xbc5e969f	-0.013585716
39	0x3c7ab66d	0.015302283
40	0xbd1e6ee5	-0.038679976
41	0xbcfee308	-0.031114116
42	0xbd8a9dc1	-0.067683704
43	0x3d5955d2	0.05306036
44	0xbd55bc86	-0.052181743
45	0xbd100037	-0.035156455
46	0x3d8ea09f	0.0696423
47	0x3d43713f	0.04771542
48	0xbd947bf1	-0.072502024
49	0x3d130898	0.035896868
50	0x3c128d03	0.008944753
51	0x3aa0e066	0.0012273907
52	0x392d26de	0.00016513045
53	0xbb88f4f8	-0.004179593
54	0x3cd500e5	0.026001403
55	0xbb39cfa4	-0.0028352523
56	0xba991e6d	-0.0011682041
57	0xbc260890	-0.010133877
58	0xbcab10bc	-0.020882003
59	0xbd0393d1	-0.03212339
60	0x3d36a4b0	0.044590652
61	0xbd1b0e18	-0.037855238
62	0x3cf2012c	0.029541574
63	0x39ced24d	0.00039448068
64	0x3cb9291a	0.022602607
65	0xbccb6646	-0.024829041
66	0xbc9ccd25	-0.01914079
67	0xbca35cdc	-0.01994174
68	0x3cef22c9	0.029191392
69	0xbd671c71	-0.05642361
70	0xbd50c3ec	-0.050968096
71	0x3d131f83	0.035918724
72	0xbc21549e	-0.0098468345
73	0x3ddce459	0.10785741
74	0x3dd97d71	0.10619629
75	0xbcdfadcd	-0.027304554
76	0x3d04986c	0.032371923
77	0x3d23be63	0.03997649
78	0x3d8653a0	0.06558919
79	0xbd9043e0	-0.07044196
80	0xbddb014a	-0.10693605
81	0x3ca2d421	0.019876542
82	0xbd25ac03	-0.040447246
83	0xbdd5bc47	-0.10436302
84	0x3d018487	0.03162053
85	0x3bf737c9	0.007544492
86	0x3d5d5a41	0.05404115
87	0xbc01900e	-0.0079078805
88	0xbbe0117c	-0.006838022
89	0x3bfb6d6a	0.0076729553
90	0x3dc75a9f	0.097340815
91	0x3d8e1eea	0.0693949
92	0x3d08ee8f	0.033430632
93	0xbd1acdf0	-0.037794054
94	0x3d0f3fdd	0.034973014
95	0xbd49fccc	-0.04931335
96	0xbcf7f2d8	-0.030267164
97	0x3c15d3ff	0.009144782
98	0xbd0d186a	-0.03444711
99	0x3c54fbaf	0.012999459
100	0xbce0162a	-0.027354319
101	0xbc1435b3	-0.009046006
102	0xbd4dd5c1	-0.05025268
103	0xbbf3912c	-0.0074330773
104	0xbcb4f7ca	-0.022090811
105	0xbc396f86	-0.011318093
106	0xbd811a4c	-0.06303844
107	0xbcb7aaa6	-0.022420239
108	0x3d3812ff	0.04493999
109	0x3db7e08a	0.08978374
110	0x3d91baa1	0.07115675
111	0xbc893d57	-0.016752882
112	0xbd020b9c	-0.031749353
113	0x3daf8874	0.08570948
114	0xbd3fd2e9	-0.046832
115	0xbd39b8d2	-0.045342274
116	0x3d9df3d2	0.07712521
117	0xbda992a9	-0.08279926
118	0xbd9ecbdd	-0.077537276
119	0xbc1880d0	-0.009308055
120	0xbbf449a0	-0.007455066
121	0x3c3b17dd	0.011419264
122	0x3cf2f79a	0.029659081
123	0x3d1700e5	0.036866087
124	0xbce65c19	-0.028120087
125	0x3de2b04e	0.11068784
126	0x3bd53cce	0.0065074926
127	0xbc58870a	-0.01321579
128	0x3d41f586	0.04735329
129	0xbd65b481	-0.056080345
130	0xbb57bf11	-0.003292028
131	0xbd5fdb0a	-0.05465225
132	0x3b25e20c	0.0025311736
133	0x3cea617b	0.028610935
134	0x381eba34	3.784355e-05
135	0x3c30e6ce	0.010797216
136	0xbcf1a334	-0.029496767
137	0x3d1efcb3	0.03881521
138	0x3bdea910	0.006795056
139	0xbd32720d	-0.0435658
140	0xbc026df0	-0.007960781
141	0xbb98932f	-0.0046562175
142	0x3cad78e3	0.021175807
143	0x3c17242e	0.0092249345
144	0x3d2a7160	0.04161203
145	0x3a16f067	0.00057578686
146	0xbbed21c5	-0.0072366917
147	0x3d7a9332	0.061175533
148	0xbd7a027a	-0.061037518
149	0xbd0dc861	-0.034614924
150	0xba4ef0fa	-0.00078941847
151	0xbd8b7c30	-0.06810796
152	0xbbba47a7	-0.005684811
153	0x3d3460d3	0.04403765
154	0x3df8098e	0.121111974
155	0x3a148b74	0.0005666532
156	0x3d2f4d3e	0.042798273
157	0xbd1e9252	-0.03871376
158	0xbda00cca	-0.07814939
159	0xbc1dcde8	-0.009631611
160	0xbb0e1aa0	-0.002168335
161	0xbd4fbdf7	-0.050718274
162	0xbd94d4a3	-0.0726712
163	0xbd87ff5e	-0.06640504
164	0xbc62ec90	-0.013850346
165	0x3d85c24a	0.06531198
166	0xbd4466e7	-0.047949698
167	0x3d4849a9	0.048898373
168	0x3cbfbc63	0.02340526
169	0x3e1e9a02	0.15488437
170	0x3d0ddcb2	0.0346343
171	0xbd4cdd84	-0.05001594
172	0x3c895cf6	0.01676796
173	0x3cd1abd9	0.025594639
174	0xbdba49ad	-0.09096084
175	0xbbc5da3d	-0.006037979
176	0x3ce5af1e	0.028037604
177	0x3c578cee	0.013156159
178	0x3d0b854e	0.034062676
179	0xbda8ac87	-0.08236032
180	0x3a4e227d	0.00078634155
181	0x3cb66fb4	0.022270061
182	0xbb985e75	-0.004649932
183	0x3c834c7a	0.016027678
184	0xbd4c5c27	-0.04989257
185	0xbd3b9493	-0.04579599
186	0xbd4d11f2	-0.050065942
187	0x3cdf3bff	0.027250288
188	0xbb840c4e	-0.004029787
189	0x3ce5bc85	0.028043995
190	0x3da76da5	0.0817521
191	0x3d82f91a	0.063951686
192	0xbd2b3695	-0.0418001
193	0xbabfa270	-0.0014620554
194	0xbc9dd518	-0.01926665
195	0xbd5fe938	-0.054665774
196	0xbd21b5f2	-0.039480157
197	0x3d9bbd6e	0.0760449
198	0x3d90c3b7	0.0706858
199	0xbcf2ca64	-0.029637523
200	0xbd53dd92	-0.051724978
201	0xbc9844da	-0.018587518
202	0x398d98c7	0.00027007444
203	0xbbe6394c	-0.0070258733
204	0xbc815b57	-0.015790625
205	0x3d8185ca	0.06324346
206	0xbd804a8f	-0.06264221
207	0x3d7eb2a2	0.062182076
208	0xbca968c4	-0.020679839
209	0xbcd2d362	-0.02573556
210	0xbc8667f3	-0.016406989
211	0xbc618458	-0.013764463
212	0x3d0ae8c3	0.033913385
213	0x3d089342	0.03334356
214	0xbce449aa	-0.027867157
215	0xbcdea854	-0.027179874
216	0xbca9198e	-0.020642068
217	0x3ca2cbd0	0.019872576
218	0x3e1fe6e0	0.15615416
219	0xbe18176e	-0.14852688
220	0xbcb6847e	-0.022279974
221	0x3d1ac085	0.037781257
222	0x3cf76bdc	0.030202799
223	0x3d06c524	0.03290285
224	0xbbdaa506	-0.0066725044
225	0xbc95b341	-0.018273951
226	0xbd0cc0bb	-0.03436349
227	0xbd8eaf2f	-0.06967007
228	0xbc95462c	-0.018221937
229	0xbd3610c9	-0.0444496
230	0x3ba4d5f4	0.005030388
231	0x3d6f0faa	0.058364548
232	0xbc44be46	-0.012008255
233	0x3d461f05	0.048369426
234	0x3d8e7183	0.069552444
235	0xbd5408ac	-0.051766083
236	0x3cdfbf1d	0.02731281
237	0xbd374fbd	-0.04475378
238	0xbc3229a7	-0.0108741885
239	0xbb761e5e	-0.0037554721
240	0x3bee8e78	0.007280167
241	0x3c081380	0.00830543
242	0xbdd8e58b	-0.10590657
243	0x3d6ed799	0.05831108
244	0x3cd86fde	0.02642053
245	0xbcbc4b54	-0.022985138
246	0x3e0e227b	0.13880341
247	0xbd288d6d	-0.0411505
248	0xbd3c8928	-0.04602924
249	0x3d6a732c	0.057238743
250	0xbd1fa3f2	-0.03897471
251	0x3bda4463	0.0066609844
252	0x3d1b2bff	0.037883755
253	0xbc554809	-0.013017663
254	0x3ccb3423	0.024805134
255	0x3c32308e	0.010875834

spacial_block.0.bias f4 [64]
0	0x3d4ad5ea	0.04952041
1	0xbd762daf	-0.06010216
2	0x3d82f5e3	0.063945554
3	0x3d70fb13	0.058833193
4	0x3d8c62d8	0.068547904
5	0x3d67c15c	0.056580886
6	0x3d0c70f8	0.034287423
7	0xbd6a92cb	-0.0572689
8	0x3d7c8269	0.061647806
9	0xbd966c97	-0.073449306
10	0x3c576dee	0.013148768
11	0x3d8db60d	0.06919489
12	0x3c4ec93a	0.012621218
13	0x3bdf0f72	0.006807261
14	0xbd32147e	-0.043476574
15	0xbd73d998	-0.059533685
16	0x3c3c728f	0.011501922
17	0x3cd56ee7	0.026053859
18	0xbd222fe4	-0.039596453
19	0x3bde43d1	0.0067829867
20	0x3c34694d	0.011011434
21	0xbd10e558	-0.03537497
22	0x3c7243f5	0.01478671
23	0xbd752a7f	-0.05985498
24	0x3d2b24ec	0.04178326
25	0xbd4e0c9f	-0.050305005
26	0x3d7032c5	0.058642168
27	0x3d5de4da	0.054173328
28	0x3d1ad951	0.037804905
29	0xbd531619	-0.051534746
30	0x3d564b73	0.052318048
31	0x3add3240	0.0016875938
32	0xbd7fbefe	-0.062438004
33	0x3d3f99ab	0.04677741
34	0x3d8f005f	0.06982493
35	0x3cd36b7f	0.025808094
36	0xbd71cdbd	-0.059034098
37	0xbc8756b4	-0.016520835
38	0xbc462f60	-0.012096256
39	0x3d8a83ca	0.06763418
40	0xbd5818b2	-0.052757926
41	0xbd3b507d	-0.045731056
42	0x3d2b3861	0.041801814
43	0x3ccc372f	0.024928657
44	0xbcd6211c	-0.026138835
45	0xbd805f0d	-0.062681295
46	0xbc33cb95	-0.010973831
47	0x3d52ac1b	0.051433664
48	0x3d9864db	0.07441112
49	0x3b510767	0.0031895281
50	0xbd237232	-0.039903827
51	0x3cd52a1d	0.026021058
52	0x3d578ce6	0.052624606
53	0xbd288d1e	-0.041150205
54	0x3ca02658	0.019549534
55	0x3d10d603	0.035360347
56	0xbc2c05fa	-0.010499472
57	0xbd737336	-0.059436046
58	0xbd1edfc1	-0.038787607
59	0xbd90cc34	-0.07070199
60	0xbb29f8b8	-0.0025935601
61	0x3d549873	0.0519032
62	0xbaaec9b3	-0.0013335258
63	0x3d5ec6c8	0.05438879

spacial_block.1.weight f4 [64]
0	0x3f83e3ba	1.0303872
1	0x3f8934a3	1.0719188
2	0x3f7327af	0.9498243
3	0x3f74ccb6	0.95624864
4	0x3f70919d	0.9397219
5	0x3f7ad376	0.97978914
6	0x3f7f8881	0.99817663
7	0x3f8cc786	1.099839
8	0x3f83bcc3	1.029198
9	0x3f8df11c	1.1089206
10	0x3f871d04	1.055573
11	0x3f8d675e	1.104717
12	0x3f886854	1.0656838
13	0x3f8e3be3	1.1112026
14	0x3f77e141	0.96828085
15	0x3f8cdd2a	1.1004994
16	0x3f7e1ecc	0.9926574
17	0x3f7ee863	0.99573344
18	0x3f87877f	1.0588225
19	0x3f8e2b62	1.1106989
20	0x3f786543	0.97029513
21	0x3f8b7b03	1.0896915
22	0x3f8a92be	1.0826032
23	0x3f89af22	1.0756571
24	0x3f895835	1.0730044
25	0x3f86b781	1.0524751
26	0x3f856a9d	1.0423161
27	0x3f8a1ac3	1.0789417
28	0x3f6e7276	0.93143404
29	0x3f8847cf	1.0646914
30	0x3f8a4e37	1.0805119
31	0x3f797759	0.97447735
32	0x3f87ae0e	1.0599992
33	0x3f8dd99f	1.1082038
34	0x3f6fb806	0.9364017
35	0x3f8bc0d6	1.0918224
36	0x3f6e8d42	0.9318429
37	0x3f850689	1.0392619
38	0x3f89acb7	1.0755833
39	0x3f8cb740	1.0993423
40	0x3f7c9cdd	0.98676854
41	0x3f7426dc	0.95371795
42	0x3f6ad7e8	0.91735697
43	0x3f6a6b95	0.9157041
44	0x3f6a8f8d	0.9162529
45	0x3f72c0a7	0.94825214
46	0x3f7cdc55	0.987737
47	0x3f6eb417	0.93243545
48	0x3f821808	1.0163584
49	0x3f89a0c5	1.0752188
50	0x3f81dd1e	1.0145605
51	0x3f72f512	0.949052
52	0x3f8c89da	1.0979569
53	0x3f70cebd	0.9406546
54	0x3f7f1e5f	0.9965572
55	0x3f8fa8fe	1.1223447
56	0x3f88c13c	1.068397
57	0x3f6f0731	0.9337035
58	0x3f787ded	0.9706715
59	0x3f801e91	1.0009328
60	0x3f743fae	0.9540967
61	0x3f7b0486	0.9805378
62	0x3f8b247b	1.0870508
63	0x3f87efd7	1.0620068

spacial_block.1.bias f4 [64]
0	0xbe396f96	-0.18108973
1	0xbe5c4a12	-0.2151263
2	0xbe44617f	-0.19177817
3	0xbe580385	-0.21095093
4	0xbe879cba	-0.2648676
5	0xbe6e8e9b	-0.23296587
6	0xbe36898c	-0.17825907
7	0xbdf3c6ce	-0.11903153
8	0xbe5ed6a2	-0.21761563
9	0xbe293798	-0.16525114
10	0xbe166a73	-0.14689045
11	0xbdf8bcd9	-0.12145395
12	0xbe0f97ec	-0.14022797
13	0xbe282211	-0.16419245
14	0xbe625ff5	-0.22106917
15	0xbde2a698	-0.110669315
16	0xbe3d9b62	-0.18516305
17	0xbe4b4dc9	-0.19853891
18	0xbe034692	-0.12819889
19	0xbddaa16f	-0.10675322
20	0xbe6efd35	-0.23338778
21	0xbe3c418c	-0.18384379
22	0xbe298633	-0.16555099
23	0xbe0825f3	-0.13295726
24	0xbe0f6f43	-0.14007287
25	0xbe76df92	-0.24108723
26	0xbe08d260	-0.13361502
27	0xbdfdb64a	-0.123882845
28	0xbe9f7e29	-0.3115094
29	0xbe222292	-0.158335
30	0xbdc6c133	-0.097048186
31	0xbe468c74	-0.19389516
32	0xbe3db472	-0.18525866
33	0xbe2b658a	-0.16737953
34	0xbe7c8241	-0.24659063
35	0xbde68518	-0.11255854
36	0xbe821685	-0.25407806
37	0xbe44b024	-0.19207817
38	0xbdd8f86b	-0.10594257
39	0xbdd68e23	-0.10476329
40	0xbe610649	-0.21975054
41	0xbe7defbe	-0.24798486
42	0xbe71271b	-0.23550074
43	0xbe73f892	-0.23825291
44	0xbe9da201	-0.30787662
45	0xbe768ffb	-0.24078362
46	0xbe51547f	-0.20442389
47	0xbe82d3f2	-0.25552326
48	0xbe9961d4	-0.2995745
49	0xbe7aed44	-0.24504572
50	0xbe1927eb	-0.14956634
51	0xbea076d3	-0.31340656
52	0xbe0d7a36	-0.13816151
53	0xbe8142e1	-0.25246337
54	0xbe191875	-0.14950736
55	0xbe0c461a	-0.13698617
56	0xbe4f27c3	-0.20230012
57	0xbea62c19	-0.3245552
58	0xbe3db25f	-0.18525074
59	0xbe85647e	-0.26053232
60	0xbe65ee96	-0.22454295
61	0xbe74937c	-0.23884386
62	0xbdf20b99	-0.11818618
63	0xbe2f3c9b	-0.17112963

spacial_block.1.running_mean f4 [64]
0	0x3d4d5c22	0.050136693
1	0xbd72ef1b	-0.05931006
2	0x3d80aaa6	0.062825486
3	0x3d7058e3	0.05867852
4	0x3d8abcd5	0.06774298
5	0x3d68a3ca	0.056796826
6	0x3d0a5f92	0.03378255
7	0xbd6985b4	-0.057012275
8	0x3d77c684	0.060492054
9	0xbd946ca5	-0.07247285
10	0x3c45e374	0.012078155
11	0x3d8d77e5	0.06907634
12	0x3c5e87b0	0.013582155
13	0x3bf99077	0.0076160985
14	0xbd306b78	-0.04307124
15	0xbd75c92e	-0.060006313
16	0x3c583293	0.013195652
17	0x3cd67979	0.02618097
18	0xbd1f976f	-0.038962778
19	0x3bfe6ac8	0.007764194
20	0x3c2fab2f	0.010721966
21	0xbd0e631c	-0.034762487
22	0x3c7bffe2	0.015380831
23	0xbd75cb83	-0.060008537
24	0x3d2d82d8	0.04236111
25	0xbd4a5efc	-0.04940699
26	0x3d750888	0.05982259
27	0x3d63a8ec	0.05558102
28	0x3d17a709	0.03702453
29	0xbd50f5e6	-0.051015757
30	0x3d570c22	0.052501805
31	0x3a70b01e	0.0009181517
32	0xbd7be821	-0.061500672
33	0x3d44ab3a	0.048014857
34	0x3d8cfdbe	0.06884335
35	0x3cd5753c	0.026056878
36	0xbd71b5fd	-0.05901145
37	0xbc83665a	-0.016040016
38	0xbc35fb31	-0.011107252
39	0x3d8a9420	0.06766534
40	0xbd580362	-0.0527376
41	0xbd38b23a	-0.045091845
42	0x3d30b054	0.04313691
43	0x3cc35029	0.023841934
44	0xbccf7c9b	-0.025327971
45	0xbd823da2	-0.06359412
46	0xbc4441b5	-0.011978556
47	0x3d531c58	0.051540703
48	0x3d989f3c	0.074522465
49	0x3b6ce4f8	0.0036147218
50	0xbd254404	-0.040348068
51	0x3cd4db89	0.025983589
52	0x3d59f2b3	0.05320997
53	0xbd261f91	-0.040557448
54	0x3ca2099e	0.019779976
55	0x3d11ae08	0.03556636
56	0xbc1f0213	-0.009705084
57	0xbd7815e8	-0.060567766
58	0xbd20a5eb	-0.03922073
59	0xbd9082ae	-0.07056175
60	0xbb211f31	-0.0024585242
61	0x3d576873	0.052589845
62	0xbac99cd4	-0.0015381821
63	0x3d6318a8	0.055443436

spacial_block.1.running_var f4 [64]
0	0x3e0a7649	0.13521685
1	0x3d600731	0.05469436
2	0x3df674cb	0.12033995
3	0x3e0324c0	0.12806988
4	0x3dd6de1c	0.10491583
5	0x3d9a7a06	0.075428054
6	0x3e2268a3	0.15860228
7	0x3de1b495	0.110207714
8	0x3dc6b932	0.09703292
9	0x3da73886	0.08165078
10	0x3dfab602	0.122417465
11	0x3dde3c5a	0.10851355
12	0x3da82c92	0.08211626
13	0x3dc9efe8	0.098602116
14	0x3d7cffae	0.061767273
15	0x3d8dc7cb	0.06922873
16	0x3e003e97	0.12523876
17	0x3e1a6926	0.15079173
18	0x3dab74b9	0.083718725
19	0x3daef4d5	0.08542792
20	0x3dfaa806	0.12239079
21	0x3da16289	0.07880122
22	0x3d708fbb	0.058730822
23	0x3da4db89	0.080496855
24	0x3de59954	0.11210886
25	0x3dd58af6	0.10426895
26	0x3dbb9b2e	0.091604576
27	0x3e0c9c16	0.13731417
28	0x3db32d0a	0.08748825
29	0x3da8d135	0.08243028
30	0x3dbbc87a	0.09169097
31	0x3e5a2f71	0.2130716
32	0x3d9dcb5f	0.077048056
33	0x3d65b306	0.056078933
34	0x3d80828a	0.06274898
35	0x3dd5c100	0.104372025
36	0x3de0095f	0.109392874
37	0x3dff19e9	0.12456114
38	0x3de0b3ea	0.10971816
39	0x3e015ba4	0.12632614
40	0x3dee161f	0.11625313
41	0x3e548979	0.20755567
42	0x3e5885be	0.21144769
43	0x3dc4ff62	0.09619023
44	0x3dcd898f	0.10036003
45	0x3dc0265a	0.09382315
46	0x3dd99197	0.10623472
47	0x3e05a780	0.13052177
48	0x3d92e4cf	0.07172548
49	0x3d9f65cb	0.07783087
50	0x3dcc96c7	0.09989696
51	0x3db90f44	0.09036115
52	0x3e120db1	0.14263035
53	0x3dfaa6ba	0.12238832
54	0x3df84653	0.12122788
55	0x3dccafa9	0.09994442
56	0x3dd54225	0.10413007
57	0x3dd4c2ce	0.103887185
58	0x3ded7b6e	0.11595808
59	0x3dac3ffb	0.08410641
60	0x3dcf4958	0.10121411
61	0x3de4f532	0.1117958
62	0x3d6bdf67	0.0575861
63	0x3e040f1b	0.12896387

conv.weight f4 [8, 1, 4]
0	0xbf8313bf	-1.0240401
1	0x3f8d0b0a	1.1018994
2	0xbf42a064	-0.76025987
3	0xbf6f3858	-0.9344535
4	0x3f99a839	1.2004462
5	0xbf1bc35f	-0.6084499
6	0xbf50ac99	-0.81513363
7	0xbf147432	-0.579898
8	0xbf39ea92	-0.7262355
9	0x3eeefc83	0.46677026
10	0x3f1a61ff	0.6030578
11	0x3ebd7806	0.37005633
12	0xbf5b2dad	-0.8561657
13	0x3f570e75	0.84006435
14	0xbf4c904f	-0.799077
15	0xbf3d9913	-0.740617
16	0xbf01c09e	-0.50684536
17	0x3f8daeaa	1.1068928
18	0xbf41e9bd	-0.7574728
19	0xbf5b8c68	-0.8576112
20	0x3f87bfcd	1.0605408
21	0xbe852a68	-0.26008916
22	0xbf8b45bd	-1.0880657
23	0xbf6a4d98	-0.9152465
24	0xbf738642	-0.95126736
25	0xbeb42e65	-0.35191646
26	0x3f5a830b	0.85356206
27	0xbed97881	-0.4247475
28	0x3dc5519c	0.096347064
29	0x3f5fc51e	0.8741015
30	0xbe759a30	-0.23984599
31	0xbeb1d2f1	-0.34731248

classify.weight f4 [4, 64]
0	0x3dcb9e7a	0.099423364
1	0xbea69b0a	-0.3254016
2	0x3d5c3de0	0.053769946
3	0x3e35a91a	0.17740288
4	0x3ec7f20f	0.39051864
5	0x3ec56fff	0.3856201
6	0xbe78440e	-0.24244711
7	0xbea87f4d	-0.32909623
8	0xbd451f63	-0.048125636
9	0xbef4462e	-0.47709793
10	0xbec47a29	-0.3837445
11	0xbf059df2	-0.5219413
12	0xbdce8e9f	-0.100857966
13	0xbeb2ec22	-0.3494578
14	0x3ed111a3	0.40833768
15	0xbef85691	-0.48503545
16	0x3e87d2a2	0.26527888
17	0x3e8a750d	0.27042428
18	0xbd8b2c04	-0.06795505
19	0xbefb7d7d	-0.49119177
20	0xbd186708	-0.037207633
21	0xbead56b0	-0.338552
22	0xbe4805ae	-0.19533417
23	0xbe90a6f8	-0.28252387
24	0xbe4d51fc	-0.20050806
25	0xbed06bd0	-0.40707254
26	0x3e4e42a1	0.20142604
27	0xbe9fbbff	-0.31198117
28	0x3ea6c7b5	0.3257424
29	0x3d02284c	0.03177671
30	0xbe32ee3e	-0.17473695
31	0x3e832013	0.25610408
32	0xbe01ebce	-0.12687609
33	0xbf079968	-0.52968454
34	0x3ea8829a	0.3291214
35	0xbed9e5ce	-0.4255814
36	0x3ea3e5e2	0.32011324
37	0x3d5c5f44	0.05380179
38	0xbeedf632	-0.46476895
39	0xbef4810c	-0.47754705
40	0xbe48e784	-0.19619566
41	0x3e9b349e	0.3031358
42	0x3edd62da	0.4323948
43	0x3ea7c610	0.32768297
44	0x3ee0eba2	0.43929774
45	0x3e8725ff	0.26396176
46	0x3dc212bf	0.09476232
47	0x3eb47b08	0.35250115
48	0x3e789a97	0.24277721
49	0xbeab2dea	-0.33433467
50	0x3e8e0189	0.27735546
51	0x3e7e0928	0.2480818
52	0xbedb1780	-0.42791367
53	0x3e661192	0.2246764
54	0x3e9e979e	0.3097505
55	0xbe5a2a99	-0.21305312
56	0xbe9561fc	-0.2917632
57	0x3eaedfaa	0.34155017
58	0xbe111158	-0.14166772
59	0xbdbf96ff	-0.09354972
60	0x3d83b404	0.0643082
61	0x3d8d57ba	0.06901498
62	0xbec13724	-0.3773738
63	0xbebbfcc1	-0.36716273
64	0xbed2655b	-0.41092953
65	0xbe112522	-0.14174321
66	0x3ef851a1	0.48499778
67	0x3e7e0f5d	0.24810548
68	0xbe88f86c	-0.2675203
69	0xbedf0d10	-0.43564653
70	0x3ed869ad	0.42268124
71	0xbdd09992	-0.10185541
72	0xbba27b71	-0.004958563
73	0xbe8013d3	-0.25015125
74	0x3f081b32	0.53166497
75	0x3e54d48b	0.20784204
76	0xbee71b90	-0.45138216
77	0x3d9aeb2d	0.075643875
78	0xbeb102cd	-0.3457245
79	0x3d9ba4ff	0.0759983
80	0xbeea707d	-0.45788947
81	0xbebb537f	-0.3658714
82	0xbda5c944	-0.08095029
83	0xbe4848a7	-0.19558965
84	0x3ed02bcd	0.40658417
85	0x3e1da8dd	0.15396447
86	0xbe0ab86e	-0.13546917
87	0x3d125673	0.035726976
88	0xbed00b12	-0.40633446
89	0x3f0a6d64	0.54073167
90	0xbecdf677	-0.402271
91	0xbe4693a5	-0.1939226
92	0xbe4af8b3	-0.19821434
93	0xbee192f0	-0.44057417
94	0xbeded9d1	-0.43525556
95	0xbed9bd04	-0.4252702
96	0xbef00005	-0.46875015
97	0x3e6e2f3e	0.23260209
98	0x3ea2dd03	0.31809244
99	0xbe7e7813	-0.24850492
100	0x3ea5e46b	0.32400832
101	0xbed8a9fa	-0.42317182
102	0x3efc8329	0.49318817
103	0x3e47acc1	0.19499494
104	0x3eee47ca	0.46539146
105	0x3d416bab	0.04722182
106	0xbd5580c1	-0.052124742
107	0x3ca47444	0.020074971
108	0x3e279e5e	0.16369006
109	0x3e8e5711	0.278008
110	0xbc9f773c	-0.019466035
111	0x3e808913	0.2510458
112	0xbe177a23	-0.14792685
113	0x3ede43c5	0.4341108
114	0xbec9e4f7	-0.394325
115	0xbce6732e	-0.028131094
116	0x3e8c0af2	0.273521
117	0x3eae542a	0.34048587
118	0xbee9bee4	-0.4565345
119	0xbe501113	-0.20319013
120	0x3f04506e	0.51685226
121	0x3d069f4b	0.032866757
122	0x3ef1fc13	0.4726263
123	0x3e6268a4	0.2211023
124	0x3e87ce15	0.26524416
125	0x3ecd68e9	0.40119103
126	0xbe00f5c3	-0.1259375
127	0x3e94a733	0.29033813
128	0xbd4a695c	-0.049416885
129	0x3f1b6031	0.6069365
130	0xbe0409c1	-0.12894346
131	0xbef938ab	-0.48676047
132	0x3ed22982	0.41047293
133	0x3ecd73fa	0.40127546
134	0x3d027507	0.031849887
135	0x3f0451a6	0.51687086
136	0xbef205fa	-0.47270185
137	0x3eb557d7	0.3541858
138	0xbbbc85cf	-0.005753256
139	0x3e9abbe5	0.30221477
140	0x3ed319ed	0.41230717
141	0x3e5b05c4	0.21388918
142	0x3ed1a434	0.4094559
143	0xbe347511	-0.17622782
144	0x3e8af4f9	0.27140024
145	0x3ea16455	0.3152186
146	0xbedcdf6e	-0.43139213
147	0x3eaaadc4	0.33335698
148	0xbee7a891	-0.45245793
149	0xbeb347e4	-0.35015786
150	0xbed600d2	-0.417975
151	0x3f00f10a	0.50367796
152	0x3deeb9f5	0.11656562
153	0x3df47395	0.11936108
154	0xbe8d8991	-0.27644017
155	0x3f004feb	0.50121945
156	0x3e97086f	0.29498622
157	0xbe8b5e29	-0.27220276
158	0x3eac05e6	0.3359825
159	0xbcf3d359	-0.029763864
160	0x3eea772a	0.4579404
161	0x3f003089	0.5007406
162	0x3c8f4c2f	0.017492382
163	0x3ef6c9ef	0.48200938
164	0xbed18826	-0.40924186
165	0x3ebd03a2	0.36916834
166	0x3e170adb	0.14750235
167	0x3eba0953	0.3633524
168	0xbed8889c	-0.42291725
169	0xbeda550a	-0.42643005
170	0xbec9d1eb	-0.39417967
171	0x3db74731	0.089491256
172	0xbd59af49	-0.05314568
173	0x3e10c767	0.14138566
174	0x3eec85f6	0.46195954
175	0xbedda2c4	-0.43288243
176	0xbebd9750	-0.37029505
177	0x3efc7db1	0.49314645
178	0xbe47d2c0	-0.19513988
179	0xbf0afaf6	-0.54289186
180	0xbdec9131	-0.115511306
181	0xbea84c4b	-0.32870707
182	0x3ebe2884	0.37140286
183	0x3ee4265c	0.44560516
184	0x3ed302e5	0.41213146
185	0x3eb1e067	0.34741518
186	0x3cd5fce8	0.026121572
187	0xbeeffe20	-0.4687357
188	0x3df41e89	0.119198866
189	0xbeb5bcb5	-0.35495535
190	0xbe70acce	-0.2350342
191	0xbebb21b6	-0.36549157
192	0x3efc9d29	0.49338654
193	0xbed1daaf	-0.40987155
194	0xbe81a9fb	-0.25324997
195	0x3e39a1cb	0.18128125
196	0xbeba03aa	-0.3633092
197	0xbe0fe056	-0.14050421
198	0xbeb07b06	-0.3446886
199	0x3e1fa7c2	0.15591338
200	0x3f0b77e6	0.54479825
201	0x3ed7434d	0.42043534
202	0xbd74e3e6	-0.059787653
203	0x3eb90e4d	0.36143723
204	0x3eeab564	0.45841515
205	0x3eec76f2	0.46184498
206	0xbe84ca0e	-0.25935405
207	0x3ee95175	0.4556996
208	0x3e39dcec	0.18150681
209	0x3db95679	0.090496965
210	0x3ef77fee	0.4833979
211	0x3e882a08	0.26594567
212	0xbd54f92b	-0.051995438
213	0x3ef9b31f	0.4876947
214	0x3ef74f2e	0.48302597
215	0xbe8b904d	-0.2725853
216	0x3ef6fb94	0.48238814
217	0xbe3e7162	-0.1859794
218	0x3eeaadd5	0.45835748
219	0xbe3c24ed	-0.18373461
220	0xbeca9c43	-0.39572343
221	0x3efad1e7	0.48988268
222	0x3e1bbcd5	0.15208752
223	0x3e2c1e19	0.16808356
224	0x3e9da226	0.30787772
225	0x3e42d97a	0.19028273
226	0xbef52a4f	-0.4788384
227	0x3d9a7c97	0.07543295
228	0xbe96f3af	-0.2948279
229	0x3e6753ea	0.22590604
230	0xbd651019	-0.055923555
231	0xbda05377	-0.0782842
232	0xbe1a6d8f	-0.15080856
233	0x3e80482f	0.25055072
234	0xbe373136	-0.17889866
235	0xbed17873	-0.40912208
236	0xbeb6534a	-0.3561042
237	0xbf0013fd	-0.500305
238	0xbebe820b	-0.3720859
239	0xbcc67ead	-0.024230326
240	0x3efc133d	0.49233428
241	0xbe85e4aa	-0.2615102
242	0x3edc0973	0.4297596
243	0x3e78f5b3	0.24312477
244	0x3ec87971	0.39155152
245	0xbe863b9e	-0.2621736
246	0xbd99e0ca	-0.07513578
247	0x3eef11f5	0.46693388
248	0xbdfee5fb	-0.12446209
249	0xbec2dc9a	-0.3805893
250	0xbe93edb3	-0.28892288
251	0x3e8df446	0.27725428
252	0xbed99419	-0.42495802
253	0x3ddfa503	0.10920145
254	0x3f13445d	0.5752619
255	0x3e93fcca	0.289038

classify.bias f4 [4]
0	0xbe14244c	-0.14466971
1	0x3dec8c32	0.11550178
2	0x3b50cac9	0.003185915
3	0x3ce8e203	0.028428083
