BCI/output/openBMI/LightConvNet/sub9/2023-10-05--17-38/model.pth (torch, 51356 bytes, 9 tensors)

spacial_block.0.weight f4 [64, 9, 20, 1]
000000 27 00 5a 3c fc 6e 68 3d 99 00 d0 bd 0b 3e cc bd
       0.0133057 0.056746468 -0.10156364 -0.09972771
000010 c4 7e ee b9 52 f3 83 3d 9a ad dc bb 40 07 88 3d
       -0.00045489345 0.06442894 -0.006734562 0.06642008
000020 08 9f 6e bc b4 f1 60 3d f6 05 0f bc 63 85 bc 3b
       -0.014564283 0.054918006 -0.008729449 0.0057532056
000030 1f 11 ec bc ac e7 8d bc df 19 67 bd 52 81 cd 3c
       -0.028816758 -0.017322384 -0.056421157 0.025086079
000040 aa 81 b4 3c 48 51 f8 3c 06 84 83 bb 02 9c 8e bc
       0.022034485 0.030312195 -0.004013541 -0.017408375
000050 7b 84 06 3c d1 f0 58 3d f4 58 9c bd d7 32 c8 3c
       0.008210297 0.052964035 -0.07634154 0.024438305
000060 d6 2e 75 bb e9 24 4b 3b 36 7a 83 3d 6e e3 fe 3b
       -0.003741195 0.0030997342 0.06419794 0.0077785766
000070 73 6c 99 bd 38 58 73 bd 8c f4 5e 3c 60 f6 d9 3d
       -0.07491388 -0.059410304 0.013608109 0.106426954
000080 97 8b 1e bd 27 17 8d bc 38 80 b7 ba a6 7f 99 bd
       -0.038707342 -0.017222954 -0.0014000004 -0.0749505
000090 78 8e 22 bd 86 35 da 3d 8c 4b 79 3d 52 02 1a 3d
       -0.03968665 0.1065474 0.060863063 0.03759987
0000a0 ec 91 87 3b cc b7 d8 bc 68 09 92 3d 1f 5e f0 bb
       0.0041372683 -0.026454829 0.071307 -0.007335439
0000b0 05 27 98 bd 79 76 ef bc 1a ea 0f 3d 88 60 79 3c
       -0.074293174 -0.029231297 0.035135366 0.015220769
0000c0 28 64 07 3c c7 aa 33 3d 2f ae 09 bd fa f9 8b bd
       0.008263625 0.043864038 -0.03361338 -0.068347886
0000d0 4d 89 5f bd f9 f9 95 bb 80 27 95 3d f1 a7 76 bb
       -0.0545743 -0.004576918 0.07282925 -0.0037636722
0000e0 b6 38 ba 3d cf 59 48 bd 22 d5 fb bd fc cf d0 bd
       0.09092848 -0.048913773 -0.12296511 -0.1019592
0000f0 a8 a0 9e 3c ef fd 89 3c f0 ef 54 bd b3 a3 38 3c
       0.019363716 0.016844718 -0.051986635 0.011269498
000100 22 e5 1a 3d 47 a1 db bc 29 87 dd bc 8d 19 fc bb
       0.037816174 -0.026810301 -0.027041988 -0.0076934756
000110 32 cf f5 3c e0 23 6f 3d 9a 66 95 bd 79 36 2b bd
       0.030006025 0.058383822 -0.0729496 -0.041799996
000120 8f 52 8e 3c 47 a6 ed 3c 40 47 2b 3d 05 c7 2d 3d
       0.017373351 0.029009951 0.041815996 0.042426128
000130 65 21 63 39 08 1a 98 bd 96 67 8e bb 98 fc 56 bd
       0.00021660847 -0.0742684 -0.0043458445 -0.052486986
000140 c7 e6 9b bd 68 54 92 3d 13 3b 68 3d 4c cf 8e bd
       -0.07612377 0.071450055 0.056696963 -0.069731325
000150 8e 17 94 3c 18 6b dd bc b5 81 a3 bc 91 57 ce bc
       0.018077638 -0.027028605 -0.01995931 -0.02518824
000160 8c 55 03 3d b1 f6 45 bd 8d d6 b0 3c ba 9d 95 3c
       0.032064006 -0.048330966 0.02158668 0.018263686
000170 57 14 1f 3d 9b c9 2b 3d bb 7c 52 bd 54 80 16 bd
       0.038837757 0.041940313 -0.051388483 -0.036743477
000180 4f a3 1d 3d 2b df 60 3c 06 fa 70 bd 94 90 42 bd
       0.03848582 0.013725082 -0.05883219 -0.04750116
000190 d5 ab 93 3d d7 e4 7f 3d b0 34 82 bc 8e ee 24 3a
       0.07210509 0.062474098 -0.015894264 0.0006291651
0001a0 cf ad 7d bd 81 4a 8c bc 01 8b 98 bd 96 8e 6c bd
       -0.061933335 -0.01712537 -0.07448388 -0.057753168
0001b0 67 cd 80 3b 98 46 98 3c a6 dd f3 bc 90 66 22 3d
       0.003930736 0.01858835 -0.029768776 0.039648592
0001c0 f8 9c 74 bd 9a 7a 79 3d 67 73 65 3d 90 78 75 bd
       -0.05972001 0.060907938 0.05601826 -0.05992943
0001d0 08 ec 4e bc 6e c3 e4 3b 63 2a 54 3c 11 f2 85 3c
       -0.012629516 0.006981305 0.012949559 0.016350778
0001e0 76 b6 e1 3c 5d b0 bb 3c 8d a9 50 bc dd 7f 7e 3d
       0.027552824 0.022911245 -0.012735737 0.06213366
0001f0 c5 0f 44 bd 2b 7b 48 bd 4d c8 bd bc a3 b8 bd bc
       -0.0478666 -0.048945587 -0.0231668 -0.02315933
000200 94 c9 06 bc 15 9c 3f bd e9 8f ad bb 57 be 80 3c
       -0.008226771 -0.04677971 -0.0052966964 0.015715761
000210 6b b2 66 bd 65 cd 70 bb 8f 85 7f 3d 1e 87 09 3b
       -0.056322496 -0.0036743518 0.06238323 0.0020985077
000220 68 69 28 3c 83 27 5e bb 68 1b 9b 3c f4 2c 35 3d
       0.010279037 -0.0033898063 0.018933967 0.044232324
000230 fb ad 92 3d 02 a7 42 3d 0c 84 a1 3d 8f 46 37 3c
       0.071620904 0.047522552 0.07886514 0.011186256
000240 e7 d5 4c bd b6 0d d4 bc 47 be 5c 3c e7 ca 34 bc
       -0.05000868 -0.025885444 0.0134731 -0.011034704
000250 8e 56 fa bc e8 ff 42 bd d1 f3 7c bd d0 a3 61 bd
       -0.03055885 -0.047607332 -0.06175596 -0.055087864
000260 9c 19 00 bc 76 ca 13 3d cf 6c 2b 3d 85 47 86 bd
       -0.007818606 0.036081754 0.041851815 -0.0655661
000270 c1 2e 62 3d 45 d3 34 bd 2c e8 47 3b 6f 11 f5 bb
       0.05522037 -0.044146795 0.0030503375 -0.007478885
000280 99 70 85 ba ff d3 06 3c b7 b9 39 bd a4 c6 41 bd
       -0.0010180651 0.008229255 -0.045343127 -0.04730858
000290 1c 38 05 3a e3 79 f8 bb e7 5d ed bc fc 22 33 3d
       0.00050819083 -0.0075828894 -0.02897544 0.043734536
0002a0 28 37 56 bd bf 7b 6b 3b 48 e5 8c 3d b0 98 1c bd
       -0.052298695 0.0035931913 0.068796694 -0.03823155
0002b0 9c 31 6a 3d 46 d3 08 3d 95 bc 59 bd 5e 48 62 3d
       0.057176217 0.03340461 -0.05315836 0.055244796
0002c0 29 5f 4b 39 37 e3 00 bd b9 2b 78 3d 1b 51 81 bd
       0.00019395039 -0.03146669 0.060588572 -0.06314298
0002d0 d7 1d 80 3b 39 28 b8 bc e3 83 72 3d e7 2c 53 3c
       0.003909807 -0.022480117 0.05920781 0.0128891235
0002e0 fa 8e d3 3c a6 27 d8 3b e5 93 87 bc ec 63 21 bc
       0.025825012 0.0065965233 -0.016550014 -0.009850483
0002f0 57 d2 4a bd f8 c1 3c 3d 8a 4b 68 3d 53 c2 27 3d
       -0.049517002 0.04608342 0.056712665 0.040956806
000300 c3 90 3d bd 58 8f 5a 3b b2 88 8b bd 51 bb 54 bd
       -0.046280634 0.00333496 -0.06813182 -0.05193645
000310 cf ad 09 bd 70 82 9e 3c 09 a1 45 bd 43 54 cd 3b
       -0.033613022 0.019349307 -0.04824928 0.0062661483
000320 e4 f9 93 3b 98 1b 5e 3d 0a 5a 47 bd c6 74 38 bd
       0.0045158733 0.054225534 -0.048669852 -0.04503324
000330 17 b1 2c bd cb 90 6b 3d cf c1 49 ba c9 9e bd 3d
       -0.042161074 0.057511132 -0.0007696421 0.092588015
000340 9a 65 32 3d 80 90 a8 3c 34 c1 ed 3b 65 5e 23 bc
       0.043553926 0.020576715 0.0072556976 -0.009971236
000350 c5 67 4c 3c 38 52 2b bb 40 27 e6 3c 84 76 04 3d
       0.012475912 -0.0026141535 0.028094888 0.032339588
000360 81 24 39 bd 9f e4 fa bc 4b 0a 86 3d c0 90 6d bd
       -0.04520083 -0.030626593 0.06544932 -0.057999372
000370 b8 2d f6 bc 00 34 17 3d fe cb 07 3c 14 4e 5c bc
       -0.030051097 0.036914825 0.008288382 -0.01344635
000380 2a e8 9f bd 10 eb 19 3d 1a 8c a0 bd 36 0d 82 bd
       -0.07807954 0.03757769 -0.07839222 -0.06350176
000390 ce 49 59 bd 27 cf cb bc c9 ab 9c bb 13 bf 81 3d
       -0.0530489 -0.024879051 -0.0047812206 0.06335273
0003a0 12 47 75 3c 73 23 0b 3d 2b 70 e3 3b 1b c0 98 bd
       0.014970558 0.033969354 0.0069408617 -0.07458516
0003b0 bc 2b d4 3c 83 56 51 bd 69 0f fc bc 76 42 c8 3c
       0.02589976 -0.051107895 -0.030769067 0.024445754
0003c0 c7 86 d8 3c aa a2 43 3d 35 2d ca bc 24 27 03 bc
       0.026431454 0.04776255 -0.02467976 -0.008004937
0003d0 a6 30 f5 3c e1 27 8f bd 86 9f 5c 3d f3 62 80 bd
       0.029930424 -0.06990028 0.05386307 -0.06268873
0003e0 29 1a b9 bb ea de 77 bc 12 ec 2d bd 9c 85 9d 3b
       -0.0056488705 -0.01512883 -0.042461462 0.0048071872
0003f0 dc 65 8a 3d 5c ea c0 bc 6c 76 67 bd 90 e3 26 bd
       0.067577094 -0.023549251 -0.05650942 -0.040744364

spacial_block.0.bias f4 [64]
000000 66 a1 ce bc 86 58 7d bd c2 80 ae 3c 5f 9f 03 bd
       -0.025223445 -0.061852 0.02130163 -0.03213441
000010 4a 67 89 3b 4a 55 39 bd 59 d7 20 3d d4 9f 5f bd
       0.004193221 -0.045247354 0.03926787 -0.054595783
000020 04 ed 7c bd c0 3b 91 bd 68 27 87 3d 1b 42 15 3d
       -0.061749473 -0.070914745 0.06599313 0.036439996
000030 86 75 53 bd 48 b3 8b bc a1 3c 6b 3d 4a fe b9 3c
       -0.05162575 -0.017053261 0.057430867 0.022704262
000040 b0 f9 89 3d d2 24 39 bc ef 82 f5 bb 13 f2 5f 3d
       0.06737077 -0.011300283 -0.007492415 0.05467422
000050 ae 7e 1b bb dc 72 89 bd a8 8c 9d bc da af 5e 3d
       -0.002372663 -0.06711361 -0.01923211 0.054366924
000060 8b 9c fe 3c 1b 47 84 bc 66 85 96 bd e5 42 67 3d
       0.031080505 -0.016147187 -0.073496625 0.05646028
000070 49 66 85 bc 83 dc 8e bc 81 80 88 3d c9 23 2c 3d
       -0.016284125 -0.017439133 0.06665135 0.042026315
000080 e4 2d c5 3c b0 ee ce 3c b1 ff b3 3a 16 49 bd 3b
       0.024069734 0.0252603 0.0013732818 0.005776535
000090 c7 18 22 bd 81 c0 c8 3c 42 bc 17 3d 6d b5 25 3d
       -0.03957441 0.024505856 0.03704477 0.040456224
0000a0 a7 61 18 bd 53 b7 9a 3b d2 6f 51 bb 5d f9 31 bd
       -0.037202504 0.004721561 -0.003195752 -0.043450702
0000b0 74 eb 84 3c 1c b7 2d 3d 07 68 d6 3b 38 56 0b bd
       0.016225554 0.042410955 0.0065431627 -0.03401777
0000c0 31 9e 73 3d 45 4c 21 bd f0 aa ec 3c e2 77 46 37
       0.059477035 -0.039379377 0.028890103 1.1829632e-05
0000d0 4a 8a d5 3c ff ed eb 3c 72 eb 8e bd 10 82 93 3c
       0.026066918 0.028800009 -0.069785014 0.018006355
0000e0 22 4d 51 3a 48 50 74 bd f6 73 42 3d a7 09 f2 3b
       0.0007984211 -0.059646875 0.04747387 0.0073864046
0000f0 37 df b9 bc aa be 36 bb 46 c7 56 3d c6 40 db bc
       -0.022689445 -0.002788464 0.052436136 -0.026764285

spacial_block.1.weight f4 [64]
000000 87 e6 78 3f 52 89 82 3f f5 e8 7f 3f 25 3c 86 3f
       0.97226757 1.0198157 0.9996484 1.0487105
000010 10 ec 82 3f 00 30 83 3f 13 67 7c 3f d6 f4 86 3f
       1.022829 1.0249023 0.9859478 1.0543468
000020 58 5e 83 3f 32 6e 92 3f ba ab 83 3f 48 4b 7b 3f
       1.0263166 1.1439879 1.0286782 0.98161745
000030 e7 82 8c 3f ff 89 9b 3f b3 48 7b 3f a1 07 7b 3f
       1.0977448 1.2151488 0.98157805 0.98058516
000040 f9 78 87 3f 53 53 7b 3f cd 5a 79 3f 7d 78 88 3f
       1.0583793 0.9817402 0.97404176 1.066177
000050 f0 62 82 3f 80 c5 84 3f fe aa 7d 3f a6 9f 83 3f
       1.0186443 1.0372772 0.9908904 1.0283096
000060 a4 a0 83 3f 43 9f 83 3f af 20 8f 3f 27 55 7d 3f
       1.0283399 1.0282978 1.1181849 0.9895806
000070 28 e5 7b 3f d9 80 83 3f ad 68 83 3f a5 88 85 3f
       0.9839654 1.0273696 1.026632 1.0432326
000080 ce 6e 83 3f 1a 14 85 3f 5d 6f 83 3f 61 99 83 3f
       1.026819 1.039676 1.026836 1.0281183
000090 d6 c1 7b 3f 72 33 88 3f 9e 35 82 3f 63 b5 82 3f
       0.98342645 1.06407 1.0172613 1.0211605
0000a0 39 6b 94 3f 47 fa 84 3f 5b 9d 7d 3f b3 fb 84 3f
       1.1595222 1.0388879 0.9906823 1.0389313
0000b0 25 ec 86 3f cc 94 78 3f c9 21 79 3f 4e 37 8a 3f
       1.0540816 0.97102046 0.9731718 1.0798128
0000c0 1f d0 83 3f 88 48 84 3f bc 2d 87 3f 9e e1 84 3f
       1.0297889 1.0334635 1.0560832 1.0381353
0000d0 2e 5d 7c 3f 47 4d 80 3f d4 7f 84 3f 0f b6 86 3f
       0.9857968 1.0023583 1.035151 1.052431
0000e0 74 cb 83 3f 8c d3 82 3f 6d af 83 3f 25 fa 7a 3f
       1.0296464 1.0220809 1.0287911 0.9803794
0000f0 ba a1 83 3f 35 94 7b 3f 02 70 77 3f 1d 05 7c 3f
       1.028373 0.9827302 0.96655285 0.984453

spacial_block.1.bias f4 [64]
000000 92 62 9e 3c 93 a8 32 3d 72 79 a9 bc f4 14 a3 bc
       0.019334111 0.043617796 -0.020687792 -0.019907452
000010 93 7d e2 bb f3 2a 54 3d 9e d0 53 bd 9a 0b 10 bc
       -0.0069119423 0.051798772 -0.051712625 -0.0087918285
000020 2e a3 34 3c 1c 39 45 be 8c b4 d4 3c 41 0f ee bc
       0.011025233 -0.19260067 0.025964998 -0.029060008
000030 d0 1a a0 bd 52 2a 45 be 0f ba 33 bd 71 1a c7 bc
       -0.07817614 -0.19254425 -0.04387861 -0.0243046
000040 f8 57 98 bd 93 3f 14 bd 59 7a 94 3b c2 8e cf bc
       -0.07438654 -0.03619344 0.0045311865 -0.025336627
000050 8b cc 4c bd a5 ca 48 bd b6 c6 b4 bd 7d 4e af 3c
       -0.049999755 -0.049021382 -0.088269636 0.02139973
000060 61 5e 7a bc 7b 46 cc 3c d6 f6 ef bd b9 4c 8c bd
       -0.015281291 0.024935951 -0.11717002 -0.06850571
000070 cc d7 68 bd 9a 4c dc bc 90 c0 40 bd fb 7c 76 bd
       -0.056846425 -0.026891995 -0.047058642 -0.060177784
000080 85 f3 3c ba 9a 56 23 bd 7c ff 7f 3d 81 22 6c 3d
       -0.0007207918 -0.03987751 0.06249951 0.057650093
000090 00 cd 23 bd b3 62 b7 bd 10 db 98 bd 2b 46 1a 3d
       -0.039990425 -0.08954372 -0.07463658 0.037664574
0000a0 62 54 31 bd 7c 3a f8 bd bf 68 85 bd 6f 9c 81 bd
       -0.043293364 -0.1212053 -0.06514119 -0.063286655
0000b0 48 b7 4e bc 26 a0 87 bd 2d f1 a3 bc 77 2d 88 bd
       -0.01261694 -0.06622343 -0.020012463 -0.06649297
0000c0 6e ee 89 bd ab 30 60 bd 21 60 d2 bd 05 99 47 bc
       -0.0673493 -0.054733913 -0.102722414 -0.012182479
0000d0 7b 4c b7 bc f1 19 e9 bc 16 54 15 bd cf c3 64 bd
       -0.022375336 -0.028454753 -0.036457144 -0.0558508
0000e0 cf c5 02 3c 55 93 23 be 25 85 59 bd 33 bb fe bc
       0.007981732 -0.15974171 -0.053105492 -0.031095123
0000f0 b7 c4 55 3d 36 1c 38 bc 2e 16 57 bc b4 2c d2 bc
       0.052189555 -0.011237195 -0.013127847 -0.025656082

spacial_block.1.running_mean f4 [64]
000000 05 d2 60 bf e2 53 1b bf ad 9a 42 3e b2 71 10 3e
       -0.87820464 -0.6067487 0.19004317 0.14105871
000010 4f e4 22 3e 3f e1 bc be ef 00 b4 be 77 49 d9 bd
       0.15907405 -0.368906 -0.35156962 -0.106097154
000020 7c f2 17 3e 3c ca da 3d 98 38 0c be f2 e1 86 be
       0.14838594 0.106831044 -0.13693464 -0.26344258
000030 b9 07 84 be 49 69 56 3e 3e 22 bf 3c c2 ec 60 bf
       -0.25787142 0.209386 0.023331758 -0.87861264
000040 69 90 a2 3e 18 96 f4 bd b0 20 2b bf 05 96 bf bd
       0.317508 -0.119426906 -0.6684675 -0.09354786
000050 cb c5 05 3e e6 f0 9f be 04 b9 2a bf d1 16 f0 bd
       0.13063733 -0.31238478 -0.6668856 -0.11723102
000060 93 5e a8 bd 52 1f fc 3a f3 97 24 3e be b2 92 3e
       -0.082211636 0.0019235408 0.16073589 0.28651994
000070 57 3e e2 3e 41 a8 f5 3e 23 a1 1e 3f 84 63 f5 3e
       0.44188187 0.4797993 0.61964625 0.47927487
000080 13 72 a8 3e 3e 48 11 3f 24 de bd 3e 81 7b 38 bf
       0.32899532 0.5675086 0.37083542 -0.7206345
000090 63 5f 7d be d5 b7 c7 be 2c aa 88 be c9 f8 b5 be
       -0.24743418 -0.3900744 -0.2669233 -0.3554137
0000a0 3c b3 19 bf 01 11 64 3e 76 90 c7 be a1 fb 0d 3e
       -0.60039115 0.22272111 -0.38977402 0.1386552
0000b0 1a 33 d1 bd 3a d6 d3 be e6 20 cd 3e 15 2e 90 3e
       -0.10214825 -0.4137438 0.40064162 0.28160158
0000c0 51 6d 93 3e 84 b1 49 3f 7a f1 ab 3e 09 bb e5 be
       0.2879434 0.7878649 0.3358267 -0.4486926
0000d0 e9 b1 01 c0 20 bf ba 3e f3 5d 8e 3e ac d9 4d 3e
       -2.0264838 0.36473942 0.27806053 0.20102566
0000e0 6c 58 88 be 85 3c 3d be da d2 5f 3f 43 40 8c 3e
       -0.2662996 -0.18480118 0.8743111 0.27392778
0000f0 c5 23 1d bf cf 6e b1 bd 06 d3 46 3f 4c 63 8b 3d
       -0.61382705 -0.08663713 0.77665746 0.06806049

spacial_block.1.running_var f4 [64]
000000 7d 8c 79 41 8e fa 31 41 6c 51 26 40 83 77 8c 3f
       15.596799 11.123671 2.5987196 1.0973972
000010 6f f4 9f 40 1f 50 1c 41 6e 9d c0 40 3f 54 48 40
       4.998588 9.769561 6.0192175 3.130142
000020 3f f9 e9 40 cf 1c 80 3f 6f e1 29 40 86 fa 01 40
       7.3116755 1.0008792 2.6543844 2.0309157
000030 84 37 80 3f a8 89 e7 3f e8 f1 87 40 d8 d3 ea 41
       1.0016942 1.8088884 4.2482796 29.35344
000040 04 b7 82 3f 3b 08 56 40 e2 ed c9 41 e0 f7 04 40
       1.0212102 3.3442523 25.241154 2.077629
000050 41 17 02 40 4c 1e ad 3f 50 ea 52 40 f8 93 f1 3f
       2.0326693 1.3524871 3.2955513 1.8873281
000060 1c fd b3 40 07 4e c6 40 00 e1 de 3f 48 5e 80 40
       5.624647 6.197025 1.7412415 4.011509
000070 b4 56 cb 3f 6b 1d 3f 40 ee 27 46 40 ef f7 9e 3f
       1.5885835 2.9861705 3.096187 1.2419413
000080 f8 a9 a3 40 79 45 a6 3f dd 5d 92 40 5c 41 ac 40
       5.114498 1.2989951 4.573958 5.3829784
000090 b8 5d 23 40 90 9c 79 3f f4 df d5 3f f4 47 94 40
       2.5525951 0.9750452 1.670897 4.6337833
0000a0 55 a5 da 3f 0a 58 d3 3f 5a 86 f1 3f 06 cd 94 40
       1.7081705 1.6511242 1.8869126 4.6500273
0000b0 f8 d4 b6 3f c2 ad 1e 41 5d bd 00 41 85 0b 34 40
       1.4283743 9.917421 8.046231 2.813203
0000c0 0c 00 03 40 68 7b 20 41 a2 79 54 40 69 8e c5 3f
       2.0468779 10.0301285 3.3199239 1.5434085
0000d0 e7 c2 40 43 15 d9 48 40 ed f6 d5 3f 41 52 d4 3f
       192.76134 3.1382496 1.6715981 1.6587602
0000e0 95 5a 4d 40 7d c6 9d 3f c9 b2 db 40 49 9c 2e 40
       3.2086537 1.2326199 6.8655744 2.728289
0000f0 85 47 02 40 8c 10 a7 3f 75 d6 f4 41 04 fd d8 40
       2.0356152 1.3051925 30.604715 6.7808857

conv.weight f4 [8, 1, 4]
000000 ee a0 c7 be d4 80 3a 3e 13 ac 0a 3d b6 d9 2e 3c
       -0.38989967 0.18213207 0.03385551 0.0106720235
000010 d3 52 a2 be bd 2c 0f 3f 1c 8e a8 be b3 94 8a be
       -0.31703815 0.5592764 -0.3292092 -0.27066574
000020 7c 31 f2 bc 92 de 8c 3e 3f 92 50 3f a2 fe 9f be
       -0.029564612 0.27513558 0.81473154 -0.31248957
000030 2e e7 39 bf 86 25 12 3e 40 0d 27 3f 27 0e d2 be
       -0.7261838 0.14272127 0.6525459 -0.41026422
000040 d9 52 ca 3d 8a c5 1e be 72 4b 68 bc e8 db f8 3e
       0.09879083 -0.15505043 -0.014178144 0.48605275
000050 bb 05 ef 3d 81 05 a5 bd bf 0c e6 3e f2 4c 3c bf
       0.11671015 -0.080576904 0.449316 -0.7355491
000060 a1 5c e0 be 2d 69 06 3f 6f 3f 9e be 2e d5 52 be
       -0.4382067 0.52504236 -0.3090777 -0.20589134
000070 40 36 a6 be 72 6d c4 bc 77 f2 fc bd 2f a1 09 be
       -0.32463264 -0.023977969 -0.12350934 -0.13440393

classify.weight f4 [2, 64]
000000 62 6e f5 3d bc 78 c0 bc d5 c0 18 3e 00 3b 08 be
       0.119839445 -0.02349507 0.1491731 -0.13303757
000010 ed c9 91 bd 1c b7 1e be ba a8 32 3e ae 99 ff bc
       -0.071185924 -0.15499538 0.17447177 -0.03120121
000020 cb ac 43 bc f9 dc 10 be c1 a5 17 be e4 63 2b 3e
       -0.0119430525 -0.14146794 -0.14809324 0.16737324
000030 bc 56 ef bb 41 6b ed 3d b0 78 89 3d c8 9e 92 3d
       -0.0073040407 0.11592723 0.067124724 0.07159191
000040 47 72 e8 bd a0 6b 30 3e db 87 53 3d d2 ea 6e bd
       -0.11349922 0.17228556 0.051643234 -0.05832941
000050 dc 7e 32 3e ed 56 25 be b1 8a e9 3d d1 65 c6 bd
       0.17431206 -0.16146441 0.114034064 -0.09687389
000060 e4 e0 15 be 4c 3c aa bd ed c5 17 be 3b 72 2f 3e
       -0.1463657 -0.08312282 -0.14821596 0.17133419
000070 a9 c0 59 3d f8 a0 0c be 83 4f f4 bd d0 db e9 bd
       0.05316225 -0.1373328 -0.11929228 -0.11418879
000080 ca 98 19 be 59 78 21 bd 61 d2 66 bd da c0 33 be
       -0.1499969 -0.039421413 -0.056352977 -0.17554036
000090 14 0d e7 3d 14 f6 c5 bd fc 7f 1e 3d c1 80 15 be
       0.11281791 -0.09666076 0.038696274 -0.14599897
0000a0 ca 28 46 3e 32 c5 81 3d 8c af 9f 3d f1 30 7b bd
       0.19351497 0.0633644 0.07797155 -0.06132597
0000b0 44 54 f8 bc 0c 51 fd 3d 16 c6 f1 3c 25 71 a0 bd
       -0.030313618 0.12368974 0.0295134 -0.078340806
0000c0 2e 15 95 3d c4 9d 1c be 00 a0 23 bd b2 ee ff bd
       0.0727943 -0.15294558 -0.03994751 -0.124966994
0000d0 a1 36 df 3d 69 72 26 3e 84 82 23 bd ec 38 ea bd
       0.108990915 0.16254582 -0.03991939 -0.11436638
0000e0 cf 45 84 bd ec d1 4c 3e 22 7c 71 bd 6c d1 f4 3d
       -0.064586274 0.20001954 -0.058956273 0.119540066
0000f0 ce 1e ef bd 37 0a ae 3c 48 3f a3 3d 35 81 0e 3e
       -0.116757974 0.021245105 0.07971054 0.13916476
000100 62 40 4f bd c0 08 7f 3c 43 d8 a9 bd ee a8 97 bc
       -0.05059851 0.015566051 -0.08293202 -0.01851317
000110 86 e3 21 3e 9a ce e5 bb b3 e3 d3 bd 31 ab 15 3e
       0.1580945 -0.007013154 -0.103461646 0.14616086
000120 ba ab f2 3d db 45 11 3d b5 36 2a bc bd 06 18 be
       0.118491605 0.03546701 -0.01038902 -0.1484632
000130 8e b6 fe 3d ae cb 26 be 42 81 e4 bd 09 b9 10 be
       0.12437163 -0.16288635 -0.111574665 -0.14133085
000140 e1 3a 8b 3c c5 d4 24 bc 74 ae 0d be 54 ee fd 3d
       0.01699585 -0.010060494 -0.1383608 0.12398973
000150 92 62 43 be 15 e8 49 3e 0f 07 02 be 12 b9 21 3e
       -0.1908057 0.19717439 -0.12698005 0.15793255
000160 8e f9 e1 3c 67 ce f3 3d 35 f4 b6 3d f2 0c f4 bd
       0.027584817 0.119046025 0.089332975 -0.119165316
000170 fc 99 70 bd 1e e2 d2 3d 80 13 be 3d bc fe 26 3e
       -0.0587406 0.10297035 0.09281063 0.16308111
000180 8c f8 f6 3c 4b 89 a5 3d bf 37 10 3e 98 69 f7 3b
       0.030147813 0.08082827 0.14083765 0.0075504296
000190 94 a2 04 be 8c 75 02 3e ef 47 b8 bd aa 7e 9b 3d
       -0.12952644 0.12740153 -0.08998095 0.07592519
0001a0 f3 20 90 bd be 60 ce bd cb aa ba bd f2 6f 3c 3e
       -0.070375346 -0.10077046 -0.091146074 0.18402079
0001b0 b5 9a e2 3d b1 c2 3b be b8 f3 28 be b7 b2 c5 3c
       0.11064664 -0.18335988 -0.16499221 0.02413307
0001c0 da 07 1e be da 4d 18 3e 92 76 23 3e 81 d1 1f 3e
       -0.15432683 0.14873448 0.159632 0.15607263
0001d0 a5 54 b7 3d dd 7b 50 3d 98 2b 32 3e de 8b 9d 3d
       0.089516915 0.050899375 0.17399442 0.07692693
0001e0 9d 10 0e 3e c0 df 82 bd 90 17 c9 3d 3e 2c f8 bd
       0.13873525 -0.06390333 0.09818947 -0.121178135
0001f0 1f e0 a8 3d c9 34 18 be 56 21 a5 bc 57 e6 f6 bd
       0.08245873 -0.14863886 -0.020157497 -0.120556526

classify.bias f4 [2]
000000 6d 72 72 bb 73 a8 e6 3c
       -0.0036994473 0.028156495
