BCI/output/openBMI/LightConvNet/sub22/2023-10-05--17-38/model.pth (torch, 51356 bytes, 9 tensors)

spacial_block.0.weight f4 [64, 9, 20, 1]
00000000: 8cbd 85bc a347 53bc 89dd c7bc ad16 c5bc
00000010: 642b ddba 39e7 593d 7859 0f3c 0748 463d
00000020: a088 b53c 66fd a53c bf9c 47bd 80d1 733c
00000030: 15b5 9fbc 96a3 c2bb 0f07 1ab9 efa4 f8bc
00000040: 03e4 433d 9ef1 29bb cb04 773c 35a1 4cbd
00000050: 9819 3ebd 69e7 8f3d 827c e5bc c594 3abd
00000060: 9275 c2bd cee3 50bd 6e8c ba3d 83f4 db3c
00000070: 7cd6 e73c c4bd 90bd 5380 bf3c d8ee 373e
00000080: 04c6 0dbd 8ffa 49bd e8e7 2dbd 0afa b4bd
00000090: c29d 5abd be38 943d 6c3b bb3d d9d9 d83c
000000a0: bffd 38bd b093 5cbd a918 c7bc c93c 7cbd
000000b0: c302 8c3b 0262 b1bb b0ec 823a 662a 013c
000000c0: 26c3 0a3b ef3b 083d 3e4c d13b be01 15bc
000000d0: 16e6 f53c 269e 0ebd 2889 6b3d cf22 3d3c
000000e0: 54d3 873d 6412 3dbd 3249 03bd a697 7cbc
000000f0: 3e43 823c e040 a03c 08ea 6dbd 409e 243c
00000100: da11 ee3c 0d58 19bd d00c 17bd 15ae 65bd
00000110: c335 853d add6 653d 045f 21bd 6b64 0fbd
00000120: 4192 f13b 018e 293b f806 613c c6ac 903c
00000130: 0fd4 203c 49f7 a1bd d858 c43d 9cad fcbc
00000140: 3e05 13bd 2efe 273c 1bbf 273d eac6 cfbd
00000150: 0f66 293d cd74 83bb 743f 303d da49 16bd
00000160: 45e9 9d3d 70a4 aebd 2965 3b3d feaf 4b3d
00000170: cfef 873b 0c31 1dbc b6f5 30bd a254 3ebd
00000180: ff6b 123d ea94 823d 9415 c73d 2bda dfbd
00000190: 0e28 dd3b 1aaf 373c 1a5f a8bc 5365 8c3c
000001a0: 42b5 06bd fd18 b3bc 6711 12bd 0c08 2dbd
000001b0: 0714 3e3d 12a0 1e3c 3890 c0bb e309 953d
000001c0: bf63 e9bd 3840 ce3c d44c 073d d510 85bd
000001d0: 8b83 73bc 0b1a 483c 7ea8 033e 16dc c0bc
000001e0: 8489 c5bc a63e fdbc 4272 a8bb 3a23 7c3d
000001f0: 4676 90bc 0995 3fbc 6043 a0bb aadd f8bc
00000200: d7fd 803d 109a 15bd 230b 7f3c c0e2 293c
00000210: db37 82bd 54a8 18bd 324d 373d 167e 10bc
00000220: 6c5c 0f3c 2faa 82bc cf24 ee3d 41ff 87bc
00000230: 6f52 d0bc 2f8d 53bc b2c4 2d3d 4d70 0b3d
00000240: bd85 f9bb f882 e6bb 14a9 5bbd 512f 183d
00000250: 43c2 4b3d 241f 2fbd 9c4f 21bb d288 ddba
00000260: 5c00 c5bc 6eba 02bd d038 673d 6ce2 0bbd
00000270: 0faa 5a3d 98c7 8fbc df93 dd3d b837 a4bd
00000280: 4a2c f9bc 2552 5a3c 40d9 beba 861a 18bd
00000290: b9c5 41bc 4269 ddbc dc25 ccbc d8fc f0bc
000002a0: 1909 973c 98b0 193d 3b99 ee3d 5184 303b
000002b0: aa94 eabc 4b17 0bbc d9b2 63bd 3a2f 9b3d
000002c0: 00a1 953c 5016 f83b 94cc 3d3e b9de 07be
000002d0: 3027 9abc 0dd2 e43c 4c24 b63c 9c3c ca3c
000002e0: 5825 49bd 92b0 8f3c 10cb 15bd 0dbc 1abc
000002f0: d3c7 2abd a26b dd3c 156d 103d 44f2 df3c
00000300: 23f0 2abd ef1b 863d 9120 d9bc fbcb 9bbc
00000310: 20aa 133c f146 b93b 3119 85bd fd1c 1a3d
00000320: d191 043d 382f a23d 1516 19bc 3cfb b8bc
00000330: 6ce2 73bd c2a2 233d eaef 92bd 4a39 e53d
00000340: 4609 873c 7541 603b 58fa bc3b 2d31 a3bc
00000350: 9fda 90bc 8945 62bd 5541 6ebb b1a9 12bd
00000360: 94f8 0d3c 1aec 7dbd 2ac8 613d d359 0c3d
00000370: eb1d 16bd 97de 1a3d 190d a5bd 1796 2dbd
00000380: dce3 f6bd a75e 713d 3fb7 e13c fc91 9b3d
00000390: 62db 633d 731f 27bd 1dde b3bc 657c 233d
000003a0: 980c 4f3c a02a 7e3c 7274 9c3d 5a0d 4e3c
000003b0: 21d2 0c3e 6f0d 10be 79c6 96bd afca bb3d
000003c0: 651f 45bb 7c8a 6c3d a530 213c f76d c83c
000003d0: 54f0 41bd 85cb 173c 0731 de3c ee61 cebc
000003e0: f230 8b3c bb7b 2ebd 0d47 e93b 8cdc bd3c
000003f0: 6cc4 be3c f664 f73b f251 edbc 9f22 adbc
-0.016325735 -0.0128954975 -0.024397628 -0.024058664 -0.0016873893 0.053199027 0.008749358 0.048408534
0.022159874 0.020262431 -0.04873347 0.014881492 -0.019495526 -0.005939911 -0.00014689214 -0.030352084
0.04782487 -0.0025931369 0.015076826 -0.049958427 -0.046411127 0.0702656 -0.028013472 -0.045552034
-0.09495081 -0.0509985 0.09108816 0.02684999 0.028300516 -0.07067445 0.02337662 0.17962205
-0.03461267 -0.049311217 -0.04245749 -0.08836754 -0.053373106 0.07237385 0.09142193 0.026471065
-0.045163866 -0.053851783 -0.024303751 -0.061581407 0.00427279 -0.005413295 0.0009988751 0.007883644
0.0021173446 0.033260282 0.0063872626 -0.009094654 0.03001694 -0.03481879 0.05750385 0.011543944
0.066321045 -0.046160117 -0.032052226 -0.015417015 0.015901204 0.019562185 -0.058084518 0.010047495
0.029061247 -0.037437487 -0.036877453 -0.05607422 0.06504395 0.056112934 -0.039397255 -0.035007875
0.007372171 0.0025871994 0.013734572 0.01766051 0.009816184 -0.07908494 0.09587258 -0.030844502
-0.03589367 0.010253472 0.040953737 -0.10145362 0.041357096 -0.0040117265 0.043029264 -0.036691524
0.07710508 -0.08527458 0.04575077 0.049728386 0.0041484605 -0.009594213 -0.04320308 -0.04646743
0.035747524 0.06376059 0.097209126 -0.10930284 0.0067491597 0.011211181 -0.02055316 0.017138159
-0.032887705 -0.021862501 -0.035661127 -0.042244002 0.04640582 0.009681718 -0.005876567 0.07277276
-0.11395978 0.025177106 0.033032253 -0.06497351 -0.014862905 0.01221324 0.12857243 -0.023542445
-0.024113424 -0.030913662 -0.0051405737 0.061557032 -0.017634522 -0.011693248 -0.004890844 -0.030379135
0.06298416 -0.03652388 0.01556662 0.010369003 -0.0635831 -0.037269905 0.044751354 -0.008819124
0.008750062 -0.01595029 0.116281144 -0.016601207 -0.025429932 -0.012912079 0.04242391 0.034042645
-0.00761482 -0.0070346557 -0.053628042 0.0371545 0.04974581 -0.042754307 -0.0024614101 -0.0016901738
-0.024048023 -0.031916074 0.056450665 -0.03415148 0.053384837 -0.017551228 0.1081922 -0.0801844
-0.030416626 0.013325249 -0.0014560595 -0.03713467 -0.011826926 -0.02702773 -0.024920397 -0.02941744
0.018436955 0.03752193 0.1165032 0.0026934335 -0.028635342 -0.00848944 -0.055590484 0.07577367
0.018265247 0.007571019 0.18535072 -0.13268556 -0.018817514 0.027932191 0.022234105 0.024687104
-0.04910788 0.01754025 -0.03657061 -0.009444249 -0.041694473 0.027028862 0.03526028 0.027337201
-0.04173292 0.06548297 -0.026504787 -0.019018164 0.009012729 0.005654209 -0.064989455 0.0376253
0.032365624 0.079191625 -0.009343644 -0.022580735 -0.059542105 0.03995014 -0.07174666 0.11192568
0.016483914 0.0034218703 0.005767148 -0.01992091 -0.017682372 -0.055242095 -0.003635486 -0.03580636
0.008665223 -0.061992742 0.055122532 0.03426535 -0.036649626 0.037809934 -0.08059139 -0.042379465
-0.120551795 0.058928158 0.027553199 0.07596204 0.05562914 -0.040801477 -0.021956498 0.039913554
0.01263728 0.015513092 0.07639398 0.012576425 0.13752033 -0.14067625 -0.073620744 0.09169518
-0.0030078527 0.057749256 0.009838258 0.024466498 -0.047348335 0.009264831 0.027122987 -0.02519318
0.016991112 -0.042598467 0.0071190656 0.023176454 0.02328702 0.0075498773 -0.028969739 -0.021134673

spacial_block.0.bias f4 [64]
00000000: d650 c5bc 6a24 7cbd a7cf b63c 5f88 04bd
00000010: eab9 793b 943b 39bd 87b6 1a3d 2ea1 5dbd
00000020: 3421 7bbd 6ec6 8fbd 48e4 843d dcab 0c3d
00000030: b6d2 54bd c93b 99bc e747 683d c604 b23c
00000040: dff5 8a3d 229c 35bc dcd4 d6bb e057 643d
00000050: 6dc5 86bb f73c 82bd b548 8cbc 487a 5b3d
00000060: 32d3 ff3c 41c9 77bc d203 96bd 061e 613d
00000070: 6b1d 85bc 3ca9 83bc 8160 8a3d 6443 233d
00000080: b933 bf3c 6bc3 d13c eb61 413b 24d7 a13b
00000090: 6515 1ebd f84d da3c f07d 173d 4673 233d
000000a0: cf20 1cbd 31a1 8b3b b4c0 98bb 614a 33bd
000000b0: f856 853c 8a49 2b3d d235 e03b 4ac7 0bbd
000000c0: 0640 743d 1b83 1fbd 2e61 ec3c 9124 0eb9
000000d0: 4594 d63c c426 ea3c 1bd8 8dbd 61be 923c
000000e0: f03b a9b9 f8e5 76bd a496 413d 5148 d53b
000000f0: 84b7 b3bc 72ef 66bb 1b46 573d 47d9 e3bc
-0.024086397 -0.061558165 0.022315813 -0.032356616 0.0038105198 -0.045222834 0.037771728 -0.05410879
-0.06131096 -0.07020269 0.06488854 0.034343585 -0.051958762 -0.018705266 0.056709196 0.021730792
0.067851774 -0.011084588 -0.0065561365 0.055747867 -0.0041128905 -0.06359284 -0.017124513 0.053583413
0.031228635 -0.015123666 -0.073249474 0.054960273 -0.01624938 -0.016071908 0.06756688 0.03985919
0.023340093 0.025605878 0.0029507827 0.004938977 -0.038594622 0.026648507 0.036985338 0.039904855
-0.038117226 0.004261159 -0.004661644 -0.043772105 0.016276821 0.04181818 0.0068423534 -0.034125604
0.05963137 -0.03894339 0.028854933 -0.00013555797 0.026193747 0.028582938 -0.069259845 0.017913045
-0.0003227885 -0.06027791 0.047262803 0.006508865 -0.021938093 -0.0035237935 0.052557092 -0.027813567

spacial_block.1.weight f4 [64]
00000000: 54e9 823f 8a72 853f 90cb 843f 5c1f 843f
00000010: e555 813f 1bda 823f 2138 853f 0877 823f
00000020: 930b 853f a438 8a3f 96d8 893f ef35 843f
00000030: aad5 8d3f c8cd 8e3f def5 833f 6964 843f
00000040: 2895 8d3f afd5 833f dfb8 843f 03ce 853f
00000050: 0702 853f 8667 803f 53e9 833f ad8f 853f
00000060: 5535 863f 3793 823f 6312 8a3f cc8b 843f
00000070: 2782 873f f14e 853f a42f 813f 465f 813f
00000080: 11f9 823f fb76 873f 7d70 873f fb70 823f
00000090: c502 833f eeb7 813f 089f 863f 3f86 823f
000000a0: dc57 8b3f f42c 8e3f 7abc 853f 4f7f 843f
000000b0: 8229 893f b91b 833f a3a5 863f 81c7 8e3f
000000c0: 2578 843f 3777 823f a0b9 823f 521a 813f
000000d0: d087 8e3f 1747 883f ad33 8a3f 3bea 8d3f
000000e0: e312 833f 9f54 873f 7cc2 823f 1f56 813f
000000f0: 203d 813f afb3 893f d820 863f 7c0c 833f
1.0227456 1.042558 1.0374622 1.032207 1.0104338 1.022281 1.0407754 1.0192575
1.0394157 1.0798535 1.0769222 1.0328959 1.108083 1.115655 1.0309408 1.0343143
1.1061144 1.0299586 1.0368918 1.0453495 1.0391244 1.0031593 1.030558 1.0434471
1.0485026 1.0201176 1.0786861 1.0355163 1.0586594 1.0414716 1.0092664 1.01072
1.0232259 1.0583185 1.0581204 1.0190729 1.023522 1.0134256 1.0517282 1.0197219
1.0886188 1.1107469 1.0448143 1.0351351 1.0715792 1.0242835 1.0519298 1.1154634
1.0349165 1.0192631 1.0212898 1.0086157 1.1135197 1.0646695 1.079702 1.1087106
1.0240139 1.0572699 1.0215602 1.0104407 1.0096779 1.075796 1.0478773 1.0238185

spacial_block.1.bias f4 [64]
00000000: f806 bfbd 46ff 01be df46 bbbd 4a51 99bd
00000010: 18d5 4bbd 854c c6bd cc5d edbd 41b6 40bd
00000020: 7f20 b6bd 25a4 fbbd c618 0bbe d3b2 c5bd
00000030: eabf 1dbe 7518 55be e205 25be 2ea1 bdbd
00000040: a062 0fbe 373b 0ebe 737c d8bd 96e8 e9bd
00000050: 61dc c4bd 4139 83bc 8b5d ddbd e9a6 8cbd
00000060: 22f3 cabd ced9 a4bd 74a3 16be 5c07 fabd
00000070: 8a8f 04be 11e2 debd cb4a 41bd 4f63 6abd
00000080: abd8 82bd 3605 9fbd 1b1d e8bd 04dd babd
00000090: 1707 15be e787 1abd 2abc 3dbe 127a 82bd
000000a0: b987 32be 339f 5bbe 59ad 01be f57e 9cbd
000000b0: 2ca2 18be 4a30 94bd 2fb7 0dbe 8886 f7bd
000000c0: 4a91 debd 2ada 75bd 336c 03bd 952d 7dbd
000000d0: 947d 49be 79c1 f5bd ab43 febd 415c 0dbe
000000e0: e01a a1bd de60 1bbe ee8c 94bd 4e92 bebd
000000f0: 80e6 48bd 0a8a e8bd ed26 e5bd 9608 04be
-0.09327501 -0.12695035 -0.09144377 -0.07486208 -0.04976377 -0.09682564 -0.11590156 -0.04704881
-0.08892917 -0.122871675 -0.13583669 -0.09653249 -0.1540524 -0.20810111 -0.16115525 -0.09259258
-0.14002466 -0.13889776 -0.10570612 -0.11421315 -0.096123464 -0.016018512 -0.108088575 -0.06867773
-0.09909655 -0.080493554 -0.1471079 -0.12208435 -0.12945381 -0.108829625 -0.04719047 -0.057223614
-0.063889824 -0.07764666 -0.113336764 -0.09124187 -0.14553486 -0.037727263 -0.1852881 -0.06370939
-0.17434587 -0.21447448 -0.12663783 -0.07641403 -0.14905614 -0.07235773 -0.1383941 -0.12086207
-0.108675554 -0.06002251 -0.03208561 -0.06181105 -0.1967681 -0.119997926 -0.124152504 -0.13804723
-0.07866454 -0.1517367 -0.07253443 -0.09305249 -0.049047947 -0.11354454 -0.11189065 -0.128939

spacial_block.1.running_mean f4 [64]
00000000: 22f1 14bf da8e debe 07da 083e 538a ba3e
00000010: 08cc 2fbd 2843 f1bd 23bb 28be 7cdc 513d
00000020: 0fbd bf3e f571 10bd 94fc 89be dec9 41bd
00000030: 47d4 80be a19a 89bd abc4 6bbe ba27 adbe
00000040: 8ddc f53e c448 c8be 660e 6bbe fe17 903b
00000050: 6f53 683e 2aba a6bd 4c06 05bf acd6 093f
00000060: 3fca 3d3f 677f 233e 8fdd a33e 9284 8c3c
00000070: d187 193c 2ee9 75bd cd99 a93e b629 0b3f
00000080: 99a6 903e b9dd 0a3f 4153 943e 70e3 dbbd
00000090: 672d a0bc 1172 3bbd 01c8 443e 17d2 d83d
000000a0: a49c d0be 395a aa3e 8bcf 4c3d 203d 87be
000000b0: 63e3 743e 2a02 7e3d 7537 2c3e cc6a 4ebd
000000c0: 1ad3 f43e 5a54 c33e 214a 6dbd 5331 5abe
000000d0: f4e7 dd3c 5c56 26bd f0e2 083f 64e9 1f3f
000000e0: 1e4e 663e bc7e e5bd c0c9 a1be cd16 893d
000000f0: bf78 833c 52b6 913e 2f9c 413c 8e1f c0bd
-0.5818044 -0.43468362 0.13364421 0.36433658 -0.04291919 -0.11780387 -0.16477637 0.05123566
0.37448928 -0.035264928 -0.26950514 -0.047311656 -0.25161955 -0.06718946 -0.23024242 -0.3381937
0.4801983 -0.39118016 -0.22954711 0.0043973913 0.22688077 -0.08140977 -0.51962733 0.5384319
0.7413673 0.15966569 0.32004973 0.017153058 0.00937076 -0.06003683 0.33125153 0.5436052
0.28252104 0.5424457 0.28969768 -0.1073674 -0.0195529 -0.04576308 0.1921692 0.105869465
-0.40744507 0.3327196 0.050002616 -0.26413822 0.23914866 0.062013783 0.1681803 -0.05039482
0.47817308 0.38150293 -0.057932023 -0.21307878 0.027088143 -0.040609702 0.5347128 0.624655
0.22490737 -0.11205813 -0.31599236 0.06693802 0.016048787 0.28459412 0.011817022 -0.093810186

spacial_block.1.running_var f4 [64]
00000000: c5c2 af3f 175e 973f 6835 983f b898 e53f
00000010: 6799 8d3f a1f6 2e3f 2bf4 783f 146e 6f3f
00000020: f96b 873f c4d3 823f 63c2 213f d135 2d3f
00000030: ad80 893f 0924 843f ed4d 383f 0e1d ab3f
00000040: 3b2c 063f da60 853f 30c4 a43f 3be9 453f
00000050: ccce a73f ccb1 a93f 802f 793f 6424 943f
00000060: c432 d33f d18a c83f cef1 043f 6b1b a33f
00000070: e9a9 953f caf9 013f 460b ea3f c701 f03f
00000080: 35c0 333f 6aa6 253f c3bf 373f 45fa 323f
00000090: cbb3 803f 6ab2 533f 4645 8b3f 0903 6e3f
000000a0: f557 3b3f 2688 423f 1f96 1d3f c755 0f3f
000000b0: f6c3 703f 6b98 b63f 62d1 6b3f 1a2c a03e
000000c0: 1527 c43f 4695 d43f a97c 643f 03cb e83e
000000d0: 835d 543f 814c 883f 94d6 1c3f a2a8 323f
000000e0: 24d2 e43f b9fd 413f fe53 763f e50a 313f
000000f0: 5642 713f 1744 cf3f 135c 803f cdf0 563f
1.3731314 1.1825589 1.1891298 1.7937231 1.106244 0.68345076 0.9724757 0.9352734
1.0579826 1.0220876 0.63187236 0.6766024 1.0742394 1.0323497 0.71993905 1.3368242
0.5241124 1.0420182 1.2872372 0.77309006 1.3109984 1.3257384 0.97338104 1.1573606
1.6499867 1.5667363 0.51931465 1.2742742 1.1692477 0.5077177 1.828469 1.8750542
0.7021516 0.6470705 0.7177698 0.6991313 1.0054868 0.82694113 1.0880516 0.9297338
0.73181087 0.75988996 0.6155719 0.5599026 0.9404901 1.4265264 0.9211637 0.31283647
1.5324427 1.6608055 0.89252716 0.45467386 0.8295519 1.0648347 0.6126492 0.69788563
1.787663 0.75777775 0.9622191 0.6915725 0.94241846 1.6192654 1.0028099 0.8396118

conv.weight f4 [8, 1, 4]
00000000: 7fd4 dabe 7cc4 a63c fce6 53be 185b af3e
00000010: 7081 97be a79a df3e 0cf4 06bf 6993 36be
00000020: 600f ba3d 0967 563e 839e 0e3f c351 51bd
00000030: 984e 12bf e169 59be 4658 093f a25c 93be
00000040: d6c6 1a3f 33a4 c0be a586 bebe 9784 f83d
00000050: 7440 1d3f 89b9 dbbe 73bb e23b 480f 24bf
00000060: 2a12 ffbe 0764 d33e 128f 5cbd 576f 86be
00000070: 6512 a3be e27c 4dbe 913a 0dbf ea88 af3e
-0.42740247 0.020357363 -0.20693582 0.34249187 -0.2959094 0.43672678 -0.52716136 -0.1782967
0.09084964 0.20937742 0.5571062 -0.051103365 -0.57151175 -0.21231796 0.5365032 -0.2878161
0.6045965 -0.37625274 -0.372121 0.121346645 0.6142647 -0.4291499 0.0069193183 -0.6408582
-0.49818546 0.41287252 -0.05384738 -0.2625682 -0.3184997 -0.2006717 -0.5516749 0.34284145

classify.weight f4 [2, 64]
00000000: b35a 463e 60ca 00be 9ecf 5e3e 8bd9 1ebe
00000010: 6f85 edbd cc89 64be e202 803e ebd5 2ebd
00000020: 7d9a dfbd 23db 13be 777a 80be 8900 733e
00000030: 3a2d 343e 7f3a f63d 4d1e 0f3e a9ec 1c3e
00000040: 3e06 31be 33f9 6d3e 1fc4 213e 98e1 b0bd
00000050: 3615 5b3e 8368 eebd 3dfa 4a3e 1bc6 25be
00000060: e223 4cbe 9981 00be d6c9 38be 5761 803e
00000070: 7e71 fa3d 7f16 61be ffde 24be 4b4b 19be
00000080: 5116 60be 8711 d8bd 6282 01be b437 5fbe
00000090: 4b9d 273e 6dd2 9ebd 8cae a83d c04b 4cbe
000000a0: 6fa6 523e 67cc e33d 8104 143e eb02 e1bd
000000b0: e1b2 aebd c15e 183e 60b2 ea3d 6b82 fbbd
000000c0: ff31 a83d 1a61 51be 1913 22bd 235f 1cbe
000000d0: 6788 f4bc 8fcc 823e b031 dbbd ae4d 28be
000000e0: 4c6f fbbd 7515 733e ce4d eebd f00e 373e
000000f0: 772d 32be b5d7 9a3d 9ea9 193e 6e74 623e
00000100: 2de7 febd a957 f13d edfa 1abe 895a 6a3b
00000110: 43c1 4f3e dd90 7a3d e34e 37be 716d 213e
00000120: 5be8 5c3e 7b3e 1d3d 8157 bd3d 68a3 5fbe
00000130: ae32 71bd 4f33 2bbe 9ca2 3cbe 4d56 64be
00000140: f868 9c3d c1b5 8fbd 9a90 7abe 41ad 1b3e
00000150: eff8 6bbe 64c5 1b3e f33b 58be 4f4c 643e
00000160: 5604 a53d 9f4a 253e 04fc f83d e356 4bbe
00000170: 14ef 02be 94e6 3d3e ffc0 093e 1c5c 4b3e
00000180: 35b9 ca3d 566f 163e 7f05 583e 9ac8 4c3d
00000190: 4fb9 38be 76c7 dd3d 44db 08be 598a 043e
000001a0: 481c a9bd f933 18be 1d82 21be 3025 6e3e
000001b0: 439c 293e e478 55be 150a 80be f17d 8c3d
000001c0: 4796 27be 3211 4d3e 5b13 233e 4a39 3c3e
000001d0: add6 693e 281f 2cbd c9e3 763e 2bf7 013e
000001e0: 54a5 493e cd66 cfbd aa53 1f3e 55bc 38be
000001f0: 260e 0f3e 5bdf 4fbe 485c b9bd 6666 4fbe
0.19370537 -0.125772 0.21758887 -0.15512674 -0.11597716 -0.2231819 0.250022 -0.042684477
-0.10918138 -0.14439063 -0.25093433 0.23730673 0.17595378 0.12022876 0.13976403 0.15324654
-0.17287537 0.23239593 0.1579747 -0.086367786 0.2139481 -0.11641028 0.19822021 -0.16188852
-0.19935563 -0.12549438 -0.18045744 0.25074264 0.12228678 -0.21981238 -0.16100691 -0.14970128
-0.21883513 -0.10550218 -0.12647393 -0.21798593 0.16368596 -0.07754979 0.08236417 -0.19950771
0.20571302 0.11122971 0.14454843 -0.10986885 -0.08530212 0.14879896 0.114598036 -0.12280735
0.08212661 -0.20447198 -0.039568994 -0.15270667 -0.029850198 0.2554669 -0.107028365 -0.16435882
-0.122770876 0.23738654 -0.11635934 0.17876792 -0.17400156 0.07560674 0.1500611 0.22114727
-0.12446437 0.11784298 -0.15134783 0.003575953 0.20288567 0.06117331 -0.17901187 0.15764405
0.21573012 0.038389664 0.09245206 -0.21839678 -0.058886223 -0.16718791 -0.18421406 -0.22298546
0.07637209 -0.07017089 -0.24469224 0.1520281 -0.2304418 0.15212017 -0.21116619 0.22294734
0.08057468 0.16141747 0.12157443 -0.19857363 -0.12786514 0.1854499 0.13452528 0.19859356
0.09898607 0.14690909 0.21095847 0.049995996 -0.1803944 0.1082906 -0.13364893 0.129434
-0.08257347 -0.14863576 -0.1577229 0.23256373 0.16563515 -0.20846897 -0.25007692 0.06859959
-0.1636592 0.2002609 0.15925352 0.18381229 0.22835799 -0.0420219 0.2411033 0.12691943
0.19691974 -0.101270296 0.15559259 -0.18040593 0.13970241 -0.20300047 -0.090508044 -0.20253906

classify.bias f4 [2]
00000000: 1c08 553c 3eac 3b3c
0.013002422 0.01145464
