BCI/output/openBMI/LightConvNet/sub34/2023-10-05--17-38/model.pth (torch, 51356 bytes, 9 tensors)

spacial_block.0.weight f4 [64, 9, 20, 1]
0.017475627 0.0984869 0.027581993 -0.073739104 -0.044121277 0.014981667 -0.019689204 0.044532333
-0.014552695 -0.010441112 -0.040354688 -0.051017772 -0.007200754 -0.047687817 -0.093683004 0.044698615
0.03331347 0.060216825 -0.035502933 0.01298716 0.052913804 -0.027443193 -0.019151904 0.103364885
-0.010389548 0.031324692 0.075242475 0.00045709146 -0.044234015 -0.072483025 -0.043776937 0.027916078
-0.045572743 -0.043690894 0.017600229 -0.047540396 -0.031242063 0.049475383 0.070685156 0.036109086
0.0030905828 -0.065471515 0.14344445 -0.06512068 -0.09082829 -0.03254652 0.016423695 -0.0007499019
-0.042485964 -0.0047350507 0.0025580672 0.073864676 0.06323771 -0.018372696 0.023192981 -0.033003505
0.10440386 -0.08178947 -0.04077217 -0.0740281 0.011454105 0.0042519984 0.0017192935 0.0036026344
0.02806528 0.016604636 -0.04365358 -0.0051199542 0.0060063093 0.046674497 -0.06865365 -0.018359179
0.0152874235 0.0003792633 0.008999933 0.0025969422 0.01418455 -0.06888813 0.067106366 -0.020010214
-0.012820415 0.039153073 0.08910189 -0.09731886 -0.014194449 0.00502059 -0.07275455 -0.010094714
0.00440774 -0.056109395 0.02324968 0.01248089 0.03120841 0.0046112644 -0.06296388 -0.047234714
0.11655945 0.04596203 0.014554319 -0.016154185 0.016861305 -0.01820226 0.04158431 -0.022737576
-0.022334542 0.040071547 -0.042316344 -0.06399555 -0.029079154 0.007922806 -0.02089909 0.032219384
-0.033876963 0.018033102 0.025828764 -0.092329465 0.056816164 0.016606031 0.091649055 0.007187224
0.0049795574 -0.05822699 0.075438626 0.08124781 -0.07497087 -0.01431388 0.00081316073 -0.070061065
-0.05213147 -0.043746743 0.018128127 0.05166108 0.0028347909 -0.040852297 -0.0013659571 -0.05352194
0.060435157 0.007951598 0.073506035 0.0018256593 -0.027340908 -0.03188543 0.119836636 0.034289148
0.000978732 0.0072155865 -0.01735687 -0.012172934 -0.065144084 -0.048366543 -0.029179655 -0.029469265
0.04548977 -0.020752171 0.033772405 -0.10804966 0.117225245 -0.04057946 0.04281735 -0.01338714
0.0005013628 0.008725658 0.027897242 -0.04610444 -0.0059769545 0.008587729 -0.0386421 0.030520536
-0.08323104 -0.0046052663 0.08301603 -0.014835685 0.022981243 0.011537759 -0.08208712 0.010454785
0.05312451 -0.03258017 0.11305798 -0.07597612 -0.0115001695 -0.018381583 0.00795188 -0.0341693
0.06666817 0.024605107 0.020831715 -0.022374578 -0.055438746 0.06279811 0.08019689 0.061366603
-0.02697256 0.02389167 -0.020121068 -0.10311317 -0.08410011 0.032624196 -0.04430504 0.012186027
0.01846887 0.07257377 -0.02508763 -0.014511078 -0.039616227 0.018230878 0.01984866 0.047428258
0.026564429 0.054318145 -0.0075283367 0.0013561854 0.0061022714 -0.07136175 -0.05000022 -0.06843805
-0.03307793 -0.020466857 0.069782704 -0.036484353 -0.0032238122 0.053508777 -3.0991914e-06 0.044482116
-0.046838712 0.017247612 -0.021319456 0.013869162 -0.005529279 0.05272488 -0.07104055 -0.022142371
0.0058972416 -0.017727995 0.045475587 -0.10392008 0.068629935 0.020178903 -0.051413234 0.048012815
0.008106091 0.037431154 -0.0053792517 0.028195849 -0.016781326 -0.034390017 0.008644755 -0.04685517
0.013013039 0.043775614 -0.09755515 0.022933519 0.047603726 -0.017948696 -0.01411119 -0.030223949
00000000: 0c29 8f3c 80b3 c93d a2f3 e13c 8704 97bd
00000010: 83b8 34bd aa75 753c 414b a1bc 8967 363d
00000020: 6d6e 6ebc 3311 2bbc f54a 25bd 03f8 50bd
00000030: 4df4 ebbb 4d54 43bd e0dc bfbd e515 373d
00000040: b573 083d eba5 763d 866b 11bd 19c8 543c
00000050: 25bc 583d 8cd0 e0bc 74e4 9cbc f8b0 d33d
00000060: ec38 2abc 524e 003d ba18 9a3d c7a5 ef39
00000070: ba2e 35bd fb71 94bd 724f 33bd 42b0 e43c
00000080: 7caa 3abd 39f5 32bd 5b2e 903c b8b9 42bd
00000090: 5bef ffbc b3a6 4a3d 61c3 903d 1fe7 133d
000000a0: 608b 4a3b ee15 86bd 1ae3 123e fe5d 85bd
000000b0: 2f04 babd 804f 05bd fc8a 863c 1195 44ba
000000c0: c305 2ebd 7c28 9bbb 3fa5 273b 5d46 973d
000000d0: c682 813d 5682 96bc 35ff bd3c af2e 07bd
000000e0: b1d1 d53d 3d81 a7bd b800 27bd 0b9c 97bd
000000f0: 00aa 3b3c 5954 8b3b eb59 e13a 2d1a 6c3b
00000100: 28e9 e53c 7206 883c 19ce 32bd 4ac5 a7bb
00000110: 93d0 c43b c22d 3f3d 499a 8cbd fd65 96bc
00000120: 1a78 7a3c dcd7 c639 7474 133c 7631 2a3b
00000130: 5166 683c 3815 8dbd 106f 893d 76ec a3bc
00000140: b80c 52bc f95e 203d 0d7b b63d 1c4f c7bd
00000150: d68f 68bc c383 a43b 5600 95bd 4d64 25bc
00000160: ce6e 903b f7d2 65bd 1d76 be3c a67c 4c3c
00000170: c8a8 ff3c 171a 973b 35f3 80bd 3079 41bd
00000180: b9b6 ee3d ae42 3c3d 3d75 6e3c c855 84bc
00000190: b820 8a3c e81c 95bc 4f54 2a3d 2744 babc
000001a0: eef6 b6bc 1022 243d e753 2dbd 1910 83bd
000001b0: 6837 eebc a8ce 013c 9234 abbc 79f8 033d
000001c0: 92c2 0abd 28ba 933c d896 d33c 3b17 bdbd
000001d0: 11b8 683d 5f09 883c 80b2 bb3d ce82 eb3b
000001e0: 8e2b a33b 6d7f 6ebd 917f 9a3d 4065 a63d
000001f0: 548a 99bd c484 6abc 4b2a 553a 2d7c 8fbd
00000200: cf87 55bd c92f 33bd 7081 943c 929a 533d
00000210: e6c7 393b bd54 27bd ea09 b3ba d239 5bbd
00000220: db8a 773d 6b47 023c 558a 963d f64a ef3a
00000230: 0afa dfbc 4c9a 02bd e96c f53d c772 0c3d
00000240: cc48 803a ba70 ec3b ff2f 8ebc fc70 47bc
00000250: 436a 85bd ff1b 46bd 2c0a efbc 8769 f1bc
00000260: 7b53 3a3d 7500 aabc ef54 0a3d 2449 ddbd
00000270: ca13 f03d a636 26bd 3f61 2f3d bc55 5bbc
00000280: e36d 033a 10f6 0e3c c288 e43c 02d8 3cbd
00000290: 54da c3bb 8cb3 0c3c 2e47 1ebd 3406 fa3c
000002a0: 0975 aabd c6e7 96bb 4f04 aa3d 5f11 73bc
000002b0: 2943 bc3c de08 3d3c 4b1d a8bd 8c4a 2b3c
000002c0: 1699 593d c972 05bd f18a e73d 5e99 9bbd
000002d0: 356b 3cbc f994 96bc 9a48 023c 1cf5 0bbd
000002e0: 5289 883d a690 c93c 46a7 aa3c e44a b7bc
000002f0: bd13 63bd 4c9c 803d 443e a43d 8c5b 7b3d
00000300: 8ff5 dcbc 77b8 c33c f0d4 a4bc ff2c d3bd
00000310: ae3c acbd f3a0 053d 3479 35bd e7a7 473c
00000320: 074c 973c 8fa1 943d 9384 cdbc dfbf 6dbc
00000330: a044 22bd ec58 953c a899 a23c 2244 423d
00000340: a59d d93c b47c 5e3d 44b0 f6bb 08c2 b13a
00000350: 90f5 c73b 1c26 92bd 08cd 4cbd 4029 8cbd
00000360: b97c 07bd 1caa a7bc 3cea 8e3d 9e70 15bd
00000370: 9846 53bb 052c 5b3d b4fb 4fb6 e132 363d
00000380: f3d9 3fbd dd4a 8d3c 24a6 aebc 7b3b 633c
00000390: f42e b5bb 0bf6 573d b57d 91bd eb63 b5bc
000003a0: a63d c13b 4d3a 91bc 9c44 3a3d 0dd4 d4bd
000003b0: da8d 8c3d 3a4e a53c af96 52bd 16a9 443d
000003c0: 69cf 043c 6951 193d 6f44 b0bb fbfa e63c
000003d0: fe78 89bc 8cdc 0cbd bba2 0d3c 35eb 3fbd
000003e0: a434 553c 0f4e 333d ffca c7bd 13df bb3c
000003f0: 20fc 423d 2509 93bc 9f32 67bc 3798 f7bc

spacial_block.0.bias f4 [64]
-0.024883155 -0.062090665 0.022543838 -0.032506015 0.0045768167 -0.045876075 0.039052032 -0.053908784
-0.06301514 -0.07043603 0.065184176 0.034411933 -0.051994134 -0.01815929 0.05655624 0.023512006
0.06781039 -0.010477041 -0.006955429 0.055629376 -0.0034590831 -0.0633436 -0.016468098 0.054585878
0.030662969 -0.0151887555 -0.073015794 0.05531291 -0.016462376 -0.016268555 0.06757232 0.04090322
0.023048691 0.025162142 0.001686908 0.005241225 -0.03873755 0.02605539 0.036555205 0.04063539
-0.037400078 0.003932171 -0.004550563 -0.043797467 0.016343288 0.04141302 0.006558314 -0.034155305
0.059146512 -0.037845958 0.02896784 0.000917295 0.025987657 0.02880607 -0.06909113 0.018027682
-0.0008161149 -0.05974373 0.046645503 0.006886805 -0.02179237 -0.0034642778 0.05252124 -0.028138941
00000000: c2d7 cbbc c852 7ebd dbad b83c 0725 05bd
00000010: 1ff9 953b 8de8 3bbd 06f5 1f3d 75cf 5cbd
00000020: 150e 81bd c440 90bd 487f 853d 87f3 0c3d
00000030: cdf7 54bd cbc2 94bc 84a7 673d 409c c03c
00000040: 2ce0 8a3d e5a7 2bbc 5eea e3bb a1db 633d
00000050: c9b1 62bb 4aba 81bd 1be8 86bc 7195 5f3d
00000060: e830 fb3c 42da 78bc 4e89 95bd ca8f 623d
00000070: 1bdc 86bc a245 85bc 5b63 8a3d 238a 273d
00000080: 9cd0 bc3c d620 ce3c 3d1b dd3a 95be ab3b
00000090: 44ab 1ebd 1d72 d53c e9ba 153d 4b71 263d
000000a0: d330 19bd 71d9 803b e41c 95bb f964 33bd
000000b0: 5ce2 853c b3a0 293d 20e7 d63b 6fe6 0bbd
000000c0: 9d43 723d 5d04 1bbd f74d ed3c a076 703a
000000d0: 11e4 d43c b5fa eb3c a67f 8dbd caae 933c
000000e0: 8bf0 55ba d7b5 74bd 5b0f 3f3d b5aa e13b
000000f0: ea85 b2bc f008 63bb 8320 573d a383 e6bc

spacial_block.1.weight f4 [64]
1.0549631 1.0119712 1.0459334 1.0079913 0.995235 1.1023422 1.0605282 1.0053884
1.028809 1.0267226 1.0375675 1.0563775 1.1436515 1.224499 1.1053684 1.0760405
1.1192129 1.1040158 1.0404241 1.0082136 1.0376251 1.0098033 1.0659978 1.0070455
0.9940234 1.0098959 1.0257916 1.0592902 1.0976708 1.0200406 1.0271823 1.0216552
1.0021011 1.0027467 1.0235903 1.0179367 1.0513078 1.0518638 1.19483 1.0249519
1.2157245 1.2338831 1.0840139 1.0197043 1.085837 1.0794741 1.0403329 1.1318072
1.0637242 1.037505 1.0291424 1.0170412 1.0751034 1.154875 1.0209305 1.0130726
1.004976 1.0998044 1.0109047 1.0552104 1.0018028 1.0846533 1.0841701 1.021101
00000000: 0809 873f 4688 813f 25e1 853f dc05 813f
00000010: b9c7 7e3f 8d19 8d3f 63bf 873f 91b0 803f
00000020: 03b0 833f a56b 833f 03cf 843f 6137 873f
00000030: 2c63 923f 62bc 9c3f b67c 8d3f b2bb 893f
00000040: 5e42 8f3f 6450 8d3f 9e2c 853f 250d 813f
00000050: e6d0 843f 3c41 813f 9e72 883f dee6 803f
00000060: 5178 7e3f 4544 813f 244d 833f d296 873f
00000070: 7a80 8c3f b190 823f b67a 833f 99c5 823f
00000080: d944 803f 015a 803f 0205 833f c04b 823f
00000090: 4191 863f 79a3 863f 30f0 983f a031 833f
000000a0: dc9c 9b3f e2ef 9d3f f8c0 8a3f ac85 823f
000000b0: b5fc 8a3f 352c 8a3f a129 853f 0fdf 903f
000000c0: 1d28 883f f7cc 843f f0ba 833f 682e 823f
000000d0: fd9c 893f f2d2 933f daad 823f 5dac 813f
000000e0: 0ea3 803f 64c6 8c3f 5365 813f 2211 873f
000000f0: 133b 803f ebd5 8a3f 16c6 8a3f 70b3 823f

spacial_block.1.bias f4 [64]
-0.008306229 -0.13008063 -0.089559 0.013206386 -0.07736643 -0.22230019 -0.029018717 -0.07022234
-0.12034408 -0.100917704 -0.14447062 -0.042271305 -0.27621832 -0.28752398 -0.12532054 -0.13503732
-0.13930662 -0.0746152 -0.05091834 -0.115269184 -0.063315794 -0.12882379 -0.06858177 -0.05381555
-0.020821875 -0.08270274 -0.117426135 0.006199125 -0.07589898 -0.13295722 -0.09386506 -0.069890134
-0.057138383 -0.105799206 -0.12785694 -0.13989505 -0.05295309 -0.12636343 -0.21867038 -0.09751586
-0.24188405 0.029479852 -0.088436894 -0.05744224 -0.19324847 -0.14210208 -0.029294394 -0.19860846
-0.05999451 -0.10286731 -0.110178046 -0.080696404 -0.23318268 -0.15570088 -0.107552074 -0.070221215
-0.0490618 -0.1630857 -0.04156652 -0.071529984 -0.11949949 -0.12124222 -0.09660854 0.0024696607
00000000: d916 08bc db33 05be b66a b7bd 995f 583c
00000010: 4a72 9ebd a9a2 63be a9b8 edbc bbd0 8fbd
00000020: f576 f6bd f1ad cebd 1bf0 13be ad24 2dbd
00000030: 7d6c 8dbe 5836 93be 0754 00be 3947 0abe
00000040: 65a6 0ebe dbcf 98bd c08f 50bd 4012 ecbd
00000050: b6ab 81bd 62ea 03be 9974 8cbd b26d 5cbd
00000060: a392 aabc 0e60 a9bd 1d7d f0bd 0822 cb3b
00000070: ed70 9bbd f025 08be 533c c0bd 8f22 8fbd
00000080: f009 6abd 41ad d8bd eeec 02be a640 0fbe
00000090: 57e5 58bd 6a65 01be 21eb 5fbe 65b6 c7bd
000000a0: 74b0 77be bb7f f13c 671e b5bd 8e48 6bbd
000000b0: ede2 45be 3583 11be ccfa efbc 0460 4bbe
000000c0: cebc 75bd 19ac d2bd 07a5 e1bd 2844 a5bd
000000d0: 71c7 6ebe 0d70 1fbe 4344 dcbd 24d0 8fbd
000000e0: 07f5 48bd f0ff 26be a841 2abd 507e 92bd
000000f0: 26bc f4bd d74d f8bd b3da c5bd 08da 213b

spacial_block.1.running_mean f4 [64]
-0.75962275 0.3117791 1.5384282 -0.14708477 0.2621237 0.03506256 -0.39113435 -0.5482288
-0.6785752 -0.401411 0.8690271 -0.24070685 -0.2533641 -0.62203985 -0.51924396 -0.5221602
-0.39308178 0.8437479 -0.1723 -0.27000868 -0.13635316 -0.05117971 -1.186187 -0.6771421
-0.71045846 -0.6822154 -1.361613 -0.54456264 0.74295557 -0.05985444 0.20587432 -0.715123
0.840126 0.50172853 0.17264253 -0.6929739 -0.51400334 -0.11880113 1.2572898 -0.3310171
-1.334719 -0.8901626 -0.4854928 0.18855876 -0.44652233 1.1167626 -0.109302185 0.09866911
0.10071744 0.31528318 -0.26735395 -0.65672505 0.93424225 1.0225645 -0.97135353 -0.56663823
-0.15298355 -0.09659578 -0.021634579 0.22782071 -0.049916953 1.0856036 0.014489001 -0.18321472
00000000: a376 42bf 83a1 9f3e 37eb c43f 649d 16be
00000010: 1435 863e c29d 0f3d c342 c8be b958 0cbf
00000020: 1bb7 2dbf be85 cdbe 8f78 5e3f db7b 76be
00000030: f0b8 81be 013e 1fbf 2ced 04bf 4aac 05bf
00000040: 0442 c9be ddff 573f 696f 30be 943e 8abe
00000050: 2aa0 0bbe d1a1 51bd fad4 97bf 2f59 2dbf
00000060: 9be0 35bf aba5 2ebf 5649 aebf 7568 0bbf
00000070: 5632 3e3f ee29 75bd b8d0 523e 4d12 37bf
00000080: 7f12 573f 4871 003f 34c9 303e bd66 31bf
00000090: b995 03bf 024e f3bd dfee a03f 137b a9be
000000a0: 12d8 aabf b2e1 63bf 8392 f8be 8c15 413e
000000b0: 939e e4be 14f2 8e3f d3d9 dfbd 0813 ca3d
000000c0: f244 ce3d cc6c a13e 9ee2 88be 221f 28bf
000000d0: 802a 6f3f 65e3 823f a0aa 78bf 340f 11bf
000000e0: b8a7 1cbe 02d4 c5bd 003b b1bc d549 693e
000000f0: b875 4cbd 0ff5 8a3f 4663 6d3c a49c 3bbe

spacial_block.1.running_var f4 [64]
7.1826897 3.0628235 14.385034 10.472279 3.6207118 3.810148 5.1404896 7.224046
2.7704988 4.3485594 5.5866933 6.3099694 1.879216 3.183928 6.7065363 7.602595
1.3873453 4.6332026 9.000772 4.0778136 5.0742965 4.2429943 8.154181 2.9249322
6.300469 4.127821 2.9885452 5.955709 8.470234 4.2836843 6.751345 7.8057504
4.09676 7.3094187 4.2435136 9.132049 4.9740305 4.179552 5.121456 3.4993534
2.9779918 7.2095113 5.337036 5.496086 2.9894333 6.9648075 9.016627 3.01831
5.5944743 8.376785 2.2426393 2.5811045 3.71684 8.171893 5.216185 3.3607395
4.1182823 3.973924 5.8213496 5.011359 3.3685718 7.3462415 12.6583 7.5344877
00000000: 98d8 e540 4d05 4440 1929 6641 748e 2741
00000010: beb9 6740 77d9 7340 e47e a440 632b e740
00000020: da4f 3140 6627 8b40 31c6 b240 45eb c940
00000030: 268a f03f 7ac5 4b40 f29b d640 7548 f340
00000040: 8894 b13f 3243 9440 2a03 1041 737d 8240
00000050: a360 a240 9cc6 8740 8677 0241 1732 3b40
00000060: 719d c940 1c17 8440 5344 3f40 2b95 be40
00000070: 1486 0741 f113 8940 050b d840 b5c8 f940
00000080: a818 8340 c2e6 e940 ddca 8740 df1c 1241
00000090: 422b 9f40 e4be 8540 f8e2 a340 68f5 5f40
000000a0: 6b97 3e40 51b4 e640 00c9 aa40 f0df af40
000000b0: e052 3f40 b4df de40 1b44 1041 fe2b 4140
000000c0: ef05 b340 5007 0641 6787 0f40 d130 2540
000000d0: b5e0 6d40 13c0 0241 fdea a640 5b16 5740
000000e0: f8c8 8340 c554 7e40 7f48 ba40 0e5d a040
000000f0: ae96 5740 6914 eb40 6688 4a41 861a f140

conv.weight f4 [8, 1, 4]
-0.039079588 -0.24690756 -0.31437483 0.15079348 0.08977373 0.4717396 -0.5953842 -0.20655635
0.5922361 -0.3290672 0.1903078 -0.15080772 -0.5201177 -0.50527424 0.57175446 -0.04730035
0.733561 -0.71280324 -0.52505064 0.12372329 0.70059425 -0.6317256 -0.17295796 -0.723043
-0.438063 0.4053992 -0.3722896 0.09696524 0.054582752 -0.6546432 -0.60622597 0.34203726
00000000: eb11 20bd 56d5 7cbe bdf5 a0be 9b69 1a3e
00000010: 4adb b73d da87 f13e 196b 18bf 8283 53be
00000020: c99c 173f 7f7b a8be 0ce0 423e 576d 1abe
00000030: 6f26 05bf a759 01bf 805e 123f 03be 41bd
00000040: a7ca 3b3f 467a 36bf b869 06bf a362 fd3d
00000050: 255a 333f c5b8 21bf e41b 31be 5919 39bf
00000060: cb49 e0be 7c90 cf3e be9c bebe b695 c63d
00000070: 2a92 5f3d b296 27bf a031 1bbf 821f af3e

classify.weight f4 [2, 64]
0.16779254 -0.10536202 0.20305863 -0.13055244 -0.10372591 -0.26086742 0.20166335 -0.03829416
-0.09373142 -0.13418227 -0.2280208 0.21511939 -0.09042598 0.14805178 0.13766634 0.15977074
-0.16493082 0.23685874 0.106709026 -0.047576502 0.20195244 -0.21171284 0.1787188 -0.12373736
-0.12795974 -0.11533956 -0.14239411 0.21006796 0.09500478 -0.21196617 -0.18564641 -0.12751815
-0.19009158 -0.06755422 -0.1086719 -0.19504127 0.15189643 -0.12837005 0.111986 -0.20875373
0.20684348 0.10770572 0.116287105 -0.06814334 -0.08425464 0.20199598 0.06256102 -0.12899733
0.071667954 -0.20580931 -0.06601665 -0.12242665 -0.017803606 0.2234318 -0.057420563 -0.103769965
-0.105888635 0.21808495 -0.0809345 0.16452593 -0.19694442 0.05398863 0.14148746 0.18473701
-0.09855149 0.097433016 -0.13681756 -0.020998135 0.19063444 0.09885879 -0.13065317 0.15325375
0.20028006 0.02818137 0.06953856 -0.19620943 0.2074935 -0.19501096 -0.18211637 -0.22950959
0.06842758 -0.07463359 -0.19342679 0.113236785 -0.2184461 0.24742281 -0.19166477 0.18479635
0.009178754 0.15126272 0.08351103 -0.15789896 -0.10058317 0.1776037 0.1591647 0.1764104
0.07024262 0.10896108 0.19315651 0.027051419 -0.16860488 0.15911071 -0.16327067 0.13868
-0.083703965 -0.14511181 -0.12946163 0.19083817 0.16458772 -0.26166597 -0.19803968 0.074789576
-0.15320045 0.20159824 0.1857012 0.15353227 0.21631148 -0.009986785 0.19149555 0.06633046
0.18003763 -0.08196859 0.120167725 -0.166164 0.16264524 -0.18138246 -0.08193449 -0.16612881
00000000: cfd1 2b3e 0bc8 d7bd 9aee 4f3e 8aaf 05be
00000010: 406e d4bd 6a90 85be d680 4e3e 56da 1cbd
00000020: 42f6 bfbd 1467 09be 497e 69be 4248 5c3e
00000030: 4231 b9bd e39a 173e 68f8 0c3e f19a 233e
00000040: a0e3 28be 198b 723e 438a da3d 94df 42bd
00000050: 9fcc 4e3e 40cb 58be 1002 373e 036a fdbd
00000060: e107 03be 2637 ecbd c3cf 11be 0e1c 573e
00000070: de91 c23d a90d 59be 181a 3ebe 1e94 02be
00000080: 5ea7 42be de59 8abd 608f debd e6b8 47be
00000090: bd8a 1b3e 7073 03be ea58 e53d 8ac3 55be
000000a0: c7ce 533e d194 dc3d ef27 ee3d bc8e 8bbd
000000b0: b28d acbd 09d8 4e3e fe1f 803d e017 04be
000000c0: a6c6 923d adbf 52be bd33 87bd d3ba fabd
000000d0: ded8 91bc 4ecb 643e d331 6bbd 5985 d4bd
000000e0: 24dc d8bd a951 5f3e fdc0 a5bd 7c79 283e
000000f0: ccab 49be 2f23 5d3d 17e2 103e b32b 3d3e
00000100: 5dd5 c9bd f68a c73d e719 0cbe 4804 acbc
00000110: ad35 433e 7a76 ca3d f2c9 05be 8dee 1c3e
00000120: 3716 4d3e 9edc e63c 3c6a 8e3d 20eb 48be
00000130: 2d79 543e f4b0 47be b77c 3abe 9004 6bbe
00000140: c223 8c3d 7fd9 98bd ac11 46be b0e8 e73d
00000150: 56b0 5fbe 685c 7d3e c543 44be 413b 3d3e
00000160: 7c62 163c 9de4 1a3e d507 ab3d 44b0 21be
00000170: 8dfe cdbd bfdd 353e 12fc 223e eea4 343e
00000180: 5ddb 8f3d fd26 df3d d2ca 453e f09a dd3c
00000190: c2a6 2cbe ebed 223e 6d30 27be 2102 0e3e
000001a0: fc6c abbd 3198 14be 9791 04be 156b 433e
000001b0: af89 283e 15f9 85be eaca 4abe 472b 993d
000001c0: 94e0 1cbe c56f 4e3e 7528 3e3e 9037 1d3e
000001d0: c280 5d3e 9d9f 23bc 6917 443e 44d8 873d
000001e0: c95b 383e 26df a7bd 7f1a f63d e526 2abe
000001f0: 798c 263e 53bc 39be 45cd a7bd ac1d 2abe

classify.bias f4 [2]
0.024048433 0.00040864394
00000000: 3801 c53c 433f d639
