BCI/output/openBMI/LightConvNet/sub32/2023-10-05--17-38/model.pth (torch, 51356 bytes, 9 tensors)

spacial_block.0.weight f4 [64, 9, 20, 1]
0	0xbcd30167	-0.025757505
1	0x3cf40a6c	0.029790126
2	0xbd3dc937	-0.04633447
3	0xbce19e54	-0.027541317
4	0x3c95252d	0.018206203
5	0x3cc34de4	0.023840852
6	0x3ae34b19	0.0017341106
7	0x3cd7d11d	0.02634483
8	0xbaf88f6d	-0.0018963643
9	0x3d06a871	0.032875482
10	0x3c9d0b8b	0.019170543
11	0x3bda4451	0.006660976
12	0xbd0f5360	-0.034991622
13	0x3d13c6e6	0.036078356
14	0xbd23b32d	-0.039965797
15	0xbc133e3d	-0.008987007
16	0x3c8a4d25	0.016882489
17	0x3d081237	0.033220496
18	0xbd20c959	-0.03925452
19	0xbc9a500c	-0.018836997
20	0x3c9f0465	0.019411275
21	0x3d0cdd5c	0.034390792
22	0xbd914146	-0.07092528
23	0x3d2900a8	0.04126039
24	0x3b79a410	0.0038092174
25	0xbd990a6b	-0.0747269
26	0x3d79c2b3	0.060976695
27	0xbd5165e6	-0.05112257
28	0xbc998d3b	-0.018744102
29	0xbd8fcfc9	-0.07022054
30	0xbbed4cf1	-0.007241838
31	0x3d4d2771	0.050086442
32	0xbdd8f816	-0.10594194
33	0xbc2c0ea4	-0.0105015375
34	0x3c5add82	0.013358476
35	0xb9af01ce	-0.00033379946
36	0x3cc0cd95	0.02353553
37	0x3e068e26	0.13140163
38	0x3d870084	0.06591895
39	0x3d091a48	0.03347233
40	0xbd0a674d	-0.03378992
41	0xbc77ff15	-0.0151365
42	0x3d133c23	0.035946023
43	0x3d1056d1	0.035239045
44	0xbce392b3	-0.027779913
45	0xbc915d3f	-0.017744659
46	0x3bf32c66	0.007421064
47	0x3ccc68c3	0.024952298
48	0xbd19ea74	-0.037577108
49	0x3de66574	0.112498194
50	0x3da68028	0.081299126
51	0xbd168dbe	-0.03675627
52	0xba085155	-0.00052001077
53	0x3d0619ab	0.032739323
54	0xbba70f30	-0.005098246
55	0xbcec7937	-0.028866393
56	0x3e13ed91	0.14446093
57	0xbddfb35e	-0.109228835
58	0xbe2e2e1f	-0.17009781
59	0xbdb0f049	-0.08639581
60	0x3cc14030	0.023590177
61	0xbb8325a1	-0.0040022884
62	0xbda7129e	-0.08157848
63	0x3d87d4af	0.06632363
64	0xbc005d43	-0.007834735
65	0xbca391e1	-0.019967021
66	0xbce9f3a8	-0.028558567
67	0xbd38d512	-0.045125075
68	0x3d068ca8	0.032848984
69	0x3d92fa4f	0.07176649
70	0xbc651938	-0.013983063
71	0xbd747fae	-0.059692077
72	0x3d40a4ae	0.04703205
73	0x3d83a899	0.06428642
74	0xbbaed8d9	-0.005335909
75	0x3d64169e	0.055685632
76	0x3d1826bf	0.037146326
77	0xbd9757b9	-0.07389779
78	0xbc99ab51	-0.018758448
79	0xbd2fbd68	-0.04290524
80	0xbcc4a9a0	-0.024006665
81	0xbc1fb8dd	-0.009748665
82	0x3c2d7b6b	0.010588507
83	0xbad96242	-0.0016585069
84	0xbc383eef	-0.011245473
85	0xbd073f6d	-0.033019472
86	0x3ac3d580	0.0014940947
87	0xbcbb8076	-0.022888403
88	0xba743360	-0.0009315517
89	0xbd2f956e	-0.042867117
90	0x3d9fa0b2	0.07794322
91	0x3d03316a	0.032029547
92	0x3d294c60	0.041332603
93	0x3d6571a4	0.05601658
94	0xbd8c969a	-0.068646625
95	0x3c200053	0.009765702
96	0x3d9ad379	0.075598665
97	0x3c9821ab	0.018570742
98	0xbde87cc8	-0.11351925
99	0x3c1601aa	0.00915567
100	0x3d675a3f	0.05648255
101	0xbcaadd1f	-0.020857392
102	0xbd35d860	-0.044395804
103	0x3c897418	0.01677899
104	0xbd551c14	-0.05202873
105	0xbc41bc3f	-0.0118246665
106	0xbcc4484d	-0.023960257
107	0xbdb6247f	-0.0889368
108	0x3cb3021a	0.021851588
109	0xbc32423a	-0.010880047
110	0x3d07cf92	0.03315694
111	0x3d9e5fc7	0.07733112
112	0x3bf75407	0.0075478586
113	0x3db08ab3	0.08620205
114	0x3ba5e6f1	0.0050629308
115	0x3ca7691a	0.020435859
116	0x3d400878	0.046883076
117	0xbd4b9d15	-0.049710352
118	0xbcdfd53e	-0.027323361
119	0x3cf2d9e0	0.029644907
120	0x3d19dc34	0.037563518
121	0xbbde04fc	-0.0067754965
122	0xbd49d356	-0.04927381
123	0x3df9c1a1	0.12195135
124	0x3c044272	0.008072482
125	0xbb0b3a6f	-0.0021244546
126	0xbc62a680	-0.013833642
127	0xbd20c424	-0.039249554
128	0xbd7162b7	-0.058932032
129	0xbcd6d0a7	-0.02622254
130	0x3d4252a4	0.047442093
131	0xbb379c24	-0.002801665
132	0xbcef9b99	-0.029249
133	0x3c4d90a8	0.012546696
134	0x3cd6ee2a	0.026236612
135	0x3d186b8a	0.037211932
136	0x3d8b2322	0.067938104
137	0x3beae84d	0.0071688057
138	0xbd9acb76	-0.07558338
139	0x3c48717c	0.012234088
140	0x3d4ad85a	0.049522735
141	0xbbbca0b7	-0.0057564634
142	0x3d1ac4cd	0.03778534
143	0x3cac1441	0.021005752
144	0xbd89ed23	-0.06734683
145	0xbcff317e	-0.03115153
146	0xbbf95dc9	-0.007610057
147	0xbcbc150f	-0.02295926
148	0xbcff4bc3	-0.031164056
149	0xbc3f038e	-0.011658562
150	0x3a091327	0.0005228989
151	0xbd5ef988	-0.05443719
152	0x3bf4542a	0.007456322
153	0x3d5e3e40	0.054258585
154	0xbbf3e93d	-0.0074435757
155	0xbd2f5609	-0.04280666
156	0x3e1b8912	0.15189007
157	0xbc52ca8e	-0.012865676
158	0xbc3aca81	-0.01140082
159	0xbc801df6	-0.015639286
160	0xbb9a7b20	-0.0047143847
161	0xbcd55efb	-0.026046267
162	0xbd60b5fb	-0.05486105
163	0x3c246187	0.010033018
164	0x3cc14412	0.023592029
165	0xbb8090f5	-0.00392353
166	0xbcae61b7	-0.021286828
167	0x3d098698	0.033575624
168	0xbd2be994	-0.041970804
169	0x3b13983c	0.0022521159
170	0x3df9fb31	0.12206114
171	0xbd00008f	-0.031250533
172	0x3d0738c5	0.033013124
173	0x3d56550d	0.052327204
174	0xbd73a4e5	-0.059483428
175	0x3db23bd7	0.0870282
176	0x3d331b71	0.043727342
177	0xbd351d35	-0.044217307
178	0xbc670ceb	-0.014102201
179	0xbd7ab9d0	-0.06121236
180	0x3cc10868	0.023563579
181	0x3b46ca25	0.003033289
182	0x3c835946	0.01603378
183	0x3d80bd6a	0.06286128
184	0xbda49f72	-0.08038224
185	0xbcc837d5	-0.024440685
186	0x3c46c54b	0.012131999
187	0xbd2224b2	-0.039585777
188	0xbd81f988	-0.063464224
189	0xbdc6f7cb	-0.097152315
190	0x3e23bf75	0.15991004
191	0x3dab0263	0.083500646
192	0xbe0e7170	-0.1391046
193	0xbcf4dc75	-0.029890278
194	0x3d5547c2	0.052070387
195	0x3d37b38b	0.04484896
196	0xbd9713e9	-0.073768444
197	0x3c8368dc	0.016041212
198	0xbc3aa8c1	-0.011392773
199	0x3d86449d	0.06556056
200	0x3d2cfb0f	0.042231616
201	0x3b8b77fe	0.0042562475
202	0xbd8152f8	-0.06314653
203	0xbcee641b	-0.029100468
204	0xbcf85911	-0.030315908
205	0x3d581d13	0.052762102
206	0xbceac94b	-0.028660437
207	0x3dc24bb9	0.09487099
208	0x3de8fbc4	0.113761455
209	0xbb9d9396	-0.0048088534
210	0xbc8d9347	-0.017282141
211	0x3d072058	0.03298983
212	0xbd57eb0e	-0.0527144
213	0xbc6113a7	-0.013737596
214	0xbc3dc8b8	-0.0115835
215	0xbd5e1566	-0.054219626
216	0xbdbf7b7e	-0.09349726
217	0x3ccacaa5	0.024754832
218	0x3e18dc66	0.14927825
219	0xbdeb492c	-0.11488566
220	0x3cde09e9	0.027104335
221	0x3dd07a0f	0.10179531
222	0xbdb5f6be	-0.08884953
223	0x3c4291ba	0.011875564
224	0x3ca7fc17	0.020505948
225	0x3c9dbb7d	0.01925444
226	0xbb581893	-0.0032973632
227	0xbbd03160	-0.006353542
228	0xbd08bbf2	-0.033382364
229	0xbde84590	-0.11341393
230	0x3d835412	0.064125195
231	0x3d3b768d	0.045767356
232	0xbdafa3e0	-0.085761786
233	0x3b96e8a2	0.0046053687
234	0x3df31dca	0.11870916
235	0x3d70af5a	0.05876098
236	0xbd6be621	-0.057592515
237	0xbd7149ca	-0.05890826
238	0x3c84d1c6	0.016213309
239	0xba6b2000	-0.0008969307
240	0x3c97e941	0.018543841
241	0x3de6c541	0.11268092
242	0xbd2554d7	-0.040364113
243	0xbcbeb972	-0.023281787
244	0x3c74d461	0.014943213
245	0x3c4e2928	0.012583055
246	0xb9e7cb1a	-0.00044211076
247	0xbd3b51c6	-0.045732282
248	0x3c834c2e	0.016027536
249	0x3c9e5863	0.019329255
250	0xbc17d0ea	-0.009266118
251	0x3dafd066	0.08584671
252	0xbd9e09e5	-0.07716731
253	0xbc46ab44	-0.012125794
254	0x3d0e23d5	0.03470214
255	0xbd913bf6	-0.07091515

spacial_block.0.bias f4 [64]
0	0xbccf229e	-0.025285061
1	0xbd7f3094	-0.062302187
2	0x3caedcc3	0.021345502
3	0xbd03fb99	-0.032222364
4	0x3baf0d20	0.005342141
5	0xbd39b51b	-0.04533873
6	0x3d1a8600	0.03772545
7	0xbd5ed2be	-0.0544002
8	0xbd7aa86e	-0.061195783
9	0xbd904b1f	-0.07045578
10	0x3d864b05	0.065572776
11	0x3d0af4e3	0.03392495
12	0xbd557294	-0.052111223
13	0xbc97ccd7	-0.018530292
14	0x3d69bfc9	0.057067666
15	0x3cbb2fb3	0.022849893
16	0x3d89f791	0.06736673
17	0xbc321319	-0.010868811
18	0xbbe982c0	-0.0071261823
19	0x3d64f222	0.05589498
20	0xbb43ff0a	-0.0029906654
21	0xbd809d29	-0.06279976
22	0xbc8600e8	-0.016357854
23	0x3d61abfa	0.05509565
24	0x3cfd6ad8	0.030934736
25	0xbc73230e	-0.014839901
26	0xbd95e0e3	-0.07318284
27	0x3d5f94b2	0.054585166
28	0xbc8415cf	-0.01612368
29	0xbc7b0a85	-0.015322332
30	0x3d8c84b8	0.068612516
31	0x3d279961	0.040917758
32	0x3cbe880f	0.023258237
33	0x3ccccbdb	0.02499955
34	0x3abc20e7	0.0014353067
35	0x3bc4cc4e	0.0060058003
36	0xbd1ed9a3	-0.038781773
37	0x3cdbf8fd	0.026852125
38	0x3d1556f4	0.036459878
39	0x3d2656c8	0.040610105
40	0xbd1a7817	-0.037712183
41	0x3b757bd3	0.0037457838
42	0xbba3f577	-0.005003627
43	0xbd3069da	-0.043069698
44	0x3c85cc90	0.016332895
45	0x3d2820d8	0.041046947
46	0x3be1622f	0.0068781595
47	0xbd0af3b0	-0.033923805
48	0x3d749b47	0.059718397
49	0xbd21461a	-0.039373495
50	0x3cf157c1	0.02946079
51	0x3aa43349	0.0012527491
52	0x3cd8fa6e	0.026486602
53	0x3ce87aee	0.02837893
54	0xbd8de3e1	-0.0692823
55	0x3c93a082	0.018020872
56	0xb9e7f20e	-0.00044240098
57	0xbd734b6f	-0.05939811
58	0x3d3f892c	0.046761677
59	0x3bef4ae8	0.0073026307
60	0xbcb2d2cf	-0.021829037
61	0xbb638fdb	-0.0034723196
62	0x3d5732ca	0.05253867
63	0xbce6e28f	-0.028184203

spacial_block.1.weight f4 [64]
0	0x3f8227e2	1.0168421
1	0x3f88601c	1.065433
2	0x3f836c6a	1.026746
3	0x3f8f58c7	1.1198968
4	0x3f827580	1.0192108
5	0x3f838949	1.0276271
6	0x3f80d3a7	1.0064591
7	0x3f85e33a	1.0459969
8	0x3f83cc0b	1.0296644
9	0x3f979294	1.1841607
10	0x3f8e5ac4	1.112145
11	0x3f8445a4	1.0333753
12	0x3faf48f4	1.3694139
13	0x3fa35787	1.2761086
14	0x3f84d797	1.0378293
15	0x3f80d947	1.0066308
16	0x3f922a29	1.1419116
17	0x3f815676	1.0104511
18	0x3f811874	1.0085588
19	0x3f897d8e	1.0741441
20	0x3f838b62	1.0276911
21	0x3f822a48	1.0169153
22	0x3f8406c0	1.031456
23	0x3f831548	1.024087
24	0x3f842cc3	1.032616
25	0x3f889751	1.0671178
26	0x3f93b091	1.1538259
27	0x3f82f1db	1.0230058
28	0x3f86e13a	1.0537484
29	0x3f829de8	1.0204439
30	0x3f83705e	1.0268667
31	0x3f81a097	1.0127133
32	0x3f81ee3e	1.0150831
33	0x3f826e2c	1.0189872
34	0x3f8866ad	1.0656334
35	0x3f8638ef	1.0486125
36	0x3f83c673	1.0294937
37	0x3f85926a	1.0435307
38	0x3f9a1d5c	1.204021
39	0x3f84565e	1.0338857
40	0x3f8ffff7	1.1249989
41	0x3fa5d319	1.2955047
42	0x3f83d227	1.0298508
43	0x3f8656fe	1.0495298
44	0x3f9f58ae	1.2448938
45	0x3f81b24b	1.0132536
46	0x3f8261e3	1.0186123
47	0x3fa1b99e	1.2634771
48	0x3f83ea25	1.030583
49	0x3f81d98c	1.0144515
50	0x3f84ba09	1.0369273
51	0x3f85271e	1.0402563
52	0x3fad5227	1.3540696
53	0x3f877162	1.0581477
54	0x3f836f88	1.0268412
55	0x3f89d233	1.0767273
56	0x3f82cf7d	1.021957
57	0x3f85684b	1.0422453
58	0x3f86bc62	1.052624
59	0x3f8114a1	1.008442
60	0x3f824e41	1.0180131
61	0x3f8269d4	1.0188546
62	0x3f86cadf	1.0530661
63	0x3f8273ad	1.0191551

spacial_block.1.bias f4 [64]
0	0xbde16dcd	-0.11007271
1	0xbe1ffb2d	-0.1562316
2	0xbdb58ea5	-0.08865098
3	0xbe06b4dc	-0.1315493
4	0xbd18d75b	-0.037314754
5	0xbd892b39	-0.06697697
6	0xbd0bb1df	-0.034105178
7	0xbd8d4fab	-0.06899961
8	0xbd9e3ad7	-0.077260666
9	0xbe8ca05d	-0.27466097
10	0xbe2d4f0c	-0.16924685
11	0xbdcb0681	-0.0991335
12	0xbec4296e	-0.38312858
13	0xbea06956	-0.31330365
14	0xbdb9b62d	-0.090679504
15	0xbd7e7d9f	-0.06213152
16	0xbe51008f	-0.2041037
17	0xbddaa9f2	-0.10676946
18	0xbda0b74e	-0.078474626
19	0xbdfe631f	-0.124212496
20	0xbdf22ce0	-0.118249655
21	0xbcb7de9c	-0.022445016
22	0xbd856e16	-0.06515138
23	0xbd58dead	-0.052946735
24	0xbdc593d6	-0.09647338
25	0xbdf7b5a6	-0.120951936
26	0xbe42e132	-0.19031218
27	0xbdb74dc8	-0.089503825
28	0xbe31b5e2	-0.17354539
29	0xbd7d594f	-0.06185275
30	0xbd88020c	-0.066410154
31	0xbc6bd777	-0.014394633
32	0xbca80387	-0.020509494
33	0xbd4355ad	-0.04768913
34	0xbe03a575	-0.12856086
35	0xbdb7413f	-0.089479916
36	0xbe3cc9da	-0.18436375
37	0xbd66ae43	-0.056318533
38	0xbe8a7e3e	-0.2704944
39	0xbd8e39b1	-0.069445975
40	0xbe995556	-0.2994792
41	0xbea388b3	-0.3194023
42	0xbdcef8e6	-0.10106067
43	0xbdb197fd	-0.086715676
44	0xbe77ba34	-0.24192125
45	0xbd9688af	-0.07350289
46	0xbe0f55cd	-0.13997574
47	0xbe8ee984	-0.27912533
48	0xbdf6f25c	-0.12057945
49	0xbcc9db0c	-0.024640583
50	0xbdae5d64	-0.085139066
51	0xbd6af05a	-0.057358123
52	0xbebb87af	-0.36626956
53	0xbe0981e6	-0.13428459
54	0xbd6e0aa1	-0.058115605
55	0xbe0f0695	-0.13967355
56	0xbd3deb84	-0.046367183
57	0xbe096e5d	-0.13421007
58	0xbde6aeed	-0.11263833
59	0xbd81b1bc	-0.06332728
60	0xbce2c934	-0.027683832
61	0xbdb14de8	-0.086574376
62	0xbe04a512	-0.12953594
63	0xbdf5e61e	-0.12006782

spacial_block.1.running_mean f4 [64]
0	0xbeb15367	-0.34633943
1	0xbf3c6e06	-0.7360538
2	0xbea714de	-0.32633108
3	0xbe95290d	-0.29132882
4	0x3e05f1f0	0.13080573
5	0xbf149aaf	-0.5804853
6	0x3d684d92	0.0567146
7	0xbf7dd13d	-0.991474
8	0x3eb952a4	0.36195862
9	0x3ed0fdb5	0.40818563
10	0xbe1bde30	-0.15221477
11	0xbee8a901	-0.4544144
12	0x3f363d6a	0.7118746
13	0xbee34f59	-0.44396475
14	0xbefbad0a	-0.49155456
15	0xbf450499	-0.7696014
16	0x3e9bc1c1	0.3042126
17	0x3ead3d50	0.3383584
18	0x3ec0ec42	0.3768025
19	0x3f23b746	0.6395153
20	0x3f811405	1.0084234
21	0xbf3d95fb	-0.7405698
22	0xbf497ed7	-0.7870917
23	0xbf53923e	-0.8264502
24	0x3eede05c	0.46460235
25	0x3f32ba16	0.69815195
26	0x3edeb038	0.4349382
27	0xbf0923fc	-0.5357053
28	0x3a97056a	0.0011521999
29	0xbdc06ada	-0.0939538
30	0xbd9667cd	-0.07344017
31	0xbe3f5918	-0.1868633
32	0xbe0fc45b	-0.14039747
33	0x3f13415d	0.5752161
34	0x3ee4dd77	0.44700214
35	0x3de4986e	0.11161886
36	0xbf2e9d75	-0.6820901
37	0x3ed34a10	0.41267443
38	0xbe92c4b7	-0.28665707
39	0xbf650e0c	-0.8947456
40	0xbf7b7e7b	-0.9823987
41	0xbe149dc2	-0.14513305
42	0xbf75a868	-0.9596009
43	0xbe672de5	-0.22576101
44	0xbf45ecde	-0.77314556
45	0xbe3e80a5	-0.18603761
46	0x3f1bbaf8	0.60832167
47	0xbec483f8	-0.38381934
48	0x3f1e68e9	0.6187883
49	0x3f077464	0.52911973
50	0xbe279e4d	-0.1636898
51	0xbf194365	-0.5986846
52	0x3e8e29a7	0.27766153
53	0xbddcb5fe	-0.107769
54	0x3dbb7bd5	0.091544785
55	0xbf5853bd	-0.84502774
56	0xbec54535	-0.38529363
57	0xbf29c046	-0.6630901
58	0x3f4499b9	0.7679706
59	0x3d2db033	0.042404365
60	0xbfad2f98	-1.353015
61	0xbebf612d	-0.37378827
62	0xbf459d46	-0.77193105
63	0x3f22a0ad	0.6352642

spacial_block.1.running_var f4 [64]
0	0x409cb0e8	4.896595
1	0x3f9ce4e9	1.2257358
2	0x40bff50b	5.9986625
3	0x401461b4	2.3184633
4	0x401ccc46	2.4499679
5	0x408395a2	4.1120157
6	0x408f87c2	4.485322
7	0x401a7e52	2.41396
8	0x3fadeff3	1.3588852
9	0x3fbc20a2	1.4697459
10	0x3fcea133	1.6142944
11	0x3fe9ea55	1.8274637
12	0x3fddefa1	1.7338754
13	0x3f9443f7	1.1583241
14	0x4024e907	2.5767229
15	0x40781688	3.8763752
16	0x3fcdf2ae	1.6089685
17	0x405947f3	3.3950164
18	0x409cd91c	4.9015026
19	0x3fbd49c9	1.4788142
20	0x403280f6	2.7891212
21	0x406b987f	3.6811826
22	0x408322a7	4.09798
23	0x40179845	2.3686688
24	0x3ff6ccc1	1.9281236
25	0x3fea1f91	1.8290883
26	0x3fbd11b4	1.4771028
27	0x4005e33f	2.091995
28	0x40895450	4.291542
29	0x3fe424d3	1.7823738
30	0x3ffd39a8	1.978322
31	0x403d7550	2.9602852
32	0x40620973	3.5318267
33	0x403a03b6	2.9064765
34	0x3ff06858	1.8781843
35	0x40222a35	2.533826
36	0x4078dc4f	3.8884466
37	0x402572da	2.585135
38	0x3ff1299f	1.8840827
39	0x40173516	2.362615
40	0x3fc79174	1.5591264
41	0x3ff49c00	1.9110107
42	0x40432171	3.048916
43	0x3fe89ecb	1.817346
44	0x3f9c0fc2	1.2192309
45	0x401f19e1	2.4859545
46	0x3fecc155	1.84965
47	0x3ff651d5	1.9243723
48	0x40613641	3.5189364
49	0x402ef8f6	2.7339454
50	0x3ff2d742	1.8971941
51	0x406180f8	3.5234966
52	0x3fb99bba	1.4500649
53	0x40347da2	2.820168
54	0x3fd92fc1	1.6967698
55	0x3fc817f4	1.563231
56	0x40159b9a	2.3376222
57	0x402ab6b7	2.667402
58	0x4032fd6c	2.7967176
59	0x40a23ea5	5.070147
60	0x403096ad	2.7591965
61	0x4050480e	3.2543979
62	0x402540dc	2.5820837
63	0x412d9b98	10.850487

conv.weight f4 [8, 1, 4]
0	0xbee48d11	-0.44638875
1	0x3dbe3cb9	0.09288926
2	0xbec4df57	-0.38451645
3	0x3eef3dc3	0.46726808
4	0xbe90f651	-0.28312925
5	0x3eedb04e	0.46423572
6	0xbf1a9fae	-0.603999
7	0xbdf87b2f	-0.121328704
8	0x3d69cb9d	0.057078946
9	0x3de18cfb	0.11013218
10	0x3f31f403	0.6951296
11	0x3e68c3c0	0.22730923
12	0xbf25d837	-0.6478304
13	0xbe03cf8c	-0.12872142
14	0x3f334733	0.70030516
15	0xbea490fa	-0.32141858
16	0x3f00b9b1	0.5028334
17	0xbf10972f	-0.5648069
18	0xbeea809c	-0.45801246
19	0x3f097812	0.5369884
20	0x3e9a3ab6	0.30122918
21	0xbed49232	-0.41517788
22	0x3edd24ba	0.43192083
23	0xbf2155b5	-0.63021404
24	0xbee6466e	-0.4497561
25	0x3edaf014	0.4276129
26	0xbebc42f1	-0.36769822
27	0xbe5b1daf	-0.21398042
28	0xbea157e6	-0.31512374
29	0xbec98b36	-0.39364022
30	0xbf2a1320	-0.6643543
31	0x3ee2a8b4	0.44269335

classify.weight f4 [2, 64]
0	0x3e306600	0.1722641
1	0xbe088ada	-0.13334218
2	0x3e631550	0.22176099
3	0xbe3d38ef	-0.1847875
4	0xbdb863f7	-0.09003442
5	0xbe3047e7	-0.17214929
6	0x3e3ebbda	0.18626347
7	0xbd87a149	-0.066225596
8	0xbdb3f0d4	-0.08786169
9	0xbe3d9470	-0.18513656
10	0xbe8b415c	-0.27198303
11	0x3e79b614	0.24385864
12	0x3e50cf50	0.20391583
13	0x3e25c9df	0.16190289
14	0x3dfc52b4	0.12320462
15	0x3e03b5df	0.12862347
16	0xbe2c4519	-0.16823234
17	0x3e580e1f	0.21099137
18	0x3e1c4e96	0.15264353
19	0xbdb3198a	-0.087451056
20	0x3e644112	0.22290447
21	0xbe2743c6	-0.16334447
22	0x3e1f3356	0.15546927
23	0xbe0afe7c	-0.1357364
24	0xbe41bb12	-0.18919018
25	0xbe28089b	-0.16409533
26	0xbe47163c	-0.19442075
27	0x3e6c7423	0.23091178
28	0x3de374d4	0.111062676
29	0xbe2b6d1d	-0.16740842
30	0xbe400d89	-0.18755163
31	0xbdd4760f	-0.103740804
32	0xbe280ad7	-0.16410385
33	0xbd561991	-0.052270476
34	0xbde1f01e	-0.11032127
35	0xbe5700ba	-0.20996371
36	0x3e28336d	0.16425867
37	0xbdc419bd	-0.09575222
38	0x3e045a1e	0.12925002
39	0xbe39165e	-0.18074939
40	0x3e4d143b	0.20027249
41	0x3e19de9e	0.15026328
42	0x3df21a5b	0.11821433
43	0xbdba75bb	-0.091044866
44	0xbdec91d0	-0.11551249
45	0x3e296572	0.16542605
46	0x3dd84afe	0.105611786
47	0xbe21cb4f	-0.15800212
48	0x3dbc51be	0.091952786
49	0xbe186b8e	-0.14884779
50	0xbd65f350	-0.056140244
51	0xbdeecf5d	-0.11660645
52	0xbd7e7b36	-0.06212922
53	0x3e641cde	0.22276637
54	0xbd2c157e	-0.042012684
55	0xbe0d2602	-0.1378403
56	0xbdfc6495	-0.12323872
57	0x3e5792b3	0.21052055
58	0xbe036381	-0.12830926
59	0x3e09a3f1	0.13441445
60	0xbe0da380	-0.13831902
61	0x3d6b6b2d	0.057475258
62	0x3e34b2ed	0.1764638
63	0x3e3ff027	0.18743955
64	0xbdd2fdb4	-0.10302296
65	0x3e006c52	0.12541321
66	0xbe1f409d	-0.15551992
67	0x3d082339	0.033236716
68	0x3e353080	0.17694283
69	0x3c2624da	0.010140622
70	0xbdec09f5	-0.11525337
71	0x3e39889d	0.1811852
72	0x3e471375	0.19441016
73	0x3da211dc	0.07913563
74	0x3de8730b	0.11350068
75	0xbe6658fa	-0.2249488
76	0xbdb1dd7c	-0.08684823
77	0xbe55dff0	-0.20886207
78	0xbe2badaf	-0.16765474
79	0xbe4b1f6e	-0.19836208
80	0x3d92e6ab	0.07172903
81	0xbd47bf1f	-0.04876625
82	0xbe751b1e	-0.23936126
83	0x3e1cc932	0.15311125
84	0xbe7524cc	-0.23939818
85	0x3e4bd4e8	0.19905436
86	0xbe2c750b	-0.16841523
87	0x3e4984b9	0.19679536
88	0x3d9032b5	0.070409216
89	0x3e4cd1a3	0.20001845
90	0x3e0aca66	0.13553771
91	0xbe370857	-0.17874275
92	0xbdeee17f	-0.11664104
93	0x3e083d2b	0.13304584
94	0x3e24ef82	0.1610699
95	0x3e1c4be3	0.15263323
96	0x3d354486	0.044254802
97	0x3dbfd9e6	0.09367733
98	0x3e477b32	0.19480589
99	0x3d2becc9	0.041973863
100	0xbe394f74	-0.18096715
101	0x3e018761	0.12649299
102	0xbe38de11	-0.18053462
103	0x3de2a9f2	0.11067571
104	0xbd9df7e7	-0.07713299
105	0xbe402c61	-0.18766929
106	0xbe068acd	-0.13138886
107	0x3e5ade8e	0.2137396
108	0x3e488bbd	0.19584556
109	0xbe667f9e	-0.2250962
110	0xbe76e073	-0.24109058
111	0x3dd4922b	0.10379442
112	0xbe31a620	-0.17348528
113	0x3e141ba7	0.14463674
114	0x3e340b66	0.17582473
115	0x3e1741e1	0.14771225
116	0x3e85723b	0.26063713
117	0xbc18b8df	-0.00932142
118	0x3e345058	0.17608774
119	0x3dcd9ef4	0.100400835
120	0x3e4a2003	0.19738774
121	0xbd98613e	-0.074404225
122	0x3e2b9046	0.16754255
123	0xbe0b515a	-0.13605252
124	0x3dd50858	0.10401982
125	0xbe3d4e53	-0.1848691
126	0xbdef6efb	-0.1169109
127	0xbe2ce21f	-0.16883133

classify.bias f4 [2]
0	0x3c04ca29	0.008104839
1	0x3c85f51d	0.01635223
