BCI/output/bci_iv_2a/LightConvNet/sub8/2023-10-02--20-12/model.pth (torch, 56047 bytes, 9 tensors)

spacial_block.0.weight f4 [64, 9, 22, 1]
00000000: 6d91 313d 01b9 43bc eba9 b8bc 4c05 f23b
00000010: 1a4c f13b ade4 b6bc 334b b2bb 0879 c23c
00000020: 8509 e1bb 795b 853c 1e37 16bb df06 f6bb
00000030: 4d0a 28bd 3a72 0dbb 6255 d0bc 668b 99bc
00000040: 11e6 aa3c 6d76 0e3d 5316 29bc 5e33 c93b
00000050: 18dc 1a3b cef4 2bbb c8ac a7bd 7286 943c
00000060: 73d9 5ebc 9ca9 fcbb 6756 a63d 6be2 57ba
00000070: 610c 963d 50df 843d d6c5 313c 0fb4 ad3d
00000080: 7e2f 3ebd cae1 86bd 4bcd 363c edd9 15be
00000090: 4000 c4bd 2058 ad3d f181 a33c d6c8 31bc
000000a0: f36b 213c 9c73 8bbb b932 213d a61c 02bc
000000b0: 15c4 b5bc 9c77 c0bc d986 5b3c 4f94 0e3d
000000c0: 632c 55bc bbcb 403d 8e39 d03d 288e 33bd
000000d0: e2e0 bc3b 0206 2a3d abe3 333d 7811 2dbd
000000e0: 74b3 f3bc 8c48 82bd 44d6 73bd 6a4a 66bc
000000f0: 4eff d43c 4f29 64bc 407d 72bc c804 083d
00000100: dc83 4f3b 296e 543b 15b0 94bb 24ce 9cbc
00000110: fda2 953b 306d e73c 6ba8 2fbb 05a0 b8bc
00000120: e840 c23c 188a 85bc 21f8 73bc 91cf 3fbc
00000130: 49c8 073c 886a 30bc 0b97 9e3c 1ed7 c33c
00000140: 9859 a6bd f009 863d 26b6 5a3d def3 07bd
00000150: ca47 833d c939 063d 2317 22bd a45d 5cbd
00000160: 4481 17bc b93c 31bd da00 dabb b5f5 8a3c
00000170: 8fd2 973c 48ab af3b bf1d 9abb 2705 47bc
00000180: 5300 5c3d 52e1 98bc bf52 adbc ee2e d3bb
00000190: 416e 553c 2cd5 c03d 76c5 0e3c 220e 9f3b
000001a0: 2281 d6bc f679 5a3c 32b0 e2bd 47a1 24bd
000001b0: 827a 3f3c deb4 3c3d 4510 f3bc 75a9 5e3c
000001c0: 7b47 f1bc 2963 a1bb c69f c03c 2a58 05bd
000001d0: ce70 cdbc b84e 6e3b e5bd 633d 3924 943c
000001e0: 2c52 203c a08b c3b9 2c75 3e3d dbf7 093c
000001f0: 22b4 e3bc 4ffd 1abd f0ae 34bb c31c a1bc
00000200: cb30 25bc adda 59bc 7658 30bc 96bf 613d
00000210: f9e9 19bd 7e35 8cbc 6092 893c 37a0 b5bc
00000220: b971 ebbc 2a56 d23c c032 a7bb b427 bc3c
00000230: 97d8 433c cd8a a4bb bb37 633b c316 bc3c
00000240: f92f 123d dd98 0dbd 2567 2a3d e2d9 8d3c
00000250: 5f1f 39bd 70c1 c8bc d7af 5cbc 6adb 823a
00000260: 20f0 58b9 74ba 973c 3e80 b8ba 9aa9 71bd
00000270: edcb a93c 9343 31bd 8fba fdbc cb8f a63c
00000280: 4a4e b7bb 5874 743d a948 fa39 30ec 9dbc
00000290: 711d 8cbc 7af7 8b3c a3d3 093d 9e44 e43c
000002a0: dd0e 15bd a0aa 4c3c 31c3 423d fd50 f2bc
000002b0: 8e3d 593d 5158 ce3c bb2e abbd 13a3 873c
000002c0: 50aa 8abd a237 a4bd 24e0 cfbc dd76 a8bd
000002d0: 564e 10bc 69f0 6e3d 5f88 d33d 3687 523d
000002e0: 6cfa c43c e6c0 c9bc fb0b 6fbd f8fd a83a
000002f0: d04a 4f3d f1ee 303d 112a 6e3d fa77 3f3d
00000300: efa9 97bd 2826 adbc a279 2abb a4dc c63c
00000310: f930 75bd 0c2f 6b3d 80b8 a93c c579 75bc
00000320: 0b2b b23c 159b 79bc e5e4 48bd bb61 9a3c
00000330: eaf6 93bc ad52 873c 967c d3bc db66 a13c
00000340: 2911 853c c126 163d 67ed 8d3a ee39 063b
00000350: ec45 b73c 3e5c 33bd 69d4 af3c 342d acbd
00000360: c30d fe3b 1d2b f9bb 7608 9e3d 4a72 ccbc
00000370: 7d74 18bd 1d77 ed3d dc86 bcbb 4a5b e0bc
00000380: 3dad 81bd a7a2 6d3d a6b2 edbd 7b10 2dbc
00000390: a65a 53bd 8b86 0d3d 5bb5 ff3c dc8c 8f3d
000003a0: 75fb 2ebd fa9c 863d 1d6c 8c3d 4e91 25bd
000003b0: 3e80 6c3d f0dd 6cbd fb3c acbd 2580 82bc
000003c0: d870 07bd c273 6b3d 4490 fa3c 251d bdba
000003d0: c4b8 9a3c 45e1 69bd 882c 7a3d 0025 65bd
000003e0: 6488 4c3d 6e06 efbd 0952 1abd 36ca 8d3b
000003f0: 2dd1 243d fa63 b73c 1b95 413c ae0b 213c
0.04335158 -0.011945964 -0.02254196 0.0073858853 0.0073638083 -0.022325838 -0.0054410934 0.023739353
-0.00686759 0.01627897 -0.0022921036 -0.0075081433 -0.04102545 -0.0021582977 -0.025431339 -0.018743228
0.020861657 0.03478091 -0.010320264 0.0061401566 0.0023629721 -0.0026238444 -0.08187252 0.018130515
-0.013601649 -0.0077106487 0.08121949 -0.0008235338 0.0732658 0.06487906 0.01085039 0.08481609
-0.04643201 -0.065860346 0.011157344 -0.14633913 -0.0957036 0.08464074 0.019959422 -0.010851106
0.009852397 -0.004255725 0.039355014 -0.007941401 -0.022188226 -0.023494534 0.013398849 0.034809407
-0.013011071 0.047069293 0.10167228 -0.043836743 0.005764113 0.041509636 0.043918293 -0.042252988
-0.029748656 -0.063614935 -0.05953051 -0.014055828 0.026000645 -0.013925864 -0.01480037 0.033207685
0.0031664288 0.0032414293 -0.004537592 -0.019141264 0.004566549 0.028250307 -0.0026803266 -0.02253724
0.02371259 -0.0163012 -0.0148907015 -0.0117072025 0.008287498 -0.0107675865 0.019359132 0.023906287
-0.081225574 0.06544864 0.053396367 -0.033191554 0.06410177 0.032769952 -0.039572846 -0.05380024
-0.009247128 -0.0432708 -0.0066529335 0.016962865 0.01853302 0.0053609945 -0.004703253 -0.0121472245
0.053711247 -0.018662129 -0.02115762 -0.0064448034 0.013026775 0.09415659 0.008714071 0.0048539797
-0.026184622 0.013334742 -0.11068763 -0.04019287 0.011686923 0.046070926 -0.029670844 0.013590206
-0.02945303 -0.004925151 0.023513686 -0.032554783 -0.025078204 0.0036362838 0.05560102 0.018083679
0.009785216 -0.00037297327 0.046498463 0.00842091 -0.027795855 -0.03783923 -0.0027570091 -0.019667035
-0.010082434 -0.013296765 -0.010763278 0.05511435 -0.03757665 -0.01711535 0.01679343 -0.022171123
-0.02874075 0.025675852 -0.0051024854 0.02296815 0.0119534945 -0.005021429 0.003467067 0.022960072
0.03569028 -0.03456961 0.041602273 0.017315809 -0.045195933 -0.0245063 -0.013469658 0.0009983603
-0.00020688819 0.018521525 -0.0014076305 -0.058999635 0.020727122 -0.043277334 -0.030972747 0.020332238
-0.0055940496 0.059681267 0.00047737852 -0.019277662 -0.017103883 0.01708578 0.033649098 0.02786475
-0.036391128 0.012491852 0.04754943 -0.029579634 0.05303722 0.025188597 -0.083585225 0.016557252
-0.06770766 -0.080184236 -0.025375433 -0.08225796 -0.008807739 0.05833474 0.10328745 0.05139848
0.024045192 -0.024628114 -0.058361035 0.0012893071 0.050608456 0.043196622 0.058145586 0.046745278
-0.07405459 -0.021136358 -0.002601244 0.024275132 -0.059861157 0.057417914 0.02071786 -0.014982645
0.02174904 -0.015234728 -0.049046416 0.01884543 -0.018062074 0.016518915 -0.025816243 0.019702366
0.016243534 0.036658052 0.0010828198 0.0020481306 0.022372209 -0.04378914 0.02146359 -0.08407059
0.0077531054 -0.0076040165 0.077164575 -0.024956841 -0.037220467 0.11594985 -0.005753381 -0.02738728
-0.06331871 0.058016445 -0.1160634 -0.010563011 -0.05160012 0.03455214 0.031214407 0.07009289
-0.042720277 0.0657291 0.068565585 -0.040421776 0.05773949 -0.057828844 -0.084100686 -0.015930245
-0.0330666 0.057483442 0.03058637 -0.0014428241 0.018886931 -0.0570996 0.061077625 -0.05594349
0.04993476 -0.11671148 -0.03767589 0.004327084 0.040238548 0.02238654 0.011815335 0.009829445

spacial_block.0.bias f4 [64]
00000000: 806c 493d 9205 5ebd f0f5 7d3d 0fc3 593d
00000010: 4521 883d 0910 463d d654 023d b7f5 64bd
00000020: 5bc2 5e3d fa7d 8bbd 2f86 643c ae39 8e3d
00000030: c8c3 603c 619b d63b 02f3 37bd 4972 7cbd
00000040: 1607 173c 802d c23c 39d1 23bd 7d8b 123c
00000050: 4861 8e3b 3155 35bd 36af 803c f39f 6ebd
00000060: 332c 233d 8ca2 2cbd 1a9f 563d 49c6 753d
00000070: ddef 2b3d 5c3a 4abd 0242 4e3d 29c0 89b9
00000080: 626f 8bbd d678 633d ea97 863d ba08 f93c
00000090: 59b3 62bd 629d 8dbc 683b d4bb 36ec 833d
000000a0: 7c18 7cbd 8d20 5dbd a0a3 103d 5b09 c33c
000000b0: 8654 b8bc f19c 70bd e707 15bc b04d 333d
000000c0: d359 803d c8f2 55bb 9170 31bd 2c94 9f3c
000000d0: 7895 533d 1953 2dbd d421 913c 8a96 1e3d
000000e0: 9819 26bc 38ad 67bd 54e7 12bd c21f 8cbd
000000f0: 355b 30bb f505 5e3d 33cc 96bb 76f1 643d
0.04917574 -0.05420453 0.062002122 0.053164538 0.06646971 0.048355136 0.031819187 -0.055898394
0.05438457 -0.068111375 0.0139480075 0.06944595 0.013718553 0.0065492843 -0.044909485 -0.06163243
0.009217998 0.023703337 -0.039994452 0.008944389 0.004345093 -0.044270698 0.015708547 -0.05825801
0.039837074 -0.042147204 0.052397825 0.060003553 0.0419768 -0.049372062 0.05035592 -0.00026273847
-0.06808354 0.05553516 0.06571944 0.030399669 -0.05534682 -0.01728696 -0.0064768083 0.06441538
-0.061546788 -0.05398612 0.035312295 0.023808172 -0.022501241 -0.05874342 -0.009096122 0.04377526
0.062671326 -0.003264593 -0.043320242 0.019479834 0.051656216 -0.042315576 0.017716326 0.038717784
-0.010137938 -0.05656168 -0.035865143 -0.06841995 -0.0026909832 0.0542049 -0.004601979 0.055894338

spacial_block.1.weight f4 [64]
00000000: 2c59 8d3f 0930 673f 3b3f 693f 55a2 883f
00000010: b399 6a3f 2e2a 7b3f 622c 623f 97ff 773f
00000020: b7b2 8d3f a14e 8e3f cb43 783f 95c6 863f
00000030: 509f 8a3f bc67 8b3f c123 6e3f 0462 8c3f
00000040: 6b97 873f 4ea2 833f 1ad2 903f 283e 853f
00000050: 97c9 6f3f 7494 8c3f b89e 913f 3b5a 663f
00000060: 3b1f 903f 7de4 693f d092 903f 198e 6d3f
00000070: 1c1a 703f 1d61 913f 4809 873f 3b77 8e3f
00000080: 280f 833f 8623 813f 71fa 663f 49d5 703f
00000090: a2a2 723f 6a2b 8b3f 5c3c 773f 4bbd 723f
000000a0: 3048 713f 46e5 8a3f c547 803f fe83 673f
000000b0: 469d 6d3f a9d9 623f b175 5f3f f37e 843f
000000c0: fef5 8f3f 60a5 633f dfef 8f3f f121 8c3f
000000d0: 20a8 893f 401f 6c3f 0b2d 803f 310c 8b3f
000000e0: 4240 693f 31d8 673f 999a 653f 5e03 8e3f
000000f0: 080a 633f 3bea 853f abfa 8e3f 6221 893f
1.1042838 0.9030767 0.9111211 1.067454 0.91640776 0.98111236 0.8834897 0.96874374
1.1070164 1.1117746 0.96978444 1.0529352 1.0829868 1.0891032 0.93023306 1.0967412
1.0593084 1.0283906 1.1314118 1.0409594 0.93666977 1.0982804 1.1376562 0.8998143
1.1259531 0.9136427 1.1294804 0.9279495 0.9378984 1.1357762 1.0549707 1.1130136
1.0239 1.0088966 0.90225893 0.9407545 0.9477941 1.0872624 0.96576476 0.9482009
0.94250774 1.0851219 1.0021902 0.9043578 0.92818105 0.88613373 0.8728896 1.0351242
1.1246946 0.8892422 1.1245078 1.0947858 1.0754433 0.92235184 1.0013746 1.0863096
0.91113675 0.90564257 0.8968902 1.1094778 0.8868718 1.0462106 1.1170248 1.0713313

spacial_block.1.bias f4 [64]
00000000: 159c 16bc 6c2b 6bbe f7f2 3fbe f3f9 1abd
00000010: dfd4 4cbe 55a9 06be 6889 6abe 5ac4 34be
00000020: a524 de38 e909 bebd bc81 1fbe 7a60 65bd
00000030: 98db b2bc 9eda cebc 6a65 5bbe 781c 6ebc
00000040: 8b71 95bd c526 15be 26fc 6e3c e532 f4bd
00000050: 775f 55be b119 d1bc dcbc 23bd d73e 70be
00000060: 2f63 25bd 1d53 3ebe 683b cf37 0927 50be
00000070: f626 48be 23c6 0ebd bb22 56be b45d 4bbc
00000080: 592d 16be 2c25 edbd e4fd 29be 86a8 7dbe
00000090: ce0c 2dbe 3e3b 65bd 7a2e 2fbe cbc3 3ebe
000000a0: 6265 36be e0ca 1dbc 41cc 20be 4c17 69be
000000b0: 3932 75be 1890 4dbe e8fb 6cbe 375c 1cbe
000000c0: fa70 c6bc 8a58 79be b462 9f3c f25b 1ebd
000000d0: 1f2c 36bd 7554 6ebe f7ed 0abe 8f7d 02bd
000000e0: 89de a2be 53db 5bbe 3a2c 72be 8a18 58bd
000000f0: 820f 62be a7c0 9cbd 542e 2abc 6f4d 5dbd
-0.009192486 -0.22965783 -0.18745027 -0.037836026 -0.20003079 -0.13150533 -0.22903979 -0.17653027
0.000105926105 -0.09279234 -0.15576833 -0.05600021 -0.021833226 -0.02525073 -0.21425405 -0.014533155
-0.07297047 -0.1456557 0.014586484 -0.1192377 -0.20837198 -0.025524946 -0.039975032 -0.23461471
-0.040377792 -0.18586393 2.4703986e-05 -0.2032739 -0.19546112 -0.034856927 -0.20911686 -0.012412477
-0.14665736 -0.115793556 -0.16600758 -0.24771318 -0.16899416 -0.0559647 -0.17107573 -0.18629377
-0.17812112 -0.009630889 -0.15702917 -0.22762793 -0.2394494 -0.20074499 -0.2314297 -0.15269552
-0.024223793 -0.24350181 0.019456245 -0.038661905 -0.04447567 -0.23274405 -0.13567339 -0.031858023
-0.31810406 -0.21470384 -0.23649684 -0.052757777 -0.22076228 -0.07653933 -0.010387022 -0.054028925

spacial_block.1.running_mean f4 [64]
00000000: 28f4 563d 29d1 59bd 9b2f 6c3d 6071 543d
00000010: 1533 833d 860b 493d f0fc 033d ccd0 5fbd
00000020: 48ce 623d 5f4d 8bbd fb3d 7b3c d5a3 8c3d
00000030: 7fc6 463c 2126 0a3c c364 3abd 9247 7dbd
00000040: d6e8 333c a100 d73c a8c8 1fbd db52 113c
00000050: b58a 8c3b 21c8 3ebd 8376 853c 4804 73bd
00000060: 56b3 1e3d 277e 2ebd b1a3 4a3d 412d 753d
00000070: e90d 273d 5630 48bd 93b8 4e3d e36a 1bbb
00000080: cca4 87bd 4963 643d a53f 823d 21f2 003d
00000090: 0af0 61bd 206e 80bc 94bb eebb 166e 843d
000000a0: 7a50 7fbd 2ad4 55bd 2d9b 0e3d dd16 9a3c
000000b0: 75e1 d6bc 679d 72bd 2571 46bc d8c7 433d
000000c0: 7aef 833d d281 46bb 765f 34bd 44b8 963c
000000d0: d972 513d c18f 20bd 5745 a43c d8a3 1b3d
000000e0: c190 3fbc b30c 71bd 024f 04bd d149 87bd
000000f0: cf7c 4dbb bc54 653d 030f 87bb 72d7 5f3d
0.05247894 -0.053177986 0.057662588 0.051865935 0.064062275 0.049083255 0.032223642 -0.054642484
0.055372506 -0.06801867 0.0153346015 0.06867186 0.012132286 0.008431942 -0.04550625 -0.061835833
0.010980805 0.026245417 -0.03900972 0.008869852 0.004288996 -0.046577577 0.016291862 -0.059330255
0.038745247 -0.042600777 0.049472515 0.05985761 0.04078475 -0.04887422 0.050468992 -0.0023714832
-0.066232294 0.05575875 0.063597955 0.031480912 -0.05516056 -0.015677512 -0.0072855446 0.0646631
-0.062332608 -0.05220429 0.034815956 0.01880973 -0.026230553 -0.05923214 -0.012111937 0.047798008
0.06442161 -0.0030289781 -0.04403635 0.018398412 0.051134918 -0.039199594 0.020052595 0.03799805
-0.011692227 -0.05885 -0.03230191 -0.06605876 -0.003135491 0.055989012 -0.0041216626 0.054648824

spacial_block.1.running_var f4 [64]
00000000: d580 cb3e 7905 023e 8a31 f23e e0a0 003f
00000010: fe20 4a3e 8a46 e33e 685a 8f3e 52e9 8e3f
00000020: dd4b af3e 3e47 3a3e 87e9 cc3e 21ba e83e
00000030: d3f3 0a3f 7eca cf3e 26a0 483e 6f1f ac3e
00000040: 9432 0e3f 4602 f83e 5711 f33e 9e1e f03e
00000050: 8b11 1b3f a411 873e 9bb5 be3e 7c1d 533e
00000060: dc8e 613e c607 813f 516b 013f 0cfb 4f3e
00000070: 1e64 4a3f b0d2 063e f248 f33d 3a82 d23e
00000080: e971 e03e 7f0a 9f3e c427 9c3e a91a 0e3e
00000090: 1437 d03e 17cc 0d3f 90ad 8b3f 4419 e03f
000000a0: f61f a63e 288e a83e e473 2b3f 06df 933e
000000b0: 79ec cf3e d01d 573e cee5 6d3e 7d3b c93e
000000c0: 638a cc3e 7937 d63e bbe6 ab3e 1fb1 ff3e
000000d0: 326c ea3e 6dbf 983e ea6a b13e 8715 313f
000000e0: a909 0d3f dc5b d13e 4b98 c93e 52c4 df3e
000000f0: 2d1e 6d3e 7084 0c3f 3088 c63e bd7a 003f
0.3974673 0.126974 0.4730342 0.50245476 0.19739148 0.44389755 0.27998662 1.1164954
0.34237567 0.18191239 0.40021917 0.45454505 0.54278296 0.40584177 0.19592342 0.33617732
0.55545926 0.48439234 0.47474167 0.4689836 0.60573643 0.26380646 0.3724793 0.20616716
0.22027153 1.0080497 0.50554377 0.2031061 0.79059017 0.13166308 0.118791476 0.4111498
0.43836907 0.31062695 0.3049909 0.13877358 0.4066702 0.5538954 1.0912342 1.750771
0.3244626 0.32920957 0.6697371 0.2888109 0.40610102 0.21007466 0.23232195 0.39303198
0.3994933 0.41839197 0.3357447 0.4993982 0.4578567 0.29833546 0.3465188 0.69173473
0.55092865 0.40890396 0.39374003 0.43704468 0.23156042 0.54889584 0.38775778 0.50187284

conv.weight f4 [8, 1, 4]
00000000: 186a 4fbf 81e5 763f a3ed 5bbe ebc0 38bf
00000010: 38c1 f5bd becf 073f b759 a43d a924 fe3c
00000020: 79dd e1be 3612 a8be ef3e 253f a9a8 273f
00000030: 1409 40bf 6f14 2c3f 3d0a 363d d568 95be
00000040: 9f1c 35be 3c5b 623f a846 27bf 8ad0 42bf
00000050: e93e 8bbe 231e 803e 2be3 b3bd cb44 bfbe
00000060: e5f1 54bf a367 b4be 4ca1 1c3f e586 1c3f
00000070: f825 a2be 42fc 2b3f a064 eb3e 01cf 71bd
-0.8102126 0.96443945 -0.2147737 -0.7216937 -0.11999744 0.53051364 0.08024924 0.03102334
-0.44114283 -0.32826394 0.64549154 0.6549173 -0.7501385 0.6721868 0.044443358 -0.29181543
-0.176867 0.8842046 -0.6534219 -0.76099455 -0.27196434 0.25022992 -0.08783563 -0.37357172
-0.831816 -0.3523532 0.6118362 0.6114333 -0.31669593 0.6718179 0.45975208 -0.059035305

classify.weight f4 [4, 64]
00000000: d973 6f3e 30f1 23be 3cdd a83e 674f 2d3e
00000010: d2de ab3e 519d b23e 1880 003d 102e 90be
00000020: 1c92 293e b39e a8be ff63 98be 159a d4be
00000030: f0fa 2f3e b590 5abe d695 a13e 4e29 c4be
00000040: 2619 933e ed07 983e 7e60 5ebd 3e0b d9be
00000050: 76cf f0bd 0d75 233e 5d58 4cbe 1e82 7abe
00000060: d0f1 b3bd 3987 59be 5180 103e ce3a 7bbe
00000070: 4e30 a73e 999f 8bbe 8b83 babe 3e2f 763e
00000080: b13a 0f3e 5333 c3be acf1 883e 1261 a8be
00000090: 9cdc bc3e fc3d 4f3e 27c3 b2be 75e3 b9be
000000a0: 97d4 cbbd fe60 c23e 545c ee3e b5f3 a03e
000000b0: 1c0a d13e 85b6 523e 74a8 133d 8d30 cd3e
000000c0: 6aea 7f3e 7cdd 66be 249e 1a3e cafd 6b3e
000000d0: 79ee a6be ec85 853e d8b3 a73e e8fa 62be
000000e0: 279e 5abe 3f54 d63e 61fe 223e c4a6 373d
000000f0: 83dc 613e 1e1c 2c3e f2f1 86be b01a a1be
00000100: b23c acbe 4d2d 52be e9f8 853e 4597 723e
00000110: 78de 08be 1036 b7be 749c 4f3e 9bf3 493e
00000120: c2ad a73d 1294 c4be e25a aa3e 3780 573e
00000130: d158 bfbe fa2b 653e 3178 92be 9afd 863d
00000140: a96c c1be 32d4 94be 3524 96be 1587 aa3d
00000150: de53 c73e a0d2 1e3e 880f 8abe c374 34bc
00000160: d2a0 febe b166 a23e d321 cfbe 3d85 83be
00000170: 2143 56be c4f6 d0be 8a58 dabe 6bc8 a4bc
00000180: 9af9 b3be d7df 4b3e fc0a fe3d 6cab 97be
00000190: 7edd 213e 4c96 bebe 3574 6b3e 0ee2 ff3d
000001a0: cc26 bf3e 0e14 093d cf4e 77be 6b79 b5bd
000001b0: 853d 2a3e 7e1b 1d3e 8159 83bb 12ba 633e
000001c0: d801 80be b974 983e 3a2c 8ebe 43ec cb3d
000001d0: 645e 9a3e 444b 8e3e 706a dabe 5d8c 963e
000001e0: 768b c93e 5f91 98bd d04e b83e cf30 233e
000001f0: 1b80 9f3d bf9e 8e3e 58aa 0dbe 3b99 463e
00000200: 4c88 97bd df8d de3e 742d 39be 9529 e5be
00000210: fd4c 5a3e 735c 3a3e bedb 36bb 8db2 763e
00000220: 8993 e5be 0d93 353e 7a25 873c f5d1 bd3d
00000230: b67e 283e 6f54 b5bd 3d52 bf3e 8237 d0bd
00000240: b809 ba3d 844a 113e 859f 55be 1a66 8d3d
00000250: a72c 73be 0b68 bfbe d951 80be f76a ca3e
00000260: c522 b93d 1920 e83d 578c 15be e19f cf3e
00000270: ead4 0f3c 9eaf 17bc 642d ae3e 3301 dabe
00000280: 68c6 523e 82c9 7a3e 0af0 563d edc1 ce3e
00000290: 9ca5 9dbe 39cd cb3d c2c9 2e3e f873 0c3e
000002a0: 91cf 9fbe 0485 dcbe 6b98 98be a16f 0a3e
000002b0: 28cd 36be a97e 143e 48f4 af3e d087 e2be
000002c0: 6b88 823d f668 893e 5d9e 9fbe 3710 efbe
000002d0: e4f6 2bbe 2f6d 89be 63d3 5f3e a93d bb3d
000002e0: 2e28 513e d68d 8e3d 9626 07be d1be c1be
000002f0: ff43 c73d 3744 a4be 1476 8bbe 2488 4abe
00000300: 451f d83e 576f b8be a44c 1dbe 455a 8c3e
00000310: 4f67 9bbe 01ff 553d d2ea abbe f485 153e
00000320: ed9d b53e bfcf c73e 16f3 393e f17c 9a3e
00000330: 5036 c83e 0d8f b33e 4a8d 77be e865 b83e
00000340: 3a0d a53e 5796 603e 3266 dc3e 0008 653e
00000350: cdea 4ebe e940 953e b4ae c23e bcfc 53be
00000360: a80b f53e c43d 11be 71d4 c63e 4d02 2dbe
00000370: 2c5a 45be f583 e63e 2d64 393e 9dea 883e
00000380: ebaf 743e 10f8 4e3e fa2c a3be ed2f c6bd
00000390: bb31 84be 6b33 923e 275f 4c3e cb4e 293c
000003a0: 4b78 1fbe 7f6f 9f3e 6539 01be 4029 afbe
000003b0: 73d8 50be 45dd c8be 30ca 99be ed87 ec3c
000003c0: 4922 b63e 8e32 afbd 3b9d fd3e d57d 763e
000003d0: 3728 833e 497d 73be 6f96 133d eb0e c23e
000003e0: c74b 013e 9097 38be feb3 83be 0881 463e
000003f0: 79b1 bebe 7f2f 6e3e 250d 013f 8e30 8c3e
0.23384036 -0.16009974 0.32981288 0.16924821 0.33568436 0.34885648 0.03137216 -0.28160143
0.16559643 -0.32933578 -0.2976379 -0.41523805 0.17185569 -0.21344264 0.31559628 -0.38312763
0.28730124 0.29693547 -0.05429124 -0.4239139 -0.1175832 0.1596262 -0.19955583 -0.24463698
-0.087863564 -0.2124299 0.14111449 -0.24534151 0.3265404 -0.272702 -0.36428484 0.24041459
0.13987233 -0.38125095 0.2674688 -0.3288656 0.36887062 0.20238489 -0.34914514 -0.36306348
-0.09952658 0.37964624 0.46554816 0.31435934 0.40828025 0.20577438 0.03604932 0.40076104
0.24991766 -0.22545427 0.15099388 0.23046032 -0.32603815 0.26078737 0.32754397 -0.22166026
-0.21349393 0.4186115 0.1591735 0.044836774 0.22056775 0.16807601 -0.26356465 -0.31465673
-0.33640057 -0.20525093 0.26166466 0.23690517 -0.13366115 -0.35783434 0.20274526 0.19721834
0.081874385 -0.3839422 0.33272463 0.21045004 -0.3737245 0.22380057 -0.28607324 0.065913394
-0.37778214 -0.29068142 -0.293245 0.08326546 0.38931173 0.15510035 -0.26964974 -0.011014166
-0.4973207 0.31718972 -0.40455493 -0.2568759 -0.20924045 -0.40813267 -0.42645675 -0.020115098
-0.35151368 0.19909607 0.12404439 -0.29622972 0.15807149 -0.37224042 0.22993548 0.124942884
0.37334287 0.03346639 -0.24151157 -0.08861049 0.1662503 0.15342519 -0.0040084724 0.22238949
-0.25001407 0.29776552 -0.27768117 0.09957173 0.3015014 0.27791798 -0.4265933 0.29403964
0.39364213 -0.07449602 0.3599763 0.15936588 0.07788106 0.2785549 -0.13834512 0.1939439
-0.073990434 0.43467614 -0.18083745 -0.44758287 0.21318431 0.18199329 -0.0027901973 0.24091549
-0.44839123 0.17731877 0.016497362 0.09268562 0.16454586 -0.08853995 0.3736743 -0.10166837
0.09083885 0.14188582 -0.20861633 0.0690424 -0.23747502 -0.37384066 -0.25062445 0.39534733
0.09039835 0.11334247 -0.14604317 0.40551665 0.00877879 -0.009258179 0.34019005 -0.4257904
0.20583498 0.24490932 0.052475013 0.4038233 -0.30790412 0.099512525 0.17069152 0.13716114
-0.31213048 -0.43070233 -0.29803786 0.13519146 -0.17851698 0.14501442 0.3436606 -0.44244242
0.06373676 0.2683789 -0.3117551 -0.46692058 -0.167934 -0.26841113 0.21857981 0.0914262
0.20425484 0.06960647 -0.13198313 -0.37840894 0.09729766 -0.32083294 -0.27238524 -0.19778496
0.42211357 -0.36022446 -0.15361267 0.2741262 -0.30352256 0.052245144 -0.3357759 0.1460188
0.3547205 0.39025685 0.18159136 0.30173448 0.39103937 0.35070077 -0.24174991 0.36015248
0.32236654 0.2193235 0.4304672 0.22366333 -0.20206757 0.29151085 0.38023913 -0.2070188
0.47860456 -0.14183718 0.38833955 -0.16895409 -0.19272679 0.4502255 0.1810462 0.26741496
0.23895232 0.20211816 -0.31870252 -0.0967711 -0.2581919 0.28554854 0.19958173 0.010333727
-0.15573232 0.31139752 -0.1261955 -0.3421116 -0.20395069 -0.39231315 -0.3003707 0.028873408
0.35573032 -0.085545644 0.4953402 0.24071439 0.2561662 -0.23778261 0.036032137 0.37902007
0.12626563 -0.18026567 -0.2572326 0.19385159 -0.37244776 0.23260306 0.5041068 0.27380794

classify.bias f4 [4]
00000000: 0fee 9bbd 82bc 983d ff5e e1bd acf3 993d
-0.076137654 0.0745783 -0.11004447 0.0751718
