BCI/output/openBMI/LightConvNet/sub36/2023-10-05--17-38/model.pth (torch, 51356 bytes, 9 tensors)

spacial_block.0.weight f4 [64, 9, 20, 1]
00000000: 20a0 cf3b 5055 193d b875 63bd 67a4 2ebd
00000010: 76d5 c4ba 6e5f 393d c322 b7bb f7c8 2d3d
00000020: 8f2e c1bb a8c4 ce3c 24de 7ebb 08c5 523b
00000030: ae4a 38bd 1f7e 13bd d08b 12bd 3230 03ba
00000040: e91b 103d cedb 6f3d 8d7d debc 50da 573b
00000050: 2284 30bc dcff fb3c 9c31 87bd b6ee 0f3c
00000060: a445 57bc d016 173c 49b1 b83d e758 25bb
00000070: f4a1 13bd f136 7dbd 3336 273c 270d fd3d
00000080: 2a66 aebc 60fa b1bc 2fa6 9cbc 27c5 6ebd
00000090: 5796 54bd ddde c23d 09ba a53d 1094 1b3d
000000a0: 630b cebc 2b50 10bd e1ed 973b e7e7 94bd
000000b0: 64e3 3abd 08a0 edbb b747 123c 6963 c03c
000000c0: b631 f1bc 5486 fc3c 06f3 373d 7771 4b3d
000000d0: e27d 513c 60af 933c 9f7a 8f3c f798 29bd
000000e0: 4941 9c3d ace4 03bd dcf8 a8bc 9cd2 063c
000000f0: f820 c03b c6ae 483c e327 81bd 407d 033c
00000100: 7a40 b83c 06ad 2dba e7ab e4bc f346 a6bc
00000110: 0915 23ba 4794 473d 561f 4dbc c975 a1ba
00000120: e694 d13b b5f2 f23c 42cc 553c 7621 233c
00000130: 9b42 0b3c 0bcf b0bd e0cd 643d 12b1 08bc
00000140: 8852 a6bd 8e01 2e3c 8e84 753c d73d acbd
00000150: 2ed2 4c3c 9ab2 d73b 7cb0 163c ccc8 9c3c
00000160: df25 a73b 8dec 80bd a110 c13d 8d7b 9f3d
00000170: 2f00 babc 3a7f ac3d a9a3 7dbd 744b 86bd
00000180: 052b c03c ed2f 183d 52b9 683c f2ad e5bc
00000190: 90c1 893c 239d 3c3d 5b50 bebc c815 e4bb
000001a0: af57 51bd 4f37 01bc 797b 45bd a531 8dbc
000001b0: c96d 3ebb e4e7 7d3b efca d13c b031 a83d
000001c0: 7986 16bd 0fea 5b3d 3c37 e33c bb9d adbd
000001d0: d355 70bc 4c0a 37bd 9b78 573d 71cf 8c3d
000001e0: 9f8d 48bb e8f6 473d ff13 73bb b582 5a3d
000001f0: bcad cdbc e182 b939 0bf0 d7bc 93f6 113b
00000200: 0f6d 91bc 3877 6abd ccb3 453d 521b 723d
00000210: f513 13bd f355 323c afcf 013c a119 5abd
00000220: 4c57 17bc 976c 70bd 0636 4f3d 299c 5f3c
00000230: 5288 173c 86a9 6a3c 4232 8c3d 2c7d 203d
00000240: 6fd8 d9bb 241e 583c 7f48 7e3b c7c0 15bc
00000250: d18f 43bd 9bab 2fbd 8ca2 a23b c193 96bb
00000260: 9466 dc3b 7bae 933c df74 4cbb 5aae eabd
00000270: ee61 453d c1af 52bd db32 3f3d 4730 323b
00000280: 61cc 0fbb 6119 333d ae42 02bd ebcf 3cbd
00000290: 0f08 f33b 993b 523b 93a9 09bd c9b8 943d
000002a0: cd5e 97bd 03d6 ccbb 6421 fb3d b3d4 a9bc
000002b0: 4043 5a3b 00d1 593d f107 cfbd a526 dabb
000002c0: d512 d23b 87d1 92bd 0bb5 c53d c2c4 1ebd
000002d0: 7826 d83b 3ece f9bc 5dcd 0f3d 6804 77bb
000002e0: 1236 9abc 4c70 8b3b c8f6 e23b 06e8 e1bb
000002f0: fa16 4cbd 40b8 083d db51 9e3c 5b62 1f3d
00000300: 5bee 49bd 224f 0c3d ffa2 ae3b cb82 a8bc
00000310: 2dfb 99bc eb3d ea3c 1673 1fbd ccc5 ad3c
00000320: 62e7 e2bc e267 c43c 4fa9 3fbd 285f 99bd
00000330: b56c 51bc fc87 cebb 391f 61bc 4524 163e
00000340: cc13 c93d 4342 15bc 8e30 d43c 4ea5 3b3b
00000350: 46f3 f03c 8f8d 81bd a0b6 333d d123 633c
00000360: 3b3c bebd ca7d 6dbd 5ef8 9b3d acb4 13bd
00000370: 0724 403d 2039 c13b a737 87bc f31d f03c
00000380: 9c1b a5bc 5e24 60bc 2d33 733b e21d 12be
00000390: 72d3 98bc 153e 263d 3601 36bd 8a9c 153d
000003a0: f603 023d e3c1 453d 0034 c63d 79a9 1cbd
000003b0: e0aa d63c 5b06 d2bc 01aa f439 f290 d3bc
000003c0: 5cd6 cdba cdf2 3a3c 9fd5 963b 37e1 193d
000003d0: 2a8b 26bc 6044 21bd 6ac8 fa3c 67f0 8dbd
000003e0: fdff 083d 8ad4 813b 9156 64bd d9d3 923c
000003f0: a141 a53c 090f 3f3b a722 533c 7825 0b3c
0.006336227 0.037434876 -0.055532187 -0.042637255 -0.001501723 0.045257024 -0.0055888607 0.042427983
-0.005895443 0.025240257 -0.003888973 0.0032160897 -0.044993095 -0.03600895 -0.035777867 -0.0005004435
0.035182867 0.05855923 -0.027159477 0.003293652 -0.01077369 0.030761652 -0.06601259 0.0087849405
-0.013139162 0.0092217475 0.090181895 -0.0025229992 -0.036043122 -0.061819974 0.010205793 0.12356024
-0.02128895 -0.021725833 -0.019122211 -0.058293488 -0.051901188 0.09515164 0.08092124 0.037983
-0.025151914 -0.035232704 0.0046365117 -0.07270794 -0.045627013 -0.007251743 0.008928231 0.023484902
-0.02944265 0.030825771 0.0449095 0.049668755 0.01278636 0.018027961 0.017514525 -0.041405644
0.0762964 -0.0322005 -0.020626478 0.008228924 0.005863305 0.0122487005 -0.06306436 0.008025467
0.022491682 -0.0006625209 -0.027914 -0.020297503 -0.0006221091 0.048725393 -0.012519678 -0.0012318428
0.006395924 0.029656747 0.013049187 0.009956708 0.008499767 -0.0863324 0.0558604 -0.008342998
-0.0812121 0.010620488 0.014985217 -0.084102325 0.012501283 0.0065825703 0.009197351 0.019138716
0.00510095 -0.062951185 0.09427 0.07787237 -0.022705166 0.08422704 -0.061923657 -0.0655736
0.023458013 0.03715508 0.01420434 -0.028037045 0.01681593 0.046048295 -0.023231676 -0.0069606043
-0.051109012 -0.007886722 -0.048213456 -0.017235586 -0.0029057136 0.0038742954 0.025609462 0.08212602
-0.036749337 0.053690013 0.027736299 -0.0847735 -0.0146689 -0.044687554 0.052605253 0.06875504
-0.003060199 0.048819453 -0.0037090776 0.05334731 -0.025107257 0.00035383462 -0.026359579 0.0022272214
-0.017752199 -0.057242602 0.04826717 0.059108086 -0.035907704 0.01088475 0.007923051 -0.053247098
-0.009237122 -0.05869731 0.05058863 0.013648071 0.00924881 0.014322644 0.068455234 0.039181873
-0.0066481153 0.01319078 0.0038800535 -0.0091402 -0.047744576 -0.042888265 0.0049632248 -0.0045952504
0.0067260955 0.018027535 -0.003119759 -0.11459036 0.048189096 -0.051437143 0.04667936 0.002718942
-0.0021941888 0.043725375 -0.031801872 -0.046096724 0.007416732 0.003207898 -0.033608984 0.072618075
-0.07391129 -0.006251098 0.12262228 -0.020731306 0.0033304244 0.053177834 -0.101089366 -0.006657439
0.0064109364 -0.071688704 0.09653672 -0.03876186 0.0065963827 -0.030493852 0.03510796 -0.0037691835
-0.01882461 0.00425533 0.0069263913 -0.0068941144 -0.0498266 0.03337884 0.019326141 0.03891216
-0.04929958 0.034255154 0.0053294892 -0.02057018 -0.018796528 0.028593978 -0.038928114 0.021212481
-0.027698223 0.023975316 -0.046792325 -0.07488853 -0.012782265 -0.0063028317 -0.013740354 0.14662273
0.09818229 -0.009110036 0.025902059 0.0028632465 0.029412877 -0.06325828 0.043875337 0.01386352
-0.09288832 -0.05798129 0.07615732 -0.036060974 0.04690936 0.0058967024 -0.01650603 0.029311156
-0.020154767 -0.013680546 0.003710936 -0.14269212 -0.018655512 0.04058655 -0.04443475 0.03652624
0.03174206 0.048280608 0.09677887 -0.03824756 0.026204526 -0.025637796 0.0004666597 -0.025825951
-0.0015704143 0.011410427 0.0046031023 0.037568297 -0.010165015 -0.039371848 0.030613143 -0.06930619
0.033447254 0.003962104 -0.05574662 0.017923282 0.020172896 0.0029153249 0.01288668 0.00849282

spacial_block.0.bias f4 [64]
00000000: 7e73 cbbc 8234 7dbd 1a5d b23c dc69 04bd
00000010: 0904 a93b 2ccf 39bd 1e92 1d3d f5b9 5ebd
00000020: 61d5 7dbd 0eca 8fbd 1235 853d a09e 123d
00000030: 55ae 55bd 44a6 95bc 5f4b 683d 1e45 b83c
00000040: 078a 8a3d 5240 3abc a5d9 edbb 2014 643d
00000050: a0aa 22bb 547d 81bd 3872 8cbc 7d14 643d
00000060: edca ff3c 0a3f 79bc fbc7 95bd 70ba 5f3d
00000070: f62c 84bc 3fc6 7fbc 17ec 8a3d abb8 273d
00000080: c105 b93c 61eb cd3c 88dc ac3a d4ae ae3b
00000090: fc5c 20bd ce81 d73c 78ca 163d 5835 233d
000000a0: 1f7f 1abd 8c9a 8c3b 8697 9cbb 3e0d 30bd
000000b0: 0dab 833c ca4c 283d 602c cf3b fc45 0bbd
000000c0: 2b83 733d 37a0 1fbd 17dc ee3c 6f80 593a
000000d0: 6e69 d53c df9d eb3c ebe4 8ebd 08cd 973c
000000e0: 1b0a 9eb8 0819 75bd 9e11 413d fa59 db3b
000000f0: 53dd b0bc 98ad 5bbb ddcb 563d 5cdb e1bc
-0.024835344 -0.061817653 0.02177291 -0.032327518 0.0051579517 -0.04536359 0.038469426 -0.05437656
-0.061971072 -0.07020961 0.06504263 0.035795808 -0.05216821 -0.018267758 0.056712504 0.022493895
0.06764608 -0.011367874 -0.0072586113 0.055683255 -0.0024820939 -0.063227326 -0.017144307 0.0556836
0.031224692 -0.015212784 -0.07313534 0.05462116 -0.01613472 -0.01561123 0.06783312 0.040947597
0.022585751 0.025136651 0.0013188282 0.0053308997 -0.039151177 0.026307013 0.036814183 0.039845794
-0.03771889 0.0042908844 -0.004778805 -0.04298138 0.016072774 0.041088857 0.0063224286 -0.03400229
0.059451263 -0.038971152 0.029157681 0.0008297031 0.02605125 0.028761802 -0.069772564 0.018530384
-7.5359094e-05 -0.059838325 0.04713594 0.0066940757 -0.02158991 -0.0033520218 0.052440513 -0.027570419

spacial_block.1.weight f4 [64]
00000000: 24c3 833f e724 813f 913f 843f 79b9 7e3f
00000010: 5cad 803f 7e13 813f f9dc 813f d1b5 7f3f
00000020: 1b0b 803f f231 833f 93fd 803f acfe 823f
00000030: b856 923f eb49 8f3f 945e 843f f2fb 813f
00000040: 8cd0 823f 4fe6 833f 3f36 823f 13fd 7f3f
00000050: ac37 833f cca6 7f3f 3c2d 843f f567 7f3f
00000060: cbea 7e3f 3263 7f3f 17e9 813f c354 813f
00000070: a3b3 853f dde7 803f c3d0 803f a835 7f3f
00000080: f003 7f3f 292f 803f 434c 813f 436c 823f
00000090: bcf0 823f bbd2 803f 53dd 8c3f e57f 803f
000000a0: bfee 8a3f 790a 913f f088 843f 1a46 813f
000000b0: 4182 833f b0c8 823f d0a0 833f 882d 7f3f
000000c0: a9ca 853f e524 813f 6f64 803f bcce 7e3f
000000d0: 0139 833f 0aeb 893f b3ec 823f 6a32 833f
000000e0: 9bce 7e3f a8d0 853f 6617 803f b9b7 823f
000000f0: f8ab 7f3f a24b 833f 1e60 843f 70d8 823f
1.0293927 1.0089387 1.0331899 0.9950176 1.0052905 1.0084074 1.014556 0.99886805
1.0003389 1.0249617 1.0077385 1.023397 1.1432714 1.1194433 1.0341363 1.0155013
1.0219893 1.030466 1.0172805 0.99995536 1.0251365 0.99863887 1.0326304 0.99768
0.99577016 0.99760735 1.0149258 1.0103992 1.0445446 1.0070759 1.0063709 0.9969125
0.99615383 1.0014392 1.0101398 1.0189289 1.0229716 1.006431 1.1005043 1.003903
1.085411 1.1331321 1.035429 1.0099518 1.0274125 1.0217495 1.0283451 0.9967885
1.0452472 1.0089384 1.003065 0.995342 1.0251771 1.0774853 1.0228485 1.024976
0.99534005 1.0454302 1.0007141 1.0212318 0.9987178 1.0257456 1.0341833 1.0222301

spacial_block.1.bias f4 [64]
00000000: 6ed6 34bd 170a a2bd 3cd8 69bd 291c afbc
00000010: 4527 8ebd 6d0f a0bd 324f 3fbd 4b7e 3fbd
00000020: 3bd7 6bbd a072 cdbd 6c46 a4bd dc46 1dbd
00000030: 0109 20be 5212 f7bd 7c25 8dbd 66a3 3bbd
00000040: 7e99 ecbd fc9d a6bd 6909 26bd bc97 ddbc
00000050: b72e 45bd 97ba e1bc 2605 3fbd 1720 f1bc
00000060: 1252 99bc 8b61 8dbc 0156 b2bd db83 3abd
00000070: 1d94 bcbd 8fd3 7cbd ae1f 7cbd e9f0 c5bc
00000080: 6b7e 0abd 886d 9bbd c1f5 8dbd 36e6 abbd
00000090: bc9c 0fbd 719b 84bd 29a7 16be 681e 81bd
000000a0: 24c0 e0bd 5908 26be 0c2c c5bd 175e 95bd
000000b0: 75b9 edbd 4407 48bd a387 9bbd 3336 c2bd
000000c0: 708e 96bd 2add 8cbd be9f 26bd 261e 06bd
000000d0: 2c36 19be a80e d6bd f051 a2bd 805f bcbd
000000e0: 97ed a3bc 513e 93bd 7238 20bd e034 a2bd
000000f0: 7ae4 43bd 6f33 6dbd 03ca 92bd cbf1 92bd
-0.04414981 -0.07912081 -0.057090983 -0.021375732 -0.06941084 -0.07815442 -0.046706386 -0.0467513
-0.057578307 -0.100316286 -0.080212444 -0.038397655 -0.15628435 -0.12064041 -0.06891915 -0.045810126
-0.11552714 -0.08135602 -0.040536318 -0.027049892 -0.048140254 -0.027554793 -0.04663577 -0.029434247
-0.018715892 -0.017258426 -0.0870781 -0.045535903 -0.09207938 -0.061725195 -0.06155365 -0.024162726
-0.033811968 -0.07589251 -0.069316395 -0.083935186 -0.035061583 -0.064749606 -0.14712204 -0.06304628
-0.10974148 -0.16214122 -0.09627542 -0.07293337 -0.11607639 -0.048835054 -0.0759423 -0.09482994
-0.073513865 -0.06878121 -0.040679686 -0.032743596 -0.14962071 -0.10452014 -0.079257846 -0.09197903
-0.020010753 -0.0718962 -0.03911633 -0.07920241 -0.047825314 -0.05791038 -0.07167437 -0.071750246

spacial_block.1.running_mean f4 [64]
00000000: 6a60 07bf 0e2d 6bbe 2125 febe affa 1dbe
00000010: 6733 573e 8d09 67be 96e4 12be e48b 3dbd
00000020: 5fe5 c63e b810 a838 8286 63be 54c9 8ebf
00000030: ad47 813e 3a7b d0be 132a 04bf 315e 99be
00000040: 955e f53e 93e3 36bf eec9 c9be 654b ccbe
00000050: 8b29 663e ecce f1be 6fe3 30bf 3ce6 353d
00000060: 14d3 643f 7652 423f 66c0 5c3e 19b2 923e
00000070: e827 6abe 40ba e73e 2111 a03d b769 093f
00000080: b7d7 f53e 0804 483f 7b1a 903d 8ec5 f7be
00000090: 3b86 7bbf 80f5 0ebe fd5e 01bf adf1 ccbe
000000a0: b4cd 94be 6101 ca3e 57f8 01be 6bf3 b73e
000000b0: 142a 1bbf 4949 fbbe 4853 ccbd d255 f83e
000000c0: 8d8a 383f 216d bc3e 9f82 393e a677 21bf
000000d0: 21e3 e0bd d693 483e 40d0 b63e 94fb bb3e
000000e0: b3f2 08bf 68f3 bc3d c52f a13e 68e8 00bf
000000f0: 78ba 55be ee51 28be 3055 79be 9ef3 77be
-0.5288149 -0.22966406 -0.49637702 -0.1542766 0.21015702 -0.22562237 -0.14345011 -0.04627599
0.3884687 8.0139784e-05 -0.2221928 -1.115519 0.25249997 -0.40719014 -0.516267 -0.29954675
0.47923723 -0.71441 -0.39411873 -0.3990127 0.22476785 -0.4722818 -0.69097036 0.04440902
0.8938458 0.75907075 0.21557769 0.28651503 -0.22866786 0.45259285 0.07815767 0.53676933
0.4801614 0.7813115 0.07036301 -0.4839291 -0.98251694 -0.13960838 -0.50535566 -0.40028134
-0.2906319 0.39454177 -0.1269239 0.359279 -0.6061108 -0.4907935 -0.09976822 0.48502976
0.7208641 0.3680201 0.18116234 -0.63073194 -0.109808214 0.19587645 0.35705757 0.36715376
-0.5349533 0.092261136 0.31481758 -0.50354624 -0.20871913 -0.16437504 -0.24348903 -0.24214026

spacial_block.1.running_var f4 [64]
00000000: c77f 1e40 8bbf 413f 01be 6340 0677 ce40
00000010: 8e00 d93f 0588 af3f dfd6 f03f 69cb 1e40
00000020: 7229 fb3f 1e14 8f3f 71fe 2b40 84ed df3f
00000030: e772 8a3f a3e1 8d3f 413f 3540 256f 9a40
00000040: 5d7d 4f3f 8794 0e40 3001 1040 c321 b241
00000050: 264d 0240 0a84 e240 54dc d13f 9b57 a93f
00000060: e991 e540 e1a4 2a42 d1b1 9d3f 922a c13f
00000070: 566e cc3f a553 c73f 5654 3540 a1c6 6641
00000080: 0d15 8040 318a d43f 58a2 be3f 3286 9b3f
00000090: 5b2d 2740 36ce 993f a1b1 0e40 e082 d33f
000000a0: 1967 0040 115e c03f 8ff2 b83f f783 993f
000000b0: 06e1 8f3f 5804 0140 ac51 0d40 efc5 693f
000000c0: 1fd9 833f 94f8 2b40 3587 2640 2468 0e40
000000d0: 26a6 4e3f b279 aa3f 83d1 933f 183a 533f
000000e0: c4ca 1342 a1f9 bd3f dea4 f03f f546 d83f
000000f0: 6ced b33f 10f3 3940 ce26 c73f bcdf f53f
2.476549 0.75682896 3.558472 6.452029 1.6953294 1.3713385 1.8815573 2.4811652
1.9622023 1.1178014 2.6874049 1.7494359 1.0816315 1.1084484 2.8319857 4.8260674
0.81050664 2.2278154 2.2500725 22.266485 2.0359588 7.078618 1.6395364 1.322986
7.1740613 42.661015 1.231989 1.5091116 1.5971172 1.5572401 2.8332725 14.423493
4.0025697 1.6604673 1.4893293 1.2150328 2.6121433 1.2016056 2.2295916 1.6524315
2.0062926 1.5028707 1.4449023 1.1993397 1.1240547 2.0158901 2.2081099 0.9131765
1.0300635 2.687047 2.6020024 2.2251062 0.8072227 1.3318388 1.1548313 0.8251052
36.948013 1.4841806 1.8800313 1.6896654 1.405683 2.9054604 1.5558717 1.9208903

conv.weight f4 [8, 1, 4]
00000000: 1aca b4be 3ddb a8bd 2c18 a2bc f5bc 933e
00000010: b4f5 42be 73f4 8f3e 18cb 7abe 09df 353e
00000020: 667e 3e3e 0dcc 2a3d e6ff d63e 58b6 833e
00000030: b09e f9be 3788 fdbd 5720 cd3e 6463 b93d
00000040: 044a 813e f51f 9bbe 88e1 02be 0e6a ed3e
00000050: ee4d 843e 7a9c 82be ef52 723e 1d23 83be
00000060: 55a5 d8be ad0b a23e 07fc fcbd f1df 913d
00000070: caa0 87be 8e7e a0be d473 97be 4ef9 913e
-0.3531044 -0.082449414 -0.019786917 0.288551 -0.19039041 0.28116187 -0.24491537 0.17760862
0.18602905 0.041698504 0.4199211 0.25725055 -0.4875388 -0.123794965 0.40063736 0.090521604
0.25251782 -0.3029782 -0.12781346 0.46369976 0.25840706 -0.25510007 0.23664449 -0.25612727
-0.42313638 0.31649533 -0.12352758 0.071227916 -0.2648986 -0.31346554 -0.29580557 0.28510517

classify.weight f4 [2, 64]
00000000: f01b 293e e2b7 babd 0549 2a3e 5f9c e7bd
00000010: 6371 d4bd b224 2ebe 105d 3f3e 90ec 51bc
00000020: 4081 3abd ac48 fbbd 0906 2cbe fd9b 373e
00000030: da22 183e 18c2 893d 75e1 a33d 9198 bb3d
00000040: 2170 08be a861 463e 66f5 cf3d 3cb7 b7ba
00000050: a352 1d3e a091 c9bd c1c2 293e 1ea5 ccbd
00000060: a022 eebd 2cba 26bd 10f2 ffbd f856 413e
00000070: 790e d23d 8872 1dbe 84a7 10be 951d 9cbd
00000080: 8fe9 1abe 323a 7ebd 1794 79bd b860 4abe
00000090: bfad ca3d 6fc3 b5bd 82c6 833d 0ef0 2bbe
000000a0: 78f3 113e 27a5 9f3d 4017 c93d b520 8cbd
000000b0: 20e9 58bd 6a3b 083e 4043 6e3d 93be 99bd
000000c0: 54df b43d 0bb1 2fbe cf3d a0bc 3933 b9bd
000000d0: 4ecb 673c c426 543e fad1 08bd 16f0 04be
000000e0: 1fb2 3dbd e1ce 313e 6fb4 5bbd 0668 063e
000000f0: 16be 0ebe 2223 303d 6aac 213e 29e7 303e
00000100: ac69 c4bd cc7a aa3d 9fe8 ccbd a787 1dbd
00000110: 3637 433e fcf1 033c 594c edbd bbd6 023e
00000120: 57bb 1b3e b5c6 883c 6bce 1b3c e03e 24be
00000130: 1b09 01bd 43ee e9bd 17ea febd ec35 25be
00000140: 6179 163d 320d 01bd 31c7 40be c457 893d
00000150: 5d36 2ebe f059 093e 7404 37be c2d8 243e
00000160: dd19 24bb 2eef 9c3d 585a 873d 32eb 0bbe
00000170: 2c7b ddbd 3d85 f43d 0113 eb3d 9e1f 003e
00000180: 51bf 003d 3bea d33d 2ee8 143e 9dd9 f23c
00000190: cde5 ecbd 77b8 f43d 70ce ecbd 2e5d c83d
000001a0: 45d9 9ebc b040 ecbd 7e12 e4bd 0db4 433e
000001b0: 197d 083e 8955 45be c24b 46be 44e8 aa3c
000001c0: efec 2dbe 2461 2b3e 4996 0e3e 92e7 f83d
000001d0: f2c8 3c3e 6d52 cd3b 737f 2b3e 1233 bd3d
000001e0: 7eb4 f63d 3db3 19bd b733 be3d 7015 08be
000001f0: 873d d73d 437c 2ebe f061 c9bd 23d9 1dbe
0.16514564 -0.09117104 0.16629417 -0.11309122 -0.10373189 -0.17006186 0.18687844 -0.012812749
-0.04553342 -0.122697204 -0.16799177 0.17930599 0.14857045 0.067264736 0.08001987 0.09159959
-0.13324024 0.1937319 0.10154228 -0.00140164 0.15363555 -0.09842229 0.16578199 -0.09992431
-0.11627698 -0.04070489 -0.12497342 0.18880832 0.10256667 -0.15375721 -0.14126402 -0.0762283
-0.15128158 -0.062067218 -0.060932245 -0.19763458 0.09896421 -0.088751666 0.06434347 -0.16790792
0.14253032 0.07795172 0.09818888 -0.06842176 -0.0529567 0.13303915 0.058169603 -0.07507052
0.08831659 -0.1715738 -0.019560723 -0.09042973 0.014147593 0.20717913 -0.033403374 -0.1298221
-0.046312448 0.17364074 -0.05363887 0.1312562 -0.139397 0.043002255 0.15788427 0.1727568
-0.09590468 0.08324203 -0.100053065 -0.038459446 0.1906403 0.008053299 -0.11586828 0.12777226
0.15208183 0.016696313 0.009509663 -0.1603961 -0.031502824 -0.11422398 -0.12446993 -0.16133851
0.03673685 -0.031506725 -0.18825985 0.06706193 -0.17012925 0.13413215 -0.17872792 0.16098312
-0.002503983 0.076628074 0.066090286 -0.13663939 -0.10814509 0.11939476 0.11478234 0.12512061
0.031432454 0.1034741 0.14541695 0.029644782 -0.115672685 0.119492464 -0.11562812 0.097833976
-0.019390712 -0.11535776 -0.111363396 0.19111653 0.13328971 -0.1927091 -0.19364837 0.020862706
-0.16984914 0.16736275 0.13924517 0.121535435 0.1843603 0.0062659294 0.16747837 0.092382565
0.12046145 -0.03752445 0.092872076 -0.13289428 0.10509782 -0.1703959 -0.09833133 -0.15414862

classify.bias f4 [2]
00000000: 4154 953c b817 cc3b
0.018228652 0.0062284134
