BCI/output/openBMI/LightConvNet/sub20/2023-10-05--17-38/model.pth (torch, 51356 bytes, 9 tensors)

spacial_block.0.weight f4 [64, 9, 20, 1]
000000 b1 f8 9d bc 7e 17 d3 3c 39 5a 88 bd bb d8 02 3b
       -0.019283624 0.025768038 -0.066578336 0.0019965607
000010 f0 7c d9 3c f1 3d 26 3d b8 fd 9f 3c fe 43 a1 3d
       0.026548833 0.040586416 0.019530162 0.078742966
000020 54 02 01 bd 0f 18 14 3d 83 a7 03 bd 3d 74 28 3c
       -0.03149636 0.036155757 -0.032142173 0.01028162
000030 3d 81 a8 bd 01 e6 51 bc 71 7e 5a bd 8f 6d 6b bc
       -0.08227775 -0.012811185 -0.05334324 -0.0143693825
000040 fa ee 5b 3d cc 13 84 3c 64 e8 27 bc ec e5 a5 3c
       0.053694703 0.016122721 -0.010248277 0.020251237
000050 55 d6 8f bc 5d 9d 50 3d 92 35 a3 bd 68 38 b7 3c
       -0.017558256 0.050931323 -0.07969202 0.022365764
000060 4a c4 6c 3a 36 4c 8d 3c 79 8d 2a 3d cf 31 7f 3b
       0.0009031935 0.017248254 0.041638825 0.00389396
000070 97 0b 1d bd 47 89 05 bd 47 3f 37 3d 03 e0 9a 3d
       -0.03834113 -0.03260162 0.04473808 0.07562258
000080 de 11 93 bd a0 fb 65 bc 89 50 00 bd 0f b8 0c bc
       -0.07181142 -0.014037043 -0.031326804 -0.008588805
000090 2b 86 b2 3a 80 3c 98 3d 49 08 03 3c dc 9f f3 bc
       0.0013620307 0.074334145 0.007997581 -0.029739313
0000a0 41 7e 11 bd d5 95 c3 bc 75 9a 9b bc 0d f9 0b bd
       -0.035520796 -0.023875156 -0.01899455 -0.03417306
0000b0 f0 da cb 3c 46 51 ff ba 29 f6 af bc 60 c1 e9 3c
       0.024884671 -0.0019479177 -0.021479683 0.028534591
0000c0 ce d2 57 bc fb 14 bd bc 09 5a a2 3c 0a ea 16 3e
       -0.013172818 -0.023081293 0.019818323 0.14737716
0000d0 d3 e9 75 bc b5 29 32 3d 07 da 3a 3d bc fa d4 bd
       -0.015009361 0.043496806 0.045618083 -0.10399386
0000e0 05 42 a3 3c be d0 20 3c 49 64 1d 3c 4d 7c 1c bd
       0.019928942 0.009815393 0.009606429 -0.03820448
0000f0 13 e7 50 3d 50 c0 60 bc 1c f9 ac bd c3 3d f3 3c
       0.05100162 -0.013717726 -0.08445951 0.029692536
000100 e6 f6 af 3d b8 de 97 3d 93 b0 d1 bb 4b b8 4f 3b
       0.08592014 0.07415527 -0.006399223 0.003169554
000110 07 d5 cc 3c 3c 31 48 bc e7 59 f6 bd e7 62 fb bc
       0.025003923 -0.01221877 -0.12028866 -0.030686809
000120 50 6a 85 bd 4e 2c ab 3d b7 54 fb bb d2 7e c6 3c
       -0.06514418 0.0835806 -0.007670011 0.024230395
000130 9f bf 5a 3d 5c 29 ab bc d9 49 ab bc 22 58 1a 3d
       0.0534054 -0.020893745 -0.020909237 0.037681706
000140 2a 36 97 bd 56 a3 f8 3d 2a 71 0c bd b6 f8 1d be
       -0.07383378 0.12140529 -0.03428761 -0.15426907
000150 6a a3 33 3d a0 77 1c 3d 75 54 21 3c 7f c2 5b bc
       0.043857016 0.03820002 0.009846796 -0.013413071
000160 d0 6c d6 bc 32 d7 c7 bd 0f 68 e7 bc 29 e9 c0 3d
       -0.026174933 -0.09757842 -0.028247861 0.09419472
000170 69 fb 5c bc 9a b8 bc 3d 6f ed 41 bd 4b 50 41 bd
       -0.013487675 0.092148975 -0.047345575 -0.047195714
000180 d8 d2 c9 3d 3e 7c 8d 3d 58 11 84 bc 2f f0 98 bc
       0.098546684 0.06908463 -0.016121551 -0.018669216
000190 3e 6f 7f 3b bd 84 c0 3d 86 a2 c2 bd a8 4f 3b bd
       0.0038976218 0.09400318 -0.09503655 -0.045730263
0001a0 3d 0f fe 3c f5 1c b2 3d 69 c2 03 bd 1a 1d 35 bd
       0.031013126 0.08696929 -0.032167826 -0.044217207
0001b0 43 4c 73 bc 02 06 31 bd 10 11 2e bd 9d 5d 96 3d
       -0.014849725 -0.04321862 -0.04249674 0.07342074
0001c0 fd 69 74 bc 6c a2 b7 3d 89 ba b1 3c 17 90 85 bd
       -0.014917848 0.089665264 0.021695392 -0.065216236
0001d0 b4 54 56 3d 80 ad 4c 3d e5 bb 1a bb ac d0 06 bd
       0.052326873 0.04997015 -0.002361053 -0.03291385
0001e0 d2 39 c0 3b 44 1a 0d 3d eb ef dd bd 5e 61 2d 3c
       0.0058662677 0.034448877 -0.10836776 0.010582296
0001f0 49 42 24 3c 3c c2 42 3d 6d 13 3e bc 90 5f 33 3c
       0.010025569 0.047548518 -0.011601311 0.010948077
000200 6d e6 78 bd a2 fd ee bd 9d 01 f1 bc 37 17 88 3d
       -0.060766626 -0.1166947 -0.029419715 0.06645053
000210 e3 8f b1 bc 52 3b 44 3d 9f 28 34 3d e7 70 92 bc
       -0.021675056 0.047908135 0.04398405 -0.017876102
000220 80 48 77 3d a3 b0 b8 3c df d6 89 3c e5 98 69 3c
       0.060371876 0.022545164 0.016826091 0.014257644
000230 c3 b2 5f bc a8 7f 6a bb 65 fb ef bc c7 08 40 3d
       -0.01365346 -0.0035781655 -0.029294679 0.04688337
000240 67 81 42 3d ea 54 45 3d 67 69 c4 bc 87 98 93 3c
       0.04748669 0.048176683 -0.023976041 0.018017067
000250 25 a2 94 bd 84 e3 ff bd 91 88 8d bd 7b d6 16 3c
       -0.07257489 -0.12494567 -0.069108136 0.00920641
000260 72 69 2e bd 38 f4 b9 3d da 8c 08 3d 2b 1c 87 bd
       -0.04258103 0.09079784 0.03333745 -0.065971695
000270 1b bb c6 3d d3 51 17 bc 37 00 05 3d a8 85 04 3d
       0.09703656 -0.009235817 0.032470908 0.032354027
000280 06 dd 60 bd 11 f2 5a 3d 56 a0 04 be a0 5d 57 bd
       -0.054898284 0.05345351 -0.12951788 -0.052579522
000290 0e 80 80 3d 98 c7 07 3d 65 d6 03 bd 0d 80 79 3d
       0.062744245 0.03314933 -0.032186884 0.060913134
0002a0 9e 78 aa bd 20 87 3a bd b3 b1 11 3c 8c e2 b0 bb
       -0.08323787 -0.04553902 0.008892464 -0.0053981002
0002b0 47 a7 9a 3c 63 07 6f 3d 88 48 0d bd 90 8a 72 3d
       0.018878592 0.058356654 -0.034493 0.059214175
0002c0 47 b0 5c 3d 49 de a5 bc 21 5e 82 3d db 3a f8 bc
       0.05387905 -0.020247595 0.0636561 -0.030301502
0002d0 23 d3 28 bd ed 12 2f bd e4 10 62 bc 5d 61 8b bc
       -0.04121698 -0.04274266 -0.013797972 -0.0170142
0002e0 15 72 00 3c ea 77 57 bd fc b2 73 3d e2 04 89 3d
       0.007839699 -0.052604593 0.059496865 0.066903844
0002f0 0d d8 81 bd 31 34 76 3d 7d 8c 41 3d 55 66 c9 3d
       -0.063400365 0.060108367 0.04725312 0.098339714
000300 0f ad 8a bd b9 0c 04 3d e6 51 4f bd e0 16 a5 bc
       -0.067712896 0.032238696 -0.050615214 -0.02015251
000310 45 77 3d bd 7a 4b c6 bc d3 1c a4 bc d6 63 89 3d
       -0.046256322 -0.024205912 -0.020033276 0.06708495
000320 18 ff 1c 3d ad 9f c1 bc 33 ce b6 bd 63 38 bc 3b
       0.038329214 -0.02363571 -0.08926048 0.0057440265
000330 68 96 3a bd e9 b8 e2 bc d7 e6 2a bd ea a2 b0 3d
       -0.045553595 -0.027676063 -0.041724052 0.086248234
000340 aa 61 29 3d 51 fe ab 3c c8 62 7a 3d 8c e4 54 3c
       0.041352905 0.020995291 0.06112936 0.012993943
000350 64 0d 66 3d 2a 63 8f bc 5c 53 82 3b 70 30 58 3c
       0.056165114 -0.01750334 0.0039772224 0.013195142
000360 ec 9f 50 bd 0b 43 00 bd 38 b6 8a ba b6 6d 94 bc
       -0.050933763 -0.031313937 -0.001058287 -0.01811872
000370 26 35 bc 3d 2b dd d5 3a d6 8f db bc de b8 89 3d
       0.09189825 0.0016316524 -0.026801985 0.06724714
000380 36 9a 8e bd 2a aa d2 bc 4b ef a1 bc 0c 61 90 bd
       -0.06963007 -0.025715906 -0.019767424 -0.0704976
000390 19 e7 25 3d 22 15 a8 3d fd 60 51 bc 4f 56 3b 3d
       0.040503595 0.08207156 -0.012779471 0.045736607
0003a0 98 28 99 bb e4 b1 74 3c 06 30 8a bc ae 4b 7f bd
       -0.0046740286 0.014934991 -0.016868602 -0.062328033
0003b0 44 0d 25 bc a1 d3 8f ba d6 4f e6 bc bd a5 21 3d
       -0.010073964 -0.0010973105 -0.02811424 0.0394647
0003c0 e7 98 d1 3c 00 46 7a 3d d8 c6 c4 3b 53 2b b8 3d
       0.025585605 0.061101913 0.0060051493 0.089926384
0003d0 19 0d 72 bd 50 5b ae bd 9a 8d 7d 3d 85 9e a7 bd
       -0.059094522 -0.0851351 0.06190262 -0.08184532
0003e0 e8 e8 58 3d ef c0 91 3c f8 0d c3 bc 29 f1 33 3c
       0.05295649 0.017792193 -0.023810372 0.01098279
0003f0 62 47 35 3b 23 d6 28 3d 60 0e 2a be 81 86 b1 bb
       0.0027660956 0.04121984 -0.16607046 -0.0054176454

spacial_block.0.bias f4 [64]
000000 2c 27 c8 bc 22 18 7d bd ba 86 b3 3c 30 4b 05 bd
       -0.024432741 -0.061790593 0.021914829 -0.032542408
000010 4c 1e 98 3b af d3 37 bd 09 a1 1f 3d 80 c5 5d bd
       0.0046422835 -0.04487961 0.038971934 -0.05414343
000020 0e 61 7c bd 66 71 8f bd cf 9f 83 3d a6 67 15 3d
       -0.061615996 -0.07004051 0.064269654 0.0364758
000030 12 1c 53 bd 6f 38 97 bc 6e 8a 6b 3d eb e4 b9 3c
       -0.05154044 -0.018459527 0.057505064 0.022692164
000040 ec 49 8a 3d bf 0d 40 bc 35 28 f3 bb 4e e0 63 3d
       0.06752381 -0.011722027 -0.0074205645 0.055633835
000050 cd c7 5c bb 92 e8 82 bd aa 0a 93 bc 25 b0 63 3d
       -0.0033688426 -0.063920155 -0.017949421 0.055587906
000060 8d c2 fc 3c 0c 1a 76 bc 41 79 96 bd 43 9e 5e 3d
       0.030854488 -0.0150208585 -0.07347346 0.05435015
000070 e9 56 83 bc 9c f3 86 bc 5a b2 8c 3d 98 f6 21 3d
       -0.016032653 -0.016473584 0.06869955 0.03954181
000080 4d 37 c7 3c e5 2c ce 3c de 94 ab 3a 4c 53 bd 3b
       0.024318362 0.025167892 0.001309063 0.005777752
000090 f5 ad 1f bd 9a b1 db 3c 03 ed 17 3d 90 3b 24 3d
       -0.038984258 0.026818085 0.037091266 0.040095866
0000a0 4d 3f 1c bd 8a 4c 4b 3b f2 81 a4 bb 85 8c 37 bd
       -0.038146306 0.0031020963 -0.0050203735 -0.044811744
0000b0 ad 50 7f 3c 1d b7 2b 3d 20 0a f7 3b 44 64 0a bd
       0.015583199 0.041922677 0.007539049 -0.033787027
0000c0 8f 32 75 3d 3e 65 25 bd db 3f f5 3c ca c7 2b b9
       0.05986267 -0.040379755 0.029937675 -0.00016382258
0000d0 37 5c db 3c 05 9c e9 3c 77 30 8f bd 30 d4 90 3c
       0.02677737 0.028516779 -0.06991666 0.017679304
0000e0 40 c9 70 b9 4a 9c 76 bd 92 bf 3f 3d 21 b5 df 3b
       -0.00022963155 -0.060207643 0.046813555 0.006827012
0000f0 b2 e6 ae bc 60 c4 43 bb d3 30 56 3d c0 e5 e2 bc
       -0.021350238 -0.0029871687 0.052292656 -0.027697444

spacial_block.1.weight f4 [64]
000000 b0 3f 8a 3f db fd 8d 3f 19 f4 84 3f 22 f1 89 3f
       1.0800686 1.1093096 1.0386993 1.0776713
000010 30 e8 80 3f 81 06 8d 3f 2d 94 83 3f 86 a4 80 3f
       1.0070858 1.101761 1.0279595 1.0050209
000020 a3 8b 82 3f dd ef 91 3f ba 27 87 3f 1f 98 88 3f
       1.0198864 1.1401325 1.0558999 1.0671424
000030 5f 61 97 3f d7 c5 99 3f 15 6d 8d 3f 83 ca 83 3f
       1.182659 1.2013501 1.1048914 1.0296177
000040 a6 cd 90 3f 9d c7 87 3f ed a4 84 3f d7 eb 82 3f
       1.1312759 1.0607792 1.0362831 1.0228223
000050 aa 94 83 3f 5a 25 80 3f d3 48 86 3f 21 ac 84 3f
       1.0279744 1.0011399 1.0490974 1.036503
000060 59 46 89 3f 77 f7 81 3f 56 23 8f 3f 4d f0 82 3f
       1.0724593 1.0153645 1.1182659 1.0229584
000070 0c c7 8e 3f 57 34 88 3f 17 e1 87 3f bf 3e 87 3f
       1.1154494 1.0640973 1.0615567 1.0566024
000080 79 43 83 3f 94 84 87 3f 36 88 8c 3f 21 51 86 3f
       1.0254966 1.0587335 1.0979068 1.0493509
000090 38 a7 86 3f ac c2 80 3f 97 46 97 3f 63 61 83 3f
       1.0519781 1.0059409 1.1818417 1.0264095
0000a0 f2 71 93 3f d9 76 98 3f 0a a5 86 3f 6a 55 8a 3f
       1.1519148 1.191127 1.0519116 1.0807316
0000b0 9f 15 93 3f da 0d 85 3f d9 aa 8b 3f 9f 94 85 3f
       1.1490973 1.0394852 1.0911514 1.043598
0000c0 1e 95 86 3f 05 08 87 3f b5 c7 8c 3f c0 04 86 3f
       1.0514257 1.0549322 1.0998446 1.04702
0000d0 66 37 95 3f 44 60 8f 3f ac cc 88 3f 8e 49 8b 3f
       1.1657531 1.1201253 1.0687461 1.0881822
0000e0 4f cb 81 3f 2f b5 8b 3f 7e 89 83 3f b7 61 8a 3f
       1.014017 1.0914668 1.0276334 1.081107
0000f0 ce 4f 81 3f bc e3 86 3f c1 59 8b 3f 91 50 87 3f
       1.010248 1.0538249 1.0886766 1.0571462

spacial_block.1.bias f4 [64]
000000 3c 08 0d be 97 87 cd bd db 3c d9 bd 2d 9c de bd
       -0.13772672 -0.10035627 -0.106073104 -0.10869632
000010 08 2b 1a bd 53 06 14 be c6 47 d1 bd ba ba d1 bc
       -0.037638694 -0.14455537 -0.10218768 -0.025601733
000020 66 50 2e bd 9d c6 d9 bd 51 71 ce bd 21 de f2 bd
       -0.042557143 -0.106335856 -0.10080207 -0.11858774
000030 69 a7 30 be 4c 04 43 be 2c a4 27 be 0a 1b bf bd
       -0.17251362 -0.19044608 -0.1637122 -0.09331329
000040 0d 69 bf bd 84 8d 0a be bc 6e cf bd 48 5a 65 bd
       -0.09346209 -0.13530546 -0.10128543 -0.055994302
000050 23 63 de bd 43 43 08 bd eb 12 00 be 9d f6 73 bd
       -0.108587526 -0.03326727 -0.12507217 -0.05956136
000060 8e f6 97 bd ce 3a 80 bd 7a 1b c4 bd 7a af 8d bd
       -0.074200734 -0.06261216 -0.09575553 -0.06918235
000070 e4 a5 1e be 8f 56 dc bd f6 88 ec bd ab 36 9b bd
       -0.1549297 -0.10758697 -0.11549561 -0.075787865
000080 05 07 65 bd 57 ed ba bd 3a 47 b5 bd 43 fe d6 bd
       -0.055914897 -0.091273 -0.08851476 -0.10497715
000090 98 8c 0d be 95 31 12 bd 7d 82 2b be fe 88 94 bd
       -0.13823164 -0.035691816 -0.16748996 -0.07252692
0000a0 48 40 46 be da 12 34 be 29 33 f3 bd d3 b0 9b bd
       -0.19360459 -0.17585316 -0.118749924 -0.07602086
0000b0 3a 89 32 be 4c 02 f7 bd 5e 81 24 be 08 18 e8 bd
       -0.1743516 -0.12060985 -0.16064975 -0.113327086
0000c0 dd 63 04 be c1 26 c7 bd 4e 09 9b bd 1c a7 a6 bd
       -0.1292872 -0.097241886 -0.07570134 -0.08137342
0000d0 67 a7 2e be 7e f3 3a be d3 6e 00 be 20 27 c5 bd
       -0.17056046 -0.18256947 -0.12542276 -0.09626603
0000e0 fd 78 34 bd a9 02 1f be 26 7d 77 bd d5 d0 07 be
       -0.044060696 -0.15528359 -0.060422085 -0.13263257
0000f0 08 e9 1b bd cf e9 f8 bd 4b 5c 07 be 49 ed 01 be
       -0.038064033 -0.121539705 -0.132188 -0.12688173

spacial_block.1.running_mean f4 [64]
000000 49 a1 a9 bf 02 30 79 3f 01 61 90 be 9c f4 83 3d
       -1.3252345 0.9733888 -0.28199008 0.0644314
000010 a4 e1 77 3e 92 03 e8 3e a8 6a 3d bf fa a4 ca bd
       0.24207169 0.45315224 -0.7399087 -0.09894748
000020 e8 71 b7 3f 89 d5 80 3f 1d bd 6d 3e f7 ea a0 bf
       1.4331636 1.0065166 0.23216672 -1.2571706
000030 20 95 54 3d ad 1c a4 3e cf ab 88 bf 30 8a 26 bf
       0.05190003 0.32053128 -1.0677432 -0.6505461
000040 32 6b 04 3f de c0 79 3e ae 92 2c 3e 8d d2 f8 be
       0.5172607 0.24389979 0.16852829 -0.48598137
000050 64 e8 f8 be d5 9f 77 3e 7a 6b 4d bf 70 cb 8e 3e
       -0.486148 0.24182065 -0.8024212 0.27889585
000060 7a 3d 76 bf 29 f4 c0 be f5 a6 35 be 31 6d 96 3e
       -0.96187556 -0.3768628 -0.1773947 0.2938018
000070 bd d5 5f 3f ca 46 8f be 4a 72 9e 3c e2 ed c6 3e
       0.87435514 -0.27983695 0.019341607 0.38853365
000080 87 b8 95 3f dc 56 74 3f 34 3e 8f 3f a2 c4 c7 3d
       1.1696938 0.95445037 1.1190858 0.097543016
000090 22 2f 4d bf 7f 02 19 3e c4 0b 7f 3e 90 ca 1e 3f
       -0.80150044 0.14942358 0.24906832 0.62027836
0000a0 93 95 09 bf 1b 71 39 3f a2 f3 25 bf 3e fa 54 3f
       -0.5374386 0.7243821 -0.6482488 0.8319434
0000b0 d9 1c 21 3e e0 42 82 3e 78 b9 61 bf 52 12 9b 3f
       0.15733661 0.25441647 -0.8817363 1.2114966
0000c0 90 48 2a 3f d2 db 17 bf a3 25 2e 3f 27 72 56 bf
       0.6651697 -0.59319794 0.6802618 -0.8376793
0000d0 9e 0d c5 3d 27 1c 8c be ac f2 39 3e 9c 6f 86 bd
       0.09621738 -0.2736523 0.18158978 -0.065642565
0000e0 29 35 1f bf 82 da 77 bf f8 5c ac 3f 00 74 6c 3d
       -0.6219049 -0.9681779 1.3465872 0.057727814
0000f0 56 3b 0b be 4d 0d 16 bf 81 bf bd be ca ac 7f bf
       -0.13596854 -0.58614045 -0.37060168 -0.9987303

spacial_block.1.running_var f4 [64]
000000 2c f8 4d 3f ec f3 43 3f d3 76 7c 3f 01 99 3d 3f
       0.80456805 0.7654407 0.9861881 0.7406159
000010 b4 76 12 40 e2 e2 76 3f 99 56 20 3f d3 80 f4 3f
       2.288495 0.96439946 0.6263214 1.9101814
000020 60 1e cb 3f 86 08 b1 3f 4c c1 3e 3f ec c5 20 3f
       1.5868645 1.3830726 0.745137 0.62802005
000030 ca 17 06 3f 5d c4 19 3f 1f 23 3c 3f 87 28 7d 3f
       0.5238005 0.6006525 0.7349109 0.98889965
000040 93 7f 20 3f 46 34 21 3f c6 51 49 3f 7f 0c 2d 3f
       0.6269466 0.6297039 0.786404 0.6759719
000050 7d 06 b4 3f fe a9 24 40 86 03 3c 3f 43 20 34 3f
       1.406448 2.5728755 0.73442876 0.7036173
000060 a1 92 93 3f c8 4c 83 3f 9b b9 20 3f a7 da 5d 3f
       1.1529123 1.0257807 0.6278321 0.8666176
000070 9f 3c 4e 3f 3f 7a 47 3f 29 99 4d 3f 58 a1 1f 3f
       0.8056125 0.7792091 0.8031183 0.62355566
000080 d5 e8 80 3f cd cd 77 3f 7a 61 91 3f bc 17 a8 3f
       1.0071055 0.967984 1.1357872 1.3132243
000090 ff 7d 2f 3f 97 ab 97 3f 41 b7 51 3f c3 b2 9d 3f
       0.6855163 1.184924 0.8192025 1.2320179
0000a0 c9 d7 46 3f 0a 92 13 3f d8 d6 40 3f e2 83 43 3f
       0.7767301 0.5764471 0.75327826 0.7637311
0000b0 f6 32 66 3f a1 dd 56 3f 9d 7c 43 3f 13 bd 66 3f
       0.8992151 0.8393193 0.7636202 0.90132254
0000c0 f5 77 0f 3f 12 92 88 3f 28 cd 5a 3f 79 a2 59 3f
       0.56042415 1.0669577 0.85469294 0.8501354
0000d0 a6 d8 38 3f ae d5 21 3f 6c 76 1b 3f e4 6e 55 3f
       0.7220558 0.63216674 0.6072757 0.8337233
0000e0 ca 61 f2 3f 05 89 11 3f 50 de 99 3f b9 d3 f6 3e
       1.8936093 0.568497 1.2020969 0.48208407
0000f0 dd 72 06 40 58 8d 3f 3f 6a a2 16 3f ba 39 66 3f
       2.1007607 0.7482505 0.58841574 0.89931834

conv.weight f4 [8, 1, 4]
000000 72 69 57 be ed b4 49 be 6e 8a 5b be fd c1 91 3e
       -0.21036318 -0.19697924 -0.21439525 0.28468314
000010 f0 a2 5c bd 98 18 c4 3e de 6b fd be e4 4f 87 bd
       -0.053866327 0.38300014 -0.4949636 -0.06607035
000020 0c 93 09 3f 29 e9 7c be b7 d7 6b 3e 44 57 b0 bd
       0.5374 -0.24698319 0.23031507 -0.086103946
000030 be e0 11 bf 5e 26 e7 be ca b4 11 3f 07 80 8d 3d
       -0.56983554 -0.4514646 0.5691649 0.06909185
000040 51 a5 1d 3f 15 44 21 bf d6 84 db be 3c 35 84 3e
       0.6158038 -0.6299451 -0.42874783 0.25821865
000050 35 7d 1a 3f b9 fd 16 bf 5e d2 42 bc 7c 7c 1e bf
       0.603473 -0.589809 -0.011890976 -0.619087
000060 d5 d1 f0 be a3 85 a5 3e ec 5a bf be 9d f2 bb 3d
       -0.4703509 0.3232852 -0.37374055 0.09177134
000070 05 3c 3b bd fa 2e 09 bf de d5 f1 be c6 56 9f 3e
       -0.045711536 -0.53587306 -0.4723348 0.3112089

classify.weight f4 [2, 64]
000000 6f 60 5a 3e 37 f3 08 be 01 83 6a 3e f7 70 3f be
       0.21325849 -0.13374029 0.22901537 -0.18695436
000010 c9 b4 b9 bd 91 13 7a be fb e1 70 3e b6 1d 03 bd
       -0.09067685 -0.24421526 0.23523705 -0.032010756
000020 14 2a 46 bd a3 83 36 be 3c c2 6d be 19 26 78 3e
       -0.048379973 -0.17823653 -0.23218626 0.24233283
000030 11 79 ae bd 24 27 04 3e 7e ef 18 3e d1 5c 21 3e
       -0.08519185 0.12905556 0.14935109 0.15758063
000040 36 6a 30 be 1b 70 83 3e 6d 79 16 3e 64 54 06 bd
       -0.17228016 0.25671467 0.14694758 -0.032795325
000050 16 f0 52 3e 12 8a 04 be 93 0b 50 3e a1 f5 11 be
       0.20599398 -0.12943295 0.20316915 -0.14253856
000060 f3 58 53 be 7a d8 e4 bd 09 28 37 be a4 02 66 3e
       -0.206394 -0.11174102 -0.17886366 0.22461945
000070 81 c9 15 3e 00 46 5e be 7f 1c 49 be 7c 65 3b be
       0.14627649 -0.2170639 -0.19639777 -0.18300432
000080 56 f1 50 be 06 6a ab bd 42 39 fe bd 1d b7 57 be
       -0.20404562 -0.08369832 -0.12413265 -0.21065946
000090 6f 43 29 3e bc f5 ad bd de 51 f6 3d cf 5a 49 be
       0.1652963 -0.08494136 0.12027334 -0.19663547
0000a0 65 4a 59 3e 0d 9b 04 3e 91 89 05 3e 3f 6c ec bd
       0.21219786 0.12949772 0.13040759 -0.11544084
0000b0 04 c4 e6 bd f4 11 46 3e 09 a5 f9 3d 2f 0b 66 3d
       -0.11267856 0.19342786 0.12189681 0.05616301
0000c0 5e 22 d3 3d ed b2 4f be 08 40 c1 bd 14 40 11 be
       0.103092894 -0.20283099 -0.09436041 -0.141846
0000d0 ca 0f 24 bd 11 8c 88 3e 41 8c 93 bd 1c ae 18 be
       -0.04005412 0.26669362 -0.07204486 -0.14910167
0000e0 bb 6b a1 bd 45 18 71 3e 84 1f e3 bd c8 3b 47 3e
       -0.07881876 0.23544414 -0.110899955 0.19456398
0000f0 db ea 1a be 1e 71 ca 3d 79 ef 42 3e f8 7d 67 3e
       -0.15128653 0.09884857 0.19036664 0.22606647
000100 50 79 13 be aa d4 00 3e 59 ae 26 be 79 03 11 3d
       -0.14401746 0.12581125 -0.16277446 0.035403702
000110 f0 d8 35 3e fe 5b a8 3d 17 2b 28 be 64 7f 16 3e
       0.17758536 0.08220671 -0.16422687 0.14697033
000120 94 a5 1e 3e 39 f0 93 3d 13 f2 96 3d f7 c8 64 be
       0.1549285 0.07223553 0.07370391 -0.22342287
000130 17 1d 4f 3e 38 3d 34 be ca 73 46 be 6f c6 68 be
       0.2022594 -0.17601478 -0.19380108 -0.22731946
000140 e1 30 9b 3d b5 83 c1 bd f2 45 6f be 20 a3 c9 3d
       0.07577682 -0.09448949 -0.23366526 0.09845567
000150 ce d3 63 be 38 1b 29 3e 48 4d 5d be d5 7b 50 3e
       -0.22248766 0.1651429 -0.21611512 0.20359738
000160 76 6e b3 3d 43 35 17 3e 65 b8 f5 3d e0 96 30 be
       0.08761303 0.14766411 0.11998061 -0.17245054
000170 d8 7f 1b be 1a 16 3b 3e 7a fe 2d 3e 4d 76 6d 3e
       -0.15185487 0.1827015 0.16991606 0.2318966
000180 48 6f ac 3d 8f 1b 00 3e c5 9f 55 3e 50 c6 2e 3d
       0.08419663 0.12510513 0.20861728 0.042669594
000190 75 5f 3a be c0 ea ec 3d e5 ac 2f be 65 99 01 3e
       -0.18200476 0.115682125 -0.17155798 0.12656172
0001a0 33 64 b6 bd d6 e8 2a be 34 07 13 be d0 d9 73 3e
       -0.0890583 -0.16690382 -0.14358217 0.23813558
0001b0 d6 a4 45 3e 0b 96 81 be ba c6 83 be 10 0a e2 bd
       0.19301161 -0.25309786 -0.25737554 -0.110370755
0001c0 68 0e 3d be 07 63 4b 3e 99 2e 5b 3e 3b 1a 31 3e
       -0.18462527 0.19861995 0.21404494 0.17295162
0001d0 98 49 74 3e 33 1b 5a bd 0f 11 53 3e 2a af e4 3d
       0.23856199 -0.053248595 0.20611976 0.111662224
0001e0 92 a3 1c 3e 68 6c cb bd 7f bc 19 3e 30 e9 48 be
       0.15296772 -0.09932786 0.15013312 -0.19620204
0001f0 11 97 ef 3d 13 ac 67 be fd f3 05 be f1 6f 54 be
       0.116987355 -0.22624235 -0.13081355 -0.20745827

classify.bias f4 [2]
000000 7c 45 87 3c 6b 29 02 3c
       0.016512625 0.007944445
