BCI/output/openBMI/LightConvNet/sub44/2023-10-05--17-38/model.pth (torch, 51356 bytes, 9 tensors)

spacial_block.0.weight f4 [64, 9, 20, 1]
00000000: 1072 2dbc 8278 553d ae9e 37bd 51e7 e3bc
00000010: 307c 1f39 7a88 293d a6ee 3bba d2f6 7d3d
00000020: 6c8d 99bc 67ea 953b d331 9839 71c9 393c
00000030: e640 31bd a2a5 05bd c01c a6bc 40af b6bc
00000040: e767 d73c 3d1a 4f3d 168c b7bc 03b2 e33a
00000050: b5d7 b3bc e7ce 5f3d 2cac 43bd 0eca 333d
00000060: 2e1b aabc 80e7 74bd 7b6a 973d b9e0 53bc
00000070: 6981 00bd 826d 23bd 707b 633c 4c0a 043e
00000080: 0cff 8dbd b09b 3fbc aa36 66bc f89e 29bd
00000090: 2344 a5bd 8787 ad3d 7f75 813d b0d6 40bc
000000a0: 8487 db39 e3a9 14bd 75e5 9d3d 2230 6dbd
000000b0: f54d 98bd 0b8c f33c 74db 6eba 0507 73bc
000000c0: eae8 a13b 8779 5a3d 1d79 99bb cb49 bcbb
000000d0: 6f0f 153d 6560 0bbd 87fc 6d3d c9be babc
000000e0: 3088 993d 1999 9dbd 6525 aabd c948 393c
000000f0: d727 803b 755b 32bc 68d0 29bd f266 143c
00000100: 7657 e03c 263d 27bd d618 1abd 1e7b dbbc
00000110: 2d1b 823c 196b 423d f281 2cbd 93ec 2abc
00000120: cad9 063d 25c4 c13c e2ed c83c df41 943c
00000130: bc9f 173c adee 41bd 832c 233d e1b7 c1bc
00000140: f712 6ebc b0e1 0a3d a651 933d 04cd 40bd
00000150: 858e fe3c 1c17 67bd 455d acbb cb6e 0dbd
00000160: c733 8cbb 9259 58bd fd30 b43d 17d3 df3d
00000170: 3739 33bc b116 3d3d 80b6 a5bd 8077 94bd
00000180: 936b cb3c 290f 083d e7e3 34ba 334e 85bd
00000190: 6a31 a63d f325 bf3d 5a08 b33c 2110 bdbc
000001a0: b655 d8bd 4f54 113d 91e1 45bd 082b b7bd
000001b0: 5326 0b3b 3df9 b0bc 6c5c 0dbc f594 eebc
000001c0: f538 ae3c 2e70 363c 0b85 693c bdd4 9bbd
000001d0: adb6 723b ce97 d63c 8a95 693d cf90 343c
000001e0: d643 9f3d a4d6 983c b0e5 f6ba f4e2 2c3d
000001f0: 2f43 30bd 0bcd 93bc e001 b8bc 585d 3fbd
00000200: f9aa 71bd d4cc dabd 0d19 7d3c 65d5 963d
00000210: a4d3 f3bc 13fe f5bb cb68 9a3c 0551 bcbc
00000220: 3d91 193d e7ca 7f3c 1a1d 503d cd8d 4d3c
00000230: 9152 2e3d 4c87 b23b cb59 bd3d f309 f43c
00000240: e915 9dbc 8c46 493c a6d3 453b ea0c 0cbd
00000250: 81d9 8cbd 58ff babd e250 9abc d560 0c3c
00000260: 7ff9 a93c 1e15 353c c067 0a3c 3d21 88bd
00000270: 9ab9 173d b233 f1bb 7289 553d 0a6b d33b
00000280: 1125 f03c 15f0 aa3c fa05 aebc 6549 11bd
00000290: ffb9 053c 2b61 b3bc 36ae d7bc d466 263c
000002a0: e5b4 c0bd 3fbe 11bd f80d c43d a075 663c
000002b0: c8ef 2b3d 8ade 303d c6d0 bbbd 131b fd3c
000002c0: cf10 9c3b 4c33 3dbc 5a25 cd3d ce2c 83bd
000002d0: 8a2b 5dbb e3b8 a0bc d2e3 363c 2890 853b
000002e0: 937c 06bc 0792 823c fd81 d6ba c63f 0c3d
000002f0: b86a cebc 3de2 833c dc0d 9dbb 1771 353b
00000300: 326f dbbc c734 48bb d5d6 25bc c091 b33c
00000310: 5e30 67bb f60a d8bc 6b1a 023b b7d5 ed3c
00000320: 3c6a 40bd 3e59 133c f19a 14bd 3659 93bd
00000330: 79a9 0b3c 8304 2e3c 07bd c33c 025e 3a3e
00000340: df33 303d d218 053c 00e5 823c ec16 dcbb
00000350: 48aa d73c 3638 9ebd 0e50 e63b fb20 1e3c
00000360: 3abe b6bd 612b 58bd 7c49 793d 54fc b0bc
00000370: c799 a03d b90c 82bc 46bb 5e3c 0912 bf3d
00000380: d66c 3ebd 0d05 4f3a a32e 68bd 379c 2bbe
00000390: 0bf3 a6bd c09a 943d 601c e9bc 4c79 7b3c
000003a0: 32a5 28bc 31ad bc3d 26c6 3abb cd45 9a3c
000003b0: 4dfc 8e3d b83a 08bd 26df e5bc d6f1 393c
000003c0: bba5 38bc 5938 603d 7537 27bd da92 a2bd
000003d0: 3c7b fe3b 14d7 9c3b 2f54 853c 36e3 aa3c
000003e0: 8940 713c 91a6 5a3d d8fe a0bb 2981 9a3c
000003f0: 2759 74bb c1d4 d4bc 4a0e 00bb d1e1 81bc
-0.010586277 0.05211688 -0.044829063 -0.027820261 0.00015209685 0.04138992 -0.0007169045 0.062002964
-0.018744193 0.004575062 0.0002902882 0.011339531 -0.043274783 -0.032628663 -0.020277381 -0.022300363
0.026294662 0.050562132 -0.022405665 0.0017371777 -0.021953443 0.054640677 -0.047771618 0.043893866
-0.020764913 -0.059791088 0.073933564 -0.012931996 -0.031373415 -0.039899357 0.01388441 0.12894553
-0.06933412 -0.011694834 -0.014051119 -0.04141137 -0.08069637 0.084731154 0.06321239 -0.0117699355
0.00041871902 -0.03629483 0.07709781 -0.05790723 -0.07436744 0.029729864 -0.00091116806 -0.014833217
0.0049410956 0.053338554 -0.0046836273 -0.0057461015 0.03639167 -0.034027476 0.058102157 -0.022796052
0.07496679 -0.07695217 -0.08307914 0.011308857 0.0039109993 -0.010886063 -0.041458517 0.009057747
0.027385455 -0.0408298 -0.03762134 -0.026792105 0.015882099 0.047465418 -0.042116113 -0.01043238
0.032922544 0.0236531 0.024527494 0.018097816 0.009254392 -0.04734676 0.03983737 -0.02364725
-0.014530889 0.03390664 0.071933076 -0.047070518 0.031073818 -0.056418523 -0.005260142 -0.03452949
-0.0042786333 -0.052819796 0.08798406 0.10928934 -0.010938934 0.04616422 -0.0809145 -0.07249355
0.024831569 0.033217583 -0.0006900415 -0.06509056 0.08114894 0.0933341 0.021854568 -0.02307898
-0.10563223 0.035480794 -0.04831082 -0.089437544 0.002123256 -0.021603221 -0.008627992 -0.029123763
0.021267394 0.011135144 0.014252911 -0.07608936 0.0037035153 0.026195433 0.057027377 0.011020853
0.077766106 0.018657036 -0.0018836763 0.042208627 -0.04303282 -0.018042108 -0.022461832 -0.04671988
-0.059000943 -0.10683599 0.015447867 0.073649205 -0.029764004 -0.0075070946 0.018848797 -0.022987852
0.037492026 0.0156123405 0.050809003 0.012546015 0.04255921 0.0054482576 0.09245642 0.0297899
-0.019175487 0.012284886 0.0030185967 -0.034192003 -0.06877423 -0.09130734 -0.018837396 0.008568008
0.020748852 0.011052398 0.0084475875 -0.06646965 0.037042238 -0.007360899 0.05213303 0.006451969
0.02931455 0.020866433 -0.021243084 -0.035470385 0.008162021 -0.02189692 -0.026328187 0.010156352
-0.09409503 -0.035581823 0.09572977 0.01406613 0.04197672 0.04318098 -0.0917068 0.030896699
0.004762746 -0.011547875 0.1001689 -0.0640503 -0.0033747875 -0.01961941 0.011162715 0.0040760227
-0.008208412 0.015938772 -0.0016365644 0.034240507 -0.025197372 0.01609909 -0.004792912 0.0027685815
-0.02678642 -0.0030549036 -0.010122021 0.021920085 -0.0035276632 -0.026372414 0.0019852172 0.029032571
-0.046976313 0.008993445 -0.036280576 -0.0719475 0.008524292 0.010621193 0.023893846 0.18199924
0.043018218 0.008123593 0.015978336 -0.0067165997 0.026326314 -0.07725565 0.007028586 0.009651418
-0.089230016 -0.052775744 0.060861096 -0.021604694 0.07841831 -0.015875207 0.013594454 0.09329612
-0.046490513 0.0007897176 -0.0566851 -0.1675881 -0.081518255 0.07256079 -0.028455913 0.015348744
-0.010293292 0.09212721 -0.0028499453 0.018832112 0.06981716 -0.033259124 -0.028060507 0.011349162
-0.011269982 0.054741237 -0.040824372 -0.07938166 0.0077661555 0.0047863815 0.016275493 0.020860296
0.014724859 0.053381506 -0.0049131922 0.018860416 -0.0037284584 -0.025980355 -0.0019539767 -0.015854748

spacial_block.0.bias f4 [64]
00000000: b68b c8bc a28e 7abd a595 b43c 5dd9 04bd
00000010: b6ff d63b ccf9 38bd fec8 1d3d e96c 5dbd
00000020: 2404 7dbd 2338 90bd e9da 853d a8a6 0f3d
00000030: 9d2c 54bd 27b6 93bc 0649 693d ec7d bc3c
00000040: 4283 8a3d 5ec2 42bc 3ffa f8bb 51b2 633d
00000050: 37d5 2ebb 8f2f 80bd 5feb 80bc 7b96 6b3d
00000060: 2440 ff3c 735b 76bc 1e1f 95bd 0cdd 5e3d
00000070: 49f1 84bc 2d2b 80bc ca1d 893d 7589 253d
00000080: cc15 c23c b2b7 cd3c 658c cc3a 3cda aa3b
00000090: e4a0 1fbd 699b d73c 7f78 173d bff2 243d
000000a0: 1ef4 1abd cd5d 8a3b 8aff 91bb 393d 31bd
000000b0: bdde 843c 1727 253d 838e e13b 46fb 0bbd
000000c0: 330a 723d 8b28 24bd 8a09 eb3c 00b0 3e3a
000000d0: 2beb d43c b94e eb3c 812e 8fbd 3720 943c
000000e0: f774 58b9 8a58 74bd 9bca 403d 282c e73b
000000f0: 9c63 b1bc 5524 7ebb f9f6 563d 18d2 e4bc
-0.024480682 -0.06117118 0.022044012 -0.032433856 0.006561245 -0.0451601 0.03852176 -0.054058943
-0.061771527 -0.07041957 0.065358944 0.035071045 -0.05180036 -0.018031193 0.056954406 0.023009263
0.06763317 -0.011887161 -0.007598191 0.055589978 -0.002667738 -0.06259071 -0.015737234 0.057516556
0.031158514 -0.015036452 -0.07281326 0.054410025 -0.016228335 -0.015645588 0.06695135 0.040414292
0.023692034 0.025112007 0.0015605806 0.005214004 -0.038971797 0.026319223 0.03698015 0.040270563
-0.037830465 0.0042226077 -0.0044555115 -0.043271277 0.016219491 0.040320482 0.006883444 -0.03417518
0.059091758 -0.040077727 0.028691072 0.0007274151 0.025991043 0.028724061 -0.06991292 0.018081767
-0.00020642938 -0.05965475 0.04706822 0.0070548244 -0.021653943 -0.003877898 0.052481625 -0.027932212

spacial_block.1.weight f4 [64]
00000000: 7cd9 833f a434 893f c42d 843f 6e3d 873f
00000010: c64d 823f dcec 843f 7a6f 853f 47d2 853f
00000020: 51eb 813f f6c2 913f 44a2 823f 6eaf 843f
00000030: b65e 993f 353f 9e3f 2213 8a3f 2708 833f
00000040: 6867 8f3f cf2b 833f 37e9 833f 0a8a 803f
00000050: a3a3 833f 3a4b 813f 1baa 843f 5034 813f
00000060: d49e 7f3f 4597 803f 2d24 8a3f 3bd6 813f
00000070: 7b61 843f c7c3 833f 23c4 7f3f f12d 823f
00000080: 8df2 823f 7d15 803f b968 823f 034c 833f
00000090: 045b 843f 0323 813f 68f0 993f 850e 803f
000000a0: 419a 8f3f e0f7 9e3f bff2 843f 98b9 853f
000000b0: 01d4 923f deff 823f e33b 873f 9aaa 993f
000000c0: 0da0 883f 8e61 803f ac92 863f f709 803f
000000d0: 29f8 963f 6c4d 8c3f 3dfc 843f c7d0 843f
000000e0: ab6e 813f f7a6 8a3f 950b 813f e2fb 853f
000000f0: 9639 803f 2a2e 833f 3e7a 863f 5b41 843f
1.0300746 1.071919 1.0326467 1.0565622 1.0179985 1.0384784 1.0424645 1.0454797
1.0149938 1.1387622 1.020577 1.0366037 1.1982028 1.2363039 1.0787089 1.0236863
1.1203432 1.0247744 1.0305547 1.0042126 1.0284313 1.0101082 1.0364412 1.009409
0.9985173 1.0046164 1.079229 1.0143503 1.0342249 1.0294122 0.99908656 1.017027
1.0230271 1.0006558 1.0188209 1.0257572 1.0340276 1.008881 1.2026491 1.0004431
1.121895 1.2419395 1.038658 1.0447264 1.1470948 1.0234334 1.0565151 1.2005188
1.0673844 1.0029771 1.0513511 1.0003041 1.1794482 1.0961127 1.0389477 1.0376214
1.0111898 1.0832204 1.008166 1.0467494 1.0017574 1.0248463 1.0506055 1.0332445

spacial_block.1.bias f4 [64]
00000000: 0a54 abbd 457b 12be e37a b8bd f936 33be
00000010: 894e 9ebd cd5d 07be 822d c7bd 31df 94bd
00000020: 46d2 9abd 2c9a 88be 7d5d fcbd 3c31 94bd
00000030: 160d 4dbe 6c2e 81be 9a85 bcbd d080 49bd
00000040: ce51 81be 4383 a0bd c718 8bbd 9690 91bd
00000050: 6849 98bd e88b abbd 1ae3 91bd 3c7a 75bd
00000060: 48d1 2ebd 6628 9cbd b8d1 23be cc1f 4dbd
00000070: 5912 9fbd f8ff a3bd 9f75 12bd 93ad 8fbd
00000080: 7166 86bd a193 49bd 36e8 cfbd d027 debd
00000090: 93fb c3bd 9840 a1bd f770 4ebe 20bd b0bd
000000a0: b53d 26be 48b1 79be 55e6 cebd 514b 90bd
000000b0: 4a40 45be e9b9 97bd 9262 b7bd 7165 82be
000000c0: bf75 02be 5a40 76bd 9b50 afbd 50aa a1bd
000000d0: dfd4 4fbe f1a2 14be 0fd7 0bbe 017c 01be
000000e0: 807b 90bd 0cac d9bd d639 99bd 7526 dfbd
000000f0: 440c 88bd cb47 c4bd cb8a d7bd 6f49 cebd
-0.083656386 -0.14304836 -0.09007814 -0.17501439 -0.07729823 -0.13219376 -0.09725477 -0.07269133
-0.07559638 -0.26680124 -0.12322519 -0.07235953 -0.20024523 -0.2523073 -0.0920517 -0.04919511
-0.25257725 -0.07837536 -0.06791835 -0.07107656 -0.07435876 -0.083762944 -0.07123394 -0.059931025
-0.042680055 -0.07624893 -0.1599797 -0.050079152 -0.077671714 -0.080078065 -0.035756703 -0.070155285
-0.06562508 -0.049213056 -0.101517126 -0.108474374 -0.09569468 -0.078736484 -0.2016028 -0.08629823
-0.16234477 -0.24384034 -0.10102526 -0.070456155 -0.19262806 -0.074085064 -0.08954348 -0.2546802
-0.12740229 -0.060119964 -0.08560296 -0.07893813 -0.20296048 -0.14515282 -0.13656257 -0.1264496
-0.07054806 -0.106285185 -0.074817345 -0.10896007 -0.066429645 -0.09584006 -0.105245195 -0.100726

spacial_block.1.running_mean f4 [64]
00000000: 9b4b 273e d6da 3a3e 26d5 e4be 0f46 a7be
00000010: eb49 02bd 5f52 5c3f 84a8 f93e dea2 59be
00000020: 846d e7be bff9 c63e 38a0 663f 1209 c6be
00000030: 076a ba3e 1593 a4be bfaf 2cbe 6d00 14bf
00000040: adbb 463e b02f 69be 9f71 633e 069a 453c
00000050: e055 f33e 1de7 8c3e 623a 1abf 807d a8bd
00000060: f309 4fbf a9da 553e 3635 b43e dd9f 8a3f
00000070: 7d01 f53e 6615 e0be 35e6 6bbe cf8a b1bd
00000080: 5204 2ebe d081 65bd a839 0f3f 9fc1 ff3e
00000090: 209f 06be 15cb 59be 7041 29bf 6ea8 0ebd
000000a0: 78ed c5be e612 4c3e f789 0cbf d8ad 2bbf
000000b0: 30f3 4a3e 9068 cf3c 78e1 0c3f 2c55 3f3e
000000c0: 7feb ed3e 6257 6c3f a4d1 1c3d a533 61bf
000000d0: 19f2 ec3e 8482 8e3e d847 8a3e 5035 8d3d
000000e0: 6b26 163d d0d7 1bbf 8663 203f 7845 553e
000000f0: 0022 1bbf 2ffe d6bd 7031 563e 032b 283f
0.16337435 0.18247542 -0.4469387 -0.32670638 -0.031808775 0.8606319 0.4876138 -0.21253535
-0.4520074 0.38862416 0.90088224 -0.38678795 0.36409017 -0.32143465 -0.16863917 -0.5781315
0.1940753 -0.22772098 0.22211312 0.012060648 0.47526455 0.27520075 -0.60245335 -0.08227062
-0.80874556 0.20884193 0.35196847 1.0830036 0.47852698 -0.43766326 -0.23037036 -0.08669054
-0.16993836 -0.056032002 0.5594735 0.4995241 -0.13146639 -0.21268876 -0.66115475 -0.034828596
-0.38657737 0.19929084 -0.5489802 -0.6706214 0.19819331 0.025318414 0.5503154 0.18684834
0.46468732 0.92320836 0.038285866 -0.8796943 0.46278456 0.2783395 0.27007937 0.06894934
0.036657732 -0.6087618 0.6265186 0.20827281 -0.60598755 -0.104977004 0.20917296 0.6569063

spacial_block.1.running_var f4 [64]
00000000: 70f8 af3e c6d1 473e 1172 de3e cbb0 d83e
00000010: 76d8 a93e 2737 db3e f81c b73e 4b26 843e
00000020: acbc 013f 9c8a 443e c086 c63e a2da 8b3e
00000030: 96b4 943e 3d61 963e 824d 9b3e 910b 003f
00000040: 4e6e 333e 0ec7 653e a2b9 883e 3f5d c33e
00000050: 463e 083f 7648 a03e ae50 923e 91fc a93e
00000060: 868c b03f 1ad7 fa3e 8b34 6c3e 07bf be3e
00000070: 9a3d db3e f49f c63e 8e3b 503f 8694 223f
00000080: f620 8a3e f7b1 033f 47e0 833e 5372 953e
00000090: c4f3 df3e d2d0 6a3e 1701 a43e 0e9a a93e
000000a0: b338 773e fe58 723e e05a 973e 414a 793e
000000b0: 75e8 6b3e 13c9 923e 279a 813e bb51 353e
000000c0: c5d1 7a3e 1603 033f 2642 3a3e 9b08 983e
000000d0: 06e8 c83e 6a7e 7e3e e57e a13e 83f6 3a3e
000000e0: dc01 8d3e 202d aa3e 051d 0d3f 0982 903e
000000f0: 4d58 e03e 145d 643e 4b84 6e3e 2d13 c93e
0.3436923 0.19513616 0.434464 0.42322382 0.3317296 0.42815515 0.3576429 0.25810465
0.50678515 0.191935 0.3877468 0.2731524 0.29044026 0.29371062 0.3033257 0.5001765
0.17522547 0.22439215 0.26704127 0.3815708 0.5322002 0.31305283 0.2857718 0.33200505
1.3792884 0.48992234 0.23066919 0.37255117 0.42820436 0.3879391 0.81340873 0.6350788
0.26978272 0.5144343 0.25757048 0.29188785 0.43740666 0.22931221 0.3203208 0.33125347
0.24142723 0.2366676 0.2956152 0.24344732 0.23037894 0.28669032 0.2531292 0.17706959
0.24494083 0.51176584 0.18189296 0.29694065 0.3923952 0.2485291 0.31542125 0.182581
0.2754048 0.33237553 0.55122405 0.2822421 0.43817368 0.22301131 0.23292653 0.39272442

conv.weight f4 [8, 1, 4]
00000000: 5c00 c9be c128 8abe f974 00bd 3196 ba3e
00000010: 0bd0 6abe eb4b bd3e 8248 96be 8c08 523e
00000020: 3e65 0a3e 10c0 f8bd 1de1 063f bf94 973e
00000030: cc58 08bf 8234 d2be 309b fa3e c173 a13d
00000040: 2ce6 543e b82f 18bf b66e dfbd b668 053f
00000050: 1d2a 803e 7a7b 91be f6e5 753e aee7 87be
00000060: 23f3 e5be d808 9e3e 0592 d3bd 1253 123e
00000070: b669 abbe 1b67 11bf 2009 b4be 9fa6 b73e
-0.39258087 -0.26984218 -0.031361554 0.36442712 -0.22930925 0.36971983 -0.29352194 0.20511073
0.13515183 -0.12146008 0.52687246 0.29605672 -0.53260493 -0.41055685 0.48946524 0.078834064
0.20790929 -0.59447813 -0.10909788 0.521129 0.2503213 -0.28414518 0.24013504 -0.26543945
-0.4491206 0.30866122 -0.103305854 0.14289501 -0.3347909 -0.5679795 -0.35163212 0.3586931

classify.weight f4 [2, 64]
00000000: 4015 2a3e 06e2 0fbe b312 6b3e 3359 45be
00000010: 236b 1abe 4944 5ebe 24c1 713e f5b8 d1bd
00000020: 6b6f a3bd 6da4 52be b177 60be 0e23 503e
00000030: f1fd 84bd 6082 e23d 401c 013e 7ff2 1d3e
00000040: e5a5 53be 37b3 5f3e db29 1d3e 8721 6fbd
00000050: 889e 333e 0ae0 46be 9cf2 373e b976 1bbe
00000060: b07e 20be 98e7 0ebe 6b26 3fbe ffd1 593e
00000070: 13e4 e23d ada9 3cbe 9284 12be 4dfd 2cbe
00000080: eb2c 6dbe 0d1e 6bbd ba8c e6bd 8c2e 5fbe
00000090: 67c7 f63d 57df e8bd dd10 1b3e 0efb 4cbe
000000a0: 12cb 423e bd58 023e 3963 f93d aa58 dbbd
000000b0: 82ac d6bd b400 2c3e 1940 c53d e03c 23be
000000c0: 7880 d33d fd2e 3ebe eb0d adbd 07c3 16be
000000d0: 7b0c ddbc 6dca 7f3e 8850 a7bd 859a 16be
000000e0: b491 0dbe 1874 5b3e 2a15 0dbe 5354 313e
000000f0: 017f 41be b3d0 af3d bbc1 253e cc75 623e
00000100: 5a5c c6bd 7cc3 073e 023e 27be 3ea4 283d
00000110: b269 733e ba7a 613d 490a 29be 7294 5e3e
00000120: c7d2 3e3e ca31 cc3d 29ba 783d efc5 3cbe
00000130: 875f 3a3e 4a57 21be a0a0 2ebe 125c 65be
00000140: 1ca8 e13d cd53 66bd 5cf6 75be a809 fe3d
00000150: 4782 44be 2371 6b3e 5734 45be f1fc 593e
00000160: ba73 1b3d 9cb0 333e 8cda 023e 3d66 24be
00000170: c150 eebd c479 193e 0ecd ee3d 230e 5f3e
00000180: 47e6 e43d 085c ca3d 69c9 493e 01a4 4c3d
00000190: d27f 0cbe 1fea 133e e694 4fbe 9c39 053e
000001a0: a865 89bd 83a6 28be 3f2f 0abe 0050 6b3e
000001b0: 2099 3d3e d81a 69be fd5a 6dbe 3775 d73d
000001c0: 7c3d 3dbe 10df 393e 9015 513e 299d 363e
000001d0: 1de7 663e 48e4 14bd 29f3 5c3e f487 e03d
000001e0: 5c7f 593e 2524 a0bd e641 353e c201 33be
000001f0: a65f 1e3e e25b 5abe 838c d1bd c967 4fbe
0.16609669 -0.14051065 0.22956352 -0.19272308 -0.15079932 -0.21705736 0.23608834 -0.10240356
-0.07980236 -0.20570536 -0.21920659 0.20325872 -0.06493748 0.11060023 0.12608433 0.15424536
-0.20668752 0.21845709 0.15347998 -0.058381584 0.17540944 -0.19421402 0.17963642 -0.15182008
-0.15673327 -0.13955534 -0.18666999 0.21271513 0.11078658 -0.18424101 -0.14308384 -0.16893502
-0.23161666 -0.057401706 -0.1125731 -0.217951 0.12049752 -0.11370724 0.15143152 -0.20017645
0.19022778 0.12729163 0.12177128 -0.10710271 -0.10482122 0.16797143 0.09631366 -0.1594119
0.10327238 -0.18572612 -0.0844992 -0.14722835 -0.02698349 0.24979563 -0.08169657 -0.14707382
-0.13825113 0.21431005 -0.13777605 0.17317323 -0.18896104 0.08584728 0.16187184 0.22115248
-0.096855834 0.13258165 -0.16332248 0.04117226 0.23770788 0.05504868 -0.1650783 0.21736315
0.18635093 0.09970434 0.06072441 -0.1843488 0.18200503 -0.15755954 -0.17053461 -0.22398403
0.110183924 -0.056232262 -0.2401976 0.124041855 -0.19190322 0.22992377 -0.19258247 0.21287896
0.037952162 0.1754784 0.12778682 -0.16054626 -0.11636496 0.14987856 0.11660205 0.21782736
0.111767344 0.09880835 0.19705738 0.049961094 -0.13720635 0.14444779 -0.20271644 0.13010257
-0.067088425 -0.16469769 -0.13494585 0.22979736 0.18515444 -0.22764146 -0.2317924 0.10520404
-0.18480486 0.18151498 0.20418382 0.1783339 0.225491 -0.03635052 0.21577133 0.10963431
0.2123999 -0.07819394 0.1770092 -0.1748114 0.15466174 -0.21324113 -0.102318786 -0.20254435

classify.bias f4 [2]
00000000: 9f7a 893c f87e fb3b
0.016782103 0.007675048
