BCI/output/openBMI/LightConvNet/sub27/2023-10-05--17-38/model.pth (torch, 51356 bytes, 9 tensors)

spacial_block.0.weight f4 [64, 9, 20, 1]
00000000: f589 013b 0f25 603d ea42 29bd 2aac 81bd
00000010: 2fea 8cbc fd14 943d bc4a f53b cf8f 313d
00000020: 1a55 3e3c 6afa c53b 2f9c 2ebc 32b3 bf3c
00000030: 990e 09bd 0195 2abd 4739 a6bc fbb5 c9bc
00000040: 5e02 e33b 6596 f53c 3a9c 15bd 43c7 793c
00000050: e6a0 f6bc 2f60 e43b d26e 85bc 7995 643d
00000060: aeff a4bc c56e 143d fe9f f63c daf6 bdbc
00000070: 73d9 b53c 221f 03bd e1c3 88bd b265 833d
00000080: 2228 e8bc d4e5 003d 319e a9bd 09cd febc
00000090: 30f7 c83c 89f9 923d 4b82 58bc 2d1b 523c
000000a0: 5766 4bbd c79a b03c b70b 193c 402d 933c
000000b0: f20e afbd 8be6 e7bc 6966 f8bb 1ec0 043d
000000c0: ec61 abbc b587 abbd a132 e73c f1a7 353e
000000d0: d865 bf3c 407d 873b 0cec c53c 625f 82bd
000000e0: 3e8c b53c 9664 7abc 51ec 573d 32db 27bd
000000f0: 0961 92bc c88d 303c edbe 56bd 1d6e 493d
00000100: c85a 833d 6cbf 5d3c 3db9 33ba 4750 4cbc
00000110: 365e bd3c 8936 54bb ce7b abbc 3a9f e33c
00000120: a483 aebc 23c4 463c cd96 133b 8617 5fbc
00000130: a7d8 8fbc a4c7 8bbd 3d6e 753c 7f9a a83c
00000140: 3ff5 bbbd be5f 2d3d c420 eb3d d89f 6bbd
00000150: eeea 073d b3af 813c 0e10 99bd 99d8 9abc
00000160: 048a 383d 31fa ecbd 0d63 7c3c 86c7 af3d
00000170: 5099 c1bc 8480 b93d 9777 33bd 3c59 9abd
00000180: 9f64 9dbb 2535 fc3c 1e45 38bd ebe1 763c
00000190: 21a3 6abc 826f 153d f9d5 22bd 683a 673d
000001a0: 3602 75bd 406c 0a3d 4f37 10bd dd7b 67bd
000001b0: e540 e83c 941a 3bbd 9bea 3e3c 6a8f d83d
000001c0: c760 33bd d0d7 793d 72cc 3b3d 8ae2 e8bd
000001d0: 4b92 0bbd 3b0a 0c3c a764 afbc 9cf6 1d3d
000001e0: 3fbd 903b ac74 ee3c 3318 1d3c 2388 873d
000001f0: abe3 63bd 5bc8 18bc 79eb 49bd f058 f7bb
00000200: 3fd6 053d 0285 e7bd b362 e83c 0f04 c43d
00000210: 0f53 48bd 41cc cdbb 7989 b1bb 1c80 0bbd
00000220: 71eb 9cbb f969 9bbc 6b32 afbb 554b 523d
00000230: 7214 a83c 02d5 8f3b e762 7a3d cd01 673d
00000240: 8b3c 4bbc 0449 8f3d 089f 8239 e988 bebc
00000250: 9afb 42bd c068 c1bd e5e6 d1bc bd49 9b3d
00000260: 4bdb 00be 051f c33c ce36 763c 03be e8bd
00000270: 48aa 773d 09a7 59bd d85a 21bd cfa1 593d
00000280: 0ebb 8abd 757c e63c 9522 93bc d804 383c
00000290: 57bb 22bd 4a2f 383d b6d5 80bd b90e 473d
000002a0: b248 e9bc 799f 78bd c879 033e b7a4 c33c
000002b0: 5149 2f3d 6e8c 34bd b394 1abe 2b32 15bd
000002c0: b4e5 0abd 08b2 3ebc f5ab cf3d e9b6 ebbc
000002d0: 48dc 3e39 9369 cd3c 6ed5 003d 6c98 14bb
000002e0: 373d 0fbc 9e02 2d3a 1e5f 4a3c a7da 7d3b
000002f0: 6c0e 15bd 7a7b a73c 12d5 523c 8dcd 123d
00000300: 14f1 30bd a568 6f3d 1616 b5bd 8731 0c3c
00000310: bb1d c9bc 29f6 9c3d 5e4f a9bd babe e5bb
00000320: 75c9 dc3a fdd2 e6bc c5a7 8dbd d01f d13a
00000330: 784f 0e3d 65d3 62bc 836f ab3c 064e 373c
00000340: 4484 803d 31c1 733b 7d8a d3bb 7321 103b
00000350: 51f0 13bb fb28 493b dbb4 ab3b e3dc 013c
00000360: 08d8 87bd 9a0e 383d 8198 5a3b 396c cfbc
00000370: 15c6 823d 658a 6dbb 95db f33c 228f 6c3d
00000380: 62b1 dabc 9943 acbb 2816 15be 676a 1bbd
00000390: 70bf 8039 09d8 193b c247 63bd 49ed cfbc
000003a0: 0491 e13c 2500 ec3d 8278 95bc 0198 a0bd
000003b0: 64e9 a83d 48fa b13c c7cb 73bd 11e9 703d
000003c0: 022f ac3c 8e33 433d 978e 18bc bee7 323c
000003d0: e589 a8bb e7f9 44bd 2720 f73d d4da b9bd
000003e0: 568f b3bc 7362 08bd 2922 cbbc 3daf afbc
000003f0: 0486 b83d 33c1 48bd d9e1 dcbc 0560 943c
0.0019766067 0.05472284 -0.04132358 -0.06331666 -0.017201511 0.07230566 0.0074857157 0.043350037
0.0116169695 0.0060418146 -0.010657354 0.023400877 -0.033461187 -0.041646007 -0.020290984 -0.024622908
0.0069277724 0.02997894 -0.036525942 0.015245262 -0.03010602 0.006969474 -0.016288195 0.05580661
-0.020141449 0.03623845 0.030105587 -0.023188997 0.022198414 -0.032012112 -0.06677986 0.06415881
-0.02833945 0.03146918 -0.08282126 -0.031103628 0.02453193 0.07176501 -0.013214658 0.012823862
-0.049658146 0.021558179 0.009341172 0.017965913 -0.085477725 -0.028308174 -0.0075805676 0.03240978
-0.020920716 -0.083754934 0.028222384 0.17739846 0.023363993 0.004134804 0.024160407 -0.06365849
0.0221616 -0.015282771 0.052715603 -0.040980525 -0.017868536 0.010775991 -0.052428175 0.049177278
0.064137995 0.013534408 -0.0006855911 -0.0124703115 0.023116212 -0.0032381138 -0.020933058 0.027785886
-0.021303006 0.012131724 0.0022520304 -0.013616448 -0.017559363 -0.06825188 0.014979896 0.020581482
-0.09177636 0.042327635 0.11480859 -0.057525486 0.03318303 0.01583085 -0.07473765 -0.01890211
0.045053497 -0.11571158 0.015404475 0.08582978 -0.023632675 0.090577155 -0.04381522 -0.07536551
-0.0048032547 0.03078706 -0.04498779 0.0150685115 -0.0143211195 0.036483295 -0.03975484 0.056452185
-0.05981656 0.03379464 -0.035208996 -0.05651461 0.028351257 -0.045679644 0.011652614 0.10574229
-0.043793466 0.06099683 0.04584927 -0.11371334 -0.034075063 0.008547361 -0.0214103 0.038565263
0.004417091 0.029108368 0.009588289 0.06617763 -0.055637043 -0.009325112 -0.04929683 -0.007548444
0.032675024 -0.11304666 0.028367376 0.095710866 -0.048907336 -0.0062804525 -0.0054179993 -0.03405772
-0.004788809 -0.01897143 -0.0053465865 0.051341373 0.020517562 0.004389406 0.061129477 0.0563982
-0.012404571 0.069963485 0.0002491402 -0.023258643 -0.047603227 -0.094438076 -0.025622794 0.07582424
-0.12583654 0.023818502 0.015027715 -0.11364367 0.060465127 -0.053137813 -0.039393276 0.05313283
-0.06773959 0.028135518 -0.017960826 0.011231624 -0.039729442 0.044966973 -0.06290762 0.048598025
-0.028477047 -0.06069896 0.12839425 0.023882253 0.04279453 -0.044079237 -0.15095787 -0.036424797
-0.03391047 -0.011639126 0.1014022 -0.028773742 0.00018201873 0.025074756 0.031453542 -0.0022673858
-0.008742622 0.0006599816 0.012351779 0.0038735063 -0.036390707 0.02044462 0.012868183 0.03584056
-0.04319866 0.058449406 -0.08842103 0.00855673 -0.02455031 0.07664139 -0.08267091 -0.007011262
0.0016844707 -0.028176779 -0.06916765 0.0015954915 0.034743756 -0.013844346 0.020927196 0.011188036
0.06275228 0.0037194008 -0.006455718 0.0021992594 -0.002257366 0.0030694592 0.0052400655 0.007926199
-0.066330016 0.0449358 0.003335506 -0.02532016 0.063854374 -0.003624582 0.02976779 0.05775369
-0.02669591 -0.0052570817 -0.14559233 -0.03794327 0.00024556695 0.0023474714 -0.055488355 -0.025381701
0.02753497 0.11523465 -0.01824594 -0.078414924 0.08247641 0.021725789 -0.05952051 0.05881602
0.021018509 0.04765659 -0.00931134 0.010919509 -0.0051433914 -0.048089888 0.120666794 -0.09074941
-0.021918934 -0.033297013 -0.024796562 -0.021445865 0.090099365 -0.049012374 -0.026963161 0.018112192

spacial_block.0.bias f4 [64]
00000000: 6453 cfbc abd7 7cbd 9514 b53c 45c2 03bd
00000010: 3ef2 ce3b 32ab 3dbd 6722 203d 8fce 62bd
00000020: acc7 7cbd d640 90bd 4867 873d 0ced 063d
00000030: 6ea7 53bd a62c 8bbc 1a3d 673d eac0 b43c
00000040: e88b 893d f02f 3dbc 11e1 f5bb bf34 663d
00000050: b2fc a6ba b0c9 86bd cb3c 65bc 9dee 6a3d
00000060: 8e1b ff3c 65b0 75bc d886 95bd 70bf 653d
00000070: 016d 7fbc ae60 86bc cd89 8d3d 2b8f 283d
00000080: f583 ca3c 7918 ce3c 5080 6a3a 35c3 d03b
00000090: 5c9e 20bd 9fe4 d03c 18bd 123d 2ed2 283d
000000a0: c438 17bd 5f78 9d3b 1ae0 bebb 0431 35bd
000000b0: 0eaf 903c d7ef 1c3d abd4 e23b c956 0fbd
000000c0: 4da6 763d efb1 29bd 500c f43c 6dcf 6b3a
000000d0: 1293 cb3c 840c ed3c 52f2 8fbd 6965 9c3c
000000e0: f3f8 16ba c77b 6ebd 8ec4 3d3d f884 ec3b
000000f0: e137 b4bc 25ad 25bb 691d 593d 30cd d2bc
-0.025308318 -0.061729115 0.02210454 -0.03216769 0.0063154986 -0.046305843 0.03909531 -0.05537277
-0.06171386 -0.070436165 0.06611496 0.03294091 -0.051673345 -0.016989063 0.056454755 0.022064645
0.06716138 -0.011547074 -0.0075036366 0.056202646 -0.0012740104 -0.065814376 -0.013991545 0.057356466
0.031141069 -0.014995669 -0.0730111 0.056090772 -0.015589953 -0.016403522 0.06911049 0.04115216
0.024721125 0.025158154 0.00089455117 0.0063709267 -0.039213523 0.02549964 0.035824865 0.041216068
-0.03691937 0.004805609 -0.005825055 -0.044236198 0.017661598 0.038314667 0.0069223247 -0.034994874
0.06021719 -0.041429456 0.029791027 0.00089954474 0.024850402 0.028936632 -0.07028641 0.019091325
-0.0005759142 -0.058223512 0.046330027 0.0072179995 -0.021999301 -0.0025280204 0.053006563 -0.025732607

spacial_block.1.weight f4 [64]
00000000: 9c3b 833f 6aa7 8d3f 2d5c 853f 09f3 923f
00000010: a3c9 853f bc8d 8c3f 2922 863f 55e0 843f
00000020: 3da5 893f 096b 8b3f 8b1c 8d3f 1d0c 863f
00000030: e6b4 9c3f b980 9f3f 0f2f 833f 1683 843f
00000040: 9aa4 933f 09dc 833f a5ec 833f 2d6f 873f
00000050: 8d97 813f 900b 853f 9772 853f 6054 843f
00000060: cf17 843f dbda 883f 9872 8d3f ae35 813f
00000070: 4c52 813f cdf7 833f 896f 863f 458e 823f
00000080: 9fa8 873f b57f 893f 3eaf 863f 98e7 8a3f
00000090: a3cd 833f f130 843f d806 9a3f be1c 863f
000000a0: 9c8d 963f 578c a03f e8aa 843f d1fa 873f
000000b0: 4a9c 973f f4e7 833f 022a 843f 72c5 953f
000000c0: 0817 823f 3486 843f b02d 853f 819f 8c3f
000000d0: e1a2 9b3f f404 8d3f f90a 8a3f cde8 8e3f
000000e0: 6336 833f f9d6 873f 43de 853f 4129 813f
000000f0: 4828 853f 80e9 803f 846e 823f 573f 823f
1.0252566 1.1066716 1.0418755 1.1480418 1.045216 1.0980754 1.0479175 1.0380961
1.0753552 1.089204 1.1024336 1.0472447 1.2242706 1.2461158 1.0248736 1.0352504
1.1534607 1.0301524 1.0306593 1.0580803 1.0124375 1.0394154 1.0425595 1.0338249
1.0319766 1.0691789 1.1050596 1.0094507 1.010324 1.0309998 1.0502788 1.0199667
1.0598334 1.0742098 1.052223 1.0851927 1.029713 1.0327436 1.2033339 1.0477521
1.1761966 1.2542828 1.0364656 1.0623418 1.1844571 1.0305161 1.032532 1.170088
1.0163279 1.0353456 1.0404568 1.0986177 1.2159082 1.1017137 1.0784599 1.1164795
1.0250973 1.061248 1.0458454 1.0090715 1.0402918 1.0071259 1.0189977 1.017558

spacial_block.1.bias f4 [64]
00000000: d489 cbbd 5ee8 27be 3f9d 02be 20c5 38be
00000010: c512 d3bd 8015 febd 4b14 0abe 3c20 a3bd
00000020: 0066 b2bd 388f e3bd 9629 38be 75a8 edbd
00000030: 75a5 73be 899f 72be 2251 2bbe 05cd edbd
00000040: 7fea 36be 2bba 0abe f9fb 19be 912c c1bd
00000050: edd8 debd f84f 9bbd d5c0 febd dc9c 8fbd
00000060: 4d64 46bd 2deb 8abd 339b 21be a3ca 8cbd
00000070: 6a66 06be 943d 8fbd 2756 92bd 98b3 38bd
00000080: c92f f9bd 76f8 eebd cb9e d7bd a9ff 05be
00000090: 8c99 26be c473 58bd 644b 4abe 8c78 24bd
000000a0: 00cd 65be 9295 7cbe f475 2cbe 9761 8fbd
000000b0: 2ab8 63be 4143 03be 307d 17be 0201 49be
000000c0: f48d c4bd d2c4 88bd 8a8e 4ebd 72d6 00be
000000d0: bb9d 7fbe 670a 54be eca2 00be 5802 3bbe
000000e0: 7bda 89bd 48cc 38be 1ecd 04bd 1b6f acbd
000000f0: eed7 ccbd fbdf ddbd fb97 dcbd 0ee7 ebbd
-0.09938398 -0.16397235 -0.12755297 -0.18043947 -0.103063144 -0.124064445 -0.13484304 -0.079651326
-0.08710861 -0.11111301 -0.17984614 -0.11604396 -0.23793586 -0.2369367 -0.16730168 -0.1161137
-0.1786289 -0.1354758 -0.15037526 -0.094323285 -0.10881219 -0.07583612 -0.124391235 -0.070123404
-0.048435498 -0.067831375 -0.1578186 -0.068745874 -0.13125005 -0.06994167 -0.071453385 -0.04509315
-0.121673174 -0.11668484 -0.10528334 -0.13085808 -0.16269511 -0.052844778 -0.19755322 -0.040154025
-0.22441483 -0.24666432 -0.1684187 -0.07001036 -0.22238222 -0.12818624 -0.14793849 -0.1962929
-0.09597388 -0.066781655 -0.050428905 -0.12581804 -0.24962513 -0.20707093 -0.1256215 -0.18262613
-0.06731125 -0.18046677 -0.032422177 -0.08419629 -0.10002123 -0.108337365 -0.107711755 -0.115186796

spacial_block.1.running_mean f4 [64]
00000000: 7736 97bf 5ef9 2c3b d7c2 57bf 4ecc 61be
00000010: f66f 5f3e 2139 6c3e 6cae bbbe 69c4 2bbe
00000020: c502 2abe 5759 24bd d52f dc3e 0ca2 8abf
00000030: 8e9a 143d 0e0f 8a3d 72f1 2dbf 34d8 dcbe
00000040: e078 ec3e ae90 dbbe 30a7 1bbe 76a0 83be
00000050: d831 67be 4215 3e3e 9039 4bbf 6232 a1be
00000060: 9048 40bf 9415 4a3d 291f 013e 9761 453e
00000070: 85cb 13be 80d0 043e 6e46 ef3d 000f a2be
00000080: a321 f53e 09ed 8e3e 1c1b 2a3f b7f6 aabe
00000090: afea 2fbe c70f f83c ab2d 2b3f 2347 69be
000000a0: 9a5f 50bf 5151 dd3e 926c 31be bc95 7ebd
000000b0: c9a3 de3d bb45 483c 6412 0fbe 05f6 933e
000000c0: a647 dcbe e6a2 493f 6811 883e 0b1a c93e
000000d0: 1ffc 6d3d 48b7 c0be 78d2 6e3d 56cc 203d
000000e0: 7adc adbe edc1 8ebe d0b5 55be 09a4 f0be
000000f0: 301c 873d 1126 1fbd 1117 b3be 6666 86bc
-1.1813496 0.0026393752 -0.84281677 -0.22050592 0.21820053 0.23068668 -0.3665651 -0.16774143
-0.16602619 -0.040124264 0.43005243 -1.0830703 0.036280207 0.06741153 -0.6794654 -0.431337
0.4618597 -0.4288382 -0.15200496 -0.2570836 -0.22577608 0.18562797 -0.7938471 -0.31483752
-0.7511072 0.049336985 0.12609543 0.19275509 -0.14433105 0.12970161 0.11683355 -0.3165207
0.47877225 0.27915218 0.66447616 -0.33391353 -0.17179368 0.03028096 0.6686656 -0.22781043
-0.81395876 0.43226102 -0.17326573 -0.062154517 0.10871083 0.012223656 -0.13971859 0.28898636
-0.43023413 0.7876419 0.2657578 0.39277682 0.05810177 -0.37639832 0.058306187 0.03925737
-0.33957273 -0.2788233 -0.20870137 -0.4700015 0.06597173 -0.038854662 -0.34978536 -0.01640625

spacial_block.1.running_var f4 [64]
00000000: 606b 1c3f 0303 763e 6e17 173f 9765 523e
00000010: edab 073e 556e 513e 41c8 a63e ccd9 d23e
00000020: 7c8f 9a3e 8d21 693e ae40 963e 46e2 813e
00000030: c58b 203e 055f 713e 1004 fd3e b63f cb3e
00000040: 67e8 6d3e 5f75 543f 3fea 023f c55c d43e
00000050: 7ecd 3b3f 3b73 c63e ceda fd3e af1c cf3e
00000060: 16bb 033f 7dce 883e 4681 993e 232a 053f
00000070: 40a7 103f 6391 c43e d3e0 a43e 4315 c43e
00000080: eef6 ee3e fbcc 933e c18f fa3e cac9 093f
00000090: dc89 473f 2fc9 0c3f ba2d d83e 36d4 953e
000000a0: 4a87 933e 92ab f43e 3797 853e 66e9 b83e
000000b0: 2363 113e bfe0 9a3e be7e 853e 6532 783e
000000c0: 08e8 8b3e 3692 1f3f 52f1 a43e b87d 8f3e
000000d0: 970f 4e3e e395 903e 1c65 913e 6f4a 373e
000000e0: 2dfe b03e befb 863e aa7d 023f 992b 093f
000000f0: 332e 8d3e bbca ee3e 95e5 8b3f e74b 1f3f
0.6110134 0.24024586 0.59020126 0.20546566 0.13249178 0.20452245 0.32574657 0.4118179
0.30187595 0.22766705 0.29346222 0.25367945 0.15678318 0.23571403 0.49417162 0.39697045
0.23233186 0.82991594 0.5113868 0.41477028 0.7336043 0.3875979 0.49580997 0.4045157
0.51457345 0.26720038 0.2998144 0.5201742 0.56505203 0.3839217 0.32202777 0.3829747
0.46672767 0.28867325 0.489378 0.5382353 0.7794473 0.5499448 0.42222387 0.29263467
0.28814155 0.47787148 0.2609193 0.3611557 0.14197974 0.30249593 0.2607326 0.24237974
0.27325463 0.62332475 0.32215363 0.28025603 0.20123135 0.28239354 0.28397453 0.17899488
0.3456892 0.2636394 0.50973 0.5358215 0.2757431 0.46639046 1.0929438 0.6222519

conv.weight f4 [8, 1, 4]
00000000: b36d d9be 17ae aebe f973 1c3e fa1b be3e
00000010: 9057 bc3d 81d0 bc3e f25d 09bf 97b8 17be
00000020: 4d09 063f 5bc3 60bd c6e5 0f3f ebe7 7dbd
00000030: 5e5e 19bf 56c0 6dbe 7ec3 093f 2c5a 4cbe
00000040: dd67 293f 799c 0bbf e7a4 eebe d983 1f3d
00000050: 94f7 223f 2b0a 0cbf ad98 f0bd 3699 1dbf
00000060: c7d2 58be 91b9 ca3e e866 d8be deed 71be
00000070: b34d f7bc f8b1 0abf d8c3 f2be 7868 933e
-0.42466506 -0.34117195 0.15278615 0.3713072 0.09196389 0.36877826 -0.53658974 -0.14816509
0.5235794 -0.054873805 0.5620998 -0.061988752 -0.5990962 -0.23217902 0.5381392 -0.19956273
0.6617411 -0.54535633 -0.46610186 0.0389441 0.63659024 -0.54703015 -0.117478706 -0.61561906
-0.21174155 0.395947 -0.4226601 -0.23625895 -0.030188417 -0.5417781 -0.47415042 0.2879064

classify.weight f4 [2, 64]
00000000: f01f 2f3e 09ca 05be 1d1a 683e 6ba4 6cbe
00000010: 4f1e 20be 5710 60be 9c98 7d3e ab05 64bd
00000020: 7135 cebd 679a 09be ab3e 78be 87ff 763e
00000030: 3eb2 c4bd a967 063e d326 093e ba3d 1b3e
00000040: c636 2cbe 0d9f 763e eeed 213e 7471 8bbd
00000050: 97db 573e 03d3 3ebe b0e9 4b3e 6962 16be
00000060: e28a 2cbe 5beb 0bbe 86a2 1cbe 1d33 4e3e
00000070: c8d8 e03d cbd8 38be e5fe 40be a856 02be
00000080: 72c3 6cbe ff83 adbd df0b abbd eaf6 70be
00000090: c240 213e 0d60 c7bd efec fd3d 78cf 4ebe
000000a0: b6a7 5f3e 1a89 013e 2d33 023e 5ca6 cdbd
000000b0: d49b e2bd 4fc4 363e 4caa ec3d 87cc 01be
000000c0: e49e a83d 59da 41be eb01 60bd ca48 38be
000000d0: c771 84bd 8f23 853e 02f3 83bd 67c7 2fbe
000000e0: 3c15 dfbd 3809 713e ad1f debd 1bff 133e
000000f0: 040d 4cbe 4d18 963d be2d 223e 1964 623e
00000100: a371 d0bd fd56 fb3d 6b45 24be aae8 a23d
00000110: dc1c 793e 07ab 683d bae1 34be 63b9 2e3e
00000120: c835 543e 2477 e83c ecea ab3d 69a2 63be
00000130: ac39 5a3e ba7d 36be 23ab 36be 5aa7 62be
00000140: 0bca 923d 6401 a1bd 71ba 7abe 2bf5 083e
00000150: 51bf 68be 2a64 633e 672b 59be 9ce8 543e
00000160: aaa4 4b3d 65b4 303e 68ad c03d 55c7 18be
00000170: 7445 ecbd e1a8 153e dfe0 253e 7e67 343e
00000180: 7013 e43d 8e28 013e 1809 2c3e c0e2 893d
00000190: c45c 32be 872a 033e 737a 33be 0c0e 073e
000001a0: d11e c3bd d9d6 27be ceb0 0fbe ea76 643e
000001b0: b890 433e 70de 73be 0e88 80be 8d94 943d
000001c0: b4cc 27be 708a 3d3e 0f8f 323e f422 583e
000001d0: 40bf 863e 10d7 3ebd 7244 4b3e df70 093e
000001e0: 4f78 3b3e 494e cbbd 9b3c 173e 84ac 15be
000001f0: afed 283e a37f 4dbe 8d64 cabd 1656 4fbe
0.17102027 -0.13065352 0.22666211 -0.23109595 -0.15636562 -0.21881233 0.24765247 -0.055669468
-0.10068787 -0.13437806 -0.24242656 0.24120913 -0.096043095 0.1312548 0.13393717 0.15160266
-0.1681777 0.2408411 0.15813419 -0.06808749 0.2107986 -0.18635182 0.19913363 -0.14685978
-0.16849855 -0.13664 -0.15296373 0.20136686 0.10978848 -0.1805145 -0.18847235 -0.12728369
-0.23121431 -0.08472442 -0.083518736 -0.2353169 0.1574736 -0.09735117 0.12398707 -0.2019633
0.2184132 0.12649956 0.12714835 -0.10041496 -0.11064878 0.17848323 0.11555919 -0.12675677
0.08233431 -0.1893095 -0.05468933 -0.17996517 -0.06467014 0.26003692 -0.064428344 -0.1716591
-0.10892722 0.23538673 -0.108458854 0.14452784 -0.1992684 0.07328854 0.15837762 0.22108497
-0.101779245 0.12272451 -0.16042106 0.079545334 0.24327415 0.05680373 -0.17664233 0.17062907
0.20723641 0.028377123 0.08394417 -0.22229923 0.21311063 -0.17821398 -0.17838721 -0.22134152
0.07167443 -0.07861593 -0.24485184 0.13374774 -0.22729231 0.22206178 -0.21207963 0.20791858
0.049717583 0.17256315 0.094080746 -0.14919789 -0.11536685 0.14615203 0.16199063 0.17617604
0.1113652 0.12613127 0.16800344 0.06732702 -0.174182 0.12809192 -0.1752718 0.13188952
-0.09527362 -0.16390552 -0.1403229 0.22310987 0.19098175 -0.23815322 -0.251038 0.07254896
-0.16386682 0.18509841 0.17437385 0.21107084 0.26317787 -0.04659182 0.19850329 0.13421963
0.18307613 -0.09927041 0.14769213 -0.1461659 0.16496919 -0.20068221 -0.0988246 -0.20247683

classify.bias f4 [2]
00000000: d642 ef3b 7889 8c3c
0.0073016686 0.017155394
