BCI/output/openBMI/LightConvNet/sub24/2023-10-05--17-38/model.pth (torch, 51356 bytes, 9 tensors)

spacial_block.0.weight f4 [64, 9, 20, 1]
-0.013428538 0.071134806 -0.046307158 -0.0046139653 0.044214927 0.03645388 0.014758549 0.031119483
0.017991098 0.013236715 -0.07313018 0.015512318 -0.021509903 -0.0033958424 -0.041121382 -0.0122078955
0.033418387 -0.0065543256 -0.057490155 0.040286038 -0.0211705 0.023414142 0.006710717 0.0098445155
-0.0049764537 -0.004079858 0.1084936 -0.1208924 0.013026012 0.042075824 -0.08177664 0.026111884
-0.035265025 -0.032579537 -0.037828516 -0.05244984 0.02392962 -0.009353937 0.055666596 0.08985392
-0.002776351 -0.023103349 0.049377847 0.00023826372 -0.020541308 -0.02638936 0.049229488 -0.036309753
-0.053490993 0.042774238 0.041945778 0.16126205 0.038563594 -0.025058923 0.02657095 -0.027208103
0.06028301 -0.1283705 -0.105306886 -0.009189118 0.0170356 0.03270128 -0.045155562 0.036733296
0.044233747 -0.02229612 -0.001618639 -0.01883281 0.003001329 0.041872885 -0.07245789 -0.047447182
0.0524166 0.02413071 0.01891081 0.02033611 0.041275572 -0.106480435 -0.0045395745 -0.034001183
-0.08798893 0.15021943 0.07250439 -0.054679487 0.019052416 0.018320067 0.013994148 -0.06773348
-0.058667503 -0.020789959 -0.022979321 0.054720767 0.025524128 0.030134734 -0.03329529 -0.083083205
0.12698711 -0.05657921 -0.053392246 0.0148325255 0.054346494 0.054746322 -0.00016704775 0.03110863
-0.029430702 -0.043051183 0.010680223 -0.10140344 -0.03337888 0.10920461 -0.013729541 -0.014562159
-0.022513235 0.055180594 0.04800365 -0.06733779 0.044898596 -0.053869963 -0.018401965 0.04269331
0.026967984 0.077814646 0.0017156397 0.07374565 -0.0517792 -0.0134899635 0.019710273 -0.08156927
-0.055513583 -0.03640242 -0.009825958 -0.03781668 0.017105868 -0.007384484 0.024749804 -0.018561102
0.08290553 -0.07767214 -0.023357857 0.06670414 0.016231216 0.051624656 0.072750114 0.04409446
-0.06414756 0.056879114 0.00343877 -0.048868544 -0.071445465 -0.0028587708 -0.08083176 -0.023490472
0.048140835 0.019866766 0.057223793 -0.061970934 0.118202396 -0.112290956 -0.020907551 0.012299759
0.012704585 0.07164056 -0.03066125 0.007323061 0.0008960792 -0.024983753 0.04122471 -0.005859129
-0.0714593 0.047475573 0.039022014 -0.017425342 0.041434884 0.0017709351 -0.081773564 0.021200845
0.03943804 -0.10542412 0.011832999 -0.052929316 0.005491432 -0.02417915 0.06969102 0.057653464
0.03002358 0.0407146 -0.029397462 0.035999123 0.011010347 0.089050785 0.05215629 0.006519561
-0.071098484 -0.008149495 -0.06501529 -0.006778368 -0.033227015 0.016622325 -0.10197212 -0.012812206
-0.024077067 0.056879852 0.0031879572 -0.0743032 -0.04111295 0.023027927 -0.00049486203 0.07687552
0.023550715 0.016297717 -0.030320967 -0.008940109 0.0010069808 -0.01864237 0.04146197 0.0052512675
-0.057972386 -0.035840657 0.056863803 -0.07545164 -0.028907094 0.06468864 0.059033208 -0.023425145
-0.07395238 0.013824499 -0.04391331 -0.014302234 0.016015612 0.03236017 -0.043679018 0.08252572
0.009350845 0.03774565 0.06311919 -0.061826635 0.0092270095 -0.04535478 -0.03670328 -0.0050804843
0.021548614 0.04088111 -0.013361909 -0.0005162804 0.033900224 -0.069437794 0.0690522 -0.051431745
0.017622706 0.022495845 -0.04068727 0.018375544 0.08057392 -0.039829202 -0.06190967 -0.03153
00000000: 5f03 5cbc 20af 913d 93ac 3dbd bf30 97bb
00000010: b61a 353d aa50 153d d7cd 713c 49ee fe3c
00000020: 1162 933c cfde 583c 47c5 95bd 6127 7e3c
00000030: 8935 b0bc c88c 5ebb e56e 28bd a003 48bc
00000040: b8e1 083d abc5 d6bb cc7a 6bbd f902 253d
00000050: c26d adbc 04cf bf3c 93e5 db3b e44a 213c
00000060: 8511 a3bb 54b0 85bb e431 de3d 6f96 f7bd
00000070: 0e6b 553c b357 2c3d 837a a7bd 97e8 d53c
00000080: 0f72 10bd 1f72 05bd 13f2 1abd a5d5 56bd
00000090: 0d08 c43c 4141 19bc a802 643d 5505 b83d
000000a0: 71f3 35bb 3c43 bdbc 6d40 4a3d 6ed6 7939
000000b0: 3f46 a8bc 802e d8bc dca4 493d 89b9 14bd
000000c0: 5f19 5bbd 0a34 2f3d 56cf 2b3d e121 253e
000000d0: dcf4 1d3d 5f48 cdbc 52ab d93c 87e3 debc
000000e0: 51eb 763d 8e73 03be 23ab d7bd f48d 16bc
000000f0: 3e8e 8b3c c7f1 053d 0af5 38bd a775 163d
00000100: 722e 353d 5aa6 b6bc 8328 d4ba 4447 9abc
00000110: f2b1 443b e782 2b3d cd64 94bd fa57 42bd
00000120: cab2 563d c4ad c53c d8ea 9a3c ea97 a63c
00000130: 9310 293d 6a12 dabd b6c0 94bb d344 0bbd
00000140: 8a33 b4bd 1fd3 193e 2e7d 943d 99f7 5fbd
00000150: d013 9c3c f713 963c b647 653c dab7 8abd
00000160: 564d 70bd b44f aabc 213f bcbc e222 603d
00000170: fa17 d13c 1edd f63c a460 08bd 8727 aabd
00000180: e908 023e 9abf 67bd d4b1 5abd 1f04 733c
00000190: 6e9a 5e3d ae3d 603d 8a29 2fb9 87d7 fe3c
000001a0: a818 f1bc 7056 30bd 1afc 2e3c 9bac cfbd
000001b0: 4bb8 08bd aba6 df3d def1 60bc 1f96 6ebc
000001c0: ad6d b8bc 0c05 623d 7a9f 443d 65e8 89bd
000001d0: 97e7 373d c0a6 5cbd b8bf 96bc 2edf 2e3d
000001e0: f6eb dc3c 495d 9f3d 51df e03a f607 973d
000001f0: 6d16 54bd 0205 5dbc 7077 a13c ca0d a7bd
00000200: 3662 63bd b41a 15bd 0efd 20bc aae5 1abd
00000210: 9b21 8c3c 8bf9 f1bb 1ac0 ca3c 740d 98bc
00000220: 60ca a93d 9212 9fbd fa58 bfbc 2e9c 883d
00000230: 54f7 843c 6074 533d 03fe 943d 649c 343d
00000240: cc5f 83bd 13fa 683d fd5c 613b 622a 48bd
00000250: 0052 92bd 375a 3bbb 1f8b a5bd 176f c0bc
00000260: 532f 453d a1bf a23c 7f63 6a3d 3cd5 7dbd
00000270: 1914 f23d cdf8 e5bd 5046 abbc ee84 493c
00000280: e426 503c 49b8 923d 4d2d fbbc 4af6 ef3b
00000290: dbe6 6a3a baaa ccbc 3edb 283d f0fd bfbb
000002a0: 4159 92bd bf75 423d 8cd5 1f3d 97bf 8ebc
000002b0: a0b7 293d b91e e83a e678 a7bd 65ad ad3c
000002c0: c889 213d 9ae8 d7bd 32df 413c 69cc 58bd
000002d0: 78f1 b33b 5a13 c6bc 2aba 8e3d 0a26 6c3d
000002e0: 03f4 f53c 5ac4 263d f2d2 f0bc d173 133d
000002f0: be64 343c 4260 b63d d5a1 553d 0ba2 d53b
00000300: 159c 91bd 7685 05bc bd26 85bd 121d debb
00000310: 0d19 08bd 8b2b 883c c2d6 d0bd 49ea 51bc
00000320: 453d c5bc d9fa 683d 0ced 503b 472c 98bd
00000330: 0d66 28bd 10a5 bc3c a1b9 01ba ea70 9d3d
00000340: 6eed c03c ca82 853c ad63 f8bc 8979 12bc
00000350: abfc 833a e2b7 98bc 07d4 293d d312 ac3b
00000360: 7474 6dbd a7cd 12bd 05ea 683d 6486 9abd
00000370: 92ce ecbc 7a7b 843d cecc 713d 17e6 bfbc
00000380: 5874 97bd 2780 623c 71de 33bd eb53 6abc
00000390: 2c33 833c 198c 043d c5e8 32bd 3f03 a93d
000003a0: 4934 193c 2f9b 1a3d a244 813d ed3d 7dbd
000003b0: e22c 173c efc5 39bd 2e56 16bd 317a a6bb
000003c0: b886 b03c f372 273d e9eb 5abc fe56 07ba
000003d0: f6da 0a3d 6735 8ebd 3d6b 8d3d 18aa 52bd
000003e0: 7e5d 903c 3549 b83c b2a7 26bd 4f88 963c
000003f0: f003 a53d f223 23bd fe94 7dbd 9a25 01bd

spacial_block.0.bias f4 [64]
-0.02454066 -0.061652936 0.021074051 -0.032519195 0.004674833 -0.045285683 0.03768036 -0.05410538
-0.062317893 -0.06960408 0.065402575 0.03758218 -0.05213555 -0.017776657 0.056471255 0.022774164
0.06855308 -0.01191538 -0.008952223 0.055508498 -0.0030411037 -0.06467714 -0.015036729 0.054108817
0.03097417 -0.015767524 -0.07277047 0.053429257 -0.01645766 -0.014490503 0.06741072 0.041089665
0.02312422 0.025103211 0.0018834915 0.0052774814 -0.039725225 0.027150005 0.037191927 0.039962105
-0.03742401 0.004311014 -0.004300863 -0.043568876 0.01621396 0.042429566 0.006922994 -0.034368668
0.05970416 -0.040190082 0.02884231 0.001284807 0.02585695 0.028539427 -0.06900546 0.018725421
-0.00018207502 -0.059787326 0.04827176 0.006598467 -0.020916155 -0.00334138 0.052897852 -0.026925089
00000000: 7f09 c9bc ca87 7cbd 7da3 ac3c d932 05bd
00000010: 572f 993b 7b7d 39bd b956 1a3d 9a9d 5dbd
00000020: 0c41 7fbd 958c 8ebd c9f1 853d c6ef 193d
00000030: 168c 55bd 5aa0 91bc 674e 673d e290 ba3c
00000040: 8f65 8c3d ba38 43bc 58ac 12bc e15c 633d
00000050: 414d 47bb 7375 84bd 9d5c 76bc 35a1 5d3d
00000060: 8bbd fd3c e52a 81bc af08 95bd a3d8 5a3d
00000070: 37d2 86bc 9369 6dbc a20e 8a3d a34d 283d
00000080: 016f bd3c 40a5 cd3c 7ddf f63a b9ee ac3b
00000090: ebb6 22bd b069 de3c 9056 183d 4eaf 233d
000000a0: eb49 19bd 6843 8d3b 41ee 8cbb 4775 32bd
000000b0: 23d3 843c a0ca 2d3d 48da e23b 29c6 0cbd
000000c0: 598c 743d 5b9e 24bd b546 ec3c f866 a83a
000000d0: f4d1 d33c 84cb e93c bc52 8dbd 0e66 993c
000000e0: 64eb 3eb9 8ee3 74bd 9cb8 453d f437 d83b
000000f0: 5b58 abbc 0efb 5abb 6bab 583d 0192 dcbc

spacial_block.1.weight f4 [64]
1.0656862 1.033558 1.0335627 1.0875897 1.0171041 1.072863 1.0143389 1.0029786
1.0449463 1.140366 1.0648228 1.0716994 1.2145238 1.2225744 1.1362966 1.0375261
1.142602 1.0641383 1.0188451 1.0357854 1.0370824 1.0246502 1.0459007 1.0258319
1.0391 1.0599707 1.0727165 1.0262836 1.0605471 1.0386789 1.0275053 1.0029533
1.0077641 1.0567497 1.0349448 1.0731246 1.1224518 1.086182 1.1724501 1.0294113
1.1770073 1.2307254 1.062063 1.0472003 1.0384171 1.0993216 1.0366293 1.1183257
1.0734316 1.0270185 1.0882329 1.028456 1.1682245 1.0535517 1.0763358 1.1356562
1.0356501 1.0983425 1.0580895 1.0995855 1.010339 1.0670313 1.0710384 1.0711604
00000000: 6868 883f a14b 843f c84b 843f 2436 8b3f
00000010: 7830 823f 9353 893f dbd5 813f 9a61 803f
00000020: cdc0 853f 83f7 913f 1d4c 883f 722d 893f
00000030: 8475 9b3f 517d 9c3f 2b72 913f a8cd 843f
00000040: c840 923f af35 883f 8469 823f 9e94 843f
00000050: 1ebf 843f bd27 833f 13e0 853f 764e 833f
00000060: 3b01 853f 1fad 873f c64e 893f 435d 833f
00000070: 02c0 873f 6ef3 843f 4b85 833f c660 803f
00000080: 6afe 803f 9343 873f 1279 843f 265c 893f
00000090: 80ac 8f3f 0308 8b3f d812 963f c0c3 833f
000000a0: 2da8 963f 6988 9d3f aef1 873f a90a 863f
000000b0: daea 843f 92b6 8c3f 45b0 843f 4c25 8f3f
000000c0: 3566 893f 5875 833f 374b 8b3f 72a4 833f
000000d0: 6188 953f c8da 863f 5fc5 893f 2f5d 913f
000000e0: 2f90 843f 7d96 8c3f 7a6f 873f 38bf 8c3f
000000f0: ca52 813f 7b94 883f c917 893f c91b 893f

spacial_block.1.bias f4 [64]
0.0018404345 -0.049959574 -0.040122412 -0.032562375 -0.03957128 -0.0597017 -0.02017354 -0.0073772212
-0.049929436 -0.054901235 -0.11078811 -0.09018481 -0.24300416 -0.1921811 -0.094434924 -0.034827568
-0.09206254 -0.072046414 -0.050808534 -0.005448241 -0.06169891 -0.029401723 -0.025553742 -0.0060595786
-0.049498312 -0.022040091 -0.087995075 -0.009629215 -0.0749753 -0.035959344 -0.028774653 0.005029773
-0.023725897 -0.08839567 -0.05933338 0.01663798 -0.13614625 -0.03780462 -0.07217609 -0.019747935
-0.17769645 -0.22601478 -0.075422235 -0.0007434686 0.004519065 -0.13004236 -0.03533702 -0.08310568
-0.07770481 -0.040157672 -0.12922838 -0.059080716 -0.2032797 -0.11267931 -0.09503524 -0.11117359
-0.051325426 -0.09237693 -0.124788865 -0.05999862 0.0032524525 -0.07145402 -0.049641415 -0.054834038
00000000: bc3a f13a 69a2 4cbd 6657 24bd 2060 05bd
00000010: 7f15 22bd c589 74bd fb42 a5bc 9ebc f1bb
00000020: cf82 4cbd 1ee0 60bd e0e4 e2bd d0b2 b8bd
00000030: 15d6 78be 1fcb 44be 1967 c1bd 5aa7 0ebd
00000040: 498b bcbd 128d 93bd 9c1c 50bd 2887 b2bb
00000050: ffb7 7cbd e2db f0bc 1556 d1bc 6e8f c6bb
00000060: bebe 4abd 6c8d b4bc c336 b4bd dbc3 1dbc
00000070: a68c 99bd 1b4a 13bd d2b8 ebbc cbd0 a43b
00000080: d05c c2bc ca08 b5bd 8f07 73bd 5f4c 883c
00000090: ec69 0bbe 04d9 1abd 0fd1 93bd 6cc6 a1bc
000000a0: 0ff6 35be 6b70 67be f976 9abd 55e5 42ba
000000b0: aa14 943b d329 05be 8dbd 10bd 5033 aabd
000000c0: b323 9fbd 5f7c 24bd 7254 04be 9ffe 71bd
000000d0: 8e28 50be 69c4 e6bd d6a1 c2bd fbae e3bd
000000e0: 9c3a 52bd 1e30 bdbd 4e91 ffbd 1dc1 75bd
000000f0: 1927 553b 7c56 92bd cc54 4bbd a899 60bd

spacial_block.1.running_mean f4 [64]
-0.8657521 -0.4420213 0.21860883 -0.5802436 0.488832 0.72937566 -1.115353 1.0485373
1.0441682 -0.026011439 -0.24566394 -0.14190608 0.4242391 -0.46514413 0.018941559 -0.21748175
0.6196531 -0.8558898 0.20858648 -0.25884762 -0.0253268 -0.49991354 -0.25944218 -0.604591
0.43913603 -0.6248006 -0.14970343 -0.56290364 0.06370293 -0.3410767 -0.20721424 0.53288835
0.95551825 1.000309 1.6068407 -0.74740416 -0.41996616 0.43844485 -0.759434 0.9706917
0.0048488607 0.77761716 -0.4829173 -0.7621915 -0.48961955 0.35438094 -0.43930432 0.79615384
0.113098495 1.0977625 1.1344082 -0.07581991 0.5727085 -0.41360173 -0.598294 -0.28885013
-0.9778324 -0.08375385 -0.29563308 0.33697104 -0.923066 0.18073684 0.104391225 -0.82392204
00000000: eea1 5dbf 9e50 e2be feda 5f3e d88a 14bf
00000010: 3048 fa3e 5db8 3a3f e3c3 8ebf 7836 863f
00000020: 4ea7 853f f115 d5bc 548f 7bbe d44f 11be
00000030: de35 d93e 5f27 eebe 542b 9b3c 89b3 5ebe
00000040: 96a1 1e3f 981b 5bbf b297 553e ad87 84be
00000050: 267a cfbc abf4 ffbe 9bd5 84be 7ac6 1abf
00000060: 70d6 e03e eff2 1fbf db4b 19be 741a 10bf
00000070: af76 823d 9ba1 aebe f82f 54be 5f6b 083f
00000080: d89c 743f 200a 803f f5ac cd3f e155 3fbf
00000090: ce05 d7be d87b e03e 446a 42bf 407f 783f
000000a0: 31e3 9e3b eb11 473f f040 f7be fb1e 43bf
000000b0: 6aaf fabe 6b71 b53e 7fec e0be bdd0 4b3f
000000c0: 2fa0 e73d 7b83 8c3f 4a34 913f 7847 9bbd
000000d0: 069d 123f 9bc3 d3be cc29 19bf 2ae4 93be
000000e0: 3953 7abf 2387 abbd 385d 97be 7887 ac3e
000000f0: 0e4e 6cbf 1413 393e 11cb d53d 8eec 52bf

spacial_block.1.running_var f4 [64]
2.19788 1.4941205 3.209577 1.8349615 1.0639709 1.5126805 6.636153 10.913868
1.2703384 1.3186214 1.6097252 1.5882354 1.6803534 1.2764602 2.3393798 1.8324875
1.1732228 1.9255375 2.951508 1.5587871 2.0255387 1.4594493 3.2424936 1.3281987
1.2831236 1.3794706 1.560869 4.5847297 2.5746999 1.0694708 1.9124801 1.684657
2.2809026 1.2572567 1.9412733 1.7594564 1.8809144 1.0289912 2.467955 1.5298965
1.6366928 2.2651498 1.4178685 2.1374204 1.2891866 1.951461 1.9946989 1.548272
2.138479 2.9387674 1.7619312 1.4605436 1.5511733 2.6149514 1.0354811 0.885584
1.689746 1.9952447 2.3263457 1.3258032 2.8039453 1.424357 1.5763401 1.5418303
00000000: 11aa 0c40 573f bf3f b669 4d40 05e0 ea3f
00000010: 3330 883f 849f c13f 5e5b d440 349f 2e41
00000020: 739a a23f 96c8 a83f 7a0b ce3f 4c4b cb3f
00000030: d215 d73f 0c63 a33f 66b8 1540 f38e ea3f
00000040: 2a2c 963f 0378 f63f 82e5 3c40 5686 c73f
00000050: 6da2 0140 3ccf ba3f 0485 4f40 6a02 aa3f
00000060: 653d a43f 7e92 b03f 8eca c73f 1bb6 9240
00000070: e2c7 2440 6be4 883f 26cc f43f d7a2 d73f
00000080: 4ffa 1140 caed a03f a57b f83f de35 e13f
00000090: cec1 f03f fcb5 833f faf2 1d40 a6d3 c33f
000000a0: 267f d13f 37f8 1040 b77c b53f 7fcb 0840
000000b0: 1104 a53f 79c9 f93f 4b52 ff3f c72d c63f
000000c0: d7dc 0840 c414 3c40 f686 e13f 18f3 ba3f
000000d0: d98c c63f 5d5b 2740 a58a 843f a2b5 623f
000000e0: 9949 d83f 2e64 ff3f d9e2 1440 ebb3 a93f
000000f0: d773 3340 5551 b63f 83c5 c93f b25a c53f

conv.weight f4 [8, 1, 4]
-0.3272212 -0.2741927 0.059289783 0.33452708 -0.11830095 0.37003192 -0.28637654 -0.117604285
0.5657349 -0.2585813 0.14703724 -0.09256709 -0.54538286 -0.46025655 0.54100496 -0.25433496
0.642981 -0.6547619 -0.46216515 0.13821803 0.6346255 -0.59726155 0.033118583 -0.6484173
-0.35473981 0.3207169 -0.15845701 -0.18843557 -0.1523358 -0.42273262 -0.48652828 0.30633795
00000000: 8a89 a7be fc62 8cbe d8d9 723d 2247 ab3e
00000010: c547 f2bd d374 bd3e f29f 92be 84da f0bd
00000020: 01d4 103f c564 84be ee90 163e d193 bdbd
00000030: 369e 0bbf bfa6 ebbe 4d7f 0a3f 3138 82be
00000040: 679a 243f 7a9e 27bf e9a0 ecbe 0789 0d3e
00000050: d176 223f 22e6 18bf 5aa7 073d adfe 25bf
00000060: 75a0 b5be 0135 a43e 8e42 22be 41f5 40be
00000070: eafd 1bbe 6970 d8be 3c1a f9be 54d8 9c3e

classify.weight f4 [2, 64]
0.14683957 -0.06354936 0.18023294 -0.17654487 -0.10514854 -0.21852066 0.16753381 0.0072602336
-0.07956034 -0.1694185 -0.24189313 0.21587345 -0.08659201 0.120588765 0.1317846 0.108321756
-0.15400703 0.22883645 0.09611679 -0.033488013 0.20065875 -0.20689097 0.14447533 -0.10983436
-0.18353894 -0.13910075 -0.1600046 0.15922986 0.088223524 -0.2045833 -0.15017143 -0.10284316
-0.14978485 -0.05936782 -0.07034037 -0.20548384 0.18242905 -0.11846742 0.096942164 -0.16547596
0.18628083 0.08478432 0.08821473 -0.06343682 -0.03485391 0.18475425 0.064736865 -0.1038396
0.064616464 -0.16049646 -0.061580595 -0.114695534 -0.02808542 0.19554165 -0.06536377 -0.15582223
-0.117512986 0.19957583 -0.13351183 0.17070991 -0.12651953 0.049120802 0.14336915 0.224347
-0.07759855 0.055620328 -0.11399186 0.024994183 0.19205712 0.056511972 -0.09652362 0.10769934
0.18610887 0.06341753 0.083410926 -0.19696356 0.20365955 -0.16754791 -0.17623466 -0.17806062
0.057503685 -0.06661121 -0.18283448 0.09914828 -0.21715255 0.2426009 -0.15742132 0.17089315
0.06475795 0.17502385 0.1011215 -0.10706091 -0.09380193 0.17022088 0.12368967 0.15173553
0.029935654 0.10077461 0.15482505 0.037493978 -0.19913752 0.14920822 -0.14822686 0.09540227
-0.06314128 -0.12219034 -0.10138921 0.18613164 0.1151869 -0.24442428 -0.20021561 0.049631797
-0.14614893 0.15628543 0.18126509 0.14580122 0.22659324 0.017903546 0.19943874 0.118382834
0.19166188 -0.06345959 0.17274505 -0.17234798 0.092220396 -0.17651457 -0.08381615 -0.20573881
00000000: 1d5d 163e 2b26 82bd fc8e 383e 2ec8 34be
00000010: 1e58 d7bd e1c3 5fbe fc8d 2b3e 41e7 ed3b
00000020: 88f0 a2bd 0b7c 2dbe d5b2 77be ee0d 5d3e
00000030: 2757 b1bd 3ef7 f63d 8bf2 063e ccd7 dd3d
00000040: 05b4 1dbe 1a54 6a3e e1d8 c43d ba2a 09bd
00000050: 7d79 4d3e 3adb 53be 57f1 133e d6f0 e0bd
00000060: a2f1 3bbe 6d70 0ebe 3fd8 23be 270d 233e
00000070: 89ae b43d 497e 51be 8ac6 19be 6f9f d2bd
00000080: 3361 19be ac2b 73bd 9d0e 90bd 5b6a 52be
00000090: aece 3a3e 0c9f f2bd 9d89 c63d 8872 29be
000000a0: 67c0 3e3e 67a3 ad3d eda9 b43d 2aeb 81bd
000000b0: f9c2 0ebd 3830 3d3e c394 843d dba9 d4bd
000000c0: a355 843d 2f59 24be ef3b 7cbd 7ee5 eabd
000000d0: 6513 e6bc 123c 483e 71dd 85bd dd8f 1fbe
000000e0: a6aa f0bd 9b5d 4c3e 53b7 08be 94ce 2e3e
000000f0: 568e 01be e532 493d 5dcf 123e 38bb 653e
00000100: fdeb 9ebd 24d2 633d 9074 e9bd 9ac0 cc3c
00000110: 9faa 443e 1979 673d 2dae c5bd 7991 dc3d
00000120: 5393 3e3e 0de1 813d 59d3 aa3d d1b0 49be
00000130: 218c 503e ae91 2bbe dc76 34be 8655 36be
00000140: fc88 6b3d 756b 88bd f638 3bbe 410e cb3d
00000150: 3d5d 5ebe 5f6c 783e 0e33 21be 9dfe 2e3e
00000160: d19f 843d 7439 333e ca18 cf3d c042 dbbd
00000170: 3a1b c0bd 624e 2e3e 0251 fd3d 8f60 1b3e
00000180: 9e3b f53c eb62 ce3d 758a 1e3e 4993 193d
00000190: b5ea 4bbe 0aca 183e c8c8 17be 4462 c33d
000001a0: 3750 81bd ee3e fabd 25a5 cfbd 4b99 3e3e
000001b0: 1ce7 eb3d 5c4a 7abe 5205 4dbe b64a 4b3d
000001c0: 11a8 15be 4a09 203e 8e9d 393e ea4c 153e
000001d0: 0f08 683e 75aa 923c ab39 4c3e b372 f23d
000001e0: 0343 443e 1af7 81bd 14e4 303e fd7b 30be
000001f0: 0cde bc3d 3cc0 34be cda7 abbd 32ad 52be

classify.bias f4 [2]
0.013438134 0.011018936
00000000: 9f2b 5c3c c488 343c
