BCI/output/openBMI/LightConvNet/sub4/2023-10-05--17-38/model.pth (torch, 51356 bytes, 9 tensors)

spacial_block.0.weight f4 [64, 9, 20, 1]
-0.016203083 0.044447057 -0.08902575 -0.0033713118 0.007018319 0.013218705 0.02041168 0.040555898
-0.003829979 0.043518387 -0.034631517 0.053999577 -0.03271481 -0.07005381 0.009336034 0.0060309796
0.030819064 0.009366851 -0.056680765 0.008578603 -0.039448794 0.053904176 -0.1066897 0.11240777
-0.006095705 0.011443865 0.056355655 -0.05834045 -0.04151551 0.096242644 -0.033865474 0.014052142
-0.044536315 -0.026075335 -0.05388153 -0.052298468 -0.02233581 0.103295214 -0.033842407 -0.015175405
-0.045222633 -0.029454254 -0.00085712224 -0.054252412 -0.049134355 -0.0010602413 0.026633944 0.0025431314
0.005548201 0.09081726 0.07245048 0.12501962 0.05587085 -0.042065166 0.0022005315 -0.08260096
0.0069024176 -0.041368175 -0.08543443 -0.034591995 0.000375967 0.019793967 -0.09862943 -0.032925975
-0.005907708 -0.036151286 -0.042061705 -0.033854842 0.027900156 0.087722436 -0.048518274 -0.0034248743
0.09093007 -0.0013943753 0.057897225 0.03592688 0.0206457 -0.062109523 0.0040985155 0.0024661012
-0.052144527 0.099476986 -0.05888429 -0.045464758 0.06010045 -0.047522504 0.031585228 -0.05538351
0.027262758 0.03163551 0.062173456 0.032852087 0.09777264 0.042136993 -0.015511857 -0.026542062
-0.042133573 -0.002126858 -0.09816845 -0.061202053 -0.0028420906 0.07942816 -0.1033364 -0.03625139
-0.0760338 0.029277077 -0.09816284 -0.07635281 0.05591255 0.1070568 0.028390884 0.050051067
-0.014530384 -0.015353417 0.0632542 -0.039841827 0.035355303 0.007849264 -0.03108497 -0.013254233
0.004778077 0.06814193 -0.07194847 0.011480503 -0.0316634 -0.015467413 -0.033326767 -0.08259432
0.01492226 0.055880584 0.011255649 0.029732 0.024461985 -0.045053188 0.065895915 -0.015068448
-0.0018873813 -0.019153407 -0.056784943 0.076996006 -0.008362135 0.066419564 -0.026103001 0.018409025
-0.0050537037 -0.010184975 0.0038402379 -0.0629517 -0.0007268908 0.08288626 0.049411375 -0.03997059
0.048673954 -0.034538887 0.05975607 -0.0696843 0.038267285 -0.05994455 -0.07035426 0.005162658
0.016383754 0.057020407 -0.090415314 -0.055326514 0.027026143 -0.026899058 -0.028257594 -0.011289879
-0.028252086 0.12736231 0.09361572 -0.016402053 0.09852835 -0.02030404 -0.039941724 0.018948494
-0.0259532 -0.035866972 -0.015022458 -0.03228562 0.001145208 -0.009177044 0.025282068 0.0103707975
-0.0068067126 -0.017126568 -0.0220881 0.07222993 0.040174153 -0.028126795 -0.0007681449 -0.016036252
-0.057713836 0.027693879 -0.05813761 -0.039435375 0.04016999 -0.083212584 0.0019412523 0.11440205
0.007504183 0.021586081 -0.027267909 0.012169532 0.0027226515 0.030549083 0.015536033 -0.05427099
0.04563766 0.043018408 -0.04982992 -0.0032336111 -0.022217428 0.0024742202 -0.0068175383 0.02230663
-0.013241655 0.002058402 -0.009097913 -0.0040982077 -0.0125906775 0.04832497 0.004103227 0.027287574
-0.038165994 0.015057007 -0.012037533 -0.050518617 -0.04223244 -0.040712986 -0.050586525 0.03130975
-0.014668546 0.0086409515 0.11281632 -0.0059203594 -0.002695857 0.02624899 0.040066443 -0.057668228
-0.015882691 0.037113596 -0.039880566 0.003363967 0.08762226 -0.04424393 0.038774587 -0.043995343
0.020506946 7.227877e-05 -0.12273719 0.0139725115 0.0057680574 0.030001242 0.020083373 0.07578429
00000000: 54bc 84bc 1e0e 363d 2253 b6bd 3af1 5cbb
00000010: edf9 e53b 4493 583c 6536 a73c f11d 263d
00000020: 6300 7bbb 5640 323d c7d9 0dbd a92e 5d3d
00000030: f7ff 05bd 5f78 8fbd 2af6 183c 869f c53b
00000040: 4378 fc3c 6c77 193c 172a 68bd 458d 0c3c
00000050: 0f95 21bd a0ca 5c3d 2180 dabd 0b36 e63d
00000060: 7bbe c7bb 0c7f 3b3c 30d5 663d 65f6 6ebd
00000070: 2b0c 2abd dd1a c53d 86b6 0abd f53a 663c
00000080: b66b 36bd f19b d5bc e1b2 5cbd eb36 56bd
00000090: 97f9 b6bc 718c d33d 569e 0abd 43a2 78bc
000000a0: 5e3b 39bd 0c4a f1bc 80b0 60ba c737 5ebd
000000b0: 1b41 49bd cbf7 8aba 6e2f da3c aaaa 263b
000000c0: afcd b53b 66fe b93d eb60 943d 2505 003e
000000d0: d5d8 643d 864c 2cbd cb36 103b b12a a9bd
000000e0: ad2d e23b ad71 29bd 3ff8 aebd 56b0 0dbd
000000f0: 701d c539 f526 a23c 3afe c9bd 63dd 06bd
00000100: 7295 c1bb 5f13 14bd e548 2cbd 60ab 0abd
00000110: de8e e43c d2a7 b33d 19bb 46bd db73 60bb
00000120: 8b39 ba3d 79c3 b6ba a425 6d3d 1028 133d
00000130: 2c21 a93c 8e66 7ebd d74c 863b 509e 213b
00000140: 8095 55bd 97ba cb3d a730 71bd 4139 3abd
00000150: e42b 763d f5a6 42bd 835f 013d d2d9 62bd
00000160: 2656 df3c 3d94 013d 98a9 7e3d e98f 063d
00000170: 063d c83d d797 2c3d 7225 7ebc bd6e d9bc
00000180: 4194 2cbd c262 0bbb 8a0c c9bd 01af 7abd
00000190: 5e42 3abb 3bab a23d 09a2 d3bd 567c 14bd
000001a0: 9cb7 9bbd 7bd6 ef3c 9909 c9bd dd5e 9cbd
000001b0: 8f04 653d 9840 db3d 0094 e83c 5902 4d3d
000001c0: d910 6ebc e68c 7bbc 6b8b 813d 2f31 23bd
000001d0: b9d0 103d 339a 003c e8a5 febc 4828 59bc
000001e0: 6a91 9c3b ff8d 8b3d b859 93bd b818 3c3c
000001f0: 7bb1 01bd 086b 7dbc a681 08bd 3627 a9bd
00000200: 7f7c 743c 0ae3 643d 9d69 383c 8690 f33c
00000210: 8064 c83c b189 38bd 70f4 863d a7e1 76bc
00000220: 0262 f7ba 9be7 9cbc 5497 68bd 15b0 9d3d
00000230: 5601 09bc fb06 883d f6d5 d5bc 86ce 963c
00000240: 8a99 a5bb e2de 26bc 80ac 7b3b d2ec 80bd
00000250: d18c 3eba 45c0 a93d 9563 4a3d 34b8 23bd
00000260: 575e 473d a678 0dbd c8c2 743d a4b6 8ebd
00000270: 28be 1c3d 6b88 75bd e515 90bd 842b a93b
00000280: 3937 863c 3b8e 693d aa2b b9bd 0e9e 62bd
00000290: ee65 dd3c 6a5b dcbc 787c e7bc 2ff9 38bc
000002a0: eb70 e7bc 446b 023e 99b9 bf3d 995d 86bc
000002b0: 3bc9 c93d a854 a6bc ef99 23bd df39 9b3c
000002c0: ce9b d4bc 3fe9 12bd c120 76bc ed3d 04bd
000002d0: ce1a 963a 505b 16bc 571c cf3c 47ea 293c
000002e0: d80a dfbb 044d 8cbc 1af2 b4bc 49ed 933d
000002f0: a78d 243d 2a6a e6bc 555d 49ba 755e 83bc
00000300: 5865 6cbd 46de e23c b421 6ebd fd86 21bd
00000310: 4a89 243d 5c6b aabd 9e71 fe3a 9f4b ea3d
00000320: a6e5 f53b 4bd5 b03c f360 dfbc b762 473c
00000330: 836e 323b 1242 fa3c d88a 7e3c 424b 5ebd
00000340: 8eee 3a3d 1234 303d 751a 4cbd feea 53bb
00000350: 5301 b6bc 8726 223b a865 dfbb 65bc b63c
00000360: 87f3 58bc 41e6 063b 6a0f 15bc 424a 86bb
00000370: 2149 4ebc 67f0 453d 5d74 863b 318a df3c
00000380: f253 1cbd aab1 763c 1339 45bc 9cec 4ebd
00000390: ecfb 2cbd a9c2 26bd d133 4fbd a73e 003d
000003a0: 5754 70bc c792 0d3c 3e0c e73d 93ff c1bb
000003b0: faac 30bb 1f08 d73c b61c 243d 8535 6cbd
000003c0: 6b1c 82bc 6d04 183d ce59 23bd 0076 5c3b
000003d0: 4d73 b33d 2039 35bd 1ad2 1e3d 7634 34bd
000003e0: 2ffe a73c 5f94 9738 a35d fbbd f6ec 643c
000003f0: f901 bd3b 2ac5 f53c e385 a43c cb34 9b3d

spacial_block.0.bias f4 [64]
-0.025734777 -0.060745396 0.021720583 -0.032186106 0.0067990366 -0.044901907 0.03908997 -0.05417413
-0.06267093 -0.07044086 0.063865125 0.037095737 -0.05182909 -0.01949483 0.057769988 0.022738157
0.06785283 -0.011554646 -0.0065606404 0.055672783 -0.0027769546 -0.06295669 -0.017780686 0.053647812
0.03154592 -0.015342685 -0.07242063 0.055256832 -0.01611304 -0.015466052 0.06674178 0.04055667
0.0202879 0.025088957 0.0016031641 0.004920646 -0.039356243 0.026205046 0.037644945 0.0388127
-0.037716754 0.0046683648 -0.0044039567 -0.04293261 0.014902722 0.041945577 0.006189531 -0.03416633
0.06012549 -0.040541146 0.029050173 0.0031533514 0.026110988 0.02854741 -0.070659146 0.01792784
-0.000767004 -0.0598307 0.047798425 0.007125802 -0.021674618 -0.0037136388 0.05047385 -0.026953258
00000000: bdd1 d2bc 2ad0 78bd 5def b13c 94d5 03bd
00000010: 74ca de3b 10eb 37bd ce1c 203d b1e5 5dbd
00000020: 9e59 80bd 4c43 90bd b8cb 823d b3f1 173d
00000030: bd4a 54bd 9fb3 9fbc 39a0 6c3d 5f45 ba3c
00000040: 6df6 8a3d b34f 3dbc a4fa d6bb 2509 643d
00000050: 91fd 35bb 70ef 80bd cda8 91bc cfbd 5b3d
00000060: 4b36 013d e35f 7bbc 4451 94bd fd54 623d
00000070: 7eff 83bc 5365 7dbc eaaf 883d c01e 263d
00000080: cf32 a63c 5b87 cd3c 4321 d23a 5f3d a13b
00000090: 0334 21bd f7ab d63c 9631 1a3d 11fa 1e3d
000000a0: e27c 1abd 15f9 983b 114f 90bb 1bda 2fbd
000000b0: 8c2a 743c 20cf 2b3d 8dd1 ca3b fef1 0bbd
000000c0: 2546 763d 790e 26bd a1fa ed3c 75a8 4e3b
000000d0: b6e6 d53c 42dc e93c beb5 90bd 68dd 923c
000000e0: c410 49ba 0911 75bd 48c8 433d 8f7f e93b
000000f0: f88e b1bc 8560 73bb abbd 4e3d 14cd dcbc

spacial_block.1.weight f4 [64]
1.0616877 1.2301104 1.0746009 1.0830022 1.064666 1.0719682 1.0495441 1.0304104
1.1074859 1.2627114 1.1155627 1.0625128 1.2806292 1.2420182 1.0877724 1.0291761
1.2467154 1.0794455 1.0212764 1.0815363 1.0782613 1.0448422 1.0599875 1.0860614
1.0909321 1.044667 1.188068 1.063531 1.1379552 1.0629885 1.0663557 1.05756
1.1228112 1.0969353 1.103437 1.111194 1.0658585 1.0569676 1.2994031 1.0982656
1.2518721 1.3136313 1.0953834 1.1017668 1.2964609 0.99912465 1.0797067 1.3173774
1.1426905 1.0727991 1.0256075 1.095124 1.3404957 1.2140452 1.1213269 1.1742319
1.0445273 1.1535109 1.0649498 1.0639951 1.088094 1.0756196 1.1239077 1.0471044
00000000: 62e5 873f 4274 9d3f 868c 893f d19f 8a3f
00000010: fa46 883f 4136 893f 7657 863f 7de4 833f
00000020: 19c2 8d3f 87a0 a13f c2ca 8e3f 6b00 883f
00000030: a8eb a33f 74fa 9e3f 203c 8b3f 0bbc 833f
00000040: 5f94 9f3f 452b 8a3f 2fb9 823f c86f 8a3f
00000050: 7704 8a3f 64bd 853f acad 873f 0f04 8b3f
00000060: aaa3 8b3f a6b7 853f 9d12 983f c921 883f
00000070: 84a8 913f 0210 883f 587e 883f 205e 873f
00000080: 47b8 8f3f 6068 8c3f 6c3d 8d3f 9b3b 8e3f
00000090: 0d6e 883f b74a 873f d752 a63f f893 8c3f
000000a0: 583d a03f 1225 a83f 8635 8c3f b206 8d3f
000000b0: 6ef2 a53f a2c6 7f3f d433 8a3f d39f a83f
000000c0: af43 923f 7b51 893f 1b47 833f 062d 8c3f
000000d0: 5d95 ab3f d565 9b3f a487 8f3f 3b4d 963f
000000e0: 12b3 853f 3fa6 933f 4650 883f fe30 883f
000000f0: aa46 8b3f e7ad 893f 35dc 8f3f 8407 863f

spacial_block.1.bias f4 [64]
-0.09619399 -0.21216054 -0.13372952 -0.09216859 -0.13443378 -0.155298 -0.10067323 -0.05666009
-0.11442079 -0.2731051 -0.17133394 -0.1406745 -0.21745847 -0.35102832 -0.21572433 -0.113340594
-0.24258758 -0.21595627 -0.14443779 -0.13493893 -0.14916793 -0.102374904 -0.10123857 -0.13393342
-0.14096397 -0.054150414 -0.1744582 -0.12603077 -0.20930898 -0.10801173 -0.11485184 -0.109724306
-0.11407271 -0.119177185 -0.15957397 -0.18150157 -0.17926544 -0.081499375 -0.31969357 -0.15916891
-0.25968036 -0.33613226 -0.15281372 -0.14445387 -0.35142526 -0.097569525 -0.17489757 -0.33385158
-0.17973033 -0.101863615 -0.030590566 -0.17421052 -0.36279404 -0.323519 -0.1491935 -0.1460006
-0.090277314 -0.21939737 -0.11223284 -0.1243477 -0.15732457 -0.11474479 -0.18722235 -0.1302055
00000000: 5b01 c5bd 9d40 59be 64f0 08be e3c2 bcbd
00000010: 02a9 09be 7006 1fbe c42d cebd 6914 68bd
00000020: 7255 eabd 6fd4 8bbe 2a72 2fbe fa0c 10be
00000030: 6fad 5ebe fcb9 b3be d7e6 5cbe 1d1f e8bd
00000040: e168 78be a423 5dbe 80e7 13be 6e2d 0abe
00000050: 7abf 18be efa9 d1bd 2b56 cfbd d825 09be
00000060: dc58 10be d3cc 5dbd 2ca5 32be 360e 01be
00000070: 1855 56be 4135 ddbd 7137 ebbd 23b7 e0bd
00000080: f49e e9bd 2b13 f4bd 5c67 23be 8cdb 39be
00000090: 5c91 37be 25e9 a6bd e0ae a3be 2dfd 22be
000000a0: d3f4 84be 8719 acbe 337b 1cbe b7eb 13be
000000b0: 03ee b3be 88d2 c7bd 5918 33be 98ee aabe
000000c0: 3a0b 38be df9d d0bd 1199 fabc 3e64 32be
000000d0: 24c0 b9be 48a4 a5be 2ec6 18be 2e81 15be
000000e0: 50e3 b8bd b4a9 60be 55da e5bd 02aa febd
000000f0: b119 21be 51ff eabd 37b7 3fbe 9754 05be

spacial_block.1.running_mean f4 [64]
-0.28254482 0.11648327 0.50239325 0.6158159 0.17305759 0.49921873 -0.9928435 0.6338418
0.53714454 0.13109328 0.48620468 0.2477403 0.023194145 -0.6038694 0.5085349 -0.4197932
0.83122635 -0.83408725 0.07604529 0.89047676 0.16744061 0.11776588 -0.36622858 0.17001542
0.9215929 0.49220124 0.26985487 -0.44661832 0.50836974 -0.093234405 0.83621264 0.3451081
-0.032344017 0.53775316 0.4097088 1.2207322 0.6268836 -0.08984114 -1.1251755 0.81014967
0.5010096 -0.9262114 -0.26137015 0.6171081 0.23285782 -0.82240456 -1.4256431 0.04068166
0.27826652 0.5843871 0.40706086 0.64510405 -0.018114714 0.5836965 1.0005841 0.4193727
0.7571249 -0.7160513 0.97820157 -0.22712083 -0.046157673 0.5444137 0.35662538 0.7170294
00000000: b7a9 90be c88e ee3d d89c 003f 1ca6 1d3f
00000010: 0236 313e 9999 ff3e fe2a 7ebf 7543 223f
00000020: 4e82 093f 513d 063e d2ef f83e a2af 7d3e
00000030: a601 be3c 2f97 1abf 582f 023f 22ef d6be
00000040: 40cb 543f be86 55bf a2bd 9b3d 49f6 633f
00000050: 8d75 2b3e 3d2f f13d 5082 bbbe 8618 2e3e
00000060: 83ed 6b3f cd01 fc3e 6b2a 8a3e 28ab e4be
00000070: 8524 023f aef1 bebd 0812 563f 02b2 b03e
00000080: 297b 04bd 31aa 093f 5ac5 d13e f440 9c3f
00000090: 727b 203f a2fe b7bd c005 90bf f865 4f3f
000000a0: 2a42 003f 311c 6dbf 4fd2 85be ccfa 1d3f
000000b0: 4872 6e3e 1b89 52bf 797b b6bf d0a1 263d
000000c0: f378 8e3e 659a 153f 486a d03e 8a25 253f
000000d0: 4f65 94bc 226d 153f 2413 803f 05b8 d63e
000000e0: f0d2 413f 234f 37bf 6b6b 7a3f 5d92 68be
000000f0: d40f 3dbd b25e 0b3f 9a97 b63e 3d8f 373f

spacial_block.1.running_var f4 [64]
0.43227285 0.3710361 0.624214 1.1382167 0.34392124 0.36907625 0.6913393 0.8273016
0.46479523 0.42396113 0.47567552 0.30978355 0.3875349 0.4623604 0.68090975 0.64628893
0.4364917 0.44315842 0.62129503 0.88385254 0.35949373 0.42456314 0.4954472 0.36557004
0.5521991 0.45731214 0.48041058 0.46497762 0.38378558 0.49022487 0.6264582 0.43732497
0.32118934 0.64139014 0.4835225 0.827654 0.47844085 0.30677766 0.5169186 0.39577827
0.5623918 0.55528694 0.3772106 0.857727 0.38922668 0.4933171 0.6183251 0.47360992
0.56417745 0.5922386 0.86096305 0.4970396 0.40891743 0.43108577 0.57762396 0.34607413
0.8116045 0.48483562 0.58211637 0.71209055 0.44541273 0.3643474 0.4412702 0.5934056
00000000: de52 dd3e 72f8 bd3e 7dcc 1f3f 16b1 913f
00000010: 7216 b03e 90f7 bc3e 9dfb 303f 0aca 533f
00000020: a4f9 ed3e 6f11 d93e be8b f33e f39b 9e3e
00000030: f96a c63e 81ba ec3e 1a50 2e3f 3173 253f
00000040: d77b df3e a9e5 e23e 310d 1f3f 2944 623f
00000050: 900f b83e 5760 d93e 41ab fd3e ff2b bb3e
00000060: ec5c 0d3f d124 ea3e 60f8 f53e 8c11 ee3e
00000070: 8b7f c43e c1fe fa3e 915f 203f 0fe9 df3e
00000080: ee72 a43e 2532 243f 4390 f73e 22e1 533f
00000090: 33f6 f43e f611 9d3e c754 043f 73a3 ca3e
000000a0: e9f8 0f3f 4927 0e3f bf21 c13e ff93 5b3f
000000b0: b848 c73e 0f94 fc3e 8e4a 1e3f 007d f23e
000000c0: ef6d 103f f39c 173f 1368 5c3f f97b fe3e
000000d0: a05d d13e 46b7 dc3e 2adf 133f a130 b13e
000000e0: 50c5 4f3f 603c f83e 9405 153f 914b 363f
000000f0: 230d e43e be8b ba3e 2bee e13e 6ee9 173f

conv.weight f4 [8, 1, 4]
-0.38621637 -0.39331123 -0.037243888 0.5724936 -0.14154904 0.48448473 -0.4349664 -0.1650967
0.28191406 0.06124279 0.43888858 -0.025817975 -0.571331 -0.22792135 0.5823774 -0.15387526
0.7124638 -0.73063165 -0.5507777 0.27967048 0.70467746 -0.72861475 -0.037092593 -0.7762228
-0.48472106 0.45453352 -0.4502338 -0.33876067 -0.04802951 -0.6668511 -0.6804955 0.44861117
00000000: 27be c5be 1760 c9be 0c8d 18bd f18e 123f
00000010: 3bf2 10be 620e f83e eab3 debe 1c0f 29be
00000020: 0a57 903e b8d9 7a3d 01b6 e03e 3880 d3bc
00000030: c042 12bf 3764 69be af16 153f 7a91 1dbe
00000040: 0764 363f ad0a 3bbf c4ff 0cbf f830 8f3e
00000050: be65 343f 7f86 3abf 67ee 17bd 8ab6 46bf
00000060: 5c2d f8be 9eb8 e83e 0b85 e6be 0a72 adbe
00000070: 97ba 44bd c1b6 2abf f434 2ebf 5db0 e53e

classify.weight f4 [2, 64]
0.19650494 -0.18328299 0.25130975 -0.16808988 -0.16197948 -0.24194986 0.24369791 -0.022690626
-0.117036864 -0.19978872 -0.25423875 0.24467093 -0.107785605 0.16816166 0.16265768 0.14788969
-0.19357772 0.28865874 0.15845138 -0.057515804 0.26988366 -0.23080105 0.19184065 -0.19820301
-0.20277533 -0.09761797 -0.18322593 0.2305509 0.18114823 -0.2375536 -0.17691426 -0.17277814
-0.28244203 -0.11093892 -0.11987868 -0.23474397 0.19107492 -0.15107286 0.16366833 -0.24104834
0.24186674 0.15830192 0.14124969 -0.10780994 -0.1340592 0.16785452 0.15983006 -0.17623894
0.15171501 -0.20470159 -0.020815749 -0.17039832 -0.09261996 0.32022253 -0.072683744 -0.17911169
-0.08923169 0.26515788 -0.1316264 0.20475297 -0.25296572 0.0995643 0.2147886 0.2558175
-0.1272639 0.1753539 -0.18506867 0.01653933 0.24888797 0.079941206 -0.17268772 0.13765024
0.22358538 0.093787804 0.09575652 -0.225761 0.22485305 -0.21512096 -0.20710772 -0.21762848
0.09707419 -0.12643369 -0.24516895 0.12317617 -0.28637728 0.2665111 -0.20478666 0.25926164
0.08399456 0.13354109 0.12434279 -0.17838189 -0.18672672 0.20319115 0.15043251 0.2216705
0.16259329 0.15234572 0.20436335 0.06675424 -0.20778349 0.18181355 -0.2149529 0.17097455
-0.11872731 -0.19570802 -0.15442427 0.2305047 0.21439216 -0.22752461 -0.29530886 0.12203095
-0.2332474 0.20049053 0.14050035 0.20150386 0.29112783 -0.10677741 0.20675868 0.14167242
0.16338074 -0.12904191 0.17085959 -0.2063911 0.21866629 -0.22695781 -0.15523556 -0.23720929
00000000: 9738 493e 89ae 3bbe acab 803e c11f 2cbe
00000010: f3dd 25be b4c1 77be f28b 793e b1e1 b9bc
00000020: 06b1 efbd 6a95 4cbe 952b 82be 048b 7a3e
00000030: b3be dcbd 9232 2c3e bc8f 263e 6570 173e
00000040: 3d39 46be 14cb 933e 1441 223e b195 6bbd
00000050: 312e 8a3e 1c57 6cbe e071 443e bbf5 4abe
00000060: 56a4 4fbe eeeb c7bd 949f 3bbe 8915 6c3e
00000070: ec7e 393e 4041 73be 0329 35be c1ec 30be
00000080: 3e9c 90be f233 e3bd f482 f5bd b960 70be
00000090: 25a9 433e d8b2 1abe ac98 273e 60d5 76be
000000a0: eaab 773e e619 223e c2a3 103e 75cb dcbd
000000b0: d146 09be 0ee2 2b3e 7eaa 233e fb77 34be
000000c0: 2e5b 1b3e 4b9d 51be ca85 aabc e67c 2ebe
000000d0: 89af bdbd 35f4 a33e 37db 94bd 0e69 37be
000000e0: 1bbf b6bd c6c2 873e 12c9 06be c3aa 513e
000000f0: b984 81be 5ee8 cb3d 8bf1 5b3e 83fa 823e
00000100: 7851 02be f98f 333e a482 3dbe 7d7d 873c
00000110: 7ddc 7e3e 37b8 a33d 0dd5 30be 2ff4 0c3e
00000120: 91f3 643e d213 c03d ff1b c43d e42d 67be
00000130: e13f 663e ab48 5cbe 0c14 54be 00da 5ebe
00000140: d5ce c63d d577 01be 920d 7bbe ca43 fc3d
00000150: 0ba0 92be 2574 883e 98b3 51be f1bd 843e
00000160: 5705 ac3d ffbe 083e 6fa7 fe3d bea9 36be
00000170: 4a35 3fbe 5711 503e fb0a 1a3e 97fd 623e
00000180: db7e 263e 8400 1c3e a044 513e 72b6 883d
00000190: 32c5 54be 552d 3a3e 9d1c 5cbe f413 2f3e
000001a0: 4e27 f3bd af67 48be 6521 1ebe 6d09 6c3e
000001b0: 9e89 5b3e 36fc 68be b932 97be 5deb f93d
000001c0: 68d8 6ebe 644d 4d3e 53df 0f3e 0757 4e3e
000001d0: b50e 953e 1dae dabd 8cb8 533e 9312 113e
000001e0: 484d 273e 9023 04be d1f5 2e3e 3058 53be
000001f0: 0eea 5f3e a167 68be 12f6 1ebe fee6 72be

classify.bias f4 [2]
0.0029873538 0.021469735
00000000: 7bc7 433b 4ce1 af3c
