BCI/output/openBMI/LightConvNet/sub51/2023-10-05--17-38/model.pth (torch, 51356 bytes, 9 tensors)

spacial_block.0.weight f4 [64, 9, 20, 1]
00000000: 112d 1a39 d811 a63c 666a b5bd 9f51 a2bd
00000010: 4fb8 26bd 7dc0 f13c 954e b23c b47e a03d
00000020: d337 73bc 0a90 783c bc6e 9cbc 12d5 cc3b
00000030: 9fb3 8fbd 00f9 063d 9226 363c 9fd5 ed3c
00000040: 78f8 e23c 89a5 5c3d bc87 f1bc 4087 20bc
00000050: 2143 c23c b748 593d 82a6 d9bc 5016 873d
00000060: bd3a 0f3c 413c 973c 3e20 913d 4df3 69bd
00000070: 41fe 7ebd 35f7 1dbd 3c9e cbbc cca6 9f3d
00000080: 4133 bbbc f4a0 08bd 48e2 3fbd 173d b1bd
00000090: 5869 85bd 10d4 953d 8ed7 583d 4b73 7d3d
000000a0: 2ff3 f1bc 8fb3 90bd bf1e 3f39 40ff 9ebd
000000b0: 2b96 23bd a39e 9fbc 0696 b53c 4d0e 6c3c
000000c0: a34b 90bd 1504 b0ba 0fb9 4d3d e780 b93d
000000d0: 0afe 9b3d 3541 24ba 9638 113d 480e 72bd
000000e0: 6887 933c ef81 70bd ddba b0bc 8d11 83bc
000000f0: 6e9d 383c fcae 243c 57a9 81bd 8f2b 853c
00000100: 5f1e 233d 0d63 89bc 3af3 b3bb 0184 aa3b
00000110: 494b c23c 8295 573d 0b16 89bd 0d03 f9bc
00000120: 227c 113d 3e1f 743d 5962 663d 4c5f 583d
00000130: a9aa 9ebb 0306 94bd f32c b53b 5539 15bd
00000140: fc5c b7bd 7e7f 683d 28fc 583d 462b 85bd
00000150: 645a e73c 01b8 d5bb 2c7d 85bc 5707 11bd
00000160: 28c2 af3c 9106 28bd daa1 1a3d cedb 5b3d
00000170: 5414 9a3d e18e e43c 732b 82bd df28 13bd
00000180: dc48 2e3d c3f3 f93c 7897 15bd f6ff 84bc
00000190: ab99 2c3d c8da 2f3d 17ba ecbc a18a 2cbb
000001a0: 5d3b 5dbd a926 e43b 6dcd 85bd 393a 81bd
000001b0: 8d7f 2abc d453 773c 2c90 b5bc a902 563d
000001c0: e7d5 eebc 7040 7a3d 290a 563d 548e 72bd
000001d0: 0c8f a2bc 9110 e03b ea50 a33c 3ba3 e53c
000001e0: 7793 433c fa95 1c3c c3a7 cdbc dbda 3d3d
000001f0: 52d1 7ebd 90c2 42bd 335d ccbc 2f3f f5bc
00000200: c707 e2bc 3439 57bd 7904 2abc e10e ae3c
00000210: a1f3 15bd 7eec 00bc cb19 853d a241 d53b
00000220: 2234 f53a 59ac c5bb 8fb8 cf3c bce1 813d
00000230: 4f82 0e3d 6e22 8f3c 92a7 163d 227d e5bc
00000240: 8bde 91bd 7bf4 40bd 7485 cd3c 5f91 f7bc
00000250: 910d 8fbd e0bc afbd c711 a5bd 4c3d 8abd
00000260: cf81 0dbc 44ae 8a3c 2932 b53c c79c b6bd
00000270: 0360 eb3c 1b95 8dbd 4cec 52bc 8c6b b9bc
00000280: 5523 05bd acbd 45bc d249 7bbd a1bd 53bd
00000290: 162a c8b9 ac1f d73b afab 1dbd f7fb eb3c
000002a0: 6df6 93bd 8c77 04bb e734 953d 3ebe c6bc
000002b0: 59a3 a63d f0ab ed3c 0c8c 81bd 2aa8 563d
000002c0: 2dd2 44bc 7c6a f5bc f5b6 8c3d d458 4abd
000002d0: d319 153d 1567 043c 50c8 793d 1c84 b03c
000002e0: fdde 063d 19ee e03c fc89 283b 8a9b 5c3b
000002f0: fc8e 43bd 6863 243d c711 673d 1d7d 453d
00000300: e6c0 6fbd 24dc f43c c4e8 12bd a279 06bd
00000310: 6d80 19bd bb47 ce3c 2770 3dbd 5e11 14bc
00000320: 337a 543c b69d 6f3d f435 80bd 79f5 4cbd
00000330: d898 50bd a4a1 3e3d a4d5 d0bc 270c 713d
00000340: 8c41 d13c 939c 563c b5a3 f5bb 4a27 7cbc
00000350: a3d1 423b ad6c a1bc cac2 f8bb 2034 b33b
00000360: c69a 63bd b50e 16bd 3aa6 733d 4431 83bd
00000370: 789d 1f3c 6dae 9d3d 243c e53c 2c6e 253a
00000380: 97fd 92bd 4805 d03c c1fe 63bd 48d5 b6bc
00000390: 49d3 cdbc 622e bdbb 4f6e 41bb 26e0 773d
000003a0: d295 17ba 4cf0 7f3d ece8 193d 7f1a 6dbd
000003b0: bb3c f33c 4b21 6abd 5836 18bd 979f 6e3c
000003c0: 9470 0c3d 7230 6d3d 275d febc 1bcc e2bb
000003d0: c8d4 d23c 2012 aabd 4720 733d fc18 77bd
000003e0: 9c78 62ba 5315 aebc 6daa 4ebd bf15 533b
000003f0: 915b 3f3d 87c0 3bbc 60eb 38bd 26af 03bd
0.00014703373 0.02027218 -0.088581845 -0.07925724 -0.040703114 0.02951073 0.021765986 0.07836667
-0.0148448525 0.01517106 -0.019095771 0.006250986 -0.07016682 0.03295231 0.011117594 0.029032527
0.02770637 0.053868804 -0.029483669 -0.009797871 0.02371365 0.053047862 -0.026568655 0.06596053
0.008742032 0.018461348 0.07086228 -0.057116795 -0.062254194 -0.038565833 -0.024855725 0.07795486
-0.022851588 -0.03335662 -0.046846658 -0.0865423 -0.06514233 0.07315838 0.052939944 0.06187753
-0.029534904 -0.07065498 0.00018226633 -0.07763529 -0.039938133 -0.019484824 0.022166263 0.014407706
-0.070456766 -0.0013428951 0.050225314 0.09057789 0.076168135 -0.000626582 0.035454355 -0.05909565
0.018008903 -0.058717664 -0.021573478 -0.01599958 0.011268003 0.010051485 -0.06331127 0.016256122
0.039823886 -0.016770864 -0.0054916414 0.0052037244 0.02371754 0.052632816 -0.066936575 -0.030396963
0.035518773 0.059600107 0.056246135 0.052825257 -0.0048421216 -0.07227709 0.00552904 -0.03643163
-0.08953282 0.05676221 0.05297485 -0.065023944 0.028241344 -0.006522179 -0.016295038 -0.03540739
0.021454886 -0.041021887 0.03775201 0.05367642 0.075234085 0.027900161 -0.063559435 -0.03592765
0.042549953 0.030511742 -0.036521405 -0.016235333 0.042138737 0.042933255 -0.028897328 -0.0026327746
-0.05401169 0.0069626165 -0.065333225 -0.06309933 -0.010406387 0.01509567 -0.022163473 0.05224863
-0.029154731 0.06109661 0.052255783 -0.059217766 -0.0198436 0.0068379124 0.019936044 0.028031936
0.011937014 0.009557242 -0.02510441 0.046351295 -0.062211342 -0.04754883 -0.024946785 -0.029937355
-0.0275916 -0.052544788 -0.010377043 0.02124733 -0.036609296 -0.007868884 0.0649906 0.006508068
0.0018707553 -0.0060325083 0.02535656 0.063418835 0.03479224 0.017472472 0.0367809 -0.02801377
-0.07122525 -0.047108155 0.02508805 -0.030220686 -0.069850095 -0.08580947 -0.080600314 -0.06749973
-0.008636906 0.0169288 0.022118645 -0.08916622 0.028732305 -0.06913205 -0.01287372 -0.02263429
-0.0325044 -0.012069147 -0.061349697 -0.051694516 -0.0003817833 0.006565055 -0.03849381 0.02880667
-0.07224736 -0.0020212857 0.07285481 -0.024260636 0.08136625 0.02901265 -0.0632554 0.052406467
-0.012013 -0.029958002 0.06870834 -0.04940112 0.03640158 0.008081217 0.06098205 0.02154737
0.032927502 0.027457284 0.002571701 0.0033662044 -0.047743782 0.040133864 0.05641344 0.04821502
-0.05853357 0.029890127 -0.035866514 -0.03283084 -0.037475992 0.025180688 -0.046249535 -0.009037344
0.012968588 0.058500014 -0.06260291 -0.05003879 -0.050927013 0.04654087 -0.025492497 0.05884948
0.02554395 0.013098854 -0.007496322 -0.015390227 0.0029727004 -0.019705141 -0.00759158 0.0054688603
-0.055567525 -0.03663512 0.059484698 -0.06405881 0.009742133 0.07699285 0.027982779 0.00063106674
-0.07177275 0.025393143 -0.055662874 -0.022318497 -0.025125163 -0.0057733515 -0.0029515212 0.0605165
-0.0005782518 0.062485024 0.037575647 -0.057886597 0.029692044 -0.057160657 -0.0371612 0.014564416
0.03428705 0.05790753 -0.031050278 -0.006921304 0.025736228 -0.08304238 0.059356954 -0.06032656
-0.0008639188 -0.021250403 -0.0504555 0.0032209007 0.046718184 -0.011459476 -0.045146346 -0.032149456

spacial_block.0.bias f4 [64]
00000000: 4b1e cfbc 1f87 7bbd 9641 c93c cc38 05bd
00000010: 9010 6e3b 9f03 39bd 8de3 233d 492f 5fbd
00000020: 42ee 7cbd dee6 8fbd 0506 853d 8207 003d
00000030: a906 58bd 8df9 9cbc 6891 6b3d c803 bd3c
00000040: bed0 8a3d 0d7a 34bc cf4f efbb d1e8 633d
00000050: f2db 67bb 8585 82bd 2d04 96bc 34e4 633d
00000060: 81d4 fd3c ec4c 73bc f7f2 94bd 5ceb 5e3d
00000070: a236 88bc 2a4f 8bbc 7e93 8e3d e603 2a3d
00000080: da67 bb3c 1e90 cc3c 5c35 893a 66ba 903b
00000090: 8865 1bbd faa8 db3c 2a01 173d d698 2a3d
000000a0: 3596 19bd 1b68 843b 3863 99bb d8ae 30bd
000000b0: 5afc 843c 8b18 263d 75a1 ed3b 6e98 0ebd
000000c0: 6ef1 743d 7801 19bd bc0c eb3c f005 8239
000000d0: 7e5a d83c 727e ec3c a1ce 8dbd d3be 973c
000000e0: 58b5 c4b9 38f2 79bd 61f3 3e3d 7090 f93b
000000f0: e5c0 aebc 5948 60bb d0fa 563d 09bd e1bc
-0.025283 -0.06140816 0.024567407 -0.03252487 0.003632579 -0.04516947 0.04001193 -0.054488454
-0.061750658 -0.07026456 0.06495289 0.03125716 -0.052740727 -0.019161964 0.057511717 0.023073092
0.06778096 -0.011015427 -0.007303215 0.055641953 -0.00353789 -0.06373123 -0.018312538 0.055637553
0.030985119 -0.014849883 -0.07272904 0.054423675 -0.016627613 -0.017005522 0.06961726 0.041507624
0.022876669 0.024971064 0.0010468173 0.0044167517 -0.037938625 0.026813973 0.036866345 0.041649662
-0.037496764 0.0040407307 -0.0046810172 -0.043135494 0.016233612 0.04055075 0.007251913 -0.034813337
0.059800558 -0.037354916 0.028692596 0.00024799956 0.026410338 0.028868888 -0.06924177 0.01852361
-0.00037519145 -0.061022013 0.046618823 0.0076160952 -0.021332214 -0.003422281 0.052485287 -0.02755596

spacial_block.1.weight f4 [64]
00000000: d37b 7d3f 183c 813f 3cc3 853f ebb8 863f
00000010: 5185 823f d35f 813f 2356 803f 8856 823f
00000020: 8196 813f 1745 833f c0c2 833f c7fb 823f
00000030: edf9 803f 5f34 883f 1119 843f ed61 803f
00000040: 2776 863f 72a7 803f a055 7e3f 13ab 8b3f
00000050: 5358 813f c31a 823f 1a99 873f dc13 833f
00000060: fa5c 823f 67ca 823f 9746 8a3f cf8a 7f3f
00000070: 9f32 7b3f 24e3 833f 7e5d 833f 9ed0 823f
00000080: 362a 853f 4fd0 853f dc2a 893f 7577 8b3f
00000090: 4f33 813f 0b0e 843f 5493 873f 33da 843f
000000a0: 961b 853f d4d6 883f 8ba8 813f 10b9 873f
000000b0: df69 823f 231c 813f 740e 803f 2eef 8b3f
000000c0: 518c 873f 28a8 843f ff56 823f 0a9d 813f
000000d0: 29fa 873f 2dad 813f f7f3 873f 8e15 873f
000000e0: 5390 823f 5d5b 873f 2d83 853f 8430 7e3f
000000f0: 74be 813f 1305 7f3f 2fd9 7d3f 1b0c 833f
0.99017066 1.0096464 1.0450206 1.0525182 1.0196935 1.0107368 1.0026287 1.0182657
1.0124055 1.025546 1.0293808 1.0233086 1.0076271 1.0640982 1.032015 1.0029885
1.0504807 1.00511 0.99349403 1.0911583 1.010508 1.0164417 1.0593598 1.0240436
1.0184624 1.0218018 1.0802792 0.9982118 0.98124117 1.0303693 1.0262907 1.0219915
1.0403507 1.0454196 1.0716205 1.089583 1.0093783 1.0316786 1.0591836 1.0379089
1.0399044 1.069056 1.012956 1.0603352 1.0188559 1.0086712 1.0004411 1.0932367
1.0589696 1.0363817 1.0182799 1.012605 1.0623218 1.0130974 1.0621327 1.0553453
1.0200294 1.0574757 1.0430657 0.9929278 1.0136247 0.9961712 0.9915952 1.0238069

spacial_block.1.bias f4 [64]
00000000: 520e e13c 5056 92bb 07da 01be 2bcc e63c
00000010: f41a cd3c de77 a0bc d60c 67bc ef33 393d
00000020: 2a6b 60ba fa0c ce3c 69af 9bbd 0661 0dbe
00000030: 73b5 e1bb 6efa 3fbe e86a 3ebe b1a5 07bb
00000040: 5901 b2bd 8280 b3bd fe4b 3dbd 7eda 12be
00000050: 7620 d3bd b613 5fbc 0e8b 15be b474 353d
00000060: 976b 37bd 8127 6ebd db46 19be eaf0 a83c
00000070: 5545 abbd 4aba b5bc fdf5 acbd dba3 2cbd
00000080: 0a78 373c 4a21 9cbc bb47 09be 4978 27be
00000090: 8fe9 07be 3eaf 513c 9c48 3cbe c46f 81bd
000000a0: aaed 15be e024 4dbe ea7d a4bc 6d8f 5bbd
000000b0: d7cb b5bb 555d 7dbd b711 b3bd bd08 53bd
000000c0: 7847 06be 8a9a a0bd 3814 143d f164 14bd
000000d0: bde4 30be e289 62bd 96e6 01be d709 89bd
000000e0: 14f7 febb 250b 29be b7fa c4bd 7920 11bd
000000f0: 1fda 34bc 1cd7 a5bd 8b78 8ebd f5d6 94bd
0.027472649 -0.0044658557 -0.12680827 0.028173527 0.025037266 -0.019588407 -0.014102181 0.045215543
-0.00085608906 0.025152672 -0.07601816 -0.13806543 -0.0068880855 -0.18747875 -0.18595469 -0.0020698125
-0.08691663 -0.08764745 -0.04621505 -0.1434116 -0.10308926 -0.013615539 -0.14603826 0.04430075
-0.04478034 -0.058143143 -0.14968435 0.02062269 -0.083628334 -0.022183556 -0.08445356 -0.042148452
0.011198053 -0.019058842 -0.13406269 -0.16354479 -0.1327269 0.012798129 -0.18387073 -0.06320146
-0.14641443 -0.20033598 -0.020079572 -0.05360358 -0.0055479812 -0.061856586 -0.08743613 -0.051522005
-0.131132 -0.07841976 0.036152095 -0.036229078 -0.17274757 -0.055307277 -0.12685618 -0.0669133
-0.007780919 -0.16508158 -0.096181326 -0.03543136 -0.011038332 -0.080976695 -0.069565855 -0.07267562

spacial_block.1.running_mean f4 [64]
00000000: 0083 c8be a644 31bf 2802 c3bd cde1 303e
00000010: b3ca 64be 9ce0 483d da58 99be dc85 ea3d
00000020: 625d 703e e88b f23e 2797 683e 71dd 3dbf
00000030: 2cc8 823e fdc1 0abf 2a0c 4cbf c221 753d
00000040: 0907 0a3f acd8 b9be fca6 c9bd da15 6bbe
00000050: c0f9 8e3d e676 09bf 3fa5 57bf ae1c a2bd
00000060: 91f1 30bd ef8c 3f3e 1f6b 48be 81b0 6b3d
00000070: dcdf d83e 2f57 98bd 2227 9d3e e958 debd
00000080: 9d29 113f 1dbb 683f 76ef 663e 4eb7 1dbf
00000090: 766c ccbe f1c3 45be d804 ffbe a9a7 62be
000000a0: 0484 24bf a4d7 30bc 4a40 3fbe 0a0d 8d3d
000000b0: af54 92bd aaae d6bd 3673 aabe f9a0 b33e
000000c0: 21b9 233e 0700 453f d37f 033f 3a79 5fbd
000000d0: ff88 bdbd 0a0d 6a3e 7e84 9ebd 5130 583e
000000e0: c548 4b3e 40cc 18bf 2dcb e93e 1bfb 94bd
000000f0: 4e9d 62be 72fa 2cbe 4ff4 47be 2610 8dbe
-0.39162445 -0.69245374 -0.09521896 0.17273636 -0.22342949 0.04904233 -0.299506 0.11451313
0.23473123 0.47372365 0.2271391 -0.7416602 0.25543344 -0.5420225 -0.7970606 0.059846647
0.53916985 -0.3629812 -0.09846303 -0.22957554 0.0698123 -0.5369705 -0.8423652 -0.079156265
-0.043199126 0.18706106 -0.19572113 0.057541374 0.4235829 -0.07438504 0.30693918 -0.10856802
0.5670412 0.9091051 0.22552285 -0.61607826 -0.399265 -0.19313027 -0.49808383 -0.2213427
-0.6426394 -0.0107936 -0.18676868 0.06887253 -0.07145058 -0.10482533 -0.33291024 0.3508375
0.1598859 0.76953167 0.5136692 -0.05455897 -0.092546456 0.22856537 -0.07740115 0.21112181
0.19851978 -0.5968666 0.45662823 -0.07274457 -0.2213032 -0.16892412 -0.1952679 -0.27551383

spacial_block.1.running_var f4 [64]
00000000: 3053 0341 8647 7740 6382 2a3f 5ef6 2740
00000010: f30e 9f3f 07ff d040 fa4b f43f 83e3 9241
00000020: 9748 f13f 7ea8 6b40 6dd2 c03f 2ef2 dc3e
00000030: 0a2f ca3f 4edc 853f e590 7a3f e74d a840
00000040: 2539 5f3f 26cd 173f 2d4a 0641 b517 2c3f
00000050: 7617 193f b237 0640 5c81 573f 1037 6f40
00000060: f44b b040 1ce7 0741 7804 143f 80f4 1641
00000070: 295e 8140 e3be 753f 1b2c 0e41 d82c 623f
00000080: 3853 5940 dff7 2540 d7cf 133f de8e 643f
00000090: cdee f63e d0bf d93f 9a6b 823f 4107 353f
000000a0: 02a7 f53e 6c93 863f 4d76 843f e3ad 0740
000000b0: 52aa 0f41 ce73 5040 1b30 443f 03f4 853f
000000c0: cdd3 143f 3525 0f40 00b6 1541 f84b 3140
000000d0: c914 253f 0926 0140 5b57 8f3f 4141 3b3f
000000e0: ba97 c740 a7e7 1a3f fdf1 523f 8cf7 373f
000000f0: 9f75 5040 dab4 0b40 2e93 f83f 57a8 fe3e
8.207809 3.8637404 0.66605204 2.624412 1.2426437 6.5311313 1.9085686 18.36109
1.8850278 3.682159 1.5064217 0.43153518 1.5795605 1.0457857 0.9787734 5.2595096
0.8719657 0.59297407 8.393109 0.67223674 0.59801424 2.0971494 0.8418176 3.7377357
5.5092716 8.493923 0.5781932 9.434692 4.042744 0.95994395 8.885768 0.88349676
3.3957043 2.5932539 0.57739013 0.892805 0.48229066 1.7011662 1.0189087 0.70714194
0.4797898 1.051374 1.0348603 2.1199882 8.979082 3.2570682 0.76635903 1.0465091
0.5813568 2.236646 9.356934 2.7702618 0.6448484 2.0179465 1.1198534 0.73146445
6.2372713 0.60509723 0.82400495 0.718621 3.257179 2.1829133 1.9419916 0.49737808

conv.weight f4 [8, 1, 4]
00000000: 54b6 b8be d095 ef3d de83 92bc f959 de3d
00000010: 05c9 71be f6b1 fb3e 3889 bdbe 1c3a 56be
00000020: f26a bf3d d438 5e3e 5bf8 153f db34 1cbe
00000030: b898 1dbf d50d d33c 834c 143f 45af b9be
00000040: 7420 213f 4474 a0be 517c fabe 77a1 cd3c
00000050: e983 d53e fde2 70be cb4a 893e 1b01 29bf
00000060: 9c8f d4be 9573 e33e 12df 4cbe 0597 9ebe
00000070: 035d 90be a033 22be 2a35 88be de55 823e
-0.36076605 0.11698496 -0.017885145 0.10857005 -0.23611839 0.4915921 -0.37018752 -0.20920604
0.0934657 0.21701366 0.58582085 -0.15254538 -0.61561155 0.025763432 0.5792925 -0.36266533
0.62940145 -0.31338704 -0.4892297 0.025101406 0.41702202 -0.23524089 0.26814875 -0.6601731
-0.41515815 0.4442412 -0.2000697 -0.30974594 -0.28195962 -0.15840006 -0.2660306 0.25456136

classify.weight f4 [2, 64]
00000000: 6bc9 c13d 160e a7bc 4c28 593e efac 1abe
00000010: ca7f 85bd 0167 06be 09f4 0f3e 389e 0d3c
00000020: aaec 8fbc b169 b0bd fdbe 28be 450e 603e
00000030: 417d f63d cf82 933d 74b6 e53d 944a 963d
00000040: 0f0b cdbd 49b3 2b3e 3067 553d 619b 3cbd
00000050: 9c46 383e 4ff4 c1bd 912c 363e 6570 a5bd
00000060: f140 03be 0627 86bd c654 0bbe 428e 0e3e
00000070: e87c 543d 6054 04be 1c2b 09be 20e2 c3bd
00000080: dada 24be a1de 1abd 9ca3 97bd e9e1 69be
00000090: a218 173e 3cbb 81bd f531 833d f943 31be
000000a0: 5cf1 1f3e dbfc 3d3d ce67 763d 249f 82bd
000000b0: 7d50 8a3c f9d3 fd3d 66b1 623d a42d 97bd
000000c0: 5430 8a3d 21da 23be 3561 3f3c 15cb 9fbd
000000d0: 04be 723c 8075 493e 713f 36bd 657a ccbd
000000e0: d14d 88bd 5ceb 593e 682e c8bd 2825 aa3d
000000f0: 38e0 e3bd 41b6 453c 6ceb aa3d e25d 3c3e
00000100: b9ec cfbc 7e33 4c3c 9f53 15be 4525 03ba
00000110: 6ebe 1b3e 8cf4 fbbc 537a 8ebd 27bc d93d
00000120: 4731 fe3d 46b5 a2bc ddba ce3b 26b1 4cbe
00000130: ea83 57bb f7ae f3bd 8c5f 20be e98e 12be
00000140: 39f0 6c3b 1d9e b2bb 5326 0ebe 92c6 e43d
00000150: 572a 49be 4d8b 053e 466e 43be 673e 113e
00000160: bef3 193c 11b9 cf3d de11 9e3d 0045 b2bd
00000170: 4656 6bbd e948 c23d 331a dc3d dd01 143e
00000180: 8e84 283d 6f3c a23d f454 223e 6571 773d
00000190: ab34 28be 46b0 c03d e739 ecbd 2005 d33d
000001a0: 4664 07bd f499 abbd 1a2f 96bd 4af3 3e3e
000001b0: 85f1 813d 2504 3cbe 5367 43be 8fa4 a03c
000001c0: 6495 18be 3b8a 1f3e fb30 dd3d 737f df3d
000001d0: bf19 3c3e cade 883c d0da 363e bb9a 7f3d
000001e0: a114 103e a512 9dbd f443 0c3e f97f adbd
000001f0: 90a1 9d3d e5ce 0ebe 19d2 c3bc d74f 29be
0.094622456 -0.020392459 0.21206778 -0.15105031 -0.065185145 -0.1312523 0.14057936 0.008643679
-0.017568905 -0.08613909 -0.16479106 0.21880443 0.12035609 0.07202684 0.11216441 0.073384434
-0.10011875 0.1676761 0.05210036 -0.04604662 0.17995685 -0.09470426 0.17790438 -0.08078078
-0.12817742 -0.06550412 -0.13606557 0.13921455 0.051876932 -0.12922812 -0.13395351 -0.09564614
-0.1609911 -0.03780997 -0.07404253 -0.22840084 0.1475549 -0.0633454 0.06406013 -0.17311086
0.15619415 0.04638372 0.06015759 -0.0637801 0.016884083 0.12393946 0.05534496 -0.07381752
0.06747499 -0.16001178 0.011680891 -0.07802407 0.014815811 0.19673729 -0.044494096 -0.099842824
-0.06655467 0.21281189 -0.09774476 0.08307868 -0.11126751 0.0120673785 0.083456844 0.18395188
-0.025381433 0.012463449 -0.1458268 -0.0005002807 0.15209362 -0.030756257 -0.06956925 0.1063159
0.12411743 -0.019861829 0.006308897 -0.19989452 -0.0032885023 -0.11898606 -0.15661448 -0.14312328
0.0036153926 -0.0054509775 -0.13881807 0.11170687 -0.19645058 0.1304142 -0.19085035 0.14183961
0.009396492 0.101427205 0.07718252 -0.08704567 -0.057455324 0.09486563 0.107471846 0.14453836
0.04114204 0.07921683 0.1585272 0.060410876 -0.16426341 0.094086215 -0.115344815 0.10303712
-0.033054613 -0.083789736 -0.07333203 0.18647495 0.06344894 -0.18360956 -0.19082384 0.019609718
-0.14900738 0.15580074 0.10800358 0.10912981 0.18369196 0.016707797 0.17856908 0.06240342
0.1407037 -0.07669572 0.13697797 -0.084716745 0.07696831 -0.13946112 -0.023903893 -0.16534363

classify.bias f4 [2]
00000000: ba0e 3f3a c261 c23c
0.0007288266 0.023728255
