BCI/output/openBMI/LightConvNet/sub29/2023-10-05--17-38/model.pth (torch, 51356 bytes, 9 tensors)

spacial_block.0.weight f4 [64, 9, 20, 1]
0	0xbafe5d44	-0.0019406457
1	0x3da0b248	0.078465044
2	0xbd7bbd46	-0.061459802
3	0xbd09c79c	-0.033637628
4	0x3ca8f9c8	0.020626917
5	0x3d7fe3a5	0.062472958
6	0xbbd3cb39	-0.006463435
7	0x3d35db69	0.0443987
8	0xbcebfa0e	-0.028805759
9	0x3c802725	0.015643666
10	0x3c8c4512	0.017122779
11	0x3cc50080	0.02404809
12	0xbd88d7e0	-0.066818
13	0xbcf2a7c3	-0.02962101
14	0xbcb9c509	-0.022676961
15	0xbd0dc028	-0.034607083
16	0x3ce71ccf	0.02821198
17	0x3d24cb4b	0.040232938
18	0xbcd029d8	-0.025410578
19	0xbc54c761	-0.012986989
20	0xbc1ea423	-0.009682688
21	0x3d9d526b	0.076817356
22	0xbd332b5e	-0.04374253
23	0xbc46a9c6	-0.012125438
24	0xbdc042b3	-0.09387722
25	0x3d9609b9	0.07326073
26	0x3d6858af	0.0567252
27	0xbd90a79a	-0.070632175
28	0xbd349e02	-0.044096
29	0xbcebcbad	-0.028783644
30	0xbd5c26c9	-0.053747926
31	0x3ced00a7	0.028930975
32	0xbd4871fc	-0.04893683
33	0x3b2de683	0.00265351
34	0xbd1a1c75	-0.037624795
35	0xbd39e3e1	-0.045383338
36	0x3b5e94ad	0.003396313
37	0x3dd1d50c	0.102457136
38	0x3db85014	0.08999649
39	0x3d91f236	0.07126276
40	0xbd1bc68e	-0.038031153
41	0xbc970d59	-0.018438982
42	0x3d2b7c8b	0.04186682
43	0xbd103fff	-0.03521728
44	0xbd61bc38	-0.05511114
45	0x3d337905	0.043816585
46	0xbcb969ba	-0.022633422
47	0x3d99a426	0.07502012
48	0xbd2765d9	-0.040868614
49	0xbd90af44	-0.07064679
50	0x3d815d6f	0.06316649
51	0x3da254fc	0.07926366
52	0x3e0acff1	0.13555886
53	0x3cd28390	0.0256975
54	0xbd1895c1	-0.03725219
55	0xbd16c159	-0.036805484
56	0x3ca60337	0.020265205
57	0xbd2ed02e	-0.042679004
58	0xbd2dd627	-0.04244056
59	0xbd816dc8	-0.06319767
60	0xbbde8a60	-0.006791398
61	0x3c1c136f	0.009526118
62	0xbd79a0e8	-0.060944468
63	0x3c020e11	0.007937924
64	0x3d4c7128	0.0499126
65	0xbd2f6b66	-0.042827033
66	0xbd08ea2e	-0.033426456
67	0xbc37865f	-0.01120147
68	0x3c4cf16c	0.012508731
69	0x3d1e5503	0.038655292
70	0xbd4709a7	-0.04859319
71	0xbd1534e4	-0.036427394
72	0x3d945cdb	0.07244273
73	0x3d0b4a10	0.03400618
74	0x3d07a425	0.033115525
75	0x3ced234c	0.028947495
76	0x3b2dba59	0.0026508777
77	0xbd8df55e	-0.06931566
78	0x3d1296f1	0.03578848
79	0xbd0d02a6	-0.034426354
80	0xbca38a4a	-0.019963402
81	0x3cf74275	0.030183056
82	0x3d812541	0.06305934
83	0xbd7932b2	-0.060839362
84	0xbc8170f4	-0.01580093
85	0x3d841c80	0.064507484
86	0xbbbf2a32	-0.0058338875
87	0xbd4cc118	-0.049988836
88	0x3c4241d6	0.011856517
89	0xbdb7043b	-0.08936354
90	0x3cd1762a	0.02556904
91	0x3d1ef367	0.038806345
92	0x3db613ae	0.08890472
93	0x3d846024	0.0646365
94	0xbd840511	-0.06446279
95	0xbd7758f6	-0.060387574
96	0x3dcd00e2	0.10009934
97	0x3c14621e	0.009056596
98	0xbd3f1c74	-0.046657994
99	0xbd7a886d	-0.061165262
100	0x3cc8fa8d	0.024533534
101	0x3d256b17	0.040385332
102	0x3c60c90a	0.013719806
103	0x3c71c86b	0.014757256
104	0xbdbd2317	-0.092352085
105	0x3dc29a91	0.095021375
106	0xbd90cc94	-0.0707027
107	0xbd602c14	-0.054729536
108	0xbac3a4bd	-0.0014926415
109	0xbd479cdf	-0.04873359
110	0x3ce36dd2	0.027762327
111	0x3ca51025	0.0201493
112	0xbd0c7a82	-0.03429652
113	0x3d9bbc14	0.076042324
114	0x3c5d99bf	0.013525425
115	0xbdd61ced	-0.10454736
116	0x3ce594ca	0.02802505
117	0x3c8d76e9	0.017268615
118	0x3d80dbab	0.06291898
119	0xbcca6029	-0.024704056
120	0x3c8ed5ca	0.017435927
121	0x3cd68e7b	0.026190987
122	0xbcc42c3a	-0.02394687
123	0x3da08fd0	0.0783993
124	0x3d54bfbf	0.051940676
125	0xbd936000	-0.07196045
126	0xbd11260e	-0.035436682
127	0xbd08409f	-0.033264752
128	0xbcdaab7d	-0.0266931
129	0xbd9abb6c	-0.07555279
130	0x3c360cf1	0.011111484
131	0x3d329741	0.04360128
132	0xbdf03faa	-0.11730893
133	0xbb1b63f7	-0.0023710707
134	0x3d419416	0.047260366
135	0xbcc5fa0e	-0.024167087
136	0x3b9344f3	0.0044943034
137	0x3b9e4414	0.004829893
138	0x3d8429e4	0.064533025
139	0x3d92a9a7	0.07161265
140	0x3caae4e0	0.02086109
141	0x3c9f1dbb	0.019423356
142	0x3d8973d0	0.067115426
143	0x3b95fcad	0.0045772404
144	0xbda0353f	-0.07822656
145	0x3daf03b0	0.08545625
146	0xbb1f16d4	-0.0024275081
147	0xbc6ea007	-0.014564521
148	0xbd1f5a1c	-0.038904294
149	0xbd60c12f	-0.054871734
150	0xbd60fc74	-0.054928258
151	0xbd869ffa	-0.06573482
152	0x3dbeb7ae	0.09312378
153	0x3d2a2f56	0.04154905
154	0x3d0fdede	0.035124652
155	0xbd8af51b	-0.067850314
156	0x3d919585	0.07108597
157	0xbd2b7e55	-0.041868526
158	0xba882630	-0.0010387357
159	0xbc8613d2	-0.016366873
160	0x3c0c4526	0.008561408
161	0x3c87a233	0.016556835
162	0xbd21c344	-0.03949286
163	0xbd8f4433	-0.0699543
164	0xbd35e44d	-0.044407178
165	0x3d77e67c	0.06052254
166	0xbcdc5bff	-0.026899336
167	0x3d47002a	0.04858414
168	0xbd5c9344	-0.05385138
169	0xbd1ad240	-0.037798166
170	0x3d8d94be	0.06913136
171	0xbd41b704	-0.047293678
172	0x3de84180	0.11340618
173	0x3d40606f	0.046966966
174	0xbd71bfc1	-0.05902076
175	0x3d2eef23	0.042708527
176	0x3c1d00d4	0.009582717
177	0xbd3f694e	-0.046731286
178	0x3d6a8e1e	0.05726444
179	0xbd8e680b	-0.06953438
180	0x3d6e1657	0.058126774
181	0xbd82ff8f	-0.063964
182	0x3d586ddf	0.052839156
183	0xbda56aab	-0.08076986
184	0x3d0d28fe	0.03446292
185	0x3d327cee	0.043576173
186	0x3b53ef2f	0.003233861
187	0xbc71a1c8	-0.014748044
188	0xbdfab1b1	-0.12240923
189	0x3dbc9012	0.09207167
190	0x3db053ff	0.08609771
191	0x3c3b6cb6	0.011439493
192	0xbddd0d1b	-0.10793515
193	0x3c454d14	0.012042303
194	0x3d2d3578	0.04228732
195	0xbd39b4bf	-0.04533839
196	0x3c2f72c4	0.010708515
197	0xbd49c7ce	-0.049262814
198	0xbd5f844f	-0.05456954
199	0x3de2dcae	0.110772476
200	0x3bd368a5	0.0064516836
201	0x3d0551c7	0.032548692
202	0xbd3cf146	-0.046128534
203	0xbcf2e97d	-0.029652352
204	0xbd0a39ae	-0.033746414
205	0x3c95a8eb	0.018269023
206	0xbd231a03	-0.03981973
207	0x3d5c3168	0.053758055
208	0x3ceabfeb	0.028655967
209	0x3d0f8f3b	0.035048705
210	0xbb158f22	-0.002282091
211	0x3a8997db	0.0010497527
212	0x3c136789	0.008996853
213	0xbc56deca	-0.0131146405
214	0xbc27ce88	-0.010242112
215	0x3b84f328	0.004057307
216	0xbd239469	-0.039936457
217	0xbc8a5b7f	-0.016889332
218	0x3d9d5f71	0.0768422
219	0xbd323f82	-0.043517597
220	0xbc8445c0	-0.01614654
221	0x3c88fef2	0.01672313
222	0x3cf2a452	0.02961937
223	0xbc859c79	-0.016309964
224	0xbd2c2ba3	-0.042033803
225	0x3b701446	0.0036633178
226	0xbba61080	-0.005067885
227	0xbc852f53	-0.016257918
228	0xbcc9eac4	-0.024648078
229	0x3d9c9d65	0.07647208
230	0xbb7c026a	-0.0038453587
231	0x3cb29c02	0.021802906
232	0xbc3ce862	-0.011530014
233	0x3c906647	0.017626895
234	0x3cc7478a	0.024326105
235	0xbd8f8099	-0.0700695
236	0xbc1b4950	-0.009477928
237	0xbc33ba8a	-0.010969767
238	0xbc518748	-0.012788601
239	0x3d059fd3	0.032623123
240	0xba887222	-0.0010409991
241	0x3d2861e5	0.041108985
242	0xbcb9605b	-0.022628954
243	0x3c54556c	0.012959819
244	0x3a9d4830	0.0011999663
245	0xbd0f255e	-0.034947746
246	0x3d4b7edf	0.04968154
247	0xbd812b10	-0.06307042
248	0x3bdeb118	0.0067960136
249	0x3d149335	0.0362732
250	0xbd403a3b	-0.046930533
251	0x3cfeb007	0.031089796
252	0x3ca34d68	0.019934371
253	0xbc205b43	-0.0097873835
254	0xbccb77ad	-0.02483734
255	0x3b44ba87	0.0030018406

spacial_block.0.bias f4 [64]
0	0xbccf9565	-0.025339792
1	0xbd7c9bf4	-0.061672166
2	0x3cae51d0	0.021279246
3	0xbd057cfb	-0.032589894
4	0x3bb9698c	0.005658334
5	0xbd39b700	-0.045340538
6	0x3d1fdaf5	0.039027173
7	0xbd5e0e9a	-0.054213144
8	0xbd7ca028	-0.061676174
9	0xbd8fd97d	-0.070239045
10	0x3d84ec3f	0.06490373
11	0x3d0f7e53	0.03503258
12	0xbd5712fa	-0.05250833
13	0xbc979114	-0.018501796
14	0x3d6ab3af	0.057300266
15	0x3cb9f447	0.022699488
16	0x3d8a734d	0.06760273
17	0xbc31de19	-0.010856175
18	0xbbddeb30	-0.0067724213
19	0x3d639a9d	0.055567373
20	0xbb537e0a	-0.003227117
21	0xbd81184f	-0.063034646
22	0xbc954f43	-0.018226271
23	0x3d5e51b2	0.05427713
24	0x3cfc22e9	0.030778365
25	0xbc7a11c1	-0.015263022
26	0xbd956fb8	-0.07296699
27	0x3d5ffada	0.05468259
28	0xbc8552fc	-0.016274922
29	0xbc7e4542	-0.015519442
30	0x3d8afb96	0.067862675
31	0x3d26399e	0.04058229
32	0x3cbd77c5	0.0231284
33	0x3ccf08fd	0.02527284
34	0x3acaadc2	0.0015463161
35	0x3bb0cef1	0.005395763
36	0xbd1e5a65	-0.038660426
37	0x3cd7be05	0.026335726
38	0x3d169691	0.036764685
39	0x3d252131	0.040314857
40	0xbd19e797	-0.037574377
41	0x3b9456f4	0.004526967
42	0xbba0aafb	-0.004903195
43	0xbd32b339	-0.04362795
44	0x3c84da6c	0.016217433
45	0x3d2c3c42	0.042049654
46	0x3bcdeaeb	0.006284108
47	0xbd0b2339	-0.033969138
48	0x3d771f17	0.060332384
49	0xbd2201c9	-0.039552484
50	0x3cece0fc	0.028915875
51	0x3a658609	0.00087556295
52	0x3cd469ca	0.02592935
53	0x3cec1e7a	0.028823126
54	0xbd8e9172	-0.06961335
55	0x3c954282	0.01822019
56	0x39bcba01	0.00035996738
57	0xbd7761e5	-0.060396094
58	0x3d3f929d	0.04677068
59	0x3c01eac0	0.007929504
60	0xbcaf706a	-0.021415908
61	0xbb47e056	-0.0030498705
62	0x3d57cea3	0.0526873
63	0xbce31fad	-0.027725065

spacial_block.1.weight f4 [64]
0	0x3f745188	0.95436907
1	0x3f85ba7a	1.0447533
2	0x3f77d3a4	0.9680731
3	0x3f8a020a	1.0781872
4	0x3f8489c8	1.0354548
5	0x3f86ce0f	1.0531634
6	0x3f776176	0.9663309
7	0x3f8400e2	1.031277
8	0x3f84e5f1	1.0382673
9	0x3f886c0c	1.0657973
10	0x3f873058	1.0561628
11	0x3f78bac3	0.97159976
12	0x3f8975f7	1.0739125
13	0x3f71c399	0.94439083
14	0x3f7431c5	0.9538844
15	0x3f755585	0.9583362
16	0x3f806c1f	1.0032996
17	0x3f72d93b	0.9486272
18	0x3f756209	0.95852715
19	0x3f8545e4	1.0411954
20	0x3f760b6e	0.9611119
21	0x3f84ffff	1.0390624
22	0x3f7ac963	0.9796354
23	0x3f852b24	1.040379
24	0x3f866fa2	1.0502818
25	0x3f849567	1.0358094
26	0x3f88980b	1.06714
27	0x3f766cf3	0.96259993
28	0x3f731ded	0.9496754
29	0x3f85142c	1.0396781
30	0x3f848fa3	1.0356334
31	0x3f854992	1.0413077
32	0x3f84e255	1.0381571
33	0x3f868630	1.0509701
34	0x3f84d2e1	1.0376855
35	0x3f86c1ef	1.0527934
36	0x3f72c671	0.9483405
37	0x3f855a55	1.0418192
38	0x3f8534a2	1.0406687
39	0x3f84a164	1.0361753
40	0x3f6ef031	0.93335253
41	0x3f70510b	0.9387366
42	0x3f7212f0	0.94560146
43	0x3f85e542	1.0460589
44	0x3f86f430	1.054327
45	0x3f764fe2	0.9621564
46	0x3f7487e9	0.9551988
47	0x3f7df994	0.9920895
48	0x3f7721c1	0.9653588
49	0x3f84eb22	1.0384257
50	0x3f848d58	1.0355635
51	0x3f852172	1.0400832
52	0x3f99d31c	1.201755
53	0x3f775706	0.9661716
54	0x3f85403c	1.0410228
55	0x3f8500d8	1.0390882
56	0x3f8557da	1.0417435
57	0x3f753527	0.9578423
58	0x3f8513d9	1.0396682
59	0x3f769ca8	0.9633279
60	0x3f847864	1.034924
61	0x3f752e31	0.9577361
62	0x3f75394c	0.95790553
63	0x3f7583ce	0.95904243

spacial_block.1.bias f4 [64]
0	0xbdc058ee	-0.09391962
1	0x3cd2b7f5	0.025722483
2	0xbdb6f063	-0.08932569
3	0xbd93333e	-0.07187508
4	0x3c7ce4aa	0.015435377
5	0x3ac2bbc2	0.0014856982
6	0xbdb41dcf	-0.08794748
7	0x3d12303b	0.035690527
8	0x3d91ece7	0.07125264
9	0xbd4afd5b	-0.049558025
10	0xbbada68d	-0.0052993954
11	0xbddbc7d3	-0.10731473
12	0xbe6d8cf4	-0.231983
13	0xbe314984	-0.173132
14	0xbe0e2659	-0.13881816
15	0xbd96c95a	-0.073626235
16	0x3b057af3	0.0020367473
17	0xbdd15d68	-0.10222894
18	0xbd91cd97	-0.07119291
19	0x3d297839	0.04137442
20	0xbd9fd295	-0.07803837
21	0xbc3ce69e	-0.011529593
22	0xbde75a08	-0.11296469
23	0x3d3e11cd	0.046403695
24	0x3c5fa741	0.013650716
25	0x3d363ce6	0.04449167
26	0xbd1b2013	-0.037872385
27	0xbda94818	-0.08265704
28	0xbe037d67	-0.12840806
29	0x3d06a255	0.032869656
30	0x3b75dc22	0.0037515243
31	0x3cd806a2	0.02637035
32	0x3d4b8f72	0.049697347
33	0xbd191363	-0.037372004
34	0x3d3b8561	0.045781497
35	0xbd45985a	-0.048240997
36	0xbe038db1	-0.1284702
37	0x3b130d9b	0.002243853
38	0xbe47e116	-0.19519457
39	0x3d0f9d0b	0.035061877
40	0xbe2d7bf9	-0.16941823
41	0xbe419f53	-0.18908434
42	0xbdad665c	-0.08466789
43	0xbd259489	-0.040424857
44	0x3cc713f5	0.024301508
45	0xbda402f2	-0.08008374
46	0xbdb4a0e3	-0.08819749
47	0xbb431dfa	-0.0029772506
48	0xbddaeee6	-0.106900975
49	0x3b2784d0	0.002556134
50	0x3d995ffb	0.0748901
51	0x3d4d23ad	0.05008285
52	0xbe47dea4	-0.19518524
53	0xbe3ce379	-0.18446149
54	0x3cb2f0a6	0.021843266
55	0x3c7ddb60	0.015494198
56	0x3cb85349	0.022500651
57	0xbe132963	-0.14371257
58	0x3d367a84	0.044550434
59	0xbdb801e6	-0.08984737
60	0x3cb4819c	0.022034459
61	0xbdef66db	-0.1168954
62	0xbdf6a4a9	-0.12043125
63	0xbdbe8901	-0.09303475

spacial_block.1.running_mean f4 [64]
0	0xbf11f0b2	-0.57007897
1	0xbd051939	-0.032494757
2	0xbea5286e	-0.32257408
3	0x3ed7dd17	0.42160866
4	0x3d93b1ec	0.0721167
5	0x3e86c514	0.26322234
6	0xbe81fd3c	-0.25388515
7	0xbe90135b	-0.28139767
8	0xbda358bc	-0.07975909
9	0xbe1270cf	-0.14300846
10	0x3e8f7459	0.28018454
11	0xbf6ebfe2	-0.9326154
12	0xbf0d8de6	-0.55294645
13	0xbf1827e8	-0.5943589
14	0x3dc30520	0.09522462
15	0xbf04c4bb	-0.51862687
16	0x3ea1c249	0.3159354
17	0xbee62779	-0.4495199
18	0x3c5827e1	0.013193102
19	0xbe829a60	-0.25508404
20	0x3d9e50b5	0.077302374
21	0xbe858085	-0.26074615
22	0xbfa5b496	-1.2945735
23	0x3e5f0354	0.21778613
24	0x3dad3ed6	0.08459251
25	0x3e88c908	0.26715875
26	0x3dafce9e	0.08584331
27	0xbf3bb961	-0.7332974
28	0xbeb391e0	-0.3507223
29	0x3df11412	0.11771406
30	0x3f1c8402	0.6113893
31	0x3f01c25c	0.50687194
32	0x3e14d25e	0.14533374
33	0x3de59e5a	0.11211844
34	0xbcb0a6f6	-0.021563988
35	0x3d26314c	0.040574357
36	0xbed19fb6	-0.40942162
37	0xbc9f0b14	-0.019414462
38	0xbf81951f	-1.0123633
39	0x3ea7bf0d	0.32762948
40	0xbe85b4ef	-0.26114604
41	0xbf383f6e	-0.71971786
42	0xbe450dc4	-0.19243532
43	0x3dfc5330	0.12320554
44	0x3ba298e4	0.0049620736
45	0x3df833d1	0.12119258
46	0xbf5bab65	-0.858084
47	0xbe522e7e	-0.20525548
48	0xbf36378e	-0.7117852
49	0x3edf6319	0.43630293
50	0x3f10ef31	0.5661498
51	0x3daff958	0.085924804
52	0xbd092e8c	-0.033491656
53	0xbf20e95f	-0.62856096
54	0xbe10edf7	-0.14153276
55	0xbd3cdf15	-0.046111185
56	0xbe051706	-0.12997064
57	0xbfa78d8e	-1.3090074
58	0x3e43df57	0.19128166
59	0x3e8faa0f	0.28059432
60	0xbeecced4	-0.46251547
61	0xbe88badd	-0.26705065
62	0xbf8f674b	-1.1203398
63	0x3d9f79bb	0.0778689

spacial_block.1.running_var f4 [64]
0	0x40967fa8	4.703083
1	0x40f86543	7.762361
2	0x408bf7db	4.374006
3	0x40fc0c60	7.8765106
4	0x414abd3a	12.671198
5	0x410e9c85	8.913213
6	0x4095cb6d	4.6810822
7	0x41fc7c9a	31.56084
8	0x41588116	13.531515
9	0x411f1687	9.943
10	0x41153286	9.324835
11	0x402586e7	2.5863588
12	0x3f7a120c	0.9768379
13	0x4023eb12	2.5612226
14	0x4093bd0c	4.616827
15	0x40e0fe58	7.031048
16	0x41800839	16.004015
17	0x408d61f2	4.418206
18	0x409c43ee	4.883292
19	0x41355807	11.333991
20	0x407e60a6	3.974649
21	0x40c57d0c	6.1715145
22	0x400c1adb	2.1891391
23	0x4123725a	10.215418
24	0x4129a714	10.603291
25	0x41285a6a	10.522074
26	0x40b49bd0	5.64402
27	0x4062fb0d	3.546573
28	0x404deae5	3.2174618
29	0x408ff759	4.498944
30	0x410f3a0a	8.95167
31	0x410e079e	8.87686
32	0x41477354	12.465656
33	0x4158010a	13.500254
34	0x41ad0725	21.628489
35	0x4114890d	9.28346
36	0x406f6c09	3.740969
37	0x40f433c0	7.631317
38	0x3fbd87ee	1.4807107
39	0x417989b3	15.596118
40	0x4081ed4f	4.0602183
41	0x40a7d059	5.244183
42	0x40909cd4	4.519144
43	0x4117d88f	9.490371
44	0x40cd3bac	6.413534
45	0x402fc5bf	2.7464445
46	0x40a1dba4	5.0580616
47	0x413230c8	11.1369095
48	0x406e0756	3.7191978
49	0x4142ddd2	12.179155
50	0x40c92cfb	6.286741
51	0x411f758d	9.966199
52	0x4081e5a7	4.0592837
53	0x3fefc194	1.873095
54	0x40efba04	7.491457
55	0x412d8873	10.845813
56	0x4190909b	18.070608
57	0x4072fa88	3.7965412
58	0x415f93c4	13.973576
59	0x405b8c46	3.4304366
60	0x40f4ce57	7.650188
61	0x4059605f	3.396507
62	0x407d8e87	3.9618242
63	0x40855737	4.1668963

conv.weight f4 [8, 1, 4]
0	0xbea600ad	-0.3242239
1	0xbe8ee548	-0.27909303
2	0xbd993d00	-0.07482338
3	0x3ea17e67	0.3154175
4	0xbe2a6a91	-0.16642214
5	0x3daf22a0	0.08551526
6	0xbec86c92	-0.39145333
7	0x3e53448d	0.20631619
8	0x3e5367d7	0.2064508
9	0xbe7c3ba0	-0.2463212
10	0x3ed3bfa5	0.4135715
11	0x3e8e66fa	0.2781294
12	0xbf070dd4	-0.52755475
13	0xbed8d742	-0.4235173
14	0x3ef716a4	0.4825946
15	0x3da1c8c9	0.07899625
16	0x3ea19ec7	0.3156645
17	0xbf166153	-0.58742255
18	0xbe60c31b	-0.21949427
19	0x3eecc128	0.46241117
20	0x3ec7fc4c	0.39059675
21	0xbf0adbbe	-0.5424155
22	0x3e5e5ae5	0.21714361
23	0xbeb6d7e3	-0.35711583
24	0xbebf98d5	-0.3742129
25	0x3e7516a3	0.23934416
26	0xbdad0d4d	-0.084498025
27	0xbd30feea	-0.043211855
28	0xbe80ff56	-0.25194806
29	0xbf039eb2	-0.51414025
30	0xbef31c4d	-0.4748253
31	0x3e9e62ab	0.30934653

classify.weight f4 [2, 64]
0	0x3e241f51	0.16027571
1	0xbdad87d7	-0.08473175
2	0x3e4249cd	0.18973465
3	0xbe43b9ca	-0.19113842
4	0xbd80904b	-0.06277522
5	0xbe4a7b48	-0.1977359
6	0x3e66590d	0.22494908
7	0x3c952115	0.018204251
8	0xbd8edf67	-0.06976204
9	0xbe03d0d8	-0.12872636
10	0xbe522738	-0.20522773
11	0x3e68946d	0.2271287
12	0x3e3c0b0b	0.18363588
13	0x3da5e873	0.08100977
14	0x3e034f19	0.12823142
15	0x3df9b894	0.121934086
16	0xbcd11589	-0.025522964
17	0x3e6e90f4	0.23297483
18	0x3e13d40b	0.14436357
19	0xbd662736	-0.05618974
20	0x3e2abff4	0.16674787
21	0xbe12fe9b	-0.14354937
22	0x3e508b27	0.20365582
23	0xbe0fb90f	-0.14035438
24	0xbe44a1b1	-0.19202305
25	0xbd8dc916	-0.0692312
26	0xbe160478	-0.14650142
27	0x3e696b71	0.22794892
28	0x3dea4be4	0.11440256
29	0xbe156481	-0.1458912
30	0xbdc95b94	-0.0983192
31	0xbe3705c5	-0.17873295
32	0xbe332637	-0.17495047
33	0xbda14eed	-0.07876382
34	0xbd0cded5	-0.034392197
35	0xbe63a280	-0.22229958
36	0x3df1ad86	0.11800675
37	0xbdd21713	-0.10258307
38	0x3dec2bcd	0.11531792
39	0xbe14bb39	-0.14524545
40	0x3e315749	0.17318453
41	0x3dc937a8	0.09825069
42	0x3e065b10	0.13120675
43	0xbdba6fda	-0.09103365
44	0xbd15580e	-0.03646093
45	0x3e186f79	0.14886273
46	0x3dba4937	0.09095996
47	0xbbe0d6f1	-0.0068615605
48	0x3db45ac7	0.08806377
49	0xbe04693c	-0.12930769
50	0xbc6ac8f2	-0.014330136
51	0xbe09bf78	-0.13451946
52	0xbd1fdffc	-0.039031968
53	0x3e7fd079	0.2498187
54	0xbb0190b1	-0.001977008
55	0xbd9d28d3	-0.07673802
56	0xbe007360	-0.12544012
57	0x3e7409bc	0.23831838
58	0xbd9f42d7	-0.077764206
59	0x3e15e94e	0.1463978
60	0xbdd9b855	-0.10630862
61	0x3da47375	0.08029834
62	0x3e3212ef	0.17390035
63	0x3e4ba98c	0.19888896
64	0xbdba7062	-0.091034666
65	0x3d9d4abf	0.07680272
66	0xbdfcea44	-0.1234937
67	0x3d2226b6	0.0395877
68	0x3e1946b4	0.14968377
69	0x3d1256c2	0.03572727
70	0xbe1da22a	-0.15393892
71	0x3dc627a6	0.09675531
72	0x3e348ac4	0.1763106
73	0x3cba2a95	0.022725383
74	0x3d3f781f	0.046745416
75	0xbe553753	-0.20821886
76	0xbd8854f8	-0.066568315
77	0xbe030a4e	-0.127969
78	0xbe30d366	-0.17268142
79	0xbe4445e9	-0.19167294
80	0xbd915e23	-0.07098033
81	0xbd90e518	-0.07074946
82	0xbe6ca08b	-0.23108117
83	0x3df98c7f	0.12185001
84	0xbe3ba3b0	-0.1832416
85	0x3e378fc0	0.1792593
86	0xbe5dcce0	-0.21660185
87	0x3e4e3f47	0.20141326
88	0x3d95fff0	0.07324207
89	0x3dd75b1f	0.10515427
90	0x3db3713b	0.087618314
91	0xbe33ffaf	-0.17578004
92	0xbdf5b892	-0.119980946
93	0x3de46928	0.111528695
94	0x3d931f8e	0.07183753
95	0x3e691699	0.22762527
96	0x3d61b20c	0.05510144
97	0x3df61c06	0.12017064
98	0x3df375ad	0.11887679
99	0x3d5e73c9	0.05430964
100	0xbe09f2c8	-0.1347152
101	0x3e08860a	0.13332382
102	0xbe2a99e4	-0.16660267
103	0x3d99f386	0.075171515
104	0xbd4cfbfc	-0.050045
105	0xbe0ae997	-0.1356567
106	0xbe13d8a7	-0.14438115
107	0x3e5adba1	0.21372844
108	0x3def31a6	0.116793916
109	0xbe5589a9	-0.20853294
110	0xbe67df8e	-0.22643873
111	0xbd41ee1d	-0.047346223
112	0xbe2daaa9	-0.16959633
113	0x3e001954	0.12509662
114	0x3e093b27	0.13401471
115	0x3e2999a3	0.16562514
116	0x3e733d9b	0.2375397
117	0xbd14fc89	-0.03637365
118	0x3e0b5133	0.13605194
119	0x3d20f787	0.03929856
120	0x3e4c6112	0.19958904
121	0xbdd14f65	-0.102202214
122	0x3def9c56	0.116997406
123	0xbe1796b6	-0.14803585
124	0x3d9379a8	0.072009385
125	0xbe54ad3b	-0.20769207
126	0xbdea2ef2	-0.11434735
127	0xbe389b85	-0.18028076

classify.bias f4 [2]
0	0xbcbfe231	-0.023423286
1	0x3d441e37	0.047880378
